models/dqn_agent_firm_1_episode_500.pth (torch, 101190 bytes, 24 tensors)

fc1.weight f4 [64, 3]
00000000: f874 8dbe d75f 833e 1abc 823e 63a8 42be
00000010: ffcd a1be e690 793e eb39 83bd d021 e3bd
00000020: c11e d8be 72ce 02bf bbdc b9be 3f39 df3e
00000030: 1abb 063f b681 edbe b55f 0fbf 11a9 41bf
00000040: 8db4 323e 4c0a 1e3e d23b a13d 261f aabe
00000050: 3e69 023e 1d37 f8be 62f8 733e 2735 aa3e
00000060: 3db7 57bd 9138 1cbf 676c c73e 790d c5bd
00000070: 98c8 03bf 46b5 04be 4e47 743e 171a 433e
00000080: 5439 e2bc d345 013f 89de e8be 0f20 d5be
00000090: 6d9a f3be df68 263d 1ae9 9dbe 4885 193e
000000a0: ed76 80be 680a 343e 94b9 893d f01a e2be
000000b0: eca9 293e fb82 9cbd a5e5 84be 2e48 6a3e
000000c0: f89c a53d 99e5 583f 3431 503e eff4 4bbe
000000d0: 1b21 903c 8d20 873d d0e3 96be 5f3e 853c
000000e0: 26d0 053e 96ed de3e 79b5 933e dc26 c33e
000000f0: b578 96be fd10 aa3e 5486 ca3e 974c 1bbe
00000100: cb25 e43e bf67 edbe 7a66 723f 875f a0be
00000110: 3930 edbd dc59 bfbe 8b4c 063f 29f3 0f3e
00000120: 9e0f 3e3c aa58 a0be 82f4 cbbe 19c8 1d3f
00000130: fe78 ff3e 25bc e7bc 819f 30be 3912 25bf
00000140: f0cd a33e 1016 d4be e624 0abf 8bbf eebe
00000150: 109b 24bc cf3a 27bd d9cc 9ebe 9d29 a53e
00000160: 4fda afbb ab98 cebe 385c a73e 97fc 5bbe
00000170: 5cad 3e3e a429 583d 2e4b 24be caf9 1b3e
00000180: 70e5 3b3e 2af1 3e3d 4be9 9a3e 59fc 5a3b
00000190: ce35 68be 1380 a23d 494d 9fbd 923c 2bbe
000001a0: 6d26 523c f6da 98bd b021 69be 76bc 02bf
000001b0: b8ad 12bf 8270 2fbd 9e08 bfbe af55 a6be
000001c0: 80bb cd3e 12df 3c3d 9a1e 623e 7249 5dbe
000001d0: 3d14 d83d a044 f3be b206 59bd a988 b13e
000001e0: 69d0 013c b4ce 1d3e 769d b1bc a131 a63e
000001f0: 7fb5 163e 0c90 48bd 55fe 8e3e 700b 463c
00000200: 5fd2 f0be bd36 b7be 4c89 cc3e d2d2 533e
00000210: 10a8 f63e 7d5b 163e 3ab4 f1be f6d5 0ebf
00000220: f583 78be ecc1 e43e 6125 183e e2fb 003f
00000230: 5a1b da3e dd0c 233f d963 11be 1af3 b2bb
00000240: da51 17bf 3cbb cb3c d718 6ebd 2030 423f
00000250: 023c 1d3e 6521 023f 3990 bb3e fbde 16be
00000260: ef74 913e f954 1fbd ebc1 813e f5c3 143f
00000270: 8812 813e 86bb 813d 5aea 543e 39b1 6d3e
00000280: 0d16 2cbf a68f 853e 3653 17be f40d 6cbd
00000290: e83f efbe 20e5 bc3e f7e1 843e fc94 f43c
000002a0: 3e24 1bbe cf0c 60be 7626 243e 2797 9cbd
000002b0: 8a99 a1bd 0cee 153c 56ad da3d a534 083c
000002c0: 6570 353e da9a 8f3d 1016 acbd 765b b8bd
000002d0: a7f9 ee3e cc49 5e3e 3092 083d 6568 60be
000002e0: 3b09 c93e 439a bfbd 8347 8ebd 6695 a6be
000002f0: 910d 15be d86c dabd bc01 443e b27d 83bb
-0.27628303 0.25659057 0.25534135 -0.19009547 -0.31602475 0.2437168 -0.06407531 -0.110904336
-0.42210963 -0.5109626 -0.36301216 0.43598363 0.52629244 -0.46388024 -0.5600541 -0.756486
0.17451687 0.15433615 0.07872738 -0.3322689 0.12735459 -0.48479548 0.2382522 0.33243677
-0.052664984 -0.61023813 0.38949892 -0.0962171 -0.51477957 -0.12959775 0.23855326 0.19052921
-0.027615227 0.5049717 -0.4548228 -0.4162602 -0.47578755 0.040627357 -0.30841905 0.14992249
-0.25090733 0.17582095 0.06724849 -0.44161177 0.16568726 -0.0764217 -0.25956455 0.22879097
0.0808658 0.8472534 0.2033127 -0.19917654 0.01759391 0.065980054 -0.29470682 0.016265092
0.13067684 0.4354064 0.2884939 0.38115585 -0.29388967 0.33216086 0.3955561 -0.15165935
0.44560084 -0.46368214 0.94687617 -0.31322882 -0.11581463 -0.37373245 0.52460545 0.14057602
0.011600403 -0.31317645 -0.39834982 0.6163345 0.49896997 -0.028287956 -0.17248346 -0.6448093
0.31993055 -0.41423082 -0.5396255 -0.4663051 -0.010046735 -0.04082757 -0.3101566 0.3225831
-0.0053666006 -0.4035085 0.32687545 -0.21483074 0.18620819 0.052774087 -0.16044304 0.15232006
0.18349242 0.04661671 0.30256113 0.003341457 -0.22676775 0.079345845 -0.07778413 -0.16722324
0.012826544 -0.074636385 -0.22766757 -0.5106882 -0.57296324 -0.042831905 -0.37311262 -0.32487246
0.40182114 0.046111174 0.22081986 -0.21610048 0.10550735 -0.47513294 -0.0529849 0.34674576
0.007923224 0.15410882 -0.021681529 0.3245974 0.14717673 -0.0489655 0.27928415 0.012087688
-0.470355 -0.3578395 0.399485 0.2068589 0.48175097 0.14683338 -0.47207814 -0.5579523
-0.24269088 0.446792 0.14858009 0.5038434 0.42598993 0.636915 -0.14198245 -0.005461109
-0.5910927 0.024869554 -0.058129158 0.7585468 0.15354922 0.50832206 0.3663347 -0.14733498
0.28409526 -0.038899396 0.2534326 0.58111507 0.2520945 0.063345954 0.20792523 0.23212136
-0.67221147 0.26086158 -0.14777836 -0.057630494 -0.46728444 0.36893559 0.25953647 0.029856198
-0.15150544 -0.21879886 0.16030297 -0.076460175 -0.078906134 0.009150993 0.106775925 0.008313333
0.17718656 0.070119575 -0.084026456 -0.0900182 0.46674845 0.21707839 0.03334254 -0.21914823
0.39264855 -0.09355595 -0.069472335 -0.32535857 -0.14555956 -0.106652915 0.19141287 -0.004012787

fc1.bias f4 [64]
00000000: 0210 dd3f b152 e0bf 0867 413e cbdf f8bf
00000010: a696 c43d 472e ac3f 6c97 f1be 52fb f9bd
00000020: a598 0940 86ca f13e ceee 2840 a2a5 c53f
00000030: c37c 10bf cb0e 35c0 4231 61be b35c 1dc0
00000040: f8ad 1fc0 2499 4f40 5f33 4640 529d 0940
00000050: e4f2 3b3f 12c4 4340 dbe0 8a3f 7ff9 87bf
00000060: f321 033f 26a6 4340 e636 cc3b 4df9 eabe
00000070: 3f9a cf3c 8ee3 a23c a9c7 3240 e853 2cc0
00000080: b7a4 0b3f d207 6940 9b14 4c40 322d 4a3e
00000090: 8460 053f 95f7 4540 4be7 42c0 8998 f93f
000000a0: 387a 5340 7e19 9b3e 2f42 12bf b855 89bf
000000b0: 3c5e 5c40 8e30 1dc0 b626 a6bf 65a6 4640
000000c0: c4db 94bd d175 c1bf 041f d93f 15a3 5dbf
000000d0: 5dd4 1bbf 3426 3abf 9f87 143e a2d2 49bf
000000e0: 98e9 2a40 e0d9 5040 1c66 5bbe 9e25 4cbe
000000f0: 2128 d63f 2452 4c40 5147 9c3e 4d6f 5440
1.727051 -1.7525235 0.1888696 -1.9443296 0.095990464 1.3451623 -0.47185838 -0.12206139
2.1499417 0.47224826 2.6395755 1.5441172 -0.5644037 -2.829028 -0.21991447 -2.458783
-2.4949932 3.243722 3.0968854 2.150227 0.73417497 3.0588422 1.084987 -1.0623015
0.5122368 3.057016 0.0062321303 -0.45893326 0.025342105 0.019883897 2.7934363 -2.6926212
0.5454821 3.6411023 3.1887577 0.19743803 0.52100396 3.0932362 -3.045367 1.9499675
3.3043346 0.30292886 -0.5713224 -1.0729284 3.4432516 -2.4560885 -1.2980564 3.103906
-0.072684795 -1.511408 1.696259 -0.8657697 -0.60870916 -0.72714543 0.1450486 -0.78837025
2.6705074 3.263298 -0.2142567 -0.19936225 1.6730996 3.1925135 0.3052316 3.3192933

fc2.weight f4 [64, 64]
00000000: 6db6 f7bd 9897 1a3e 50cc 66bd 9659 dabd
00000010: 5a09 86bd 5631 dcbd 5208 68bc a3cb 81bd
00000020: 0ce3 6d3d 045f d5bd 42b9 6a3d 2d2b 1d3f
00000030: 82b6 9a3d 7385 85bd 37d3 723d b8f9 603d
00000040: 1435 60be 1f2a bd3e 0eaf 773d b8c0 f2bc
00000050: 1437 7cbe 1da4 ba3f 3312 6fbe 344d 0bbe
00000060: 80ff c73b f731 ffbc 1a4a 52bd 0a56 acbd
00000070: 68f4 f9bd 54f0 dfbd a16a 16be b811 3cbd
00000080: 4071 36bd e5b8 3cbd 79aa 6a3e 983b f03c
00000090: a8fd e3bd cdb5 3e3e 36e2 04be 9b72 87be
000000a0: a024 083e 2102 8cbd 2a11 ec3d 2755 3bbd
000000b0: d44e cb3f 61b0 a03d 476d cabd dde0 56bd
000000c0: ea5b 34bd a095 b2bc baad ddbc a829 e2bd
000000d0: 927d 69be 37f3 893d 6e11 8e3d 2107 15be
000000e0: fdb9 a93d c00b 643d 2cc7 7abe ec18 d4bd
000000f0: 80ec 34bd c8c7 c43e 8e5e b13d eb66 913e
00000100: b130 0ebe a644 dd3d 8068 2a3d 809a 41bd
00000110: e876 903d bf12 f4bd b4a2 0cbd 18b4 a2bd
00000120: f4cd f0bd 1c88 253d e8e1 893d 5916 acbc
00000130: 4037 2abc 80b7 cebd 638c fdbd 6e29 973d
00000140: 2c8c 2d3d c695 863d 4319 8bbc ce64 533d
00000150: 6d77 2cbd 4c11 2fbd b208 3ebd 3094 a13c
00000160: 583b d63d d383 a9bd 43ae 01be f0e6 7ebc
00000170: c09f 42bb 6826 a6bd fbb4 613c 1654 13bd
00000180: d726 c53d 5f92 14bc c1ca fc3c 48db a6bc
00000190: 3881 cc3c 5ee3 a4bd ec78 e43d 7f71 713d
000001a0: c192 92bb d21f 0fbe b8fd 97bd 92da e6bd
000001b0: 4d8d c23d 004a 4b3c c250 dabd 6351 f0bd
000001c0: d09b 23bc 1aca 31bd ed58 c43d 219f 92bd
000001d0: 33ee 4d3d 2dc8 78bd ca91 b7bd a8f2 8abd
000001e0: 4161 a7bd c399 a7bc abc6 7b3d 3ad9 c63d
000001f0: fde0 1d3b 3860 18be 50b7 263c 0f06 bf3c
00000200: 684a 22bb 4ad5 c3bd d678 c53d cf55 003d
00000210: b0a7 62bc 505f 10be 8dea ab3d 7090 68bd
00000220: 8548 043b 027c 843d 3d1b 81bd 9a70 8f3d
00000230: 28dd eebc ecba be3d 646c 75bb 1d70 e63b
00000240: 52df ab3d 9b5e ce3d b0d5 68bd ffac 34bd
00000250: aff8 87bd f8a1 873d efdb cd3d a90e 4d3c
00000260: 8aac dfbd 2d96 0cbe 4041 d53c 40f7 58bc
00000270: 9a1c 8ebd 2214 d93d 73d1 603d 448e 32bd
00000280: 046b c33d c0ff f3bd 2ed9 16be cca1 d8bd
00000290: 9690 b9bd 0eef 883d 1055 033c 6041 373d
000002a0: df2a b6bd f12c 12be 981e 50bd e4d6 d7bd
000002b0: 125d ff3c 1944 0cbd 5da8 873d aaf9 7cbd
000002c0: 0e85 d73d 1b18 c7bd e506 07be f693 5d3b
000002d0: 3ef8 ab3d 3725 a23d a007 213c e69e d1bc
000002e0: 2ee2 ab3d 96d0 933d 1bac 0bbc ace8 243d
000002f0: 5f8a 8c3d 20de ebbb 8c55 a03d 882b 43bc
00000300: 4351 833d de78 8d3e 7873 97bc a273 5c3e
00000310: 1e5b b03d 477f 153d f890 c43d 9d95 193d
00000320: d2c0 b83d 76a2 ddbd ad2c 71be c7eb 553e
00000330: a296 b43d 3e70 953e dd4b 413e de39 d13d
00000340: 3cb2 5cbe ed7d 233e 3123 503d 5473 943d
00000350: 7c29 17be 2fa8 c43f 3422 57be aee3 413d
00000360: cabc e7bd a7fa b2be b3cf 523e d26b af3d
00000370: 883a 99bd 1081 e5bd 75a4 9e3d 984c 233e
00000380: 209c 7a3d 63c7 e73d b3ac bb3c ce50 d03d
00000390: e814 a93d a8a1 85bb c5c8 c03d 0f5c c13d
000003a0: f94f 2cbe adde ba3d 8a58 a3bd 6b0a ca3d
000003b0: aed7 c93f 4819 253e a5a6 38bd 118c 1c3d
000003c0: 01d7 063d 02ae dd3c 71b5 bd3d bf37 623c
000003d0: fdc5 a0bd 7745 6b3d e8d9 e83d 7754 86bd
000003e0: 4bab b23d 74de 95be babe 8cbd e65b ecbd
000003f0: 4af5 933c 2981 aa3c 52e8 a2bd 34d1 64be
-0.12095342 0.15096891 -0.05634719 -0.106616184 -0.065447524 -0.107515976 -0.01416214 -0.06337669
0.058077857 -0.104185134 0.057305582 0.61394006 0.07554342 -0.06519594 0.05928346 0.05492565
-0.21895248 0.36946198 0.06046968 -0.029632911 -0.24630386 1.4581333 -0.23346786 -0.1360367
0.006103456 -0.031151755 -0.0513402 -0.08414848 -0.1220482 -0.10934511 -0.14689113 -0.045915335
-0.044541597 -0.046074767 0.22916593 0.029325292 -0.111323655 0.18624039 -0.12976918 -0.26454625
0.13295221 -0.068363436 0.11526711 -0.045735504 1.5883431 0.078461416 -0.09884124 -0.05246054
-0.04403297 -0.021799862 -0.027060378 -0.110431015 -0.22801808 0.06735843 0.06936918 -0.145535
0.082874276 0.05567527 -0.2449004 -0.10356316 -0.044170856 0.3843367 0.08660613 0.28398833
-0.13885762 0.10804109 0.041603565 -0.047266483 0.070539296 -0.11917638 -0.034334853 -0.079445064
-0.117580324 0.040413007 0.06732541 -0.02100675 -0.010389149 -0.100935936 -0.12380292 0.07380949
0.042370006 0.06571536 -0.01697982 0.051609807 -0.04210608 -0.042741105 -0.04639501 0.019723982
0.10460538 -0.082770966 -0.12664132 -0.0155579895 -0.002969727 -0.08112794 0.013776059 -0.035968862
0.09626549 -0.009068101 0.0308584 -0.020368233 0.02496396 -0.08051179 0.111558765 0.05894613
-0.004473061 -0.13976982 -0.0742144 -0.11272158 0.09499607 0.01240778 -0.106599346 -0.11734273
-0.009985879 -0.04340563 0.09587274 -0.07159258 0.050275993 -0.060737778 -0.08963354 -0.06784564
-0.081728466 -0.020459061 0.06146876 0.097094014 0.0024090402 -0.14880455 0.010175541 0.023318319
-0.0024763588 -0.09562166 0.09642188 0.031331833 -0.013833925 -0.14098859 0.083943464 -0.05677837
0.0020184827 0.06468965 -0.063040234 0.07003899 -0.02915819 0.09312996 -0.003744864 0.007032408
0.08392204 0.10076638 -0.056844413 -0.044110294 -0.066392295 0.0662269 0.10051715 0.012515702
-0.10921581 -0.13729163 0.02603209 -0.013242543 -0.06939049 0.10599543 0.054887246 -0.043592706
0.09541896 -0.11914015 -0.14731285 -0.10577735 -0.09060781 0.06686221 0.008015886 0.04474008
-0.08894896 -0.14274956 -0.050810426 -0.10539034 0.03117231 -0.03424463 0.066239096 -0.061761536
0.10523425 -0.09721395 -0.13186224 0.0033810115 0.08396958 0.079172544 0.009828478 -0.025588464
0.0839275 0.07217519 -0.00852492 0.040260956 0.0686233 -0.00719811 0.07828817 -0.011912234
0.06411984 0.27631277 -0.018487677 0.21528485 0.08611129 0.036498334 0.09597963 0.037496198
0.090211526 -0.108220026 -0.23552199 0.20890723 0.088177934 0.29187196 0.18876596 0.102161154
-0.21552366 0.15966006 0.05081481 0.072485596 -0.14761919 1.5363826 -0.21009141 0.047336273
-0.113153055 -0.34956858 0.20587043 0.08565487 -0.07481867 -0.11206257 0.077462114 0.15947187
0.06118405 0.11317327 0.022909498 0.10171662 0.08255941 -0.004078109 0.09413294 0.09441387
-0.16827382 0.09124503 -0.07975872 0.09865268 1.5768945 0.16122925 -0.0450808 0.038219515
0.032919887 0.027060512 0.09263123 0.013807236 -0.07850263 0.057439294 0.11369687 -0.06559079
0.08724078 -0.2927128 -0.06872316 -0.11540966 0.018061299 0.020813541 -0.07954468 -0.2234543

fc2.bias f4 [64]
00000000: f578 373f ab42 80bc 4a8f 92bd c1a4 a43e
00000010: 6c31 023f c3a3 eb3f 4fd1 6abd 89eb b73d
00000020: 0d31 e23f 6802 d7bc 638a f33f c3b9 fa3f
00000030: ecc4 8f3f 4ea9 ddbd 7bdf babd 9832 4f3a
00000040: f8d1 d63f b14e b03d 9041 b5bd a5e4 f73f
00000050: 9845 a63d 78ea 9bbd e744 f13f b078 363f
00000060: 50aa 8fbd 5540 38bd 4d9d 2c3f 0988 8b3f
00000070: de3e 24bd 7c63 803f 4d24 f43f a5f4 5b3d
00000080: cdcc dc3f 4cdd 8b3f 3d4d f53c 001f d3bf
00000090: 91d5 babd 689a a0bd cde0 9d3f f7e4 f73e
000000a0: 1da4 893f 0756 dbbc f93a 0640 89a8 de3f
000000b0: 2431 3f3f 8305 4c3d b225 ea3f 4f55 353f
000000c0: b0a2 8d3d 3775 dcbd 1a7c ab3f ecb4 4dbf
000000d0: 612a cb3f 8080 e1bb 5159 0540 d643 153f
000000e0: a434 a13f 65ae b43c b5d9 a73f fa5f 9b3f
000000f0: ab5a f83e 2afa bf3d 287f e93d e8d7 733f
0.7166894 -0.01565679 -0.071562365 0.32156947 0.5085666 1.8409351 -0.05732852 0.08980472
1.7671219 -0.026246265 1.9026607 1.958794 1.1231971 -0.10823308 -0.09124657 0.00079039624
1.6782827 0.08608759 -0.08850396 1.9366652 0.08118743 -0.07613081 1.8849152 0.71277905
-0.070149064 -0.044983227 0.6742752 1.090089 -0.040099017 1.003036 1.9073578 0.053700108
1.725 1.092691 0.029944057 -1.6493835 -0.09122766 -0.07841951 1.2334229 0.48416874
1.0753208 -0.02677442 2.0973494 1.7395183 0.7468436 0.049809944 1.8292754 0.70833296
0.06915796 -0.107645445 1.3397248 -0.8035419 1.5872308 -0.0068817735 2.0835764 0.58306634
1.259419 0.022055814 1.3113314 1.2138665 0.48506674 0.09373887 0.11401206 0.9525132

fc3.weight f4 [20, 64]
00000000: 334d 673e c27a dbbd 119c 593b 1005 463d
00000010: 5f6f e83c 0ff3 023f a080 fcbd 73e4 b1bd
00000020: 58d1 a93e f8b5 6fbd 3e6e c53e a828 223f
00000030: 813f 1f3e 4802 8ebc d076 873c 21bc 84bd
00000040: cf02 813e 9c63 b8bd 7370 f53b 6654 f13e
00000050: f14c 09bd 051e d23d 546a c83e 75e4 3a3d
00000060: 5c9f 8c3d 9805 a7bd 5be1 a5bd 6206 3e3e
00000070: 0bf6 c13d 3622 cabe 110f 073f 1ed7 ca3d
00000080: 7403 b43e 8789 1c3e 3066 163d b21c 9abe
00000090: c697 c8bd 407a 173b e66a 663e 41bf 893e
000000a0: 8f12 163e 98b6 793d a803 68bf 5e92 043f
000000b0: da49 ef3d 9c57 efbd ec31 79bf 65f4 c33d
000000c0: 72cb 85bd 508f ed3d e2d2 693e 229e 7abe
000000d0: 24ce ba3e 1468 79bc b1d4 92bf 778e 0f3d
000000e0: 0c84 993e d92d 57bd 5cc2 023e 6de1 6f3e
000000f0: 2567 8d3e 20fc 563c 7d73 f4bc 06cb ec3c
00000100: dbc0 29bd d070 fdbd a6d8 fe3d d309 e1bd
00000110: 7623 1b3e 6785 913e da4d d43d 26d3 e03d
00000120: 9d1d 763e 5283 bdbd 9120 a43e 8e79 083f
00000130: 705b d7bd b402 3c3d 6071 1f3d fe45 f13d
00000140: 8d89 7d3e c8bc 8a3c 7e2f 23bd d802 b83e
00000150: 1025 543d 9e91 ab3d 8fbf bf3e 1438 c53d
00000160: 8658 d8bd f690 efbc e1a5 c43d 8bfd da3d
00000170: 5d7b 28bd d388 26bd ff70 9a3e f0dd 3bbc
00000180: 8ce8 3f3e 5170 793e 98b6 5cbd d91f 17be
00000190: 3b75 b13c 489b b93d d2c5 123e 71d2 c2bd
000001a0: 9bc8 45bd e98f c3bc b498 6ebf c207 b93e
000001b0: 1c86 47bd f441 92bd 6d4a e3be aa16 bebd
000001c0: 3a36 df3d c466 4abd 57dc fe3d fea7 aebd
000001d0: 6092 1c3e 69bf 8c3c a3e4 37bf 839f 853c
000001e0: 2c63 743e 6667 89bd f3b1 6c3e 53db 133e
000001f0: 4b0c 68be acfd 96bd 32e5 103e 6534 6d3e
00000200: 6795 b1ba 1e2c fd3d 759a d6bd e296 66bd
00000210: fb9a 1c3e 07a3 ae3e f834 f73c 08a6 27bd
00000220: d839 1e3e f847 bc3c 6c5e de3e 77b1 cd3e
00000230: 34f2 043e 4645 813d ecc7 16bd fe9b b3bc
00000240: 5334 2d3e 6e5a 423e 01b4 b8bd 4f64 9d3e
00000250: e299 b5bd a8ba b53d 19b0 f73e 0e6d d63d
00000260: 22cb f23d 96c4 c23c 2954 a13e 4de1 16bd
00000270: 03c1 c9bd 036a 943d cf27 ad3e a8cf 78bd
00000280: 55fc 8d3e bb0c 703d e450 aabd 6ee2 2cbe
00000290: ccf4 0b3b 08dc c43c 8618 c3bc 481c 853d
000002a0: d924 d73d 8aa1 c5bd 7e5e 5ebf dc06 053f
000002b0: 4fa3 8f3d 4c9b 0abd 6b5b cabe aae2 063e
000002c0: 9405 f4bd 200d dfbb 1ada 073e cd63 83bd
000002d0: 53f8 ba3d 68fa 193d 1575 6dbf 35d1 053c
000002e0: 3406 8b3e d2de 8d3c 5246 863d abfe 463b
000002f0: eb14 80bd 6872 ddbc 4c8c 363d fc07 033e
00000300: fc44 bdbd b0cd 9ebc 95f9 8fbd f8eb 4fbd
00000310: 170a 26bd f281 9f3e 0002 0cbb f1f7 f73c
00000320: 7938 833e a296 a6bd 5b6b df3e 30a0 b03e
00000330: 2cea bd3e 32ec ddbd 40c3 043c 7956 ecbd
00000340: eaa8 803e d762 65bd ba11 753d 46f4 bb3e
00000350: 85de d6bc 9a8f d3bc 50da a33e d223 8c3e
00000360: a84b 4a3d ce35 debd 39df 533e 7c56 d53b
00000370: b97d 99bc 52a3 9cbd 0d51 d13e b87b 9a3d
00000380: f297 ad3e 303f 943d 388a de3c e86d 1dbe
00000390: f929 d9bd 7863 d3bc 494d 5f3c 51a8 2ebe
000003a0: de21 ed3c 8e8f fbbd a3f6 59bf d2b4 bb3e
000003b0: 072b 053d 8ad2 e8bd 3a6b fcbe a399 4f3e
000003c0: 7841 29bd 609d 173c 3073 023e 3c25 b5bd
000003d0: 14bb 4c3e b55d adbd 0de0 4bbf 1a8b bcbd
000003e0: a4cb fe3d 4ab9 fbbd 4bc0 533e b7e6 b03c
000003f0: 57cd 1cbe 460f e9bd fd74 df3d fa65 8d3e
0.22588043 -0.107167736 0.0033204595 0.04834467 0.028373418 0.5115213 -0.12329221 -0.08686151
0.3316753 -0.05852315 0.3856067 0.63343287 0.15551569 -0.017335072 0.016536146 -0.06481195
0.25197455 -0.09003374 0.0074902116 0.47134703 -0.033520643 0.10259632 0.39143622 0.04562803
0.06866333 -0.08155364 -0.08099624 0.18557122 0.09470757 -0.39479226 0.52757365 0.099043116
0.35158885 0.15286838 0.036718547 -0.30100018 -0.097945735 0.0023113638 0.22501716 0.26903728
0.14655517 0.06096515 -0.9063058 0.5178584 0.11684008 -0.11686632 -0.973418 0.09568099
-0.06532945 0.115996 0.22834352 -0.24474385 0.36485398 -0.015222568 -1.1471158 0.035047974
0.29983556 -0.052533958 0.12769455 0.23425837 0.27617756 0.013121635 -0.029840225 0.028905403
-0.041443687 -0.12375033 0.12443666 -0.10988202 0.15150246 0.2842209 0.103664115 0.10977773
0.24034734 -0.09253563 0.32056096 0.5331048 -0.10515487 0.045901015 0.038926482 0.11780928
0.24759503 0.016935721 -0.039840214 0.3593967 0.051793158 0.08377384 0.37450835 0.09629837
-0.105637595 -0.029243927 0.096019514 0.10692891 -0.041133273 -0.04065783 0.30164334 -0.011466488
0.18741053 0.24359252 -0.053885072 -0.14758243 0.021662345 0.09062821 0.14333275 -0.09512795
-0.048287015 -0.023872333 -0.93201756 0.3613873 -0.04871188 -0.07141486 -0.4439272 -0.092816666
0.10899015 -0.04941441 0.1244437 -0.08528136 0.15290213 0.017181115 -0.71833247 0.016311413
0.23865956 -0.06709175 0.23114757 0.14439134 -0.2266094 -0.07372603 0.14149931 0.23164518
-0.0013548554 0.1236193 -0.10478679 -0.056296237 0.15293495 0.34108755 0.030176625 -0.040929824
0.15451753 0.022983536 0.43431413 0.40174457 0.12983018 0.06312041 -0.036811754 -0.021924969
0.16914491 0.18979809 -0.09018708 0.30740592 -0.088672414 0.088734925 0.4837654 0.10470019
0.11855151 0.02377538 0.31509522 -0.036835957 -0.09851267 0.07246783 0.33819434 -0.06074491
0.27731577 0.05860589 -0.0831621 -0.16883251 0.0021355627 0.0240307 -0.023815405 0.06499535
0.10505075 -0.09649952 -0.86862934 0.5196359 0.070135705 -0.03383951 -0.3952287 0.13172403
-0.119151264 -0.0068069845 0.13266793 -0.0641552 0.09129395 0.03759232 -0.9275678 0.008167555
0.2715317 0.017318163 0.06556381 0.0030364196 -0.0625399 -0.027032092 0.04456739 0.12796015
-0.09241673 -0.019385189 -0.07030026 -0.050762147 -0.040536966 0.31153828 -0.0021363497 0.030269595
0.25629023 -0.081342 0.43636593 0.34497213 0.3709272 -0.10836066 0.008103192 -0.11539931
0.2512887 -0.056002464 0.05983136 0.36709803 -0.026229152 -0.02582531 0.32002497 0.2737108
0.049388558 -0.10850106 0.20690621 0.006510554 -0.018736707 -0.076483384 0.4088215 0.07543129
0.33904988 0.072386146 0.027165517 -0.15373957 -0.10603709 -0.025804266 0.013629266 -0.17056395
0.028946813 -0.1228324 -0.8514196 0.36661392 0.032511737 -0.11368282 -0.49300557 0.20273452
-0.0413222 0.00925383 0.12739253 -0.088449925 0.1999324 -0.08465139 -0.7963875 -0.09206219
0.12441185 -0.122912005 0.20678823 0.021594388 -0.15312706 -0.11379866 0.109109856 0.27616864

fc3.bias f4 [20]
00000000: 3e58 b23f e004 143f 7e2d 103f a9e6 043f
00000010: 607d c93e 4150 da3e f1f9 de3e b9ca 063f
00000020: 21b2 943e 9eb2 593e 5d71 2b3e 86f7 a43c
00000030: eff5 903d 0dc0 fbbd c070 f8bd 7608 6cbe
00000040: 8add 41be f579 95be 05ef 7fbe 71d3 adbe
1.3933179 0.5781994 0.56319416 0.5191446 0.39353466 0.42639354 0.43550065 0.5265308
0.29042152 0.21259543 0.16742463 0.02013756 0.07078158 -0.1229249 -0.1213088 -0.23050103
-0.18932167 -0.29194608 -0.24993522 -0.3395038

fc1.weight f4 [64, 3]
00000000: 321e 83be f58c 963e b2c7 913e 7825 86be
00000010: d9b3 c1be eb08 653e eb39 83bd d021 e3bd
00000020: e31e d8be 6fc1 03bf c451 bdbe 1375 e13e
00000030: 1abb 063f b681 edbe b55f 0fbf 3cfb 3bbf
00000040: ecdb 8c3e a359 6a3e 168f e03d 2f7e b4be
00000050: 279b 233e fcd2 03bf 927d 7c3e fe15 c13e
00000060: ab79 37bd b284 1cbf 7fa1 ce3e 790d c5bd
00000070: c4c8 03bf 46b5 04be 2e25 683e 94a6 4b3e
00000080: e577 fdbc 5fc3 093f c687 90be 3aca ccbe
00000090: 6d9a f3be df68 263d 1ae9 9dbe 7b2f 1e3e
000000a0: 30c1 8ebe 757b 333e dc8b c33d 8593 e1be
000000b0: 32a4 4e3e 3b8c d3bd 5df2 a1be 6865 5f3e
000000c0: e436 dd3c 3146 4c3f 7237 4e3e be70 50be
000000d0: 018c bf3c e47a 7d3d cc61 a0be 2eac 3e3d
000000e0: 76ec 183e c0d2 e43e 3af5 a73e 8800 ce3e
000000f0: e3bf 8ebe ec9c c13e 5948 db3e 4f5f 3cbe
00000100: 6de8 f13e 953e f7be 9576 6a3f 0de9 c4be
00000110: cc64 03be efba d3be 7b95 023f 1876 173e
00000120: 9e0f 3e3c aa58 a0be 82f4 cbbe 8a22 1b3f
00000130: 2e99 003f 058f 82bd 75ac 04be bd93 0fbf
00000140: e715 b03e 1016 d4be e624 0abf eebf eebe
00000150: 379b 24bc 1a3b 27bd d9cc 9ebe 9d29 a53e
00000160: 4fda afbb ac98 cebe 5c6e ab3e 929d 44be
00000170: 558b 493e 26ad 8c3d 1b78 38be f093 203e
00000180: 012c 453e f6a0 a13d cef6 a93e 3215 793c
00000190: c8b9 63be fac7 ac3d 5d3a 62bd bc8b 06be
000001a0: 03b2 a13c 5ddb 98bd 6922 69be 76bc 02bf
000001b0: b8ad 12bf b170 2fbd ee08 bfbe 3c20 a3be
000001c0: dd08 d13e 1224 203d 1ce2 773e 9b24 46be
000001d0: 0ba7 ef3d 2d1f f6be d4cd c8bc 06aa bb3e
000001e0: 9f69 b33b 9f23 2f3e ec14 afbc a602 a43e
000001f0: 8280 133e 5183 3f3b 55fe 8e3e 700b 463c
00000200: 5fd2 f0be ec3c c6be 7937 ca3e 8c2d 5c3e
00000210: 9a54 e73e 5d76 133e e54a 02bf e64d 15bf
00000220: d89f 72be 767e e13e 4623 ee3d 5a10 fb3e
00000230: 9ce5 e33e 0cd5 203f 41c8 14be ea92 cabb
00000240: be0b 17bf 2e9c d43c 31aa 69bd e0ab 393f
00000250: a470 093e cb89 093f fd9d bf3e 8d75 e5bd
00000260: 7030 9c3e b602 a3bd a73b 773e 51e6 173f
00000270: 62b6 6f3e d613 823d e062 8c3e 9b74 9c3e
00000280: 2fc4 0abf 660d b63e 3653 17be f40d 6cbd
00000290: e83f efbe dd0e af3e 3814 783e b49b 523d
000002a0: 9b42 15be 920d 57be d49b 313e 073e abbd
000002b0: bbe9 7cbd 66cc a83b 2719 133e d9ab 903d
000002c0: 0f80 8e3e da9a 8f3d 1016 acbd 765b b8bd
000002d0: 8b8a f93e 7df0 6d3e 13ec 9e3d c724 8cbe
000002e0: 6433 c83e e93e ebbd 8347 8ebd 6695 a6be
000002f0: 910d 15be 206e e5bd 633c 4e3e d074 63bc
-0.25608975 0.29404417 0.28472668 -0.2620046 -0.37832525 0.22366683 -0.06407531 -0.110904336
-0.42211065 -0.5146703 -0.36976445 0.44034633 0.52629244 -0.46388024 -0.5600541 -0.7343023
0.27511537 0.22885756 0.109647915 -0.3525252 0.15977155 -0.5149381 0.24657276 0.3771209
-0.044793766 -0.61139977 0.40357587 -0.0962171 -0.5147822 -0.12959775 0.22670433 0.19887763
-0.03094096 0.5381374 -0.28228587 -0.39998037 -0.47578755 0.040627357 -0.30841905 0.154478
-0.27881765 0.17527564 0.095481604 -0.4405786 0.20179823 -0.10329481 -0.3163022 0.21816027
0.027003713 0.79794604 0.20138338 -0.20355508 0.023382189 0.061884776 -0.31324613 0.046550922
0.14933953 0.4469204 0.3280428 0.4023478 -0.27880773 0.37815034 0.42828634 -0.18395732
0.4724764 -0.48289934 0.9158719 -0.38459054 -0.1283142 -0.41353557 0.5100934 0.14791143
0.011600403 -0.31317645 -0.39834982 0.6059958 0.50233734 -0.06374935 -0.12956412 -0.56084806
0.3439171 -0.41423082 -0.5396255 -0.46630806 -0.010046772 -0.040827848 -0.3101566 0.3225831
-0.0053666006 -0.40350854 0.33482635 -0.19200733 0.19682057 0.06868963 -0.18014567 0.15681434
0.19255067 0.07892029 0.3319611 0.015202807 -0.22238839 0.0843658 -0.05523144 -0.13139242
0.019738203 -0.07463715 -0.22767033 -0.5106882 -0.57296324 -0.04283208 -0.373115 -0.3186053
0.40827075 0.0390969 0.24207348 -0.19349901 0.11701783 -0.4807066 -0.024512209 0.36653155
0.0054752375 0.17103432 -0.021372281 0.3203327 0.1440449 0.0029222558 0.27928415 0.012087688
-0.470355 -0.38718355 0.39495447 0.2150175 0.45181733 0.14400621 -0.5089553 -0.5832199
-0.23693788 0.44041795 0.116278216 0.49035913 0.44511116 0.62825084 -0.14529516 -0.0061820643
-0.5900229 0.025953379 -0.057047073 0.72527885 0.13421875 0.5372588 0.37425223 -0.11204062
0.30505705 -0.079595014 0.2414385 0.5933581 0.23409417 0.0635144 0.27419186 0.30557713
-0.542056 0.35557097 -0.14777836 -0.057630494 -0.46728444 0.34191027 0.24226463 0.05141802
-0.14576189 -0.2100127 0.173446 -0.0836144 -0.06174634 0.0051513193 0.14365064 0.07064027
0.27832076 0.070119575 -0.084026456 -0.0900182 0.48738512 0.2323627 0.07759871 -0.2737181
0.39101708 -0.114866085 -0.069472335 -0.32535857 -0.14555956 -0.11202645 0.20140223 -0.013882831

fc1.bias f4 [64]
00000000: 2a37 bd3f 7cf8 b6bf 0867 413e 425f c7bf
00000010: d296 c43d 34be 993f eff4 6ebe 9868 f7bd
00000020: fdcf f33f 86ca f13e ddb2 1140 9363 aa3f
00000030: c37c 10bf bf1c 1cc0 e936 a4bd f4d6 04c0
00000040: 3bf4 0dc0 552a 3540 fb08 2c40 7ed1 f93f
00000050: e21c 2b3f 4f66 2e40 e31b 843f ba87 63bf
00000060: f321 033f 662e 2c40 a22e 343e 4df9 eabe
00000070: 3f9a cf3c 8ee3 a23c 532e 1e40 c650 13c0
00000080: 8440 fc3e 418a 4e40 7fcb 3140 322d 4a3e
00000090: 8460 053f f3c1 2e40 d9bb 28c0 7036 d93f
000000a0: 4918 3b40 cf2a 913e 2f42 12bf a555 6fbf
000000b0: 5314 4840 8ce5 04c0 5cfc 99bf f2c5 2d40
000000c0: d0a5 92bd 6d0e aebf 6c4c c23f df1e 4abf
000000d0: d839 0dbf a469 d6be 9f87 143e 3c06 31bf
000000e0: 01b1 1440 a39c 3840 757f 0cbe 9e25 4cbe
000000f0: f7da b43f b6a1 3740 5147 9c3e 274a 3d40
1.478246 -1.4294581 0.1888696 -1.5575945 0.09599079 1.201117 -0.23335622 -0.120804965
1.9047848 0.47224826 2.276542 1.3311638 -0.5644037 -2.4392545 -0.08018286 -2.0756197
-2.2180316 2.8307087 2.6880481 1.9517057 0.66840947 2.7249944 1.032101 -0.8887898
0.5122368 2.690332 0.17595914 -0.45893326 0.025342105 0.019883897 2.4715774 -2.301805
0.49267972 3.2271883 2.7780454 0.19743803 0.52100396 2.7305877 -2.6364653 1.6969738
2.9233572 0.28352973 -0.5713224 -0.9349006 3.1262405 -2.0765104 -1.2030139 2.7152066
-0.071605325 -1.3598152 1.5179572 -0.78953356 -0.5516639 -0.41877472 0.1450486 -0.6915014
2.3233035 2.8845603 -0.13720496 -0.19936225 1.4129323 2.869245 0.3052316 2.957651

fc2.weight f4 [64, 64]
00000000: 6efe bcbd fad8 183e bfcc 66bd e003 c3bd
00000010: 5a09 86bd 7af7 9abd c37c e63a e632 223d
00000020: b339 703d 045f d5bd 4691 fc3b 5a32 c83e
00000030: 82b6 9a3d e4ea 84bd b41f a73d 8e64 633d
00000040: a900 5bbe caef ab3e dac4 713d 1a17 09bd
00000050: 575e 41be 65fe 9e3f bf81 92be 032a 02be
00000060: 80ff c73b 48eb acbd de80 2e3d 0a56 acbd
00000070: 68f4 f9bd 54f0 dfbd f06c 32be 31d9 30bd
00000080: 1b2a a3bc ec25 a4bd 0572 443e 983b f03c
00000090: fdfd e3bd 7534 213e d946 00be 532b 3abe
000000a0: d930 ae3d f0a2 0bbe 2a11 ec3d e5f8 edbb
000000b0: 9dd1 a83f 99f9 ac3d 686a 4abd 0ad0 d7bd
000000c0: 29cc 38bd 3c51 a43b 37ee 0bbd b659 97bc
000000d0: 0997 48be b58b 8c3d 9c11 8e3d d13a 35be
000000e0: c103 963d 98c0 413c e3db 51be ec18 d4bd
000000f0: c4c4 adbd 8e4e 9a3e 8e5e b13d deb0 703e
00000100: bae7 0cbe a644 dd3d 8068 2a3d 809a 41bd
00000110: e876 903d 7e0e f2bd b4a2 0cbd f8b6 a1bd
00000120: d466 efbd 1c88 253d 57d2 8d3d a208 99bc
00000130: 4037 2abc 80b7 cebd 7bd0 fcbd c429 973d
00000140: 4f8c 2d3d c695 863d 8fe3 82bc 1d6b 583d
00000150: e959 27bd 4c52 27bd a364 35bd 3094 a13c
00000160: 583b d63d b0e6 a5bd a547 01be f0e6 7ebc
00000170: c09f 42bb 6826 a6bd 0648 763c 19f7 11bd
00000180: bebf c73d 95fb 00bc d193 043d 48db a6bc
00000190: 3881 cc3c 7d8c a0bd ec78 e43d 194e 763d
000001a0: d932 34bb 93d6 0dbe b8fd 97bd 92da e6bd
000001b0: af6c c63d 004a 4b3c bc08 d8bd 2770 edbd
000001c0: d09b 23bc 5023 2dbd 78af c63d 3f67 90bd
000001d0: 57f7 513d 3c60 74bd ca91 b7bd ddcb 87bd
000001e0: de82 a6bd 4d1d 98bc 6f6d 803d 3ad9 c63d
000001f0: a31e 6b3b a970 16be 50b7 263c a983 ce3c
00000200: c05d bcba dc21 c2bd 6379 c53d 04b1 043d
00000210: b0a7 62bc db59 0fbe d7f1 ae3d 6b58 64bd
00000220: 6e98 4c3b 027c 843d 6af5 79bd 724d 983d
00000230: 28dd eebc c30b c13d ec1b 2abb c5d2 053c
00000240: ce15 ae3d 6050 d03d 4abf 64bd 4740 30bd
00000250: 2ad6 85bd f8a1 873d b352 d13d 02bf 5d3c
00000260: 8aac dfbd aeb8 0abe 3a05 de3c 40f7 58bc
00000270: 9a1c 8ebd 2214 d93d 175b 653d 781b 2ebd
00000280: 0ba2 c53d 43b2 f1bd ccca 15be cca1 d8bd
00000290: 9690 b9bd a18c 8a3d 298f 233c a677 3b3d
000002a0: 0e12 b4bd 970e 11be 981e 50bd 08be d5bd
000002b0: e3d9 063d c005 08bd d1d1 893d 0fd3 77bd
000002c0: 0e85 d73d 96d2 c4bd c7e9 05be 49b1 913b
000002d0: 4527 ae3d c563 a43d a007 213c da6c c8bc
000002e0: 061b ae3d 53a1 983d 6907 f4bb ace8 243d
000002f0: f6be 8e3d 20de ebbb 8c55 a03d 655a c0bb
00000300: 1262 a13d bda2 823e 7873 97bc ba96 483e
00000310: 1e5b b03d fe6a 823d 8092 963d 9a78 313d
00000320: 097d 923d 76a2 ddbd 45c5 3abe f892 62bd
00000330: a296 b43d 5631 863e 2eef 333e 42ad 973d
00000340: 639d 48be cac5 383e 9910 8e3d bada 9d3d
00000350: fba4 0cbe dc86 bb3f 6acb 81be 2d76 8b3d
00000360: cabc e7bd 6b25 98be 9038 453e d26b af3d
00000370: 883a 99bd 1081 e5bd db17 883d b5dd 033e
00000380: cf26 793d 8840 d93d 4257 263d ce50 d03d
00000390: e814 a93d 4a46 5d3d b226 893d 4681 cb3d
000003a0: 265e bfbd 7059 d03d 8a58 a3bd b383 da3d
000003b0: 8ce7 ae3f b00d 133e e6d9 2abd 77c4 033c
000003c0: 3e68 023d 116f 983c 11fa ad3d 973e 483c
000003d0: ee16 b1bd 1e53 193d e8d9 e83d 4b09 88bd
000003e0: a720 aa3d ca08 79be 3136 90bd e65b ecbd
000003f0: f7c4 f33c 00ac 343e 52e8 a2bd b9c8 1ebe
-0.09228216 0.1492652 -0.056347605 -0.095222235 -0.065447524 -0.07566734 0.0017584789 0.03959932
0.058648776 -0.104185134 0.0077077476 0.39100915 0.07554342 -0.06490114 0.08160344 0.05551582
-0.2138697 0.33581382 0.059025623 -0.033469297 -0.18883644 1.2421385 -0.28614613 -0.12711339
0.006103456 -0.08443314 0.042603366 -0.08414848 -0.1220482 -0.10934511 -0.17424369 -0.04317588
-0.019917538 -0.080150455 0.1918412 0.029325292 -0.11132429 0.15742667 -0.12527026 -0.1818059
0.08505411 -0.13636374 0.11526711 -0.0072623366 1.3188969 0.084460445 -0.049417883 -0.10537727
-0.045116577 0.0050145667 -0.034162726 -0.018475395 -0.19588865 0.068625845 0.069369525 -0.17698218
0.07324935 0.011825703 -0.20494036 -0.10356316 -0.08484796 0.30138057 0.08660613 0.2350497
-0.13760272 0.10804109 0.041603565 -0.047266483 0.070539296 -0.118191704 -0.034334853 -0.07896227
-0.11689535 0.040413007 0.06924885 -0.018680874 -0.010389149 -0.100935936 -0.12344452 0.07381013
0.042370137 0.06571536 -0.015977649 0.052836526 -0.04085723 -0.04084997 -0.044285428 0.019723982
0.10460538 -0.08100641 -0.12624986 -0.0155579895 -0.002969727 -0.08112794 0.01503182 -0.03563604
0.09753369 -0.007872482 0.03236753 -0.020368233 0.02496396 -0.07839296 0.111558765 0.060133073
-0.0027496128 -0.13851385 -0.0742144 -0.11272158 0.096886985 0.01240778 -0.10548541 -0.11593657
-0.009985879 -0.042270005 0.09701437 -0.07050943 0.051261272 -0.05966209 -0.08963354 -0.06630681
-0.0813043 -0.01856866 0.06270873 0.097094014 0.0035876415 -0.14691414 0.010175541 0.025209265
-0.0014371201 -0.094791144 0.09642293 0.032395378 -0.013833925 -0.13999121 0.08542221 -0.055748384
0.0031218785 0.06468965 -0.06102506 0.074366465 -0.02915819 0.094260715 -0.0025956584 0.008167927
0.08500253 0.1017158 -0.05584649 -0.04303005 -0.06534989 0.0662269 0.10220852 0.013534309
-0.10921581 -0.13547012 0.027102102 -0.013242543 -0.06939049 0.10599543 0.055995073 -0.042506665
0.09650048 -0.11801579 -0.14628142 -0.10577735 -0.09060781 0.06765104 0.0099828625 0.045768403
-0.08792506 -0.14165722 -0.050810426 -0.10436636 0.032922637 -0.03320861 0.067294724 -0.060504016
0.10523425 -0.096104786 -0.1307746 0.004446183 0.08503584 0.08026842 0.009828478 -0.024465967
0.08501248 0.07452645 -0.0074471724 0.040260956 0.06970017 -0.00719811 0.07828817 -0.005870151
0.078800336 0.25514784 -0.018487677 0.19588748 0.08611129 0.063680634 0.073521614 0.043327905
0.07152755 -0.108220026 -0.18239315 -0.05531594 0.088177934 0.26209515 0.17571709 0.07406093
-0.19591288 0.180442 0.069367595 0.077077344 -0.1373481 1.4650531 -0.25350505 0.068096496
-0.113153055 -0.29716048 0.19259858 0.08565487 -0.07481867 -0.11206257 0.06645175 0.12877543
0.060828026 0.106080115 0.04061056 0.10171662 0.08255941 0.05402211 0.06696834 0.09936766
-0.09344129 0.10173309 -0.07975872 0.10669651 1.3664412 0.1436069 -0.04171171 0.008042446
0.031837694 0.018607648 0.08494962 0.012221954 -0.086469516 0.037432782 0.11369687 -0.066423975
0.08307009 -0.24319759 -0.07041586 -0.11540966 0.029757006 0.17643738 -0.07954468 -0.15506257

fc2.bias f4 [64]
00000000: 2bf3 1f3f f2f7 6dbc d04f 90bd 263d a13e
00000010: a184 063f 3c74 cc3f 51cc 66bd bcb7 b93d
00000020: e6a8 c43f 6802 d7bc fe39 d33f c702 dd3f
00000030: 4462 793f 4ea9 ddbd f802 b7bd 08e8 873c
00000040: 5ac3 ba3f ae3b 2d3e 8634 bdbd c38b d73f
00000050: d0ec aa3d 7e7f 9ebd 4679 d03f 7deb 243f
00000060: 50aa 8fbd 8d15 33bd 8db9 fe3e 7b0b 7b3f
00000070: 0e91 20bd 4786 5c3f bb36 d43f 4cd8 ac3d
00000080: 6410 be3f a251 6e3f 3dc4 f93c ca97 adbf
00000090: 61c6 b2bd 07f4 9fbd 8144 893f 910b de3e
000000a0: e409 7b3f 7181 d7bc 3703 f03f a171 be3f
000000b0: f9da 143f d70d 523d 7dd4 ce3f c558 2e3f
000000c0: b0a2 8d3d 2a9e d8bd aa93 933f 9f21 0fbf
000000d0: ed40 b03f 61a1 8ebb e8bf ea3f 499c 1b3f
000000e0: 6483 8d3f c980 2b3e 6a14 8f3f 13d1 883f
000000f0: 6c07 d03e 2a87 c03d 73e1 413e 43c3 5d3f
0.6248042 -0.014524447 -0.07046473 0.31491965 0.52546126 1.5972972 -0.056347195 0.09068248
1.5364044 -0.026246265 1.6502073 1.7266473 0.97415566 -0.10823308 -0.08936113 0.016590133
1.4590867 0.16917297 -0.09238534 1.6839527 0.0834595 -0.07739161 1.628701 0.64421827
-0.070149064 -0.043721724 0.4975094 0.9806439 -0.039200835 0.8614239 1.6579202 0.08439693
1.4848752 0.9309331 0.030489082 -1.3561947 -0.08729244 -0.078102164 1.0724031 0.433682
0.98061967 -0.02630684 1.8750981 1.4878427 0.58146626 0.05128273 1.6158596 0.681042
0.06915796 -0.105770424 1.1529438 -0.55910677 1.3769814 -0.004352734 1.8339815 0.6078535
1.1055722 0.16748346 1.1178105 1.0688804 0.40630662 0.094007805 0.18933658 0.8662607

fc3.weight f4 [20, 64]
00000000: 202c 243e c27a dbbd 04e2 273b 2cfd 743d
00000010: 9890 963c e462 e53e a080 fcbd 6997 b3bd
00000020: da36 923e 07b6 6fbd 5894 a53e e679 103f
00000030: 1f3a 1c3e 4802 8ebc d076 873c d591 89bd
00000040: 0acd 4d3e 0335 d4bd a82e 893b 9b02 d03e
00000050: c5f9 ffbc 6d13 d03d 9ce5 ad3e a711 1e3d
00000060: 5c9f 8c3d 6da2 a8bd 3ab0 e7bc e6b4 353e
00000070: be50 c03d 301e 80be ccdd ec3e 1cd3 dd3d
00000080: bd41 983e 274f f73d 7366 163d 5e83 6dbe
00000090: accc c8bd 407a 173b 7319 4f3e 1896 3f3e
000000a0: 0ca3 013e 98b6 793d 559e 47bf bf34 e53e
000000b0: 8db9 bb3d 4658 efbd c22c 46bf 3435 c13d
000000c0: 72cb 85bd 508f ed3d 91c2 463e f751 56be
000000d0: 34af 9f3e adfc acbc 7e28 6abf ad9e ff3c
000000e0: 9e94 813e 2a16 58bd 4961 b93d 284f 5d3e
000000f0: c3a1 403e 20fc 563c 6bfd 45bd 2f4d 903c
00000100: 14bc 51bc d070 fdbd 2c61 fd3d a324 acbd
00000110: 44a4 193e 25f9 7f3e 504e d43d 534d df3d
00000120: 262a 5c3e 5283 bdbd 399d 853e 85fa fb3e
00000130: 6952 96bd b402 3c3d 6071 1f3d aab0 ef3d
00000140: fe3c 673e c4f2 303d 0e4a 18bd 5832 a43e
00000150: 1025 543d bb32 a93d 0d1a a53e 554b 093e
00000160: 8658 d8bd 44f2 f3bc 771e 2b3d 563c ef3d
00000170: db60 2bbd 62a2 e43b 3466 8b3e f0dd 3bbc
00000180: 441b 1e3e 1e4a 733e afb6 5cbd 5d88 edbd
00000190: 487e ab3c 489b b93d 36b7 233e 15be babd
000001a0: 60ee 6f38 70fe c6bc adf0 4cbf 0d97 a13e
000001b0: d548 32bd f441 92bd 08b6 c3be fba2 8cbd
000001c0: 3a36 df3d 1f67 4abd 40c1 f63d d379 49bd
000001d0: 7c2b 193e fd12 573c 3109 20bf 2e98 103d
000001e0: 276a 503e 289b 68bd f102 4d3e 6cfa 103e
000001f0: 88ca 39be acfd 96bd 6408 123e 4acd 193e
00000200: e384 0f3c 1e2c fd3d b33c d8bd 884e 2dbd
00000210: 339a 0d3e e639 9a3e f834 f73c 9c36 2bbd
00000220: f3c8 023e f847 bc3c 6c67 c43e 1d76 b93e
00000230: fc6c e93d 4645 813d 1cc8 16bd 29b6 bbbc
00000240: 2f68 113e 0b53 0a3e 458c 9dbd b441 873e
00000250: e299 b5bd bd99 b33d d0b0 de3e 6665 ea3d
00000260: 22cb f23d 9011 be3c 94f3 8c3e 94a9 f4bc
00000270: 8555 cbbd 2d21 c33d ef34 993e a8cf 78bd
00000280: a86b 773e bfcf 333d e450 aabd 4b04 11be
00000290: 3e8d bf3a 08dc c43c 2914 e6bc ce99 943d
000002a0: dcc6 d93d 26ff c4bd 8754 42bf 5f38 ef3e
000002b0: 50b4 803d 4c9b 0abd 7a0f 9ebe 72a5 063e
000002c0: 9405 f4bd 200d dfbb 90fe 0d3e 1a9d 25bd
000002d0: b65f 983d 903e 293d af78 53bf a9d2 e03c
000002e0: 1f45 843e e050 fd3c 5fdc c43c e642 2aba
000002f0: 8737 b3bc 6872 ddbc e129 763d e106 c63d
00000300: 4f20 cdbc b0cd 9ebc fda1 8fbd 73e7 26bd
00000310: 3bc5 cebc a11b 7a3e 4302 0cbb 8076 f83c
00000320: 64c4 6b3e 0997 a6bd d9ef c03e 91e8 9c3e
00000330: 3384 7e3e 32ec ddbd 40c3 043c 596a ecbd
00000340: 9e41 5c3e 0e8a 1abc 4bfe 613d 64ed 953e
00000350: f23f c4bc cfa7 dcbc f212 863e 4b44 443e
00000360: c74b 4a3d 2214 ddbd d656 483e 753a 87bc
00000370: 369e 97bc 1047 0abc da9c b73e 44cd 9b3d
00000380: ae1d 9e3e 9c3e 513d 388a de3c 27a9 07be
00000390: e70d d9bd ef63 d3bc d95d 4f3c 15bd ddbd
000003a0: 3e9d 093d 8e8f fbbd 3619 48bf 243a 9a3e
000003b0: 1376 793d 8ad2 e8bd d88f c4be 1845 003e
000003c0: 7841 29bd 609d 173c 022d 873d 3f4c 94bd
000003d0: 4af9 3a3e 2f67 b0bd e00b 32bf 9364 c3bd
000003e0: 10cd eb3c 20f4 c9bd 9a98 5a3e 34de 5ebb
000003f0: 4e27 acbd 460f e9bd 9536 e63d d95a 673e
0.16032457 -0.107167736 0.0025616894 0.059811756 0.018379495 0.4480201 -0.12329221 -0.087691136
0.28557473 -0.058523204 0.3233974 0.56436 0.15256546 -0.017335072 0.016536146 -0.067172684
0.20097747 -0.10361674 0.00418647 0.40626988 -0.03124703 0.10159955 0.3396424 0.038591053
0.06866333 -0.08234105 -0.028282274 0.17744789 0.093904 -0.2502303 0.46262968 0.108312815
0.29737654 0.12075644 0.036718797 -0.23194644 -0.09804663 0.0023113638 0.20224552 0.187096
0.12659854 0.06096515 -0.7797597 0.44766805 0.091662504 -0.11686759 -0.77412045 0.09433976
-0.06532945 0.115996 0.19410159 -0.20929705 0.31188357 -0.021116579 -0.91468036 0.031203592
0.25308698 -0.052755512 0.09051759 0.21612227 0.18811707 0.013121635 -0.04833738 0.017614929
-0.012801189 -0.12375033 0.1237205 -0.084054254 0.15004069 0.24997385 0.103664994 0.1090342
0.21500453 -0.09253563 0.26096514 0.4921457 -0.07339937 0.045901015 0.038926482 0.11703618
0.2258186 0.04320027 -0.03718 0.3206966 0.051793158 0.08261629 0.32246438 0.13407643
-0.105637595 -0.029778607 0.0417771 0.1168143 -0.041840415 0.0069773654 0.27226412 -0.011466488
0.15440089 0.23758742 -0.05388516 -0.11598275 0.020934239 0.09062821 0.15987858 -0.091182865
5.7204044e-05 -0.024291247 -0.8005474 0.31560555 -0.04352649 -0.07141486 -0.38224816 -0.068670236
0.10899015 -0.04941475 0.12048578 -0.049188446 0.14957994 0.013127086 -0.62514025 0.03530138
0.20352994 -0.056788594 0.20020653 0.14158028 -0.18143666 -0.07372603 0.14261013 0.15019718
0.00875971 0.1236193 -0.105584525 -0.04231122 0.13828354 0.30122298 0.030176625 -0.041800126
0.12771969 0.022983536 0.38360155 0.36222926 0.1139774 0.06312041 -0.036811933 -0.02291401
0.14199899 0.13508241 -0.0769277 0.26417315 -0.088672414 0.087695576 0.43494272 0.114451215
0.11855151 0.023201734 0.27529585 -0.029866017 -0.09928421 0.09527812 0.29923198 -0.06074491
0.24162161 0.043899294 -0.0831621 -0.14161794 0.0014614237 0.0240307 -0.028085785 0.072558984
0.106336325 -0.09618978 -0.7591023 0.46722695 0.06284392 -0.03383951 -0.30871183 0.1314905
-0.119151264 -0.0068069845 0.13866639 -0.040433027 0.074401304 0.04131943 -0.82606024 0.0274442
0.25833985 0.030922353 0.024030862 -0.0006494954 -0.021877063 -0.027032092 0.060098533 0.09669281
-0.02503982 -0.019385189 -0.07013319 -0.04074807 -0.025240531 0.24424602 -0.0021363653 0.030329943
0.23024136 -0.081342764 0.3768299 0.30646184 0.24855117 -0.10836066 0.008103192 -0.11543722
0.21509406 -0.009432329 0.055174153 0.29282677 -0.023956273 -0.026935486 0.2618633 0.19166677
0.049388673 -0.10794856 0.19564375 -0.016507367 -0.018508058 -0.008439794 0.35861856 0.07607511
0.3088202 0.0510851 0.027165517 -0.1324812 -0.10598355 -0.025804488 0.012656652 -0.1082708
0.033597223 -0.1228324 -0.7816347 0.30122483 0.06090362 -0.11368282 -0.38390994 0.12526357
-0.0413222 0.00925383 0.066003814 -0.07241105 0.18259159 -0.08613431 -0.6954937 -0.095406674
0.028784305 -0.09861016 0.21347275 -0.0034006955 -0.08405934 -0.11379866 0.112408794 0.2259325

fc3.bias f4 [20]
00000000: 6223 9b3f 1e07 053f 3a4f 003f 4125 f03e
00000010: b2e1 b23e 5a48 b73e 6a20 cc3e 9d86 ec3e
00000020: 3651 753e e192 1a3e a957 c83d ff1b 40bd
00000030: bb09 a1bc 1c86 1abe 3eb5 2abe f6e5 8fbe
00000040: 7438 80be ef0e b5be c2ac 97be 0253 c2be
1.2120173 0.51963985 0.5012089 0.46903422 0.34937817 0.35797387 0.3986848 0.46196452
0.23956761 0.15095092 0.09782345 -0.0469017 -0.01965796 -0.15090221 -0.16670701 -0.28105134
-0.2504307 -0.35362956 -0.2962399 -0.37953955

exp_avg f4 [64, 3]
00000000: 4980 e0bd 1eeb e73f 5d85 27bf 6acc ce3e
00000010: 983d 67c0 418e 78bf 0000 0000 0000 0000
00000020: 0000 0000 b982 063f 1f65 19c0 0bbf 2b40
00000030: 0000 0000 0000 0000 0000 0000 d6c8 03bf
00000040: 277b 003e 2c67 283f 6f07 b0c0 69f4 14c0
00000050: 804c 2fc1 dbfe b5bf 5284 7840 7b15 9abe
00000060: bb0f 4dc0 7183 e53f f92c 9fc0 0000 0000
00000070: 0000 0000 0000 0000 854b bcc0 7a17 7241
00000080: 8e0f 1340 135c 0541 1fff 94bf 99d2 0841
00000090: 0000 0000 0000 0000 0000 0000 3379 9a40
000000a0: 1020 34c1 0929 27c0 2588 72c0 ac44 44bf
000000b0: 7807 efc0 2f45 3740 0c65 e6c0 a5e9 cd3f
000000c0: 618f 2a3e 7585 c6c0 a971 0940 7fe4 fbc0
000000d0: 1d20 af41 4200 2ec1 3b10 a23f 93da 7c3d
000000e0: c6f5 c93f f299 38c0 4fe8 3b40 72bb 86c0
000000f0: a45c f4bf d4f6 1840 a48b 02c0 66b3 90c0
00000100: ac53 9ec1 47ee 51c0 9f91 a9c0 16eb 31c0
00000110: 3f18 54c1 e958 ee3d 0d5c 06c0 51f2 cabf
00000120: 0000 0000 0000 0000 0000 0000 4754 a8c0
00000130: 57e0 3941 7f58 843f 8c0e cfc0 5e7a 3240
00000140: d0c6 5ac0 0000 0000 0000 0000 0000 0000
00000150: 0000 0000 0000 0000 0000 0000 0000 0000
00000160: 0000 0000 0000 0000 ae23 05c0 0b02 ae40
00000170: f7e3 83bf c12c 8640 761f 0fc1 a05f ea3f
00000180: 848f 3ac0 6840 9840 ada2 98bd e6c7 18c0
00000190: 8ab9 0441 7299 7ac0 3db9 edc0 a343 bf41
000001a0: a3da 04c0 0000 0000 0000 0000 0000 0000
000001b0: 0000 0000 0000 0000 0000 0000 55f5 c4bf
000001c0: d96c 9441 07a1 82c0 bfd3 3141 696a 82c1
000001d0: fbc1 1241 011e 09bf 4dcd 003e 76a5 15c0
000001e0: 2acd 08c1 ed98 9241 7a9e b9c0 2dbf 03be
000001f0: fa44 9d3f 035f 3540 0000 0000 0000 0000
00000200: 0000 0000 7ca9 d3be 9bc4 0240 efd9 933f
00000210: fa16 e241 9fb8 00c2 b3a3 6a41 b5c8 e23e
00000220: 8419 93c0 9d4d e6be deaa 5fc0 578d 6e40
00000230: 5586 49bf 155f c5c0 2113 4641 b860 64c0
00000240: 0400 0000 0400 0000 0400 0000 2243 82c0
00000250: 5e1d 8640 8940 7cbf 61c8 11c0 5a61 6440
00000260: 483f e0bf 31fa a0c0 4a8a ae40 8953 9abf
00000270: c8e3 3fc0 2d1d 9940 46f9 b23f 76fe 84c0
00000280: 538d e9bf c98c 06c1 0000 0000 0000 0000
00000290: 0000 0000 5293 b8bf 6811 e93f 072a 033f
000002a0: c968 c43f e8e3 6a40 5338 90bf 28cb 91c1
000002b0: 70bf 1542 4319 75c1 1415 f9bf 7eb3 ec3f
000002c0: 251c 893e 0000 0000 0000 0000 0000 0000
000002d0: 9407 3dbf b79d 1b40 22aa 8f3e 8e9f 52c0
000002e0: 9f49 4abf 2730 6e42 0000 0000 0000 0000
000002f0: 0000 0000 8ed2 39c1 3f0c c641 ecd0 29c1
-0.109619685 1.8118627 -0.6543787 0.4039033 -3.6131344 -0.9709206 0.0 0.0
0.0 0.52543217 -2.396797 2.6835353 0.0 0.0 0.0 -0.51478326
0.12546979 0.6578243 -5.5009074 -2.3274176 -10.956177 -1.4218401 3.8830762 -0.30094513
-3.204085 1.7930738 -4.97424 0.0 0.0 0.0 -5.8842187 15.130732
2.2978244 8.334979 -1.1640357 8.551415 0.0 0.0 0.0 4.827295
-11.257828 -2.6118796 -3.7895596 -0.76667285 -7.4696617 2.8635976 -7.199835 1.6086928
0.16656257 -6.203791 2.1475623 -7.8716426 21.89068 -10.875063 1.2661203 0.061731886
1.5778129 -2.884396 2.936054 -4.2103815 -1.9090772 2.3900652 -2.039773 -4.521899
-19.790855 -3.2801683 -5.299026 -2.7799735 -13.255919 0.11638052 -2.0993683 -1.5855199
0.0 0.0 0.0 -5.260288 11.61727 1.0339507 -6.4705257 2.7887187
-3.4183846 0.0 0.0 0.0 0.0 0.0 0.0 0.0
0.0 0.0 -2.0803027 5.4377494 -1.0303944 4.192963 -8.945181 1.8310432
-2.9150095 4.757862 -0.07452903 -2.3872008 8.295298 -3.9156156 -7.428862 23.908026
-2.0758445 0.0 0.0 0.0 0.0 0.0 0.0 -1.5387369
18.553148 -4.0821567 11.114196 -16.301958 9.1723585 -0.5356141 0.12578316 -2.338224
-8.550089 18.32467 -5.8005953 -0.12865897 1.2286675 2.833924 0.0 0.0
0.0 -0.41340244 2.0432498 1.1550883 28.261219 -32.180294 14.664966 0.44293752
-4.5968647 -0.4498109 -3.494804 3.7273767 -0.787206 -6.1678567 12.37967 -3.5684032
6e-45 6e-45 6e-45 -4.070695 4.191085 -0.9853597 -2.2778552 3.5684419
-1.7519312 -5.030541 5.454381 -1.2056743 -2.9982777 4.7848115 1.3982322 -4.156062
-1.8246254 -8.409371 0.0 0.0 0.0 -1.4419959 1.8208437 0.51236004
1.5344478 3.6701603 -1.1267189 -18.224197 37.43695 -15.318667 -1.9459558 1.8492277
0.26779285 0.0 0.0 0.0 -0.7383969 2.4315012 0.2805949 -3.2909884
-0.79018587 59.547024 0.0 0.0 0.0 -11.613905 24.75598 -10.613506

exp_avg_sq f4 [64, 3]
00000000: 036d cd42 1562 0244 3ae7 ae46 bbcc a843
00000010: 9139 e644 71a3 a147 0000 0000 0000 0000
00000020: 0000 0000 b7fb 0b43 7774 4644 92f2 f446
00000030: 0000 0000 0000 0000 0000 0000 18d3 0b41
00000040: 9e8b 9642 0969 4445 076e a643 913a 1b42
00000050: 8f89 8444 4627 f542 0216 0b44 241c d144
00000060: 81cf be43 28d9 a744 5664 5947 0000 0000
00000070: 0000 0000 0000 0000 8b00 a145 1653 c246
00000080: 78c7 5c49 4119 ca44 cb58 1943 22cc d644
00000090: 0000 0000 0000 0000 0000 0000 3cc1 0345
000000a0: 4b29 1b46 44c5 ea48 abde 8943 388c 6542
000000b0: ad33 e244 b3f7 a544 3dab db45 02ac 9848
000000c0: 9e66 fc44 df85 2246 8887 dd48 05e6 9246
000000d0: 7741 bc47 7f81 804a 990b 4644 7e2c 5045
000000e0: b42f 0548 f63c 9943 02d4 7344 9f3a 1547
000000f0: 1303 1643 3f8c ad43 6418 2746 ea88 0445
00000100: 21f5 0e46 e095 8d45 469a 1b45 b1ae 5644
00000110: d075 cc46 a137 8843 b592 c544 286c 8147
00000120: 0000 0000 0000 0000 0000 0000 8cb4 2545
00000130: 89c1 3c46 864c ee48 360f 2744 3a91 d943
00000140: 931d 8046 0000 0000 0000 0000 0000 0000
00000150: 0000 0000 0000 0000 0000 0000 0000 0000
00000160: 0000 0000 0000 0000 bbf2 3e44 fc8e 6d45
00000170: 4347 2148 f78c c944 6cdf f945 503a b348
00000180: 1d25 8e43 0710 0244 e2ee 5646 1ba6 8845
00000190: ec07 b246 c6a1 7349 5c56 6946 d875 9f47
000001a0: 7528 5d4a 0000 0000 0000 0000 0000 0000
000001b0: 0000 0000 0000 0000 0000 0000 1d9d 1046
000001c0: defa 4447 733e 054a 1ded a445 fce2 8646
000001d0: 444c 7c49 f493 1c43 9118 4744 688d 0347
000001e0: 4e8a 0946 78f9 2847 080d e549 9c14 8541
000001f0: c1d5 a441 0609 3e43 0000 0000 0000 0000
00000200: 0000 0000 3948 8343 abd4 bb44 01be 3c47
00000210: ca82 b746 0e5b 6646 951c db46 f65b aa43
00000220: a789 f244 5605 a147 cb86 ef43 1c2b 4044
00000230: 3c29 7f46 ce8e 7b45 b1d1 9646 499e 4d49
00000240: f84a a72e 92db bc32 f84a a72e 3eca f443
00000250: dbdf 0f44 2af5 c345 82a5 8543 7681 6e44
00000260: d61f 1347 2551 3944 819f 4644 cc77 9045
00000270: f133 a043 4820 ad43 2609 6944 ab69 8243
00000280: 5b49 1842 fabd 8144 0000 0000 0000 0000
00000290: 0000 0000 d16b 4c43 aff6 0044 dfb4 8746
000002a0: 1301 6d44 fba7 6245 8645 1148 a1ca 0847
000002b0: 0d48 2548 98bf de4a 1ac9 c942 a249 d542
000002c0: c01d 5344 0000 0000 0000 0000 0000 0000
000002d0: fea0 9242 1991 8e43 9670 3346 192b 8344
000002e0: 7d95 a845 f5c3 9547 0000 0000 0000 0000
000002f0: 0000 0000 6f20 8346 2372 9f47 b14b 584a
102.71291 521.53253 22387.613 337.59946 1841.799 82758.88 0.0 0.0
0.0 139.98326 793.81976 31353.285 0.0 0.0 0.0 8.739037
75.27269 3142.5647 332.8596 38.807194 1060.2987 122.576706 556.3439 1672.8794
381.62112 1342.7861 55652.336 0.0 0.0 0.0 5152.068 24873.543
904311.5 1616.7892 153.34685 1718.3792 0.0 0.0 0.0 2108.0771
9930.323 480810.12 275.7396 57.386932 1809.6149 1327.7406 7029.405 312672.06
2019.2068 10401.468 453692.25 18803.01 96386.93 4.2108795e+06 792.1812 3330.7808
136382.81 306.47626 975.3126 38202.62 150.01201 347.09567 10694.098 2120.5571
9149.282 4530.7344 2489.642 858.72955 26170.906 272.4346 1580.5846 66264.31
0.0 0.0 0.0 2651.2842 12080.384 488036.2 668.2377 435.13458
16398.787 0.0 0.0 0.0 0.0 0.0 0.0 0.0
0.0 0.0 763.79266 3800.9365 165149.05 1612.4052 7995.9277 367058.5
284.28995 520.2504 13755.721 4372.763 22787.96 997916.4 14933.59 81643.69
3.6234532e+06 0.0 0.0 0.0 0.0 0.0 0.0 9255.278
50426.867 2.1830688e+06 5277.639 17265.492 1.03341225e+06 156.57794 796.38385 33677.406
8802.576 43257.47 1.876385e+06 16.635063 20.604372 190.03525 0.0 0.0
0.0 262.56424 1502.6459 48318.004 23489.395 14742.764 28046.291 340.71844
1940.3016 82442.67 479.05307 768.6736 16330.309 4024.9253 19304.846 842212.56
7.607598e-11 2.198593e-08 7.607598e-11 489.58002 575.49774 6270.6455 267.29303 954.0228
37663.836 741.2679 794.49225 4622.9746 320.4058 346.2522 932.14294 260.82553
38.071636 1037.9368 0.0 0.0 0.0 204.42116 515.85443 17370.436
948.0168 3626.4988 148758.1 35018.63 169248.2 7.29902e+06 100.89278 106.643814
844.46484 0.0 0.0 0.0 73.31444 285.13358 11484.146 1049.3468
5394.686 76679.914 0.0 0.0 0.0 16784.217 81636.27 3.5437882e+06
