models/dqn_agent_firm_1_episode_1000.pth (torch, 438054 bytes, 32 tensors)

fc1.weight f4 [128, 3]
0	0x3cabe7c0	0.02098453
1	0x3e8bbe88	0.272938
2	0xbcbfbcb5	-0.023405412
3	0x3e2ceff1	0.16888405
4	0xbf0609e3	-0.52358836
5	0xbeed8c57	-0.46396133
6	0x3e61d58e	0.22054121
7	0x3db8212d	0.08990703
8	0x3cc1e057	0.023666544
9	0x3e2e2cfb	0.17009346
10	0x3e38775e	0.18014285
11	0xbe02bb9e	-0.12766883
12	0xbe4f9362	-0.20271066
13	0x3f0b0a1f	0.5431232
14	0xbe0f89bd	-0.14017387
15	0x3c937eb5	0.018004755
16	0xbf013053	-0.5046436
17	0xbefaa8b6	-0.4895684
18	0xbe779a80	-0.24180031
19	0x3e9d4230	0.3071456
20	0x3d75cc34	0.060009196
21	0xbf0cbc1d	-0.5497454
22	0xbee1bbff	-0.44088742
23	0xbdef4bad	-0.11684356
24	0xbe9804be	-0.29691118
25	0xbe3d2490	-0.18470979
26	0x3e425da4	0.18981034
27	0x3d4eaa3d	0.05045532
28	0xbe73a78f	-0.23794387
29	0x3cfd6d2d	0.030935848
30	0xbe80715f	-0.25086495
31	0xbd83dc4c	-0.06438503
32	0xbec1f3c3	-0.37881288
33	0x3e1a10ab	0.15045421
34	0x3ebe99b4	0.3722664
35	0x3d163830	0.03667468
36	0xbece3468	-0.40274358
37	0xbea5877b	-0.32329926
38	0xbf02dba0	-0.5111637
39	0x3e4e31da	0.20136204
40	0x3c978810	0.018497497
41	0xbb1c82f8	-0.0023881774
42	0x3ed38740	0.41314125
43	0xbf0ce8ee	-0.5504292
44	0xbef6423a	-0.48097402
45	0xbed438e7	-0.41449663
46	0xbe894f30	-0.26818228
47	0xbe6109f0	-0.21976447
48	0xbea290cc	-0.31751096
49	0xbf152a73	-0.582679
50	0x3da9df3e	0.08294533
51	0xbeac5f4d	-0.3366646
52	0xbf275150	-0.6535845
53	0x3b132b4d	0.002245623
54	0xbea7a266	-0.32741088
55	0xbeb07b4f	-0.34469077
56	0xbe49dd60	-0.19713354
57	0xbee79349	-0.45229557
58	0x3d6dbf32	0.058043666
59	0x3cfa44da	0.03055041
60	0xbd030037	-0.031982627
61	0x3e617c26	0.22020015
62	0xbc780f36	-0.015140345
63	0xbedbff4c	-0.42968214
64	0x3ed44786	0.41460818
65	0xbf0343ec	-0.51275516
66	0x3f08b10c	0.5339515
67	0x3dec36bd	0.11533878
68	0x3d82484e	0.06361447
69	0xbefe91bc	-0.49720562
70	0x3e2ed84b	0.17074697
71	0x3d7bbc91	0.061459128
72	0x3e9a82be	0.30177873
73	0xbe6a7795	-0.2289718
74	0x3d133cf6	0.03594681
75	0xbeb3cedd	-0.35118762
76	0xbeb4654a	-0.35233527
77	0xbf0a2e6e	-0.53977096
78	0x3cf0bee1	0.029387893
79	0x3e360f18	0.17779195
80	0x3bf10c2f	0.0073561887
81	0xbea0a510	-0.31375933
82	0x3e547456	0.20747504
83	0xbe9072b4	-0.28212512
84	0x3dfadcf4	0.12249175
85	0xbd2ac7b4	-0.041694358
86	0xbec6eaa3	-0.3885089
87	0xbe7933e6	-0.24336204
88	0x3ed0cefb	0.40782914
89	0xbf3bad72	-0.7331153
90	0x3dc001da	0.09375353
91	0xbef4b546	-0.4779455
92	0x3bfc5dc1	0.007701606
93	0x3e50a133	0.20373993
94	0xbd3e8c8b	-0.04652075
95	0xbe37d886	-0.17953691
96	0xbef909e9	-0.48640373
97	0xbed36439	-0.412874
98	0xbe0d1a35	-0.13779528
99	0xbe223917	-0.1584209
100	0x3d9dd655	0.07706896
101	0xba0332f4	-0.0005004846
102	0xbcf91630	-0.030406088
103	0xbec7257b	-0.38895783
104	0x3e400df4	0.18755323
105	0xbe88efb3	-0.26745376
106	0xbf4a4f11	-0.79026896
107	0x3d59be4d	0.05316
108	0xbf1aaa89	-0.60416466
109	0xbd92c11b	-0.07165738
110	0x3d527e80	0.05139017
111	0xbdb94599	-0.09046478
112	0xbef9a33f	-0.4875736
113	0x3dbf7181	0.09347821
114	0x3e73b279	0.2379855
115	0xbd9d43ff	-0.07678985
116	0xbf225e03	-0.634247
117	0xbec6f91c	-0.3886193
118	0xbd6d1507	-0.05788138
119	0x3e4b027d	0.19825168
120	0x3e9e56e5	0.3092567
121	0xbd92361f	-0.07139229
122	0xbdae60ed	-0.08514581
123	0xbe5d8cf5	-0.21635802
124	0xbe8b855a	-0.27250177
125	0xbee67776	-0.45013016
126	0x3e118000	0.14208984
127	0x3e2c156c	0.16805047
128	0x3e12be9b	0.14330523
129	0x3eb6967f	0.35661694
130	0x3c9546ac	0.018222176
131	0xbf322258	-0.69583654
132	0xbf034b26	-0.5128654
133	0x3dc6ec9f	0.09713101
134	0xbc2861cb	-0.010277222
135	0x3e2a3172	0.16620424
136	0xbed04c29	-0.40683106
137	0x3bf48e1b	0.0074632294
138	0xbf133de7	-0.5751633
139	0xbe84cc12	-0.25936943
140	0xbe5948c2	-0.21219161
141	0xbe9934c8	-0.2992308
142	0xbe373586	-0.17891511
143	0x3dab579f	0.08366322
144	0x3f0d3f6e	0.5517491
145	0x3dc21f1e	0.094785914
146	0x3d8cb6a5	0.06870774
147	0xbeb8d6b4	-0.36101305
148	0xbf9285d1	-1.1447088
149	0x3d99e553	0.07514443
150	0x3e721fbc	0.23644918
151	0x3e8bf752	0.27337128
152	0x3cf45da1	0.029829802
153	0x3d1a6bba	0.037700392
154	0x3e793efa	0.2434043
155	0xbecb5fd7	-0.39721557
156	0xbf0704be	-0.5274161
157	0xbf08d638	-0.5345187
158	0xbe892049	-0.26782444
159	0xbe27b466	-0.1637741
160	0xbe31ca05	-0.1736222
161	0xbe4a3146	-0.19745359
162	0xbed69a8c	-0.41914785
163	0x3e302042	0.17199805
164	0x3d030eca	0.031996526
165	0x3dd15ea8	0.10223132
166	0xbe3da45f	-0.18519734
167	0x3cb4de8a	0.022078771
168	0x3df6c652	0.12049545
169	0xbe4ac4fb	-0.19801705
170	0x3cf9b757	0.030482931
171	0xbdc9974c	-0.09843311
172	0xbe3e57cc	-0.1858818
173	0x3e486dde	0.19573161
174	0xbf0c0de3	-0.5470869
175	0xbe8969ba	-0.26838475
176	0xbebb8328	-0.36623502
177	0xbe421966	-0.18955001
178	0xbe00ad53	-0.12566118
179	0x3dd49f9b	0.10382005
180	0x3e67456e	0.22585079
181	0x3ee8bb45	0.45455375
182	0xbe919fdf	-0.28442284
183	0xb9beb8fa	-0.00036377442
184	0x3ece8bd5	0.40341058
185	0xbcb0e33c	-0.021592729
186	0xbe88d3d7	-0.2672412
187	0x3e8aa44b	0.2707847
188	0x3e06d000	0.13165283
189	0x3f00a1c2	0.5024682
190	0x3b69f01f	0.0035696102
191	0xbe63f15a	-0.22260037
192	0xbf01e65b	-0.5074212
193	0xbdf7bcaa	-0.12096532
194	0xbea297a2	-0.31756312
195	0x3e099be4	0.13438374
196	0x3e6b1561	0.22957374
197	0xbcc23388	-0.023706213
198	0x3ed9d2c0	0.42543602
199	0xbe8f50ac	-0.27991235
200	0xbebe5f31	-0.37182
201	0x3ec0442a	0.37552005
202	0x3e297e20	0.16552019
203	0xbeb03d1e	-0.3442163
204	0x3da49b1e	0.08037399
205	0xbea1854e	-0.31547016
206	0x3d474646	0.048651002
207	0xbf0f5d03	-0.560013
208	0xbe981b42	-0.29708296
209	0x3e7e7780	0.24850273
210	0x3dad9490	0.08475602
211	0xbe7df083	-0.24798779
212	0x3e2295ea	0.158775
213	0xbe35b0e1	-0.17743255
214	0xbe7f1d41	-0.24913503
215	0x3e08e18e	0.13367292
216	0xbe161086	-0.1465474
217	0xbe87c082	-0.2651406
218	0xbef0275a	-0.46905023
219	0x3d0c669a	0.034277536
220	0x3d78d88f	0.0607534
221	0xbe273fca	-0.16332927
222	0xbeecaaab	-0.4622396
223	0xbe29f9e1	-0.16599227
224	0xbe699000	-0.22808838
225	0x3e12dfc2	0.1434317
226	0xbd9dee3c	-0.07711455
227	0x3d23beca	0.039976873
228	0xbd8d4dd3	-0.068996094
229	0x3f04e1f1	0.5190726
230	0xbe9c69ea	-0.30549556
231	0x3e46e48d	0.19423123
232	0xbde75ce2	-0.11297013
233	0x3b99e752	0.004696765
234	0xbe243d64	-0.16039044
235	0xbd5d3197	-0.05400237
236	0x3b9dc469	0.0048146737
237	0x3e9cfcf6	0.30661744
238	0xbce0f2ba	-0.027459491
239	0xbee0bb80	-0.4389305
240	0xbda480c7	-0.08032375
241	0x3eccf66b	0.40031752
242	0xbc7c6fc1	-0.015407504
243	0x3f230d78	0.63692427
244	0x3ebfeb87	0.3748438
245	0xbeb70d32	-0.35752255
246	0xbc6c3303	-0.014416459
247	0x3e68794b	0.2270252
248	0x3d91947d	0.071084
249	0x3ede643c	0.43435848
250	0xbdc6ca6d	-0.097065784
251	0xbf117084	-0.5681231
252	0xbeb6d463	-0.35708913
253	0xbf049514	-0.51789975
254	0xbeedc797	-0.46441337
255	0x3e76d33c	0.24104017

fc1.bias f4 [128]
0	0x401259bd	2.2867272
1	0x3ed1e6d6	0.40996426
2	0xbf7d148e	-0.9885949
3	0x3ff8557a	1.9401085
4	0x3f30aa80	0.6901016
5	0xbe281577	-0.16414438
6	0xc0145196	-2.3174796
7	0xbe5d0f2b	-0.21587817
8	0xc01633cb	-2.3469112
9	0x3fb131c6	1.3843315
10	0xbeda5485	-0.42642608
11	0x3fe2b661	1.7711908
12	0x3e3aa4b2	0.18226889
13	0x3e9182be	0.2842006
14	0x3e176ce7	0.14787637
15	0xbec22bdf	-0.37924096
16	0x3f47fcca	0.781201
17	0xbf1f1b18	-0.62150717
18	0xbee6e2bb	-0.45094857
19	0xbfc2bfc2	-1.521477
20	0x3ffb357f	1.9625701
21	0x3f5fda5b	0.8744256
22	0xc02ddb3d	-2.7165062
23	0x4015470d	2.3324616
24	0x40114035	2.269544
25	0x3dd4e344	0.1039491
26	0x3f8cd321	1.1001931
27	0xbe5af2db	-0.21381705
28	0x3fc29312	1.5201132
29	0x3f699f0a	0.912583
30	0xbf7f6e6e	-0.9977788
31	0x3ff40a66	1.9065673
32	0xbedd8564	-0.4326583
33	0x400f280c	2.2368193
34	0xc0179480	-2.3684387
35	0xbe178090	-0.14795136
36	0xbfaf27b4	-1.3683991
37	0xbffec5d5	-1.9904124
38	0x3fd97f56	1.6991985
39	0xbffe2330	-1.9854488
40	0x3da2f032	0.0795597
41	0xbe8418c9	-0.2580016
42	0xc010e27b	-2.2638233
43	0x3fd047ee	1.6271951
44	0x3d2162b9	0.03940079
45	0xbf32ebff	-0.6989135
46	0xbebf41d4	-0.3735491
47	0xbfe9cf68	-1.826642
48	0xbfffa7e6	-1.9973114
49	0xbfd33d69	-1.6503116
50	0xbfac6b00	-1.3470154
51	0x4003897a	2.055266
52	0xbf0e28cf	-0.5553102
53	0x3dd3ecbd	0.103478886
54	0x3ff68819	1.9260284
55	0x4037456f	2.863613
56	0x4015f898	2.343298
57	0xbff6de3a	-1.9286568
58	0xbec6e77a	-0.38848478
59	0xc00b5f32	-2.1776853
60	0xbecebbf8	-0.40377784
61	0x400763df	2.1154706
62	0x3fcd9087	1.6059731
63	0x3fb28fca	1.3950131
64	0xbe8e1d40	-0.2775669
65	0x401096c4	2.259202
66	0x3fcf0ec3	1.617638
67	0x3f1eafa8	0.6198678
68	0x4015dd82	2.3416448
69	0x3f9b0553	1.2111
70	0xbfc29b24	-1.5203595
71	0x3fe09c7b	1.7547754
72	0x3e8859e5	0.26631084
73	0x3fe62671	1.7980481
74	0x3ed1fcde	0.41013235
75	0xbfa8429d	-1.3145329
76	0x4007fcc3	2.1248024
77	0x4026a158	2.6035976
78	0xbf1ba475	-0.60797817
79	0x3f06e398	0.5269103
80	0x40210eb8	2.5165234
81	0xbf74d62f	-0.9563932
82	0xbfdd8e30	-1.7309017
83	0x3f46b898	0.7762542
84	0x3e7c3a7e	0.24631688
85	0x3fe38d0b	1.7777418
86	0x3f13a07b	0.5766675
87	0x40088793	2.1332748
88	0x3cbf20b4	0.023331024
89	0x3fe123f3	1.7589096
90	0x400508f5	2.0786717
91	0xbe6dfe15	-0.23241456
92	0x40015455	2.0207722
93	0xbe34a3c2	-0.17640594
94	0x3e8d25ab	0.275678
95	0xbe8059cc	-0.2506851
96	0xbe3aef9b	-0.18255465
97	0xbfb2854d	-1.394693
98	0xbf562440	-0.83649063
99	0xc00ee0bc	-2.2324667
100	0xbfab4623	-1.3380779
101	0xbe86403a	-0.26220876
102	0x3fc89f2b	1.5673574
103	0x3f929163	1.1450619
104	0x3f0e5731	0.55601794
105	0xbff83ff5	-1.9394518
106	0xbd0f71b7	-0.035020556
107	0x3ef5b0c1	0.47986415
108	0x3fb7b1fa	1.4351189
109	0xbd2b6a5f	-0.04184949
110	0xbfe481ea	-1.7852147
111	0x3f0696d0	0.5257387
112	0x3d898cd2	0.067163125
113	0x4015d2ea	2.3409982
114	0xbed775ae	-0.4208197
115	0xbfed6b76	-1.854842
116	0x3f73e282	0.952675
117	0x3df5de95	0.12005345
118	0x3f091df4	0.5356133
119	0x4031468e	2.7699313
120	0x4007380e	2.1127963
121	0xbfee3a41	-1.8611528
122	0xbff6aa5d	-1.9270741
123	0xbdb1b164	-0.08676413
124	0x3f108c16	0.56463754
125	0xbf307f99	-0.689447
126	0x3fe56ba6	1.7923477
127	0x3fe13006	1.759278

fc2.weight f4 [128, 128]
0	0x3d8dca85	0.06923393
1	0x3d83a5c1	0.064280994
2	0x3b1de44b	0.0024092372
3	0x3eb7e7c7	0.3591902
4	0xbef1b138	-0.4720552
5	0xbc01bdde	-0.007918803
6	0xbe23d029	-0.15997376
7	0xbcce72cc	-0.025201224
8	0xbd36c1d4	-0.044618443
9	0x3c865a3b	0.016400447
10	0x3d72efee	0.059310846
11	0xbd97ad93	-0.074061535
12	0x3d65767c	0.0560212
13	0xbddc83e4	-0.10767344
14	0x3c19672a	0.009362975
15	0xbd114ac7	-0.035471704
16	0x3d4622f4	0.048373178
17	0xbe8c6f18	-0.27428508
18	0xbb5022cb	-0.003175902
19	0xbdd9d30a	-0.10635956
20	0x3b7fe52a	0.0039046505
21	0x3cc6ec98	0.024282739
22	0xbe85c494	-0.2612654
23	0xbc4ae4e4	-0.012383673
24	0xbd451e05	-0.048124332
25	0xbd038c07	-0.032115962
26	0xbdc4d162	-0.09610249
27	0x3d99a54f	0.07502233
28	0x3e83e25b	0.25758633
29	0x3e9d986a	0.30780345
30	0x3dcb2fbe	0.099212155
31	0x3f2a26c0	0.6646538
32	0x3daee28c	0.08539304
33	0x3e812e50	0.25230646
34	0xbe1516b6	-0.14559445
35	0x3bc617c0	0.0060453117
36	0x3c03151c	0.008000638
37	0xbe2f13a6	-0.17097339
38	0x3d968d34	0.07351151
39	0x3c60ccc5	0.013720696
40	0xbe86157d	-0.2618827
41	0xbd8cbf1e	-0.0687239
42	0xbcd2af24	-0.02571828
43	0x3e9b3057	0.30310318
44	0x3cbdb6d7	0.023158474
45	0xb8c5d335	-9.4330324e-05
46	0x3d9a4d22	0.07534243
47	0x3ca26d71	0.019827576
48	0xbe20140d	-0.15632649
49	0xbedce3fe	-0.43142694
50	0xbeb492c2	-0.35268217
51	0x3e98219a	0.29713136
52	0xbc06f9b3	-0.008238244
53	0x3d664882	0.056221493
54	0xbde11105	-0.10989574
55	0x3e8bbafa	0.2729109
56	0x3cd3fe6c	0.025878154
57	0x3d8ad27f	0.0677843
58	0x3c2dc356	0.010605654
59	0xbe272ce0	-0.16325712
60	0xbe4d1685	-0.20028122
61	0xbc01cf8e	-0.00792302
62	0xbc7ce264	-0.015434835
63	0xbea1f3f3	-0.3163143
64	0xbc3dd417	-0.011586211
65	0xbe7b06c8	-0.24514306
66	0xbdac30e7	-0.08407765
67	0xbda79bb0	-0.08183992
68	0x3ced02bf	0.028931974
69	0x3d3574f5	0.044300992
70	0xbce3377a	-0.027736414
71	0xbd91af86	-0.071135566
72	0xbca4cc7d	-0.020117039
73	0x3ee03084	0.43787014
74	0x3c5650a3	0.013080749
75	0xbd684cf5	-0.056714017
76	0x3df03d13	0.11730399
77	0x3eb68232	0.35646206
78	0x3d8e72bb	0.06955477
79	0x3e0a90ce	0.13531801
80	0xbbaf4b6e	-0.005349568
81	0xbe2b8c9c	-0.16752857
82	0xbe047249	-0.12934221
83	0xbe05df86	-0.13073549
84	0x3ca0ebd2	0.019643698
85	0xbdb43d9c	-0.088008136
86	0x3cf97034	0.03044901
87	0xbdac19f6	-0.08403389
88	0x3d5c14fc	0.05373095
89	0xbcc9d674	-0.024638392
90	0xbd03a039	-0.032135222
91	0xbd92a1fa	-0.07159801
92	0xbe8d42c8	-0.27590013
93	0xbb9a319f	-0.0047056223
94	0x3e808937	0.25104687
95	0x3d4422ca	0.04788474
96	0xbc07b570	-0.008283004
97	0xbd63d96d	-0.055627275
98	0x3bbb7b19	0.0057214615
99	0xbe6a8f01	-0.22906114
100	0xbc003a6e	-0.007826431
101	0x3b4538a9	0.0030093587
102	0xbe372cf7	-0.17888246
103	0xbdc8502c	-0.097809166
104	0xbf174074	-0.5908272
105	0x3b70d694	0.0036748992
106	0xbd04d52a	-0.03242985
107	0x3c38bf74	0.011276115
108	0x3d432115	0.04763897
109	0xbc9d1f81	-0.019180061
110	0xbd751078	-0.05983016
111	0xbdbc94b2	-0.09208049
112	0xbe353585	-0.17696197
113	0x3d04d340	0.032428026
114	0xbc127ad8	-0.008940421
115	0xbd625d08	-0.055264503
116	0x3ea4cb6f	0.32186458
117	0xbc1d0c8b	-0.00958551
118	0xbec7a64b	-0.3899406
119	0x3d518069	0.051147852
120	0x3c029cc2	0.007971944
121	0xbcba47e1	-0.022739353
122	0x3d0bb834	0.034111217
123	0xbd49e6aa	-0.049292244
124	0x3cb1bc4a	0.021696229
125	0xbe0a7d3e	-0.13524339
126	0x3ca192b6	0.019723278
127	0xbc8e48e5	-0.017368743
128	0xbdcc4b33	-0.099752806
129	0x3d53992c	0.051659748
130	0xbd51a2cb	-0.051180642
131	0x3c8a789a	0.01690321
132	0xbdc781bb	-0.09741541
133	0xbcf6fdcc	-0.030150317
134	0xbd0ab82d	-0.03386705
135	0xbd861dc9	-0.0654865
136	0x3cdce162	0.02696294
137	0xbd6d0013	-0.0578614
138	0xbc09b1d9	-0.008404219
139	0x3ca8f636	0.020625215
140	0xbd0e5a5c	-0.034754142
141	0xbdb9907b	-0.090607606
142	0x3d0c76e3	0.034293067
143	0x3c105a3d	0.008810577
144	0x3cdb30e4	0.026756711
145	0xbda8d1ef	-0.08243167
146	0xbcce5b32	-0.02518997
147	0xbd1acc67	-0.03779259
148	0x3c17b557	0.009259543
149	0x3d670bb1	0.056407634
150	0xbc885066	-0.0166399
151	0x3d5835dd	0.052785743
152	0x3c3f1812	0.011663454
153	0x3db15ae8	0.08659917
154	0xbcb1ca4f	-0.021702914
155	0xbd96aca3	-0.073571466
156	0xbd6b1f73	-0.05740304
157	0xbbefe25e	-0.0073206862
158	0xbc94eeb9	-0.018180238
159	0xbd9c29ab	-0.07625135
160	0xbd43ecda	-0.0478333
161	0x3d1a73be	0.037708037
162	0xbdad1be2	-0.08452584
163	0xbdc61920	-0.09672761
164	0xbd42cd21	-0.047558907
165	0xbd0f0b3f	-0.034922834
166	0xbdad49c6	-0.08461337
167	0x3d376243	0.044771444
168	0x3be57dd1	0.007003524
169	0xbd8ea00f	-0.069641225
170	0x3d8bd015	0.06826798
171	0xbb99fe9e	-0.004699542
172	0xbb281bab	-0.0025651257
173	0x3d359bf6	0.04433819
174	0x3d842b21	0.06453539
175	0xbd10efc1	-0.035384897
176	0x3d8cec0d	0.068809606
177	0xbda1b5c4	-0.07895997
178	0xbd9d121b	-0.07669469
179	0xbd47ae16	-0.048750006
180	0x3cd5c8ea	0.02609678
181	0xbd6e8432	-0.05823154
182	0xbd064e0c	-0.032789275
183	0xbd40af2a	-0.04704205
184	0xbdc496be	-0.09599064
185	0xbc813682	-0.015773062
186	0x3d2abbfe	0.04168319
187	0xbd25b6a4	-0.040457383
188	0x3ccabbaa	0.024747688
189	0x3cdc43d9	0.026887821
190	0xbcea5e85	-0.028609524
191	0x3bef6cec	0.0073066857
192	0x3b092aec	0.0020930124
193	0xbd7ee22c	-0.062227413
194	0x3d3b8609	0.045782123
195	0x3cda9f44	0.026687272
196	0xbda9c8a0	-0.08290219
197	0x3cb44651	0.022006186
198	0xbd9db630	-0.07700765
199	0x3d3533b0	0.044238746
200	0xbd17048b	-0.036869567
201	0x3b18eb58	0.0023333635
202	0xbbeaaa4a	-0.0071614133
203	0x3d9b936b	0.07596477
204	0x3d2dba69	0.042414103
205	0x3d027baf	0.031856235
206	0xbd63cdb8	-0.05561611
207	0x3d0273d4	0.031848744
208	0x3c73cc21	0.014880211
209	0xbb89b166	-0.0042020557
210	0x3c5e48e6	0.013567185
211	0x3d2a2881	0.041542534
212	0xbd4a2ae7	-0.04935732
213	0x3d1ea05a	0.038727142
214	0x3d398d20	0.045300603
215	0xbd3fdaec	-0.04683964
216	0xbd978219	-0.07397861
217	0xbdb32834	-0.087479025
218	0x3d173b67	0.036921885
219	0x3d3de787	0.04636338
220	0xbd695ef7	-0.05697533
221	0xbccd3ae0	-0.025052488
222	0x3d639227	0.055559304
223	0x3d16e519	0.03683958
224	0x3d5371f4	0.051622346
225	0x3cea1daf	0.028578607
226	0xbc80953c	-0.01569616
227	0xbd62e92b	-0.055398148
228	0x3ab9e43b	0.0014182398
229	0x3daa5efb	0.08318897
230	0xbd95885e	-0.073014006
231	0x3c8cab58	0.017171547
232	0xbc4c33f0	-0.012463555
233	0x3ccfad66	0.025351238
234	0x3ca3c4e4	0.019991346
235	0x3d72dae2	0.059290774
236	0x3d380900	0.044930458
237	0xbda926fa	-0.08259387
238	0x3d650097	0.055908766
239	0xbce1b045	-0.027549872
240	0xbcca016c	-0.024658881
241	0xbd489044	-0.048965707
242	0xbd875714	-0.06608406
243	0x3c06bd76	0.008223882
244	0xbd243aa3	-0.040094983
245	0xbd647530	-0.05577582
246	0xbd940528	-0.07227546
247	0xbe049aac	-0.12949628
248	0xbc1b3cf8	-0.009474985
249	0xbca59622	-0.02021319
250	0xba72aff0	-0.0009257784
251	0x3d935c23	0.07195308
252	0x3d7e1178	0.06202838
253	0xbdb6e6fa	-0.08930774
254	0xbd551f11	-0.05203158
255	0xbc2a678a	-0.010400662

fc2.bias f4 [128]
0	0x3f4c3fdc	0.7978494
1	0xbd19de4f	-0.037565526
2	0xbfb40885	-1.40651
3	0x3facbeee	1.3495767
4	0x3f9c7212	1.2222311
5	0x3fa0b548	1.2555323
6	0x3eb4958b	0.35270342
7	0x3fc3c385	1.5294043
8	0x3f341a9c	0.703531
9	0x3f845039	1.0336982
10	0x3f4d3c82	0.8017045
11	0x3da61874	0.08110133
12	0x3fbfc1f3	1.4981064
13	0x3ec7e014	0.39038146
14	0xbe05aa20	-0.13053179
15	0x3fc60fd2	1.5473578
16	0x3a78fcc7	0.0009498116
17	0x3fba6dc8	1.4564753
18	0x3fade6fa	1.3586113
19	0x3c752c9c	0.014964249
20	0x3fd734f5	1.6813036
21	0xbd7c65c2	-0.06162048
22	0xbd672717	-0.056433763
23	0x3d78067d	0.060553063
24	0x3d6dd53c	0.058064684
25	0xbd22764b	-0.039663594
26	0xbd63d6a4	-0.05562462
27	0x3d363e94	0.044493273
28	0x3b1a23ce	0.0023519876
29	0x3fb130ce	1.3843019
30	0x3fb05139	1.3774787
31	0x3f9bff30	1.2187252
32	0xbec2b958	-0.3803203
33	0xbdca102d	-0.098663665
34	0x3fd33156	1.6499431
35	0x3fd436a3	1.6579174
36	0xbf9c39dc	-1.2205157
37	0xbc02264c	-0.007943701
38	0x3fd1bd9c	1.6385989
39	0x3d7d79cb	0.06188373
40	0x3d2b4fe9	0.041824255
41	0xbd52590b	-0.05135445
42	0xbda4180f	-0.08012401
43	0xbddfe4ed	-0.10932336
44	0x3fcb1697	1.5866269
45	0xbdbc1c71	-0.09185112
46	0x3eb5fc4d	0.35544053
47	0xbd894a25	-0.06703595
48	0x3f9b2186	1.2119606
49	0xbcfc1bb5	-0.03077493
50	0x3fa89aac	1.3172202
51	0x3fcc7b81	1.597519
52	0x3f7c67d3	0.98595923
53	0x3e9a277b	0.30108246
54	0x3cd3f015	0.025871316
55	0x3f71f95f	0.94521135
56	0xbebd707d	-0.36999884
57	0x3c8623ac	0.016374432
58	0x3fd2da3c	1.647285
59	0x3f0464b3	0.51716155
60	0x3f9edd6a	1.241132
61	0x3f848c5b	1.0355333
62	0xbdd0cf7e	-0.10195826
63	0x3ef11cf3	0.470924
64	0xbb9adb80	-0.0047258735
65	0x3c15067f	0.009095787
66	0x3e911eff	0.2834396
67	0x3fb37f1f	1.4023169
68	0xbd2d3e6a	-0.04229585
69	0xbd503c5b	-0.05083881
70	0x3fc668e7	1.5500764
71	0xbfd089ca	-1.629205
72	0x3c189ceb	0.009314756
73	0x3f701253	0.9377796
74	0xbda0bdbe	-0.078486905
75	0x3e83b50a	0.2572406
76	0x3eeeb4c4	0.46622288
77	0xbd1bd839	-0.038048003
78	0xbd90bb2e	-0.07066952
79	0xbf615381	-0.8801804
80	0x3f589ddd	0.8461588
81	0xbdc13bb7	-0.09435218
82	0x3ece8c04	0.40341198
83	0xbd3bdf61	-0.045867328
84	0x3fc32fc2	1.524895
85	0x3fd656be	1.6745222
86	0x3fbc36df	1.4704245
87	0x3d9d5904	0.07682994
88	0x3f92b214	1.1460595
89	0xbdd9a6dd	-0.1062753
90	0x3f9f1539	1.2428352
91	0xbda347ff	-0.079727165
92	0x3f7b2533	0.98103637
93	0x3f4f9c72	0.8109809
94	0x3fb99f4b	1.4501737
95	0xbdec69ee	-0.11543642
96	0x3fb7af64	1.43504
97	0xbd8b06e4	-0.06788424
98	0xbc46db82	-0.012137296
99	0x3ed4f599	0.41593626
100	0xbd84151d	-0.064493395
101	0x3f997913	1.1990074
102	0x3d6e9112	0.05824382
103	0x3e02a7a8	0.12759268
104	0xbd7aafbe	-0.061202757
105	0xbdf77526	-0.12082891
106	0xbfcfd8d3	-1.6238045
107	0x3cfe039a	0.031007577
108	0x3f0437d3	0.5164768
109	0x3e9ee734	0.3103577
110	0x3fcf6b6f	1.6204661
111	0xbd9015b5	-0.0703539
112	0x3fcf701b	1.6206087
113	0x3c74b8b3	0.014936614
114	0x3f907c9e	1.128803
115	0x3c650108	0.013977297
116	0x3f450b7c	0.7697065
117	0x3f440478	0.7656932
118	0x3fbc7c61	1.4725457
119	0x3f35e11e	0.71046627
120	0x3fc02d25	1.5013777
121	0xbd97ae93	-0.07406344
122	0xbd94b500	-0.072610855
123	0xb9fd1192	-0.0004826901
124	0xbd9e3a08	-0.07725912
125	0x3b7c3ac4	0.0038487175
126	0x3f29f730	0.66392803
127	0x3c1375d3	0.009000259

fc3.weight f4 [64, 128]
0	0xbce3ea78	-0.027821764
1	0x3dab98e5	0.08378772
2	0xbdad84ed	-0.08472619
3	0xbce8dda3	-0.028425997
4	0x3d5dad7a	0.05412052
5	0xbcd2d06e	-0.025734153
6	0xbd37556f	-0.04475921
7	0x3d1238f0	0.03569883
8	0xbd5d0413	-0.053958964
9	0xbd0dff86	-0.034667514
10	0xbdace659	-0.08442373
11	0xbda59ad9	-0.080861755
12	0xbd0b4146	-0.033997796
13	0x3b2801fb	0.0025635946
14	0xbdaf4131	-0.08557356
15	0xbd54a5b2	-0.051915832
16	0xbd41f789	-0.04735521
17	0x3d83588a	0.06413372
18	0xbd98227a	-0.07428451
19	0xbda2f36d	-0.07956586
20	0xbd1b8282	-0.03796626
21	0xbd268532	-0.04065437
22	0x3d274458	0.040836662
23	0xbd4ecf7e	-0.05049085
24	0x3c3780c5	0.011200135
25	0xbd82aaf5	-0.06380264
26	0xbdabf389	-0.0839606
27	0xbdac40f2	-0.08410825
28	0xbbd3d2af	-0.0064643244
29	0xbcd78143	-0.026306754
30	0x3cc6ae47	0.024253024
31	0x3c327ca4	0.010893974
32	0x3d1d1065	0.038345713
33	0x3d838e54	0.06423631
34	0xbd331bb2	-0.043727584
35	0x3c54de2f	0.012992426
36	0xbd9d168b	-0.07670315
37	0x3c009d3d	0.0078499885
38	0xbd69ae63	-0.057051074
39	0xbc9f695b	-0.019459417
40	0x3c8929a8	0.016743496
41	0xbd031443	-0.032001745
42	0x3cf7f28b	0.03026702
43	0x39948aca	0.00028332166
44	0xbba264c0	-0.004955858
45	0x3cdfab5d	0.027303392
46	0x3ceb8078	0.028747782
47	0x3d9b3365	0.07578162
48	0x3d0859f3	0.033288907
49	0xbd164eed	-0.036696363
50	0x3bb3dc35	0.005488897
51	0xbdc2b904	-0.09507945
52	0xbd438e0b	-0.047742885
53	0x3cb20c24	0.021734305
54	0xbd27fddc	-0.041013584
55	0xbd2cb08f	-0.042160567
56	0x3c495983	0.012289408
57	0x3c56b94e	0.0131057035
58	0xbcb59c0e	-0.02216914
59	0x3cc3e89c	0.023914628
60	0xbd23b948	-0.03997162
61	0x3cc5ba2e	0.024136629
62	0x3d6a4bb9	0.05720112
63	0xbcd4f14b	-0.025993964
64	0x3cffa108	0.031204715
65	0x3cdba3d9	0.026811527
66	0xbda4e0f7	-0.08050721
67	0xbdc1b46c	-0.09458241
68	0xbd1ab9e4	-0.037774935
69	0xbd156097	-0.03646907
70	0xbc788a39	-0.015169674
71	0xbdcf1865	-0.10112075
72	0x3d7c9186	0.06166222
73	0x3d11c2f9	0.03558633
74	0x3db1434a	0.086554125
75	0xbde4d4d4	-0.11173406
76	0x3d732f8f	0.059371527
77	0xbdaae7a6	-0.08344965
78	0xbceb195f	-0.028698621
79	0x3c8ee75a	0.017444301
80	0x3c8f1a0e	0.017468479
81	0xbd849fff	-0.06475829
82	0xbd802c53	-0.06258454
83	0xbd7e054e	-0.062016778
84	0xbd5fb6f6	-0.054617845
85	0xbd0a582e	-0.0337755
86	0xbd201496	-0.039082132
87	0x3c83928b	0.016061088
88	0xbc40ac7d	-0.011759874
89	0xbd833fb5	-0.064086355
90	0x3c459813	0.012060183
91	0x3d958ef3	0.07302656
92	0xbd118345	-0.03552558
93	0x3d3fb007	0.046798732
94	0xbda1fd78	-0.079096735
95	0x3c5ed395	0.01360025
96	0x3d3ccfb0	0.046096504
97	0xbdb1e16a	-0.086855724
98	0x3cd7cfdd	0.026344234
99	0xbd8c47a5	-0.068496026
100	0x3d7c7b9a	0.061641313
101	0xbb3fa2d0	-0.002924133
102	0xbd852539	-0.0650124
103	0xbdc7b90e	-0.09752093
104	0x3d9e6ab2	0.07735194
105	0xbd0aae04	-0.03385736
106	0x3cf45062	0.029823486
107	0xbc83a281	-0.016068699
108	0x3d4e0106	0.050293945
109	0xbd655034	-0.05598469
110	0x3c5ebf5d	0.013595429
111	0xbd211d40	-0.039334536
112	0xbd0f0208	-0.034914047
113	0xbc9a1bbf	-0.018812058
114	0xbdad0db9	-0.08449883
115	0xbd8a15b5	-0.067424215
116	0xbd55adff	-0.05216789
117	0x3ce455fa	0.027873028
118	0xbd6f07c4	-0.058357015
119	0xbdbc223b	-0.091862164
120	0xbdc31d97	-0.09527128
121	0xbd7c1bde	-0.061550014
122	0xbd0a3879	-0.033745263
123	0xbc4196fd	-0.011815784
124	0xbbc99436	-0.0061517013
125	0xbd6f7db4	-0.05846949
126	0x3d6afac6	0.057368062
127	0xbdaa4551	-0.08314002
128	0xbd5fba30	-0.05462092
129	0x3bc67772	0.0060567195
130	0xbe03c4e0	-0.1286807
131	0xbd194ca6	-0.037426613
132	0xbe03f0e7	-0.12884866
133	0xbad03f15	-0.001588794
134	0x3daedfa5	0.085387506
135	0x3d19b00a	0.0375214
136	0xbcd1a4ea	-0.025591332
137	0xbb92654e	-0.004467643
138	0xbc4bafe8	-0.012432076
139	0xbc4f0755	-0.012636025
140	0xbd47b57f	-0.048757073
141	0xbdc68f94	-0.09695354
142	0xbd904d9c	-0.07046053
143	0x3c66e676	0.014093032
144	0xbda1082c	-0.07862887
145	0x3ce0ee80	0.027457476
146	0xbdebfdc1	-0.11523009
147	0x3ca76782	0.020435099
148	0x3ca88e70	0.020575732
149	0x3d824898	0.063615024
150	0x3bab762f	0.0052325944
151	0x3d2f3a2e	0.042780094
152	0x3db444d9	0.08802194
153	0xbd8471bd	-0.06467006
154	0xbd6f1987	-0.058373954
155	0xbe04c78a	-0.12966743
156	0x3ccfba0f	0.025357274
157	0x3d2615cf	0.040548142
158	0xbdc82707	-0.09773069
159	0xbdd666f9	-0.10468859
160	0xbdbf7c18	-0.09349841
161	0x3b5fd7d2	0.0034155739
162	0x3c808080	0.015686274
163	0xbdf939d2	-0.121692315
164	0xbdc0efe6	-0.09420757
165	0xbce829ec	-0.028340302
166	0xbdb0875d	-0.086195685
167	0x3d2033d9	0.039111946
168	0x3cc09bc8	0.023511782
169	0x3d04a394	0.032382563
170	0xbc5732c7	-0.013134665
171	0xbd78c505	-0.060734767
172	0xbd0f659e	-0.03500902
173	0x3cd09854	0.02546326
174	0x3d4f4eca	0.05061225
175	0xbcc633dc	-0.02419465
176	0xbd85acb2	-0.0652708
177	0x3c01c56d	0.007920605
178	0xbe09279a	-0.13394013
179	0x3c86c70e	0.016452339
180	0xbe1027f9	-0.14077748
181	0xbe272d1c	-0.16325802
182	0xbc92937c	-0.017892592
183	0x3c2a4f29	0.01039485
184	0xbd546a94	-0.051859453
185	0x3a773e1f	0.0009431559
186	0xbd5e8c3c	-0.054332957
187	0xbdbe25f5	-0.092845835
188	0xbdb7bd8f	-0.08971702
189	0xbd39356a	-0.045216955
190	0xbd83063f	-0.06397676
191	0xbe11ca97	-0.14237438
192	0xbd86550e	-0.06559192
193	0xbdad0cb4	-0.084496886
194	0x3d1e30ec	0.038620874
195	0xbcad0c18	-0.02112393
196	0x3d0cbd56	0.034360252
197	0xbd5a2e66	-0.053266905
198	0x3d363861	0.04448736
199	0xbdde8416	-0.10865037
200	0x3bb836fc	0.005621789
201	0xbe32985d	-0.17440934
202	0xbb815482	-0.0039468417
203	0xbe0ebd7f	-0.13939475
204	0xbc03ca1c	-0.008043792
205	0xbd5c1e34	-0.05373974
206	0x3cfe48f6	0.03104065
207	0x3ce28f6b	0.027656278
208	0xbc5f3fe7	-0.013626075
209	0x3d0aea46	0.033914827
210	0x3daf4b2e	0.08559261
211	0xbc8a2302	-0.016862396
212	0xbc9d72c7	-0.01921977
213	0x3cbfd188	0.023415342
214	0xbce1baac	-0.027554832
215	0x3d780e11	0.06056029
216	0xbd5b97d3	-0.053611588
217	0x3d8ce402	0.068794265
218	0xbc4c9e8a	-0.0124889705
219	0xbd3385d4	-0.0438288
220	0xbd07dff8	-0.033172578
221	0xbd97aad8	-0.07405633
222	0xbd7ee33d	-0.06222843
223	0x3d9499c6	0.072558925
224	0xbdaa6f36	-0.08321993
225	0x3d84227a	0.064518884
226	0xbd5a4554	-0.053288773
227	0xbd97a8ad	-0.07405219
228	0xbd9910cb	-0.07473906
229	0xbdb1c588	-0.08680254
230	0x3d2e5ac1	0.04256702
231	0xbd7b1853	-0.061302494
232	0xbc6bca7b	-0.014391537
233	0xbd99949c	-0.07499048
234	0xbdf82e08	-0.12118155
235	0x3d1be0b3	0.038056087
236	0x3bbcbee9	0.005760063
237	0xbdeb1ee0	-0.11480498
238	0x3c93351d	0.017969662
239	0x3d2a1f2b	0.04153363
240	0x3c8ecf4e	0.017432835
241	0x3d6c401d	0.05767833
242	0xbd9ff2db	-0.07809993
243	0x3ad6f19e	0.0016398912
244	0x3c9c362d	0.019068802
245	0x3ba16686	0.004925552
246	0xbdcb9260	-0.09940028
247	0x3dbde176	0.09271519
248	0x3d72245e	0.059116714
249	0x3d38ee91	0.04514939
250	0x3daa8ba1	0.08327413
251	0x3d2025ff	0.039098736
252	0x3d933c41	0.07189227
253	0xbdaff1d4	-0.08591047
254	0xbd0c422d	-0.034242798
255	0x3d98d2e4	0.07462099

fc3.bias f4 [64]
0	0x3d5089ab	0.05091254
1	0xbe0012c2	-0.12507156
2	0xbe1479a1	-0.14499523
3	0x3f055e25	0.5209678
4	0x3eafe80e	0.3435673
5	0xbd971027	-0.07376128
6	0xbdd73a19	-0.10509128
7	0x3d8b1f8a	0.06793125
8	0x3d9bf719	0.076154895
9	0x3d9702f2	0.07373609
10	0x3fa43069	1.2827274
11	0xbd8b76fc	-0.06809804
12	0xbb7a7cea	-0.0038221427
13	0xbcec7590	-0.028864652
14	0xbcd8b64f	-0.026454119
15	0xbde032a5	-0.1094716
16	0x3c4f8ed4	0.01266833
17	0xbe48dd63	-0.19615702
18	0x3d4ada38	0.049524516
19	0x3f093463	0.5359556
20	0xbc9272b2	-0.017876957
21	0x3fc2754d	1.5192047
22	0x3edb81d6	0.42872494
23	0x3f369b7c	0.71331
24	0xbd4dd95b	-0.050256114
25	0xbda8ba6c	-0.08238682
26	0xbcd68338	-0.026185617
27	0x3b821861	0.0039701913
28	0x3f530c8e	0.8244103
29	0x3fa72bb7	1.3060216
30	0x3f1ea6ed	0.6197346
31	0x3e7cf0d6	0.24701247
32	0xbd1ed178	-0.038773984
33	0xbd569e85	-0.05239727
34	0xbe53ad5b	-0.20671599
35	0x3fc93492	1.5719168
36	0x3cc31052	0.023811493
37	0xbd736674	-0.05942388
38	0x3f41c695	0.7569364
39	0x3c541f9b	0.012946988
40	0x3ef00600	0.46879578
41	0x3fb84051	1.4394628
42	0x3c67ae0c	0.014140617
43	0xbdaf7b50	-0.08568442
44	0x3a1b47b4	0.00059234654
45	0x3fa77a2c	1.3084159
46	0x3f8b3ee6	1.087857
47	0x3f1864cf	0.5952882
48	0x3f84760b	1.0348524
49	0xbd1583cb	-0.03650264
50	0xbd7d9620	-0.06191075
51	0xbcf1c5f2	-0.029513333
52	0x3f67c83a	0.90539896
53	0x3e0da0cf	0.13830875
54	0x3f0f58ed	0.55995065
55	0x3cecd59b	0.028910449
56	0xbdded10c	-0.10879716
57	0x3d52fac9	0.0515087
58	0x3d9592cd	0.07303391
59	0x3fcb1ecc	1.5868773
60	0x3d509700	0.050925255
61	0x3f41d376	0.7571329
62	0x3cbd4458	0.023103878
63	0xbe233d89	-0.15941443

fc4.weight f4 [20, 64]
0	0xbce8147d	-0.028330082
1	0x3c2a60ac	0.010399025
2	0x3d337fea	0.04382316
3	0x3dc5b11c	0.096529216
4	0x3ca5685b	0.020191362
5	0xbd7bfa0b	-0.061517756
6	0xbc441b85	-0.011969452
7	0xbcb6b89a	-0.022304822
8	0x3d88078d	0.06642065
9	0x3d92124a	0.071323946
10	0x3ed518f7	0.4162061
11	0x3d8d6e78	0.06905836
12	0x3d2e20d4	0.042511776
13	0x3e16f333	0.1474121
14	0xbcd6c219	-0.0262156
15	0xbdd33b02	-0.10313989
16	0x3d654118	0.05597028
17	0xbddfd75d	-0.10929749
18	0x3d334b24	0.04377283
19	0x3d5524f1	0.052037183
20	0xbea9b7eb	-0.3314813
21	0x3eabb8f8	0.33539557
22	0x3e0d18f3	0.13779049
23	0xbc7c919b	-0.015415574
24	0x3d12ac7e	0.035809033
25	0x3d6db747	0.058036115
26	0xbdb33c60	-0.0875175
27	0x3ccffbd2	0.025388632
28	0x3de8cae0	0.1136682
29	0x3e86d3fd	0.2633361
30	0x3e3438ea	0.17599836
31	0x3cfef6e4	0.031123586
32	0x3dc7bb20	0.09752488
33	0xbd140a19	-0.036142442
34	0xbe434372	-0.19068697
35	0x3e8a68ad	0.27032986
36	0xbdbc2f8c	-0.09188756
37	0x3c4b4880	0.012407422
38	0x3c975a92	0.018475804
39	0xbd9d5d29	-0.076837845
40	0x3e42bb94	0.19016868
41	0x3e7d5430	0.24739146
42	0xbd8567dd	-0.06513951
43	0x3c9c5af4	0.019086339
44	0x3dbf34e0	0.09336257
45	0x3e4b579b	0.19857638
46	0x3eb565cf	0.35429236
47	0x3c9c2ada	0.019063402
48	0x3ea03283	0.31288537
49	0xbd1b78ad	-0.037956882
50	0xbdd8da11	-0.10588468
51	0x3ce04bf1	0.027379962
52	0x3d97a8c7	0.074052386
53	0x3d5d0b4d	0.053965855
54	0x3c1f88d1	0.009737209
55	0x3c2fa4a5	0.010720407
56	0x3d21b326	0.03947749
57	0x3df52b02	0.11971094
58	0x3d0f72ee	0.035021715
59	0x3e6e8abe	0.23295113
60	0x3da2fe67	0.0795868
61	0x3e8a8cff	0.27060696
62	0x3d665224	0.05623068
63	0xbe24b007	-0.16082774
64	0xbc0b74be	-0.00851172
65	0x3e593328	0.21210921
66	0xbd01e4fb	-0.031712513
67	0x3d19af92	0.037520953
68	0x3e28ea04	0.1649552
69	0xbde8972f	-0.11356961
70	0xbd3ba09b	-0.045807462
71	0xbbf61814	-0.0075101946
72	0x3d1a493a	0.03766749
73	0x3dae8b26	0.08522634
74	0x3e5bd732	0.21468809
75	0x3d0d5a63	0.034510028
76	0xbd8098b1	-0.062791236
77	0xbd92aae2	-0.071614996
78	0x3cda8e7f	0.026679276
79	0x3d2d3aa4	0.042292252
80	0x3bbfef20	0.0058573633
81	0xbdae5582	-0.08512403
82	0x3c378dc6	0.011203235
83	0xbcf908df	-0.030399738
84	0xbd56c30a	-0.052432097
85	0x3e6d08c3	0.23147874
86	0x3c7b381f	0.0153332045
87	0xbdaaa245	-0.08331732
88	0x3db1e7f8	0.08686823
89	0x3df32094	0.11871448
90	0xbc953b99	-0.018216895
91	0xbd41b65d	-0.047293056
92	0x3d1e9799	0.038718794
93	0x3e557fb0	0.2084949
94	0x3e0633d6	0.13105711
95	0x3cf51c03	0.029920584
96	0xbd1a1160	-0.037614226
97	0xbda165cf	-0.078807466
98	0xbe60d8a1	-0.21957637
99	0x3e95adfc	0.29234302
100	0x3d9026c8	0.07038647
101	0xbd7d0fc4	-0.061782613
102	0xbc0376b0	-0.008023903
103	0xbddfc2f3	-0.109258555
104	0x3e08cc63	0.13359217
105	0x3e95d6a5	0.29265323
106	0x3dddd4c7	0.108316
107	0xbd888ad6	-0.06667106
108	0x3d9bc81a	0.07606526
109	0x3db67654	0.08909288
110	0x3ebd8549	0.3701575
111	0x3d4828f3	0.048867177
112	0x3e86217b	0.2619742
113	0xbd75bbc0	-0.059993505
114	0x3d5f1f5a	0.05447326
115	0x3e25fe89	0.16210379
116	0x3e5f44b5	0.21803553
117	0x3ea056b7	0.31316158
118	0x3d377458	0.04478869
119	0x3d442013	0.04788215
120	0x3dfaeb0c	0.12251863
121	0xbc593f2c	-0.01325969
122	0xbccd6799	-0.025073813
123	0x3e816c94	0.2527815
124	0xbd575a7e	-0.052576534
125	0x3e8910ab	0.2677053
126	0x3baeeb00	0.005338073
127	0xbe1817cf	-0.14852832
128	0x3d3e3749	0.046439443
129	0xbd7c03e3	-0.061527144
130	0xbc92307b	-0.017845383
131	0xbd562b7c	-0.052287564
132	0x3e56d6b2	0.20980337
133	0x3dba48dd	0.09095929
134	0xbd45c1b2	-0.048280425
135	0x3d63ee64	0.05564727
136	0x3d8e28c0	0.06941366
137	0x3c9aa560	0.018877685
138	0x3e0a5092	0.13507298
139	0xbbb8bfad	-0.005638084
140	0x3d2305e5	0.039800543
141	0x3d90f2f6	0.07077591
142	0xbba6f807	-0.005095485
143	0xbc6510a0	-0.0139810145
144	0xbdc75b64	-0.09734228
145	0xbe05e03d	-0.13073821
146	0xbc0c861e	-0.008576898
147	0xbdeb7d49	-0.114985056
148	0xbd5562c4	-0.052096143
149	0x3e9c10f9	0.304817
150	0x3db018a1	0.085984476
151	0x3dab8fdb	0.08377048
152	0x3d37ffb8	0.044921607
153	0x3c57c610	0.01316978
154	0x3d88d0ec	0.06680474
155	0x3d7905e1	0.060796622
156	0xbe168434	-0.14698869
157	0x3dbe7948	0.09300476
158	0x3d3dbacc	0.04632072
159	0xbd07eef7	-0.03318688
160	0xba106500	-0.0005508214
161	0x3d99343b	0.07480665
162	0xbe8bcb9d	-0.27303782
163	0x3e97c10d	0.29639474
164	0xbddafc88	-0.10692698
165	0x3dfc1426	0.123085305
166	0x3da4b264	0.08041838
167	0x3c755b10	0.014975324
168	0x3e4564e1	0.19276763
169	0x3e2259fe	0.15854642
170	0x3c9138d3	0.017727291
171	0xbd3c5d74	-0.04598756
172	0x3dc93748	0.09824997
173	0x3e27e123	0.16394477
174	0x3e704b80	0.23466301
175	0xbd851632	-0.06498374
176	0x3e9da4bb	0.30789742
177	0xbca5845d	-0.020204717
178	0x3db800af	0.089845054
179	0xbe1a2f1b	-0.15057032
180	0x3d556059	0.052093837
181	0x3e5e09bb	0.216834
182	0x3d9ac736	0.07557528
183	0xbddd567a	-0.1080751
184	0xbca61e60	-0.020278156
185	0x3cda11e5	0.02661986
186	0x3d953a9b	0.07286569
187	0x3e3499aa	0.17636743
188	0xbddaaaaa	-0.10677083
189	0x3e7b99ee	0.24570438
190	0x3d0f1078	0.034927815
191	0xbe3ab276	-0.1823214
192	0x3d87e351	0.06635154
193	0xb987f281	-0.00025929886
194	0xbc5bfd9e	-0.013427166
195	0xbcbd49e0	-0.023106515
196	0xbdd6d4d7	-0.10489815
197	0xbc1fba52	-0.009749012
198	0xbe1a3ecd	-0.15063019
199	0x3cdb3dbf	0.026762841
200	0x3cc6a093	0.02424649
201	0xba1ece00	-0.0006057918
202	0x3e5de535	0.21669467
203	0x3d0efd4f	0.034909543
204	0x3d35ebc4	0.044414297
205	0xbd563524	-0.052296773
206	0xbe067e59	-0.13134135
207	0x3dedd994	0.11613765
208	0x3db4bb22	0.08824755
209	0xbde636af	-0.11240899
210	0xbcdc63af	-0.026903002
211	0x3d9cf21e	0.07663368
212	0xbd9d1de9	-0.076717205
213	0x3e880bc5	0.2657148
214	0x3e5e7b45	0.21726711
215	0x3d21c494	0.039494112
216	0x3dc4b633	0.09605064
217	0x3d10b50c	0.03532891
218	0x3c34be08	0.011031635
219	0x3ac7fa29	0.0015257049
220	0x3e5ebb68	0.21751177
221	0x3e3279b5	0.1742924
222	0x3cae0a88	0.021245256
223	0x3e564e07	0.20928203
224	0x3d44a53c	0.048009142
225	0x3d2b01c9	0.04174975
226	0xbe03515c	-0.12824005
227	0x3e82d99b	0.25556645
228	0xbd76df5c	-0.060271606
229	0x3d16f784	0.036857143
230	0x3c253636	0.010083726
231	0xbd42c1a0	-0.047547936
232	0x3e523665	0.20528562
233	0x3eaf6a41	0.34260753
234	0xbdd5f82d	-0.104477264
235	0x3da5b90c	0.080919355
236	0x3d25f430	0.04051608
237	0x3e890099	0.26758268
238	0x3eb35cb5	0.35031667
239	0x3d805d3c	0.06267783
240	0x3e68193c	0.22665876
241	0xbe483dfb	-0.19554894
242	0x3df7c892	0.120988026
243	0x3d9b4827	0.07582121
244	0x3e5c3c40	0.21507359
245	0x3e22afc0	0.15887356
246	0x3e6fcc7e	0.23417851
247	0xbd47f4ef	-0.04881757
248	0xbdb5c6d2	-0.088758126
249	0xbddf6190	-0.109072804
250	0x3d7c539e	0.06160318
251	0x3e6ceffa	0.23138419
252	0xbd9b90d6	-0.07595985
253	0x3ec2c4db	0.38040814
254	0xbd2fbb38	-0.042903155
255	0xbe3488e7	-0.17630349

fc4.bias f4 [20]
0	0x3f8bbc90	1.091692
1	0x3ee110fd	0.43958274
2	0x3ed1330e	0.40859264
3	0x3eeb30fa	0.45935804
4	0x3ed321ee	0.41236824
5	0x3efa993d	0.48945037
6	0x3e62cbc4	0.22148043
7	0x3e7311d8	0.23737276
8	0x3e589f31	0.21154477
9	0x3e35ed5b	0.17766325
10	0x3d53f413	0.05174644
11	0x3c84a5f6	0.016192418
12	0x3c0e4db3	0.008685517
13	0xbd25fe7e	-0.040525906
14	0xbe328071	-0.17431809
15	0x3c8ec652	0.01742855
16	0xbd8cef65	-0.068815984
17	0xbef5e9c8	-0.48029923
18	0xbe5e5278	-0.21711147
19	0xbe7ad054	-0.24493533

fc1.weight f4 [128, 3]
0	0x3cf4b7d8	0.02987282
1	0x3e8e7cc6	0.2782957
2	0xbcbaea44	-0.022816785
3	0x3e2cf00e	0.16888449
4	0xbf0609e3	-0.52358836
5	0xbeed8c57	-0.46396133
6	0x3e716c0e	0.23576376
7	0x3dce20c7	0.100648455
8	0x3d4ac120	0.049500585
9	0x3e246b0d	0.16056462
10	0x3e3fa85e	0.1871657
11	0xbe158912	-0.1460307
12	0xbe58646c	-0.21132058
13	0x3f0e0b6d	0.55486184
14	0xbdded998	-0.108813465
15	0x3c937eb5	0.018004755
16	0xbf0130b2	-0.5046493
17	0xbefaa8b6	-0.4895684
18	0xbe841953	-0.2580057
19	0x3e9d303b	0.3070086
20	0x3d8c79e5	0.06859187
21	0xbf0cbc1d	-0.5497454
22	0xbee1bbff	-0.44088742
23	0xbdef4bad	-0.11684356
24	0xbe96bdfd	-0.29441825
25	0xbe28230f	-0.16419624
26	0x3e53431e	0.20631072
27	0x3e1c1335	0.15241702
28	0xbe8082d7	-0.25099823
29	0x3d11018c	0.035401866
30	0xbe80715f	-0.25086495
31	0xbd83dc4c	-0.06438503
32	0xbec1f3c3	-0.37881288
33	0x3e2ab8da	0.16672078
34	0x3ec6351a	0.38712388
35	0x3d449fb5	0.04800387
36	0xbece3468	-0.40274358
37	0xbea5877b	-0.32329926
38	0xbf02dba0	-0.5111637
39	0x3e69db3a	0.22837535
40	0x3d1b22b2	0.037874885
41	0x3c6ed5a5	0.014577304
42	0x3ed38740	0.41314125
43	0xbf0ce8ee	-0.5504292
44	0xbef6423a	-0.48097402
45	0xbed438e7	-0.41449663
46	0xbe894f30	-0.26818228
47	0xbe6109f0	-0.21976447
48	0xbeb58e7f	-0.35460278
49	0xbf149e75	-0.58054286
50	0x3e0798a3	0.1324182
51	0xbeabaff2	-0.33532673
52	0xbf266859	-0.6500297
53	0x3b3e5e00	0.0029047728
54	0xbea7a266	-0.32741088
55	0xbeb07b4f	-0.34469077
56	0xbe49dd60	-0.19713354
57	0xbeaa4801	-0.3325806
58	0x3d81ac0c	0.063316435
59	0x3ceb9f9e	0.028762635
60	0xbceadca5	-0.028669665
61	0x3e665f37	0.22497259
62	0xbc74971a	-0.014928604
63	0xbee542af	-0.44777438
64	0x3ee10915	0.43952242
65	0xbeebbf4f	-0.46044394
66	0x3f0f3fe7	0.5595688
67	0x3df61972	0.12016572
68	0x3d8ce9e0	0.068805456
69	0xbefbfd5d	-0.49216738
70	0x3e327e0f	0.174309
71	0x3d7dabce	0.061931424
72	0x3e994bdb	0.29940686
73	0xbe7db56e	-0.24776241
74	0x3cecb85e	0.028896507
75	0xbeb3cedd	-0.35118762
76	0xbeb4654a	-0.35233527
77	0xbf0a2e6e	-0.53977096
78	0x3d3d8eaf	0.04627865
79	0x3e495e9f	0.19665001
80	0x3ce179ce	0.027523901
81	0xbe99e517	-0.30057594
82	0x3e7beebc	0.24602789
83	0xbe74aca2	-0.23893979
84	0x3e22c02f	0.15893625
85	0xbd13bc81	-0.036068443
86	0xbeb37584	-0.35050595
87	0xbe81f794	-0.253842
88	0x3ecbcd63	0.39805135
89	0xbf3b9fd0	-0.7329073
90	0x3e2248f1	0.15848137
91	0xbeda4af8	-0.42635322
92	0x3d5dd683	0.054159652
93	0x3e48d3b3	0.19612007
94	0xbd4d0307	-0.050051715
95	0xbe4c7b9c	-0.19969028
96	0xbef909e9	-0.48640373
97	0xbed36439	-0.412874
98	0xbe0d1a35	-0.13779528
99	0xbe2fbf65	-0.17162855
100	0x3da2a8b9	0.079423375
101	0xbaeb5aa3	-0.0017956089
102	0x3cd8c697	0.026461883
103	0xbec6d6dd	-0.38835803
104	0x3e4e8681	0.20168497
105	0xbe79b2a2	-0.2438455
106	0xbf31be4c	-0.69430995
107	0x3d86a33b	0.065741025
108	0xbf0504b9	-0.5196033
109	0xbd924289	-0.07141597
110	0x3d9a6f76	0.07540791
111	0xbce4741e	-0.0278874
112	0xbef25706	-0.4733202
113	0x3dcb81a3	0.099368356
114	0x3e5d1582	0.21590236
115	0xbdc92a9e	-0.09822582
116	0xbf2be422	-0.6714498
117	0xbee282e1	-0.44240478
118	0xbd984a39	-0.07436032
119	0x3e541636	0.20711598
120	0x3ea48981	0.32136157
121	0xbd7841f2	-0.060609765
122	0xbdc8c503	-0.09803202
123	0xbe5d8d87	-0.2163602
124	0xbe8b855a	-0.27250177
125	0xbee67776	-0.45013016
126	0x3e173587	0.14766513
127	0x3e2d8db2	0.16948584
128	0x3e1dd085	0.15411575
129	0x3eb030e4	0.344123
130	0x3bc98ce0	0.006150827
131	0xbf32764e	-0.6971177
132	0xbefc3c81	-0.4926491
133	0x3ddff116	0.10934655
134	0x3cb73d6f	0.022368161
135	0x3e2214d6	0.15828261
136	0xbebf7bf4	-0.37399256
137	0xbaa0db4a	-0.0012272384
138	0xbf133de7	-0.5751633
139	0xbe84cc12	-0.25936943
140	0xbe5948c2	-0.21219161
141	0xbe56548d	-0.20930691
142	0xbe2e9204	-0.17047888
143	0x3dd749f0	0.10512149
144	0x3f10324c	0.56326747
145	0x3dc5d4da	0.09659739
146	0x3d9b7111	0.07589925
147	0xbe3e7e93	-0.18602972
148	0xbf85b131	-1.04447
149	0x3dbdecff	0.09273719
150	0x3e72ab13	0.23698072
151	0x3e89020b	0.2675937
152	0x3ccab005	0.024742136
153	0x3d275d43	0.040860426
154	0x3e834445	0.25638023
155	0xbecdd463	-0.402011
156	0xbf0704e6	-0.5274185
157	0xbf08d638	-0.5345187
158	0xbe892049	-0.26782444
159	0xbe27b466	-0.1637741
160	0xbe31ca43	-0.17362313
161	0xbe4a3146	-0.19745359
162	0xbf002702	-0.5005952
163	0x3e3b8c8c	0.18315333
164	0x3d2d3260	0.04228437
165	0x3dca1e05	0.09869007
166	0xbe3e0463	-0.18556361
167	0x3c9f3fd2	0.019439612
168	0x3e1c92a1	0.1529031
169	0xbe4aee78	-0.19817531
170	0x3d0f0dd2	0.03492529
171	0xbde074ba	-0.10959764
172	0xbe327b95	-0.17429955
173	0x3e5eaea7	0.21746312
174	0xbf0c0dfb	-0.5470883
175	0xbe8969ba	-0.26838475
176	0xbebb8328	-0.36623502
177	0xbe0f489d	-0.13992544
178	0xbdee7046	-0.11642508
179	0x3dec3da7	0.11535197
180	0x3e90cd91	0.28281835
181	0x3ef59646	0.47966212
182	0xbe824298	-0.25441432
183	0x3b20f8e0	0.0024562404
184	0x3ed0b2c0	0.40761375
185	0xbcae3b06	-0.021268379
186	0xbe827daa	-0.254865
187	0x3e92a1a0	0.28638935
188	0x3e19307d	0.14959903
189	0x3f03dca3	0.5150854
190	0x3b4d4bc8	0.0031325687
191	0xbe514f38	-0.20440376
192	0xbf01e65b	-0.5074212
193	0xbdf7bcbe	-0.120965466
194	0xbea297a2	-0.31756312
195	0x3e1704ae	0.14747879
196	0x3e6b5192	0.22980335
197	0xbd1b6a54	-0.0379432
198	0x3ed2b8fa	0.4115675
199	0xbe96f90f	-0.29486892
200	0xbec30936	-0.38092965
201	0x3ebc11a2	0.36732203
202	0x3e22f6c7	0.1591445
203	0xbeaf6e9d	-0.3426408
204	0x3dbe69a3	0.09297492
205	0xbea80206	-0.32814044
206	0x3d351293	0.044207167
207	0xbf0bddd4	-0.5463536
208	0xbe8a4231	-0.27003625
209	0x3e8f27ae	0.2795996
210	0x3d9cf2ad	0.07663474
211	0xbe7e86b3	-0.24856071
212	0x3e3b675c	0.18301147
213	0xbe152abe	-0.14567086
214	0xbe618be3	-0.22026019
215	0x3e2b7c6d	0.16746683
216	0xbe161086	-0.1465474
217	0xbe87c082	-0.2651406
218	0xbef0275a	-0.46905023
219	0x3d54b57d	0.051930893
220	0x3d5945bf	0.05304503
221	0xbe269297	-0.16266857
222	0xbeecaaab	-0.4622396
223	0xbe29fa3c	-0.16599363
224	0xbe699000	-0.22808838
225	0x3e394d6c	0.1809594
226	0xbda81af2	-0.082082644
227	0x3d16abc3	0.0367849
228	0xbdb18739	-0.0866837
229	0x3f047d4d	0.51753694
230	0xbeaeff4e	-0.34179157
231	0x3e4e30ba	0.20135775
232	0xbde68ffa	-0.1125793
233	0x3b27302e	0.0025510895
234	0xbe1b7d91	-0.15184619
235	0xbd412f2f	-0.04716414
236	0x3c972263	0.018449014
237	0x3ea17c18	0.3153999
238	0xbce93bd1	-0.028470905
239	0xbedd76b6	-0.43254632
240	0xbda59500	-0.0808506
241	0x3eceddf3	0.4040371
242	0xbc85c20a	-0.016327877
243	0x3f24ffc7	0.64452785
244	0x3ebfc9f6	0.3745877
245	0xbebc73f1	-0.36807206
246	0xbcc082ee	-0.023499932
247	0x3e6df040	0.2323618
248	0x3db7ffcb	0.089843355
249	0x3ee2e8a7	0.44318125
250	0xbde7a9f1	-0.113117106
251	0xbf105cfc	-0.5639188
252	0xbeb6d463	-0.35708913
253	0xbf049514	-0.51789975
254	0xbeedc797	-0.46441337
255	0x3e884805	0.26617447

fc1.bias f4 [128]
0	0x400c975c	2.1967382
1	0x3ed1e6d6	0.40996426
2	0xbf6f15b7	-0.9339251
3	0x3ff32b23	1.8997539
4	0x3f2ad821	0.66736037
5	0xbe2815da	-0.16414586
6	0xc00ce2b0	-2.201336
7	0xbe5d0f2b	-0.21587817
8	0xc00ec57e	-2.230804
9	0x3fa83bc8	1.3143244
10	0xbeda5485	-0.42642608
11	0x3fdd2713	1.727755
12	0x3e3aa4b2	0.18226889
13	0x3ea6f2a5	0.32606998
14	0x3e176ce7	0.14787637
15	0xbec22bdf	-0.37924096
16	0x3f450a8f	0.76969236
17	0xbf1e247b	-0.61774415
18	0xbee6e2bb	-0.45094857
19	0xbfb3c246	-1.4043663
20	0x3fefb2ff	1.87265
21	0x3f5f449b	0.8721406
22	0xc0264506	-2.5979629
23	0x400ee198	2.2325191
24	0x400a4e12	2.161015
25	0x3dd4e344	0.1039491
26	0x3f8bf0b7	1.0932835
27	0xbe2cc949	-0.16873659
28	0x3fc46379	1.5342857
29	0x3f609b5d	0.87737066
30	0xbf67ec37	-0.9059481
31	0x3fee1adf	1.860195
32	0xbedd85b7	-0.4326608
33	0x4008b5d0	2.136097
34	0xc00f1f7d	-2.236297
35	0xbe470d08	-0.19438565
36	0xbf9df23c	-1.2339549
37	0xbff21704	-1.8913274
38	0x3fd5ea0e	1.6712053
39	0xbff4466b	-1.908399
40	0x3dade21f	0.08490395
41	0xbe8418c9	-0.2580016
42	0xc00ac4ae	-2.1682544
43	0x3fcc6e99	1.5971252
44	0x3d6ac522	0.057316907
45	0xbf322064	-0.69580674
46	0xbebf41d4	-0.3735491
47	0xbfd8c838	-1.6936102
48	0xbff2c7ab	-1.8967184
49	0xbfc7a4e1	-1.5597192
50	0xbfa288b3	-1.2697967
51	0x40005677	2.0052774
52	0xbf0e290c	-0.5553138
53	0x3dd3ecbd	0.103478886
54	0x3feb512b	1.8384145
55	0x4030ec14	2.764409
56	0x400fdc5f	2.2478254
57	0xbfec5e00	-1.8466187
58	0xbec6e77a	-0.38848478
59	0xc003b547	-2.0579393
60	0xbebb1954	-0.3654276
61	0x4002218f	2.0332983
62	0x3fc8f2de	1.5699117
63	0x3faef1b4	1.3667512
64	0xbe8e1d54	-0.2775675
65	0x400a1bce	2.157947
66	0x3fcaa086	1.5830238
67	0x3f16342e	0.5867337
68	0x400e9595	2.2278798
69	0x3f969fce	1.1767519
70	0xbfbc3255	-1.470286
71	0x3fdb4044	1.7128987
72	0x3e8859e5	0.26631084
73	0x3fe07047	1.7534264
74	0x3ed1fcde	0.41013235
75	0xbf9b5c63	-1.2137569
76	0x40039d50	2.0564766
77	0x40204f31	2.5048335
78	0xbf1684da	-0.58796465
79	0x3f01ac30	0.5065336
80	0x401ab6b1	2.4174006
81	0xbf6cb9d8	-0.92471075
82	0xbfd4c3f4	-1.66223
83	0x3f4179d4	0.7557652
84	0x3e7c3a7e	0.24631688
85	0x3fd942b8	1.6973486
86	0x3f13a07b	0.5766675
87	0x400288e5	2.0396054
88	0x3cbf20b4	0.023331024
89	0x3fda631d	1.7061497
90	0x3ffd53b5	1.979117
91	0xbe39e612	-0.18154171
92	0x3ff5ba8a	1.9197552
93	0xbe2e3b71	-0.17014863
94	0x3e76a2a1	0.24085476
95	0xbe8059d9	-0.25068548
96	0xbe3aef9b	-0.18255465
97	0xbfac6a34	-1.3469911
98	0xbf50bd74	-0.8153908
99	0xc0075765	-2.1147091
100	0xbfa2d1f8	-1.2720327
101	0xbe86403a	-0.26220876
102	0x3fc28538	1.5196905
103	0x3f9045b6	1.1271274
104	0x3f12f92e	0.5741147
105	0xbfe8e195	-1.8193842
106	0xbd0f71b7	-0.035020556
107	0x3ef5b14c	0.4798683
108	0x3faf688d	1.3703781
109	0xbd2b6a5f	-0.04184949
110	0xbfd3869f	-1.6525458
111	0x3f0b84a9	0.544993
112	0x3db7b6cb	0.08970412
113	0x40105a8b	2.2555263
114	0xbed775ae	-0.4208197
115	0xbfe51e5f	-1.7899894
116	0x3f6cb820	0.9246845
117	0x3df5de95	0.12005345
118	0x3f14a915	0.580705
119	0x402ac7a5	2.6684353
120	0x4000efd7	2.0146387
121	0xbfe378f6	-1.7771289
122	0xbff1e53c	-1.8898082
123	0xbdb1b164	-0.08676413
124	0x3f108c16	0.56463754
125	0xbf1ef81d	-0.6209734
126	0x3fd99a50	1.7000217
127	0x3fddd509	1.7330638
