models/dqn_agent_firm_1_episode_1000.pth (torch, 101224 bytes, 24 tensors)

fc1.weight f4 [64, 3]
000000 92 32 5b 3f e5 43 a7 3e 5f 25 a9 bd c8 a1 19 3f
       0.8562404 0.32668987 -0.08259081 0.60012484
000010 b9 e5 8f 3d 36 1d 10 bc c7 9b 59 be 0f db 4b be
       0.07026238 -0.008796027 -0.2125083 -0.19907783
000020 80 c0 04 3d 6b ec 48 bd 5e 14 21 be 25 fc 3d 3c
       0.032410145 -0.04905359 -0.15730426 0.0115957605
000030 17 75 32 be 27 74 ad 3e 8f 1c 1f 3e f2 98 80 3d
       -0.17427479 0.3387768 0.15538238 0.06279172
000040 e0 5e f2 3d 73 29 a8 be 5b 14 47 be 15 c7 9c 3d
       0.11834502 -0.32844123 -0.19441359 0.076551594
000050 ce cd 5c 3c 52 7f 78 3d 02 3e 76 bb 8c 72 2d be
       0.013476802 0.060668297 -0.003757358 -0.16938227
000060 8e 09 99 3d 1a 74 9a 3e 0a ed 49 3e 17 fd 45 3f
       0.074725255 0.30166703 0.1971933 0.7733931
000070 4b d4 86 be ad 00 1a 3d b3 33 1a bf 60 28 dd 3e
       -0.26333842 0.0375983 -0.60235137 0.43194866
000080 61 ea 90 be e8 2a 12 3e b5 3f b8 3d 83 ea 64 be
       -0.28303817 0.1427418 0.08996526 -0.22355084
000090 64 85 89 be e2 7b 38 3a 07 fd 1a 3d 5d cd c8 be
       -0.2685958 0.0007037503 0.037838962 -0.3921918
0000a0 6c 34 70 3e 8f 6d 8f 3d 14 ee 03 be 15 d1 73 3e
       0.23457497 0.070033185 -0.12883788 0.23810227
0000b0 aa 13 27 ba 60 7a 20 be 14 39 bc 3e 7c 01 38 bb
       -0.00063734746 -0.15671682 0.36762297 -0.0028077057
0000c0 51 1b af 3d 1d 40 12 3e 57 87 02 be 0e 83 7c 3c
       0.08550132 0.1428227 -0.1274694 0.015412105
0000d0 8a 03 42 bf 85 32 70 b8 8d cf bf 3e 9b 49 10 bf
       -0.7578665 -5.726751e-05 0.37463036 -0.56362313
0000e0 25 ce 03 bf 64 dc 27 3d 0c 2b 60 3e f5 3c 15 3e
       -0.51486427 0.040981665 0.21891421 0.14574035
0000f0 fc f1 1d 3f 34 a8 3d 3f 6b 91 fd 3e 0f 75 93 be
       0.61697364 0.7408478 0.49525008 -0.28800246
000100 67 04 0e 3c 3c d0 33 3d 34 f3 18 3e f1 2c 4b 3e
       0.008668042 0.04389976 0.14936525 0.19841363
000110 df 85 84 bc fa be 65 3e c0 a1 f4 be 0e 9d 05 bf
       -0.016177116 0.22436133 -0.47779655 -0.5219277
000120 10 75 7c be f3 29 31 3f 5f 4e cb bd 15 73 d8 3d
       -0.24654031 0.69204634 -0.099270575 0.10568825
000130 f3 ed 0a 3f 8b 16 9c bd b9 8a b8 be 0d 48 09 be
       0.5426933 -0.07621487 -0.36043337 -0.13406391
000140 8a 5c 8c be ca e8 98 3e 03 a3 06 bf f3 c3 9c 3e
       -0.27414352 0.29865104 -0.52592486 0.30618247
000150 14 b5 d6 be 49 b4 d4 be 94 29 22 be d2 93 5a be
       -0.41935027 -0.41543797 -0.15836173 -0.21345451
000160 d1 90 c6 be 98 92 8b 3e 54 a1 5a be 05 77 e7 be
       -0.3878236 0.2726028 -0.21350604 -0.45207992
000170 1b 9e 0c bf 92 ca 19 bf bc 5a 06 3d 92 a1 08 be
       -0.5492875 -0.6007472 0.032801375 -0.13342884
000180 51 c1 bb 3e 65 ce a0 3e 4b 68 33 3d cd 6d 71 3e
       0.36670926 0.31407467 0.043800633 0.23577042
000190 98 03 35 3e 13 56 fd 3a 29 c8 8d be be 08 71 bd
       0.17677152 0.001932802 -0.27691773 -0.058846228
0001a0 ec ed 41 3e e1 49 5d be de 44 4b 3c 87 58 0e bf
       0.18938416 -0.21610214 0.012406556 -0.5560383
0001b0 93 5f e2 3e 7d 97 b7 bc 65 1e 22 3c 57 15 7c 3e
       0.44213542 -0.022411102 0.009894942 0.24617516
0001c0 c7 66 2a 3e 36 10 3e 3d e8 ac be be ab 39 c5 bd
       0.16640769 0.04640218 -0.37241292 -0.0963014
0001d0 f5 60 54 3e 4d d9 f0 be 6e 59 27 be 58 34 81 be
       0.20740111 -0.47040787 -0.16342708 -0.25235248
0001e0 b4 ef da be 6e f8 88 3d e2 c8 13 bf 01 80 1b be
       -0.42761004 0.06688009 -0.577284 -0.15185548
0001f0 aa d2 50 be 93 fc 79 3d 7d 27 14 bf 65 15 0b 3e
       -0.20392862 0.06103189 -0.57872754 0.1358238
000200 34 97 9c 3d 48 e5 5d 3e 88 53 8c be 36 f8 db 3d
       0.07646027 0.21669495 -0.2740748 0.10740702
000210 59 fb a3 bd 83 30 08 3f a2 96 47 3e e3 91 df 3d
       -0.08006925 0.53199023 0.19491056 0.109164976
000220 f9 ce 4f 3d ae 1b b5 3c e1 28 f8 3c 84 5a e0 bd
       0.050734494 0.022107925 0.03029293 -0.109547645
000230 93 81 b6 be 0f b3 4b be 13 bf 02 be e0 49 a6 3d
       -0.35645732 -0.19892524 -0.12768202 0.08119559
000240 37 2d 67 bf 46 42 9b be e3 59 38 3e 60 e2 fa bd
       -0.9030337 -0.30324 0.18003039 -0.12250209
000250 2c b7 70 3f 23 57 56 3d 7d 01 ca be 9d f1 af 3e
       0.940295 0.052329194 -0.3945426 0.34364024
000260 07 73 2a be e2 0c 0d 3f ec 7e ed 3e 65 a0 5f bc
       -0.16645442 0.5509778 0.46385896 -0.013649081
000270 25 15 1d 3f b4 51 06 bf 95 a9 ac 3d fc bc 13 3d
       0.6136039 -0.5246842 0.08430783 0.0360689
000280 fb 97 72 be cb 51 cd 3c 3d b5 c5 be f6 6e 0f bf
       -0.23690788 0.025063416 -0.38614836 -0.5602869
000290 bf 9c 12 be b2 48 23 3f 17 ea 6f 3e af df 2f bc
       -0.14317606 0.637828 0.23429142 -0.010734483
0002a0 b6 b5 99 3e e1 6c 00 bf 9f e0 f1 3d dc 49 8a 3e
       0.30021447 -0.50166136 0.11810421 0.27009475
0002b0 44 fb 1e 3e 0a 2c 3b be 14 58 bd 3e 2f 2a 74 3e
       0.15525538 -0.18278518 0.3698126 0.23844217
0002c0 53 4f 1c 3e d9 d9 38 3e 97 e3 bb be 92 0e 58 be
       0.15264635 0.18051852 -0.36697075 -0.21099308
0002d0 ce 6f db 3e 6e 2c 5f bd 50 35 84 bc 7a 7a bf 3e
       0.42858738 -0.05448573 -0.016138703 0.3739813
0002e0 2b 25 41 3d a1 a6 01 bc 82 2e f6 bd 0f 89 da be
       0.047154587 -0.007913263 -0.120205894 -0.42682692
0002f0 73 0a b5 be 7c 4e b1 3e 45 1d bd be 04 d0 6b 3e
       -0.35359535 0.3463019 -0.36936393 0.2302857

fc1.bias f4 [64]
000000 57 29 3d 3f ce c5 31 40 39 72 85 40 52 6b 78 40
       0.73891205 2.777698 4.170193 3.8815503
000010 ca 81 ff bd 87 5d 3f 40 c9 18 6b 40 8c db 39 40
       -0.12475927 2.9900835 3.6733878 2.904025
000020 20 7c 02 40 51 9c 93 3f 03 a7 31 40 fe 1d 81 40
       2.038826 1.1532079 2.7758186 4.034911
000030 e8 7b 47 40 7b 21 61 40 25 d6 62 40 9e 2b 3b 40
       3.1169376 3.5176685 3.5443203 2.9245372
000040 c7 90 40 40 b5 98 89 be 48 f2 26 bd 19 fb fe be
       3.0088365 -0.2687432 -0.0407584 -0.49800947
000050 77 6f 2e c0 65 b0 23 40 db 1d 3b 40 7e 47 0b bf
       -2.7255533 2.5576413 2.9236972 -0.54405963
000060 1e 28 4a be 50 0b e1 3f ad 96 87 be 1a c4 19 c0
       -0.19741866 1.7581577 -0.26482144 -2.402594
000070 5f d4 5e 3d 3e 66 4e c0 f7 55 ff be 09 b2 ea be
       0.05440175 -3.2249904 -0.49870273 -0.45838955
000080 a5 fb 77 bf cf a4 ce 3e d2 78 3f c0 e7 6b ff be
       -0.96868354 0.40360114 -2.9917493 -0.4988701
000090 fe ec 01 40 02 c2 03 40 9f 2b 47 c0 a4 3d 88 be
       2.0300899 2.0587163 -3.1120374 -0.26609528
0000a0 5c 3c fd be a3 7c 73 40 1f cd 3a 40 f6 04 e7 bf
       -0.49460113 3.8044822 2.9187696 -1.8048389
0000b0 97 27 b9 bf df ea 30 40 4d 48 ad be e8 4f 55 40
       -1.4465207 2.7643354 -0.33844224 3.333002
0000c0 6a 89 0c c0 7b d9 06 c0 2b e2 61 3f f6 48 3a 40
       -2.195887 -2.107024 0.8823573 2.9107032
0000d0 5c 43 0a 40 9b e3 f6 3f 82 dd f3 be 7f cd 2b 40
       2.1603613 1.928821 -0.47629935 2.6844175
0000e0 64 a7 e3 3f 3e 9c 78 40 c9 f5 a5 3f d3 d3 bf bd
       1.7785459 3.8845363 1.2965633 -0.09366574
0000f0 78 df 2c 40 27 43 1e 40 9b a2 8e be 6c 29 f8 bf
       2.7011395 2.4728487 -0.27858433 -1.9387641

fc2.weight f4 [64, 64]
000000 f0 87 00 bd aa fb 80 bc 24 fb a7 3a 6f b1 00 be
       -0.03137964 -0.015745003 0.0012815935 -0.12567686
000010 89 7f 20 bd 3e 96 ad bd e8 a3 a6 3c dc 43 32 be
       -0.039184127 -0.08475922 0.020341828 -0.17408699
000020 6b f0 b2 3c e5 1f 5b bd 30 a5 30 bd 57 62 6f 3d
       0.021843156 -0.053497214 -0.043126285 0.058443394
000030 60 68 d1 3c b2 a2 7c 3d 4c 05 10 be 00 30 09 be
       0.025562465 0.061678596 -0.1406452 -0.13397217
000040 f2 d8 8a bd af 33 88 bd e8 1f 7a 3d ee f9 be 3d
       -0.0677966 -0.06650483 0.061065584 0.09325014
000050 48 ea 4c 3d 7a 2d 61 3d a5 99 91 3c 28 ea 21 bd
       0.050028116 0.05497501 0.017773459 -0.03952995
000060 cd ce 9b bd 97 19 85 3d 0c ef 07 bd 1d 8b f7 bd
       -0.076078035 0.064990215 -0.033186957 -0.12087081
000070 a4 d6 ac 3d d2 c8 78 3d 6c e3 34 3d c8 5f e4 3c
       0.08439377 0.060738392 0.0441622 0.027877703
000080 92 63 e4 3d 1e b8 98 bd 2e 4a 9c bb 80 84 f4 bc
       0.11151804 -0.074569926 -0.004769585 -0.029848337
000090 ab d9 07 be 6a 2d 82 3c 4b 61 c6 3d e8 86 c5 3c
       -0.13266627 0.015890796 0.09686526 0.02411218
0000a0 e0 f5 ff 3c a5 b9 f2 bd 6a 7d 64 3d a6 86 37 bc
       0.031245172 -0.11851815 0.055783667 -0.011201536
0000b0 ac 86 77 bd 95 29 ac bd cc 23 0a 3d 52 85 ec bd
       -0.060431167 -0.08406369 0.033725545 -0.11548866
0000c0 18 f0 c7 bd c7 17 b8 3d 2e 49 f0 3c 63 6e 05 bd
       -0.09762591 0.0898891 0.02933177 -0.032575976
0000d0 a0 cd bd bd d5 5e bb bd 40 35 89 bd bb 5a 1f 3d
       -0.092677355 -0.09148947 -0.0669961 0.038904887
0000e0 0c 1d bd bc 14 e5 a1 3c e9 6d 9f bd 7a 9e b1 bd
       -0.02308514 0.019762553 -0.077846356 -0.08672805
0000f0 bf 35 a1 bd 53 6b d1 bd 4c 83 84 bd 8b cc 4e bd
       -0.078715794 -0.102255486 -0.064703554 -0.050488036
000100 af b5 87 3d eb cf dc 3d ff 2b 36 bd 4a e9 cf bd
       0.0662645 0.10781845 -0.04447555 -0.10151918
000110 94 8b 0a bd 60 ea e1 3b e3 d8 99 bd f1 65 12 bd
       -0.03382452 0.0068943948 -0.07512071 -0.03574175
000120 df bb ba 3d 80 00 d5 3a 92 dc 67 3c 60 5e 09 bd
       0.09117865 0.0016250759 0.014151709 -0.03353727
000130 d9 18 20 3d 23 41 e3 bc de 37 6c bc 0d 66 98 3d
       0.039086197 -0.02774102 -0.014417617 0.0744134
000140 e5 ba 41 3d f6 61 a4 bd 04 0f dc 3d 59 a9 8b bd
       0.047297377 -0.08026497 0.107450515 -0.0681941
000150 73 39 66 bd fd 20 87 bc 7b 44 d2 bc 14 d5 b0 bd
       -0.05620713 -0.016495222 -0.02566742 -0.086343914
000160 c9 01 ba bd 33 c1 b4 3d 00 d3 a7 bc 38 0d f1 3c
       -0.09082372 0.08825912 -0.020486355 0.029425249
000170 e4 e3 31 3d f0 9f 9b 3c b2 52 b8 bd 46 97 f9 3d
       0.043430224 0.018997163 -0.09000148 0.12187056
000180 91 95 a9 3d e9 84 56 3d 40 90 54 3c 0c 7d e8 bd
       0.08280481 0.052372847 0.012973845 -0.11351976
000190 57 fc aa bd dd d1 fa bd 00 d9 d8 ba ec 5f 00 3d
       -0.08348911 -0.122470595 -0.0016544163 0.03134148
0001a0 46 91 ed 3d a0 ff b7 bc c1 bb 2c 3c 32 65 e7 3d
       0.11599974 -0.022460759 0.010542811 0.11298598
0001b0 49 a6 f5 bd db c0 49 bd 78 80 13 bd 84 5c 5b 3d
       -0.11994607 -0.049256187 -0.03601119 0.053555027
0001c0 f3 6c ea bd 13 5c 78 bd 7b 9d a5 bd b3 ab af bc
       -0.11446562 -0.060634684 -0.08086678 -0.021444177
0001d0 c0 d0 a7 3b c9 54 6d 3d bc 7c 68 bd c5 4a a9 bd
       0.0051213205 0.057942186 -0.05675958 -0.08266214
0001e0 88 e1 c0 3c 8e 2f f5 bd 57 ac 63 bd f0 75 68 3c
       0.023545042 -0.11971961 -0.055584278 0.014188275
0001f0 5a bf b3 bd 50 e0 dd bd 40 68 e5 bd 8a 16 99 bd
       -0.08776732 -0.108338 -0.11201525 -0.07475002
000200 e6 16 06 be b8 6f bb bd cd 5a 2f 3d cc b5 86 bd
       -0.13094673 -0.09152168 0.042811204 -0.06577644
000210 77 bf a1 bd 26 e9 c4 3d ec 58 ec bd 64 f0 7c 3d
       -0.07897847 0.09614782 -0.11540398 0.061752692
000220 73 99 79 bd ec ed 83 bd e2 55 ec 3d 68 d7 6e 3b
       -0.060937356 -0.06441864 0.11539818 0.003644431
000230 22 fa aa bd d9 3a d1 bd 68 7a e1 3d 2b 7c 1f 3d
       -0.0834849 -0.102163024 0.11009675 0.038936775
000240 51 21 64 bd 88 71 e3 bd 08 28 e2 bd 63 b9 15 bc
       -0.055695836 -0.11105639 -0.110427916 -0.009138438
000250 21 d1 16 3d 1f ef 83 bc 90 f6 71 3d 50 19 d0 3d
       0.036820535 -0.016105233 0.05907303 0.10161078
000260 2c 23 5c bb b4 6c 84 3d e0 12 a7 3c 20 41 23 bd
       -0.00335903 0.06466046 0.020394742 -0.03985703
000270 ac 6d f5 bd 3d 6c 15 be c4 27 d4 bd 7c 39 bc 3d
       -0.11983809 -0.14592071 -0.10359147 0.09190652
000280 c2 57 53 3c 41 e3 7d 3c 63 19 d8 bd 9a 56 c8 bd
       0.012899341 0.015496076 -0.10551717 -0.09782143
000290 1f c3 b3 bd 6a de 89 3c 63 81 34 3c fa 27 be bd
       -0.08777451 0.016829688 0.011017176 -0.09284969
0002a0 c0 11 82 3b 79 34 c2 3c d5 ce e3 bd 25 0a 22 bd
       0.003969401 0.023706662 -0.111234345 -0.039560456
0002b0 ef 88 20 be 55 d7 d2 3b 66 5c a5 bd 6a 5e 08 be
       -0.15677236 0.006434361 -0.08074264 -0.13317266
0002c0 e6 fc f7 bc 43 ec 82 bd 7a 43 9a bd 5f ac 64 bd
       -0.030271959 -0.063927196 -0.075324014 -0.05582845
0002d0 4e 91 fb 3d e2 b5 06 be b4 ad b4 bd d0 70 ac 3d
       0.12283574 -0.1315532 -0.08822194 0.08419955
0002e0 2a 31 08 3d 23 ea 85 3d d3 3d 3d bd d0 ec 33 3d
       0.03325001 0.06538799 -0.04620154 0.043927014
0002f0 01 cd 0a bd b5 3e 33 bd 90 62 e6 bd ee 05 a3 bd
       -0.033886913 -0.043760974 -0.11249268 -0.079601154
000300 60 2b d4 3c 53 d9 09 be a8 e0 62 3e 71 a8 54 3f
       0.025899589 -0.13461809 0.22156012 0.8306952
000310 3c ce dc be b1 95 cd 3f 48 fb 6c 3e 11 00 00 40
       -0.43126094 1.6061307 0.23142731 2.000004
000320 0c 2f d0 bd ae 62 a2 3d 7d 79 5c 3f 54 2d 00 40
       -0.101652235 0.07928978 0.86122876 2.0027666
000330 af b8 49 bd a1 5b 29 be 01 d5 52 3e 75 7a 17 be
       -0.049248394 -0.1653886 0.20589067 -0.14792807
000340 53 85 44 3f a2 44 49 be b8 b4 c2 3c ed f6 82 be
       0.76765937 -0.19655088 0.023767814 -0.25579014
000350 a1 58 49 be 56 9c e1 3c c7 38 c6 3d 1a 5a b7 3d
       -0.19662715 0.027540367 0.09678798 0.089527324
000360 4b da 9f be 2e f0 93 3e 18 b6 0b 3d 2a 72 a5 be
       -0.31221232 0.2889418 0.034109205 -0.32313663
000370 00 c4 31 bd 78 bd 33 bf 60 db 40 bd 22 1e 70 3d
       -0.04339981 -0.7021098 -0.047084212 0.058622487
000380 29 12 11 bd 8c 78 80 bd c7 91 88 3d 7e c7 e4 3d
       -0.03541771 -0.062729925 0.0666843 0.111708626
000390 39 e9 a7 bd 55 e1 67 3d 87 6c 5f bd 90 32 e0 bc
       -0.081987806 0.056611378 -0.05454686 -0.02736786
0003a0 00 0a ba 3c 61 6b 9f bd 0a 01 60 bd eb 77 88 bd
       0.022709846 -0.07784153 -0.05468849 -0.066634975
0003b0 4f 9f 75 be 9a 71 39 bc 24 b2 33 3d ae cd 96 3a
       -0.23986553 -0.011318589 0.04387106 0.0011505389
0003c0 02 ab 24 bf 4f a7 a5 3c fd 8e 01 3d 6d d8 b2 bd
       -0.6432344 0.02022138 0.031630505 -0.08732686
0003d0 94 c6 92 3d e1 ec 15 bd ea 6a df 3d aa a2 68 bc
       0.07166782 -0.03660286 0.10909064 -0.014198938
0003e0 3a 77 f3 bb 8e e3 cd 3f 83 03 1f be 72 eb 8c 3d
       -0.0074299844 1.6085069 -0.15528683 0.06880845
0003f0 ba 54 ff 3e df 4c e5 bd d8 4d 6e 3d b9 d8 a6 bd
       0.4986933 -0.111963026 0.058179706 -0.08146805

fc2.bias f4 [64]
000000 ee 6e c2 bd 0d 8c ba 3d 07 c6 83 3d 82 a9 f6 3e
       -0.094938144 0.09108744 0.06434255 0.481762
000010 44 fa d5 bd fe a4 c9 3d 5e 83 ec bd 84 d7 fb 3d
       -0.10448125 0.09845923 -0.11548494 0.12296966
000020 80 60 29 3e 44 f9 2d bf 21 73 df 3f 33 41 15 40
       0.16540718 -0.67958474 1.745701 2.3321044
000030 73 90 c9 3f c8 6e 90 bd d5 6c 93 3f 4b e5 a2 3f
       1.5747207 -0.0705238 1.1517588 1.2726225
000040 a8 d2 55 3f c6 80 b0 bd a2 b4 be 3e 37 32 07 40
       0.8352456 -0.086183116 0.37247187 2.1124399
000050 c0 4f a7 bc a9 c3 93 3f 37 06 00 40 50 b9 df 3f
       -0.02042377 1.1544086 2.0003793 1.7478428
000060 aa 12 61 3f 68 19 33 bb 5d 98 e8 bd 91 4a c9 3f
       0.87919104 -0.0027328376 -0.11357186 1.5725881
000070 e4 ef 04 3d ce 68 f3 bd 21 5c d1 3f 00 42 82 3a
       0.03245534 -0.11885224 1.635624 0.0009937882
000080 08 5a e2 3f 5d 5c 17 40 c0 2d 67 bf 39 23 f7 3f
       1.7683725 2.3650124 -0.90304184 1.9307624
000090 ad 0e f1 bd c8 92 2a 3f e5 53 f1 3f 80 0a 06 3f
       -0.11770377 0.6663022 1.8853728 0.5235977
0000a0 a2 e0 b2 3f f1 30 d9 3d ac 63 6e 3d b0 6b 8f bd
       1.3974802 0.10605038 0.058200523 -0.07002962
0000b0 55 80 9d 3f f1 b7 02 bf a1 2a 92 3f 2d 6a f7 bd
       1.2304789 -0.5106192 1.1419259 -0.12080798
0000c0 59 5c a5 3c 43 42 0c 3d db aa 66 3c f5 0a c0 3f
       0.020185636 0.03424288 0.014078821 1.5003344
0000d0 16 e6 70 3f 48 05 eb 3f 0c fe cc bd 09 9b dc 3f
       0.94101083 1.8360987 -0.10009393 1.7234813
0000e0 c9 3b 1d 3c cf 04 e4 3e e5 b3 7d 3f 4b 09 b5 3d
       0.009596773 0.4453492 0.9910262 0.08839663
0000f0 b2 27 03 40 9d bf d9 3d 7a 53 e6 3f 25 bf 00 bc
       2.0492978 0.106322505 1.7994225 -0.007858072

fc3.weight f4 [20, 64]
000000 29 58 13 3d 70 f5 27 3c 5f 58 65 bc 53 0a 53 3f
       0.035972748 0.010251388 -0.01399812 0.8243763
000010 ea 69 2d 3d 99 2f a2 3d 08 d2 cf bd 88 d9 4c 3d
       0.042337336 0.07919235 -0.10147482 0.05001214
000020 d1 43 75 3e d6 7f 81 be 5d c2 46 3f 0a 1b d8 bf
       0.23951651 -0.25292844 0.77640325 -1.6883252
000030 cc db f7 3e 80 bf 10 bd 64 6c 78 3e 4e 05 c7 bf
       0.4840988 -0.03533888 0.24260098 -1.5548494
000040 ca 6a f4 3d 86 6e 3a 3d 43 fc de 3e a7 d0 68 3f
       0.11934431 0.04551556 0.43551835 0.9094338
000050 9a c9 ef 3d 6d 2d ca 3e b6 71 05 3f ad 01 a3 3e
       0.11708374 0.39487782 0.52126634 0.31837216
000060 17 d1 97 3d 7f 6d 10 3e 7a 91 04 be 3a 98 77 3e
       0.074129276 0.1410427 -0.1294612 0.24179164
000070 46 72 cd 3d 69 89 3f 3d 26 59 e0 3e 00 73 b0 3b
       0.100315616 0.046761904 0.43818015 0.005384803
000080 8b bc ba 3e a1 0f 23 3f 78 34 cc be 0d b4 02 3f
       0.36471972 0.6369572 -0.3988378 0.51055986
000090 af 0c 50 bd 0a 73 76 3d 21 dd 14 3f 20 7f e9 3e
       -0.050793346 0.060168304 0.58149916 0.456048
0000a0 ea 7b 3d bf 11 37 9e bd 80 3e 03 be 6c e0 36 bd
       -0.740172 -0.07725347 -0.1281681 -0.04464762
0000b0 a4 49 1c 3e a0 3b 61 be f5 b7 d2 3e 72 2e dc bb
       0.15262467 -0.21995401 0.41155973 -0.006719404
0000c0 78 f5 93 3d a4 61 5e 3d e7 e9 b4 3d d1 6e e3 3e
       0.07224554 0.054292336 0.08833676 0.44420484
0000d0 0b 37 2e 3e 55 e1 1d 3f 1c 2c 21 3d 63 56 9a 3e
       0.17013185 0.61671954 0.039348707 0.30144033
0000e0 d2 07 aa 3d ae b8 3f 3d af 48 95 3d be e2 b7 be
       0.08302273 0.046806984 0.07289254 -0.35915178
0000f0 4f 10 05 3f a9 66 95 bd 5d e8 f6 3e b3 ed 8d bd
       0.5197801 -0.072949715 0.48224154 -0.06930103
000100 35 6e 73 bd 20 fd 2c 3c 8f 70 d1 bd 63 3c c6 be
       -0.059431273 0.010558397 -0.10226547 -0.38717946
000110 8e d3 94 bd 0a 99 e8 bd 52 a7 ad 3d fc 2f 89 3d
       -0.07266913 -0.11357315 0.084791794 0.066986054
000120 54 e5 21 3e ce 79 5a be 81 d5 99 3e 65 bb 81 bf
       0.15810138 -0.21335527 0.30045703 -1.0135313
000130 9f b1 dc 3e a0 07 96 3c 15 2b 53 3b 38 0e 32 bf
       0.43104264 0.018314183 0.0032221724 -0.69552946
000140 d0 80 1c bd 44 0b 8e bd fe 5f e8 be 72 14 26 3f
       -0.038208783 -0.069357425 -0.45385736 0.6487495
000150 7e 52 bd bd 12 be c5 3e 7b 42 45 3e e2 df 8c 3e
       -0.0924425 0.38621575 0.19263642 0.2751456
000160 a9 c7 ce 3b c5 b1 0f 3d b0 58 53 bd 1a 56 9f 3e
       0.0063104224 0.035081644 -0.05159825 0.31120378
000170 38 1f 6a bd 25 0b e5 3c 69 66 a2 3e b8 02 32 bd
       -0.05715868 0.027959416 0.31718758 -0.043459624
000180 68 82 16 3e a8 17 d7 3e 26 71 07 be 83 d8 92 3e
       0.14698184 0.42010236 -0.13226756 0.2868081
000190 e2 31 b8 bc 93 cc 81 be 05 72 ef 3e 88 cd 7d 3b
       -0.022484723 -0.2535139 0.46766677 0.0038727242
0001a0 6a 6f 05 bf f0 fe c5 bd 3a a2 83 bd 10 ab 21 3c
       -0.5212313 -0.09667766 -0.06427427 0.009867445
0001b0 79 98 51 3e dd 25 52 be fc e4 c9 3e 33 33 bf bd
       0.2046832 -0.20522256 0.39432514 -0.09335937
0001c0 83 41 7a 3d c2 15 eb 3d fe 86 b6 bc 71 7f 16 3f
       0.061097633 0.11478759 -0.022281166 0.5878821
0001d0 61 6d 18 3e 62 12 cb 3d 84 86 1e 3d 33 c5 fe 3e
       0.14885475 0.099156156 0.038702503 0.49759826
0001e0 81 61 31 3b ba 3a 18 3e ec 1e 91 3e 08 38 a9 3d
       0.0027066173 0.14866152 0.28343904 0.0826264
0001f0 fb 8a 1f 3e 6e bf 73 bd 33 b3 94 3e f9 8e 19 bd
       0.1558036 -0.059508733 0.29042968 -0.037489865
000200 69 a3 49 3d 60 56 5f bc fc 6e 1c 3c b8 ad 9e be
       0.049228106 -0.013631433 0.009547945 -0.30991912
000210 35 9f 81 3d 82 65 d2 3d 04 8a f4 3d 40 d9 cd bc
       0.063291945 0.10273267 0.11940387 -0.025128007
000220 ea 5d cc 3d f0 77 a0 be 46 69 75 3e 87 9c 66 bf
       0.0997885 -0.31341505 0.2396594 -0.9008259
000230 f5 c6 1b 3f 20 5c 91 3d 6d fc 38 be 7a 95 32 bf
       0.6085046 0.070976496 -0.18065043 -0.69759333
000240 6a 84 8d bd f4 f3 00 3d f3 5c 9a be 28 f9 0c 3f
       -0.069100216 0.03148265 -0.3014904 0.5506768
000250 8a cd b4 bd 46 7d ba 3e cf d3 3a 3e 4d 85 6a 3e
       -0.08828266 0.364237 0.18244861 0.22902413
000260 d9 42 06 be 71 7e 0f bd 1d 6b b5 3d 3a b3 e4 3d
       -0.13111438 -0.035032693 0.08858321 0.11166997
000270 3b e0 7f bd 7b 82 2c bd d1 f5 8f 3e 24 d4 b5 bd
       -0.062469702 -0.042116623 0.2811723 -0.08878353
000280 44 b4 96 3e 07 e2 df 3e b7 e3 94 be f5 dd 4a 3e
       0.29434407 0.43727133 -0.29079983 0.19811232
000290 c3 3e 32 bd 74 26 cc bd d6 1b ca 3e 31 b9 43 be
       -0.043516885 -0.09968272 0.39474362 -0.19113614
0002a0 fc a8 89 be 01 7a 59 be a5 ca 7c bd 94 bb 4c bd
       -0.26886737 -0.21237947 -0.061716694 -0.049983576
0002b0 8c f5 8f 3e 7f 07 1b be 10 72 c7 3e 12 03 eb 3c
       0.28117025 -0.15139578 0.3895421 0.028687987
0002c0 3a 16 f2 bd 50 7a 2b bc 0b a4 10 3d d4 d4 cf 3e
       -0.11820646 -0.010466173 0.035312694 0.40592062
0002d0 27 48 7e 3e 06 96 26 3e 50 7f 64 bc f5 31 9b 3e
       0.24832211 0.16268167 -0.013946369 0.30311552
0002e0 fc 4a 9d bd dc 7b 66 3d 78 08 a1 3d 21 40 14 3e
       -0.07680318 0.056270465 0.078629434 0.14477588
0002f0 bf 6f 56 3e d4 35 a6 bd 41 10 8e 3e e7 af 86 be
       0.20941065 -0.08115736 0.27746776 -0.26306078
000300 03 6e 16 be c2 4b cf 3d a0 3d 12 bc 24 83 b2 be
       -0.14690404 0.101218715 -0.008925825 -0.34865677
000310 e0 73 e5 3c 4f 38 5a 3e 04 fd 2d 3d cc cf c6 bd
       0.028009355 0.21310543 0.042477623 -0.09707603
000320 f0 cb f4 ba e1 e3 6e be 39 53 a5 3e 16 c0 4c bf
       -0.0018676501 -0.23329116 0.32290056 -0.799806
000330 d8 f2 00 3f d2 af eb bd 4b b1 88 be fc 7b 30 bf
       0.5037055 -0.115081444 -0.26697764 -0.68939185
000340 23 60 0d 3e d2 14 f9 bd c7 42 0c bf 79 3d 16 3f
       0.13806204 -0.12162174 -0.54789394 0.5868755
000350 84 3a b6 bd a8 ef a5 3e cb 05 45 3e 62 be 82 3e
       -0.0889788 0.32409406 0.19240491 0.25535876
000360 8a 47 fc bd 0a af 6e 3d 2b 95 f4 3d b2 55 3b 3e
       -0.123183325 0.0582724 0.11942514 0.18294409
000370 a9 93 b1 bd a3 52 96 3d db 25 6e 3e 0e 44 c9 bd
       -0.08670742 0.073399805 0.23256628 -0.098274335
000380 d8 e6 34 3e 10 ca 15 3f ab 5b 2e be 67 4a 62 3e
       0.17666185 0.5851145 -0.17027156 0.22098695
000390 04 58 05 3c 01 00 b6 bd 27 7f 04 3f 62 09 3c be
       0.00813866 -0.088867195 0.5175652 -0.18362954
0003a0 c9 72 55 be 35 d4 d2 bd 53 71 bf bd 6c c3 4e 3d
       -0.20844568 -0.102943815 -0.09347787 0.050479338
0003b0 04 b5 8d 3e 48 f0 38 be 96 64 b3 3e 14 74 91 3d
       0.27677166 -0.1806041 0.35037678 0.07102218
0003c0 51 f5 2a 3b 78 d6 50 bd 3d 3d 90 3d d8 49 b8 3e
       0.0026086161 -0.050985783 0.0704293 0.35993838
0003d0 7b 68 37 3c 41 4e db 3d 3a f7 d8 bd 75 07 bb 3e
       0.011194344 0.10708285 -0.1059403 0.36529127
0003e0 90 99 d6 3c 5c 9a 95 be 93 d5 4b 3d 73 7f 3b 3e
       0.026196271 -0.2921933 0.049764227 0.18310337
0003f0 17 44 70 3e fd 31 93 3d ab 4b bc 3d f2 5b b0 bd
       0.23463474 0.07187269 0.0919412 -0.08611287

fc3.bias f4 [20]
000000 d6 15 cf 3f af 18 2e 3f 8c e4 ea 3e 8e 19 fa 3e
       1.6178539 0.68006414 0.45877492 0.48847622
000010 c0 53 db 3e 72 ce b3 3e 07 89 fe 3e dd 98 a7 3e
       0.42837334 0.35118443 0.4971392 0.32733813
000020 c9 97 89 3e a1 64 97 3e 49 6f 23 3e 7f b8 57 3e
       0.26873615 0.2956896 0.1596042 0.21066473
000030 28 b9 bc 3a f9 62 91 bd bd 33 4f be bb f3 10 be
       0.0014398443 -0.07098956 -0.2023458 -0.14155476
000040 72 c0 08 be 5d f7 9f be 4e 89 55 be f5 49 00 bf
       -0.13354662 -0.3124341 -0.20853159 -0.5011285

fc1.weight f4 [64, 3]
000000 d7 88 51 3f f5 da a9 3e d2 9e c2 bd 6c b4 1b 3f
       0.81849426 0.33174863 -0.09502949 0.60822177
000010 2f d3 a0 3d 98 3b 69 bc 74 cb 3b be 36 22 4a be
       0.0785278 -0.0142354 -0.1833933 -0.19739613
000020 06 d4 02 3d 84 3f 26 bd 39 79 1c be 33 2c 01 3c
       0.031940483 -0.040587917 -0.15280618 0.007884073
000030 c5 89 5e be 7d eb b1 3e 27 cf 46 3e b9 96 63 3d
       -0.21732242 0.34749976 0.1941496 0.055563662
000040 f4 0a 03 3e 31 7d b3 be 71 2c 40 be ef 6e ab 3d
       0.12797147 -0.3505645 -0.18766953 0.08370768
000050 a2 c7 24 3c bb e0 8e 3d 42 d7 00 bc 6f 83 44 be
       0.010057362 0.06976458 -0.007863821 -0.19190763
000060 fe 4d ad 3d 8c d6 a5 3e 49 c4 51 3e 42 a5 4a 3f
       0.084621415 0.3239025 0.20485033 0.79158413
000070 d0 68 85 be e7 1f 16 3d 41 29 15 bf 6e 63 eb 3e
       -0.26056528 0.03665152 -0.58266073 0.45974296
000080 f4 b8 91 be 71 9c 0d 3e 24 42 cd 3d 97 4d 7e be
       -0.2846142 0.13829209 0.10022381 -0.24834286
000090 96 cb 96 be 6a 0c 3e 3c 23 58 2b 3d 1f 33 e0 be
       -0.294522 0.011599639 0.0418321 -0.43789002
0000a0 63 73 79 3e 0c 84 83 3d 0e 4c fd bd bb ac 7b 3e
       0.24360423 0.0642167 -0.12368022 0.2457761
0000b0 2c 69 91 bb 24 2a 18 be da d1 c1 3e 6d bf 91 bb
       -0.0044375863 -0.14859825 0.37855417 -0.0044478686
0000c0 1f a5 b3 3d 03 e7 42 3e 90 50 01 be d8 a2 2f 3d
       0.08771729 0.19033436 -0.12628388 0.04287991
0000d0 5c 52 3e bf 0e fd 21 3d 26 d0 bf 3e 9b 49 10 bf
       -0.7434442 0.039547972 0.37463492 -0.56362313
0000e0 25 ce 03 bf 66 86 36 3d 28 fb 73 3e 49 12 40 3e
       -0.51486427 0.044561766 0.23826277 0.18756975
0000f0 04 17 1e 3f 89 d9 40 3f d4 9a 02 3f 34 9f 9b be
       0.6175387 0.7533193 0.510175 -0.303949
000100 fc 10 ab 3c 37 52 57 3d 72 1a 1e 3e ce 54 55 3e
       0.020882122 0.05256864 0.15439776 0.20833132
000110 f7 33 a4 bc 36 bf 65 3e c0 a1 f4 be 0e 9d 05 bf
       -0.02004431 0.22436222 -0.47779655 -0.5219277
000120 b3 e0 68 be 54 9e 32 3f 7b 06 8d bd 79 4c f4 3d
       -0.22741966 0.6977284 -0.06886002 0.119286485
000130 b1 5b 0e 3f 2d 1e ca bd b9 8a b8 be 0d 48 09 be
       0.5560866 -0.09869037 -0.36043337 -0.13406391
000140 8a 5c 8c be 59 14 96 3e 75 11 06 bf 29 70 a8 3e
       -0.27414352 0.293124 -0.5237039 0.3289807
000150 14 b5 d6 be 49 b4 d4 be 94 29 22 be 5f 45 3f be
       -0.41935027 -0.41543797 -0.15836173 -0.18678807
000160 41 af c3 be 99 8e 8c 3e 54 a1 5a be 05 77 e7 be
       -0.38219646 0.27452543 -0.21350604 -0.45207992
000170 83 9e 0c bf 14 c7 19 bf b6 9e 06 3d 11 90 08 be
       -0.5492937 -0.60069394 0.032866202 -0.13336207
000180 71 b2 be 3e 31 97 af 3e 00 a3 9f 3d 0b a8 85 3e
       0.37245515 0.34295037 0.07794762 0.2610477
000190 0c 68 6f 3e f4 90 1d 3d af 44 8b be 27 31 6e bd
       0.23379534 0.038468316 -0.2720084 -0.058152344
0001a0 2e 76 45 3e e1 49 5d be de 44 4b 3c 87 58 0e bf
       0.19283363 -0.21610214 0.012406556 -0.5560383
0001b0 e6 86 eb 3e d2 49 d9 bb 5a 28 66 3b 40 70 86 3e
       0.46001357 -0.0066311145 0.0035119266 0.26257515
0001c0 5d fc 41 3e 62 fb 5b 3d 6c 00 c1 be a5 55 b3 bd
       0.18943925 0.053706534 -0.37695634 -0.0875657
0001d0 bd 66 59 3e 4d d9 f0 be 6e 59 27 be 9a 34 81 be
       0.21230598 -0.47040787 -0.16342708 -0.25235444
0001e0 b4 ef da be 6e f8 88 3d e2 c8 13 bf b9 b3 12 be
       -0.42761004 0.06688009 -0.577284 -0.14326371
0001f0 91 4f 54 be 66 bd 7a 3d 9c e5 1c bf 05 c5 13 3e
       -0.20733477 0.06121578 -0.61287856 0.14430626
000200 ca 38 99 3d b8 ce 75 3e 6a ee 8e be 11 3e e2 3d
       0.07481535 0.24004638 -0.2791627 0.110469945
000210 4e f9 a6 bd 04 3a 0a 3f cf 45 5a 3e a1 c9 fe 3d
       -0.0815302 0.53994775 0.21315692 0.124408014
000220 f3 13 87 3d 46 c0 ba 3c e1 28 f8 3c 84 5a e0 bd
       0.06595602 0.022796761 0.03029293 -0.109547645
000230 93 81 b6 be 97 d5 59 be 0a 82 f6 bd d7 f9 ad 3d
       -0.35645732 -0.21272884 -0.12036522 0.08494919
000240 ab 78 4a bf 36 36 69 be e2 cd 53 3e ad ab 19 be
       -0.79090375 -0.22774586 0.20684007 -0.15006895
000250 e7 c9 70 3f e9 36 6a 3d 50 b5 b4 be 07 98 b4 3e
       0.9405808 0.057181273 -0.3529458 0.35272238
000260 6f 65 1c be a7 2f 0f 3f 82 7c f2 3e 70 85 b5 bc
       -0.15273069 0.55932087 0.47360617 -0.022158355
000270 f9 3c 25 3f d1 f9 03 bf 52 5e 90 3d fc 9f e4 3d
       0.6454616 -0.51553065 0.0704924 0.11163327
000280 e4 62 69 be eb af 0b 3d 3d b5 c5 be f6 6e 0f bf
       -0.2279163 0.034103315 -0.38614836 -0.5602869
000290 bf 9c 12 be a9 b1 25 3f 4c 1e 7a 3e 9d 80 80 bc
       -0.14317606 0.6472421 0.2442562 -0.015686328
0002a0 7b 08 a8 3e a0 00 f9 be d2 85 09 3e 38 d3 8b 3e
       0.3281897 -0.4863329 0.13429955 0.27309585
0002b0 5f ee 2b 3e c9 57 56 be 8e 75 c5 3e 3b 40 86 3e
       0.1679015 -0.20931925 0.3856625 0.2622088
0002c0 bd a9 2f 3e d9 d9 38 3e 97 e3 bb be 43 0f 58 be
       0.17154594 0.18051852 -0.36697075 -0.21099572
0002d0 88 fa ea 3e a9 65 22 bd ca 21 97 bc 36 8e c3 3e
       0.45894265 -0.039647732 -0.018448729 0.38194436
0002e0 78 c5 68 3d 25 57 4a bc 82 2e f6 bd 0f 89 da be
       0.056828946 -0.012349878 -0.120205894 -0.42682692
0002f0 73 0a b5 be f0 89 ad 3e b9 43 bc be e0 b7 82 3e
       -0.35359535 0.338943 -0.36770418 0.2553091

fc1.bias f4 [64]
000000 32 10 37 3f b1 d3 2b 40 74 77 81 40 a0 ac 71 40
       0.7150909 2.6847956 4.0458317 3.7761612
000010 06 54 92 bd d3 6e 3a 40 17 52 64 40 dc 8a 34 40
       -0.071449324 2.9130142 3.5675104 2.8209753
000020 b5 20 00 40 29 97 8b 3f ab c9 2e 40 32 fd 7c 40
       2.0019963 1.0905505 2.7310588 3.9529538
000030 aa 4c 3f 40 d6 d0 59 40 a4 57 5c 40 16 b6 34 40
       2.9890542 3.4033713 3.4428492 2.8236136
000040 a7 9d 3b 40 81 9e 67 be 48 f2 26 bd fc 9b d8 be
       2.9314973 -0.22619058 -0.0407584 -0.42306507
000050 d6 3d 26 c0 8c f2 1b 40 a3 0f 35 40 7e 47 0b bf
       -2.5975242 2.436679 2.8290794 -0.54405963
000060 59 a6 ef bd 27 44 dc 3f ad 96 87 be e1 f6 11 c0
       -0.1170165 1.7208298 -0.26482144 -2.2806933
000070 5f d4 5e 3d 8d 04 46 c0 14 56 ff be 34 aa ea be
       0.05440175 -3.0940278 -0.4987036 -0.4583298
000080 19 33 62 bf 43 7b ec 3e d3 c8 36 c0 e7 6b ff be
       -0.8835922 0.4618779 -2.8560073 -0.4988701
000090 fb bf f7 3f 4b 12 00 40 73 3d 3e c0 a4 3d 88 be
       1.9355463 2.0011165 -2.9725006 -0.26609528
0000a0 5c 3c fd be 12 f6 6a 40 47 85 33 40 28 cd d6 bf
       -0.49460113 3.671269 2.8050096 -1.6781359
0000b0 9c 46 ab bf be cc 2a 40 4d 48 ad be 3e f6 4c 40
       -1.3380923 2.6687465 -0.33844224 3.2025294
0000c0 79 30 00 c0 a7 12 fe bf 48 40 69 3f 16 69 34 40
       -2.0029585 -1.9849442 0.9111371 2.818914
0000d0 4d c1 03 40 6e 2f e8 3f 82 dd f3 be 45 b6 25 40
       2.0586731 1.8139474 -0.47629935 2.5892498
0000e0 0a 0c da 3f 60 6c 73 40 12 b9 a7 3f 0e d4 bf bd
       1.7034924 3.8034897 1.3103354 -0.09366618
0000f0 7d e2 24 40 d7 fa 17 40 9b a2 8e be d1 8f e9 bf
       2.5763237 2.374685 -0.27858433 -1.8247014

fc2.weight f4 [64, 64]
000000 49 c6 ff bc b2 ce 7f bc b1 cf c5 3a 04 57 00 be
       -0.03122248 -0.015613245 0.0015091804 -0.12533194
000010 e2 b0 20 bd 73 41 ad bd 20 08 a7 3c b4 e8 31 be
       -0.03923119 -0.08459749 0.020389616 -0.17373925
000020 a3 11 b3 3c 38 ff 59 bd fe b8 2f bd a9 64 70 3d
       0.021858996 -0.05322191 -0.04290103 0.058689747
000030 3f 42 d1 3c 59 95 7c 3d ed ec 0f be cb 23 09 be
       0.025544284 0.061665867 -0.14055224 -0.1339256
000040 fb 34 8a bd a5 1f 88 bd e8 1f 7a 3d 48 f2 be 3d
       -0.067483865 -0.06646661 0.061065584 0.09323555
000050 4d ef 4c 3d 7f 0e 61 3d 18 9e 92 3c 28 ea 21 bd
       0.050032903 0.054945465 0.01789765 -0.03952995
000060 c5 12 9c bd 4b 69 85 3d 47 ef 07 bd ea 89 f7 bd
       -0.076207675 0.06514224 -0.033187177 -0.12086852
000070 a4 d6 ac 3d cf e9 78 3d 6c e3 34 3d c8 5f e4 3c
       0.08439377 0.060769852 0.0441622 0.027877703
000080 c6 6b e4 3d 47 b2 98 bd 05 fa 9a bb 83 84 f4 bc
       0.11153369 -0.07455879 -0.0047295117 -0.029848343
000090 ab b4 07 be 35 b6 82 3c d6 75 c6 3d e8 86 c5 3c
       -0.13252513 0.015956024 0.09690444 0.02411218
0000a0 3c f6 ff 3c 10 a5 f2 bd 4d a2 64 3d 5b bd 36 bc
       0.031245343 -0.118478894 0.055818845 -0.011153544
0000b0 dd a0 77 bd d5 ff ab bd cc 23 0a 3d fd 84 ec bd
       -0.060456146 -0.083984055 0.033725545 -0.11548803
0000c0 9b e2 c7 bd 97 0d b8 3d bd 7f ef 3c 6c f6 04 bd
       -0.097600184 0.08986967 0.029235715 -0.03246157
0000d0 8e 58 bd bd fa 43 bb bd 40 35 89 bd 39 f1 1f 3d
       -0.09245406 -0.09143825 -0.0669961 0.039048407
0000e0 83 8b bc bc 51 e4 a3 3c e5 5b 9f bd 7a 9e b1 bd
       -0.023015743 0.02000633 -0.07781199 -0.08672805
0000f0 92 ae a0 bd be 25 d1 bd 4c 83 84 bd fd c8 4e bd
       -0.07845797 -0.10212277 -0.064703554 -0.050484646
000100 3f c1 87 3d af da dc 3d 2e 18 36 bd 4c e9 cf bd
       0.06628656 0.10783898 -0.044456653 -0.1015192
000110 10 78 0a bd bb ea e1 3b 9c d0 99 bd ec 4f 12 bd
       -0.033805907 0.006894437 -0.07510492 -0.03572075
000120 ea c7 ba 3d 80 00 d5 3a d2 30 68 3c 78 5e 09 bd
       0.09120162 0.0016250759 0.014171796 -0.033537358
000130 0b 2e 20 3d 3f 16 e3 bc e4 e4 6b bc bd 72 98 3d
       0.03910641 -0.027720569 -0.0143978335 0.074437596
000140 87 cf 41 3d f6 61 a4 bd 04 0f dc 3d c1 9f 8b bd
       0.047317054 -0.08026497 0.107450515 -0.0681758
000150 1f 25 66 bd e7 f7 86 bc 87 1a d2 bc 14 d5 b0 bd
       -0.056187745 -0.01647563 -0.025647415 -0.086343914
000160 30 f7 b9 bd a5 cc b4 3d 72 d3 a7 bc c8 0d f1 3c
       -0.090803504 0.08828095 -0.020486567 0.029425517
000170 e4 e3 31 3d f0 9f 9b 3c b2 52 b8 bd 46 97 f9 3d
       0.043430224 0.018997163 -0.09000148 0.12187056
000180 3c a1 a9 3d cf 9b 56 3d b8 90 54 3c 0c 7d e8 bd
       0.08282706 0.052394684 0.012973957 -0.11351976
000190 63 f3 aa bd 26 c9 fa bd 00 d9 d8 ba ec 5f 00 3d
       -0.083472036 -0.12245397 -0.0016544163 0.03134148
0001a0 46 91 ed 3d 20 00 b8 bc dc 0f 2d 3c 32 65 e7 3d
       0.11599974 -0.022460997 0.010562863 0.11298598
0001b0 ea 9c f5 bd f7 ab 49 bd 78 80 13 bd 1d 72 5b 3d
       -0.119928196 -0.049236264 -0.03601119 0.053575624
0001c0 e1 61 ea bd ac 47 78 bd 5f 94 a5 bd f0 82 af bc
       -0.1144445 -0.060615227 -0.0808494 -0.02142474
0001d0 c0 d0 a7 3b ba 6b 6d 3d bc 7c 68 bd ca 41 a9 bd
       0.0051213205 0.057964064 -0.05675958 -0.082645014
0001e0 97 e1 c0 3c 8e 2f f5 bd c5 98 63 bd 89 76 68 3c
       0.02354507 -0.11971961 -0.055565614 0.014188417
0001f0 5a bf b3 bd e6 d6 dd bd 40 68 e5 bd 8a 16 99 bd
       -0.08776732 -0.10832004 -0.11201525 -0.07475002
000200 56 13 06 be 4e 65 bb bd 9b c9 2f 3d b9 e5 86 bd
       -0.13093314 -0.09150182 0.042916875 -0.06586785
000210 b4 83 a1 bd ac d3 c4 3d 87 64 ec bd 9d ba 7c 3d
       -0.078864485 0.09610686 -0.115426116 0.061701406
000220 6c 38 79 bd cf 1e 84 bd 56 2e ec 3d 30 d7 6c 3b
       -0.060844824 -0.06451189 0.115322754 0.0036139004
000230 f5 c5 aa bd a7 27 d1 bd 14 82 e1 3d c5 b2 1f 3d
       -0.083385386 -0.10212641 0.110111386 0.038988847
000240 76 3f 64 bd 2b 34 e3 bd 08 28 e2 bd d1 e9 13 bc
       -0.055724584 -0.110939346 -0.110427916 -0.009027914
000250 19 3f 17 3d d9 1e 83 bc 73 24 72 3d 50 19 d0 3d
       0.03692541 -0.01600592 0.059116792 0.10161078
000260 71 70 59 bb bf 69 84 3d e0 12 a7 3c e2 c6 22 bd
       -0.0033178593 0.06465482 0.020394742 -0.03974045
000270 ac 6d f5 bd a2 4f 15 be c4 27 d4 bd 7c 39 bc 3d
       -0.11983809 -0.14581159 -0.10359147 0.09190652
000280 c9 02 55 3c 69 7d 7f 3c be e5 d7 bd 9a 56 c8 bd
       0.013001152 0.015593865 -0.10541867 -0.09782143
000290 76 af b3 bd fd 8a 8a 3c ad 63 36 3c fa 27 be bd
       -0.08773701 0.016911978 0.011132163 -0.09284969
0002a0 c0 11 82 3b e8 2f c3 3c ec c2 e3 bd 5f 8f 21 bd
       0.003969401 0.023826554 -0.11121163 -0.03944337
0002b0 57 6e 20 be c1 7b d5 3b 66 5c a5 bd db 41 08 be
       -0.15667091 0.0065149968 -0.08074264 -0.13306372
0002c0 ea fb f6 bc dc c3 82 bd 27 51 9a bd 9f 88 64 bd
       -0.030149419 -0.063850135 -0.0753501 -0.055794355
0002d0 4a 66 fb 3d 90 9a 06 be b4 ad b4 bd e1 77 ac 3d
       0.122753695 -0.13144898 -0.08822194 0.084213026
0002e0 be 96 08 3d c0 de 85 3d 24 db 3c bd 24 ed 33 3d
       0.033346884 0.06536627 -0.046107426 0.043927327
0002f0 e3 f2 0a bd 7d 29 33 bd 47 63 e6 bd a2 cb a2 bd
       -0.03392304 -0.04374074 -0.112494044 -0.07948996
000300 c6 f7 0f bb 5b e3 1c be ac 76 54 3e 26 7e 4d 3f
       -0.0021967753 -0.15321104 0.20748395 0.8027061
000310 9f 1c ba be e7 4b c8 3f 99 5a 6d 3e 75 ba f0 3f
       -0.3634996 1.5648164 0.23179092 1.8806902
000320 36 79 a1 bd b5 5e 35 3d 1e 49 5a 3f 78 eb f4 3f
       -0.07884447 0.044279773 0.8526782 1.9134359
000330 8f 0e 9d bd f2 09 31 be 47 3f 51 3e 46 78 13 be
       -0.076687925 -0.1728895 0.20434295 -0.1440135
000340 f5 e0 3a 3f 17 53 45 be b8 b4 c2 3c c5 04 59 be
       0.7299951 -0.19269978 0.023767814 -0.21193226
000350 af 1b 27 be 84 db 08 bd d7 1c ab 3d 1a 5a b7 3d
       -0.16319154 -0.03341247 0.0835511 0.089527324
000360 2b 73 a6 be 6f 88 8a 3e 18 b6 0b 3d 51 db 8e be
       -0.3250974 0.27057216 0.034109205 -0.279017
000370 00 c4 31 bd 80 df f3 be 60 db 40 bd ce d9 6f 3d
       -0.04339981 -0.47631454 -0.047084212 0.058557324
000380 1a 1b eb bc 5c 2d 86 bd 79 99 80 3d 7e c7 e4 3d
       -0.028699446 -0.0655162 0.062792726 0.111708626
000390 ad 9c d4 bd f6 e4 61 3d 61 1d 54 bd 90 32 e0 bc
       -0.10381446 0.055149995 -0.05178583 -0.02736786
0003a0 00 0a ba 3c 0c d2 aa bd 35 b0 1b be 79 ef e5 bd
       0.022709846 -0.083408445 -0.15203936 -0.112273164
0003b0 db 08 40 be 72 50 a6 bc 8c b2 33 3d 3d 44 cb 3c
       -0.18753378 -0.020302031 0.043871447 0.024812812
0003c0 b0 37 f2 be e2 a1 13 3d 89 bd 4f 3c 93 fb ca bd
       -0.4730811 0.036043055 0.012679466 -0.09911265
0003d0 59 cf 0f 3d 1d 11 6b bd ea 6a df 3d bb 25 f0 bc
       0.03510985 -0.057389367 0.10909064 -0.029314866
0003e0 48 6e 58 bc 81 d4 c6 3f 1b 1b 14 be 72 eb 8c 3d
       -0.013209887 1.5533601 -0.14463465 0.06880845
0003f0 bf df f2 3e 48 c8 06 be d8 4d 6e 3d c4 98 3a bd
       0.4743633 -0.13162339 0.058179706 -0.045555845

fc2.bias f4 [64]
000000 16 12 c2 bd 09 99 ba 3d f6 cf 83 3d bb ad ed 3e
       -0.09476106 0.091112204 0.0643615 0.46421608
000010 2c 0c b3 bd d2 74 4d 3d 5e 83 ec bd 89 d7 fb 3d
       -0.08742556 0.050160237 -0.11548494 0.122969694
000020 bf 17 48 3e 9a 1e 18 bf 6d be d5 3f 7e 19 12 40
       0.19540308 -0.59421694 1.6698738 2.282806
000030 58 48 bf 3f 16 6f 90 bd fa 4d 8b 3f b3 13 9e 3f
       1.4943953 -0.07052438 1.0883172 1.2349762
000040 55 01 5e 3f 6b 57 b0 bd 37 4a b3 3e 53 85 01 40
       0.8672078 -0.08610424 0.3501756 2.0237625
000050 c0 4f a7 bc 73 13 8a 3f 46 89 f5 3f 15 15 d6 3f
       -0.02042377 1.0787185 1.9182518 1.6725184
000060 fd 55 56 3f 3e 10 32 bb b1 8f e8 bd b4 68 c0 3f
       0.8372496 -0.0027170326 -0.11355532 1.5031953
000070 b3 c2 09 3d 79 a5 f3 bd 0b 1e c7 3f 22 42 82 3a
       0.033632945 -0.11896796 1.5556043 0.0009937922
000080 f8 a8 d8 3f 94 dc 11 40 a5 e1 4e bf 39 aa ec 3f
       1.6926565 2.279088 -0.80813056 1.8489448
000090 b4 fc f0 bd ca 3f 1d 3f ed 94 e6 3f c1 df 01 3f
       -0.11766949 0.6142546 1.8014199 0.50732046
0000a0 c3 8c ac 3f f2 e2 44 3e 57 d7 6e 3d b0 6b 8f bd
       1.3480457 0.19227198 0.058310833 -0.07002962
0000b0 cc c6 96 3f de 1b e2 be 82 74 88 3f fc 54 f7 bd
       1.1779418 -0.44161886 1.0660555 -0.12076756
0000c0 4d 8a b1 3c 1a 62 0c 3d 44 01 67 3c 40 fa b5 3f
       0.021672392 0.034273244 0.014099423 1.4216995
0000d0 a2 b2 5e 3f ce c0 e0 3f 0c fe cc bd bb 73 d3 3f
       0.8699132 1.7558839 -0.10009393 1.6519693
0000e0 7c 96 a6 3c ae fb d2 3e 07 fb 7e 3f 6a 91 cb 3d
       0.020335428 0.4120764 0.9960179 0.09939845
0000f0 59 c7 fb 3f 05 d0 ce 3d e2 de db 3f 9a 82 06 3c
       1.9670211 0.1009827 1.7177393 0.008209849

fc3.weight f4 [20, 64]
000000 3d 36 14 3d 70 f5 27 3c fb 5a 65 bc 25 ee 25 3f
       0.03618454 0.010251388 -0.013998742 0.64816505
000010 6d e9 70 3d 3b ad c8 3d 08 d2 cf bd 88 d9 4c 3d
       0.058816362 0.09798666 -0.10147482 0.05001214
000020 1f 94 5c 3e e8 8b 50 be 04 df 2e 3f 53 5b cc bf
       0.21540879 -0.2036587 0.68309045 -1.596537
000030 09 66 e8 3e 80 bf 10 bd b9 96 71 3e 73 57 b7 bf
       0.45390347 -0.03533888 0.23592652 -1.4323562
000040 04 46 09 3e 14 fb 39 3d 0c 9b 8a 3e d7 aa 5c 3f
       0.13405615 0.045405462 0.27071416 0.8619818
000050 9a c9 ef 3d e8 1a be 3e 02 bb f9 3e 47 0a 98 3e
       0.11708374 0.37129903 0.48775488 0.2969534
000060 28 55 88 3d 7c 5c 10 3e b3 8e 04 be 47 d1 65 3e
       0.06656867 0.1409778 -0.1294506 0.22443114
000070 9b 24 cf 3d 62 a2 3e 3d 7c f6 d2 3e 00 73 b0 3b
       0.10114404 0.04654158 0.41203678 0.005384803
000080 2e c9 ab 3e 3b be 1b 3f c1 0e b3 be cf fd f3 3e
       0.33551925 0.60837144 -0.34972194 0.47654578
000090 0e 2c 50 bd d5 e8 38 3e fd 5a 0e 3f e5 79 98 3e
       -0.050823264 0.18057568 0.5560759 0.29780498
0000a0 26 b9 20 bf ea 4c 4a bd ba 1f 03 be 6c e0 36 bd
       -0.62782514 -0.049389757 -0.12805071 -0.04464762
0000b0 78 f7 0b 3e ef 32 49 be b6 12 c5 3e 30 2e dd bb
       0.1366862 -0.19648336 0.38490838 -0.0067498907
0000c0 f2 56 99 3d a4 61 5e 3d db df b4 3d 18 d0 d7 3e
       0.074872866 0.054292336 0.088317595 0.4215095
0000d0 55 1a 19 3e 66 0e 15 3f 4c 2c 21 3d bd 12 8f 3e
       0.14951451 0.58225095 0.039348885 0.27943984
0000e0 d2 07 aa 3d 38 94 73 3d 7c 5d a0 3d f3 a0 9d be
       0.08302273 0.059467524 0.07830331 -0.30786857
0000f0 e4 c7 f7 3e da 34 37 bd be 95 e5 3e 33 b9 a6 bd
       0.48394692 -0.044728138 0.44840807 -0.08140793
000100 fc b8 73 bd 20 fd 2c 3c cd 47 d1 bd ef a9 b1 be
       -0.059502587 0.010558397 -0.10218773 -0.34699962
000110 8e d3 94 bd 84 4a 55 bd a7 a7 ad 3d fc 2f 89 3d
       -0.07266913 -0.052073017 0.08479243 0.066986054
000120 b8 60 bc 3d 45 50 1f be 4b 94 8f 3e 3e 11 7a bf
       0.09198135 -0.15557964 0.28042826 -0.9768256
000130 d8 29 ce 3e a0 07 96 3c 8c 78 29 3d 36 13 2a bf
       0.402663 0.018314183 0.041374728 -0.66435564
000140 aa 5a 4e 3d 08 d5 8d bd 61 12 c2 be 36 b1 1f 3f
       0.050379433 -0.06925398 -0.37904647 0.6237978
000150 7e 52 bd bd de 9f b5 3e 5d 3a 38 3e e7 20 88 3e
       -0.0924425 0.3547353 0.17991014 0.26587602
000160 dc 34 28 3d 37 85 0f 3d 8c 65 53 bd f1 da 99 3e
       0.041066036 0.035039153 -0.051610515 0.30049852
000170 0d c6 6e bd 5e 39 d9 3c f8 a9 9c 3e b8 02 32 bd
       -0.058294345 0.026516613 0.30598426 -0.043459624
000180 15 38 04 3e aa 40 cd 3e 2d 7f 8b bd 84 4b 90 3e
       0.12912019 0.40088397 -0.06811366 0.28182614
000190 a7 71 b8 bc da c3 fa bd 43 27 e5 3e 05 73 3f 3c
       -0.022515131 -0.12244387 0.44756517 0.011685138
0001a0 58 04 eb be 45 84 71 bd a1 f5 83 bd 10 ab 21 3c
       -0.45901752 -0.058964033 -0.06443334 0.009867445
0001b0 90 4c 4f 3e ec cb 26 be a7 30 bd 3e f8 45 bf bd
       0.2024405 -0.16288728 0.3695118 -0.09339517
0001c0 30 e8 82 3d 6b 16 eb 3d c2 a3 b6 bc 38 27 0f 3f
       0.063919425 0.11478885 -0.022294883 0.5591922
0001d0 33 2f c9 3d 66 83 be 3d 84 86 1e 3d f6 e5 f2 3e
       0.09823456 0.09302406 0.038702503 0.4744107
0001e0 54 96 03 bc c9 db 0b 3e 85 2c 81 3e 3e 0f 98 3d
       -0.0080314465 0.1365806 0.25229278 0.07424782
0001f0 dd 98 0e 3e d4 1e 4f bd f3 63 8e 3e e2 4c f2 bc
       0.139255 -0.05056651 0.2781063 -0.029577676
000200 71 ee 49 3d 91 56 5f bc 1b e7 1d 3c 5c 3b 68 be
       0.04929966 -0.013631479 0.009637619 -0.22678894
000210 f5 cc 81 3d c8 d3 bc 3c 04 8a f4 3d 40 d9 cd bc
       0.063379206 0.023050204 0.11940387 -0.025128007
000220 d2 e1 a8 3d 97 cd 9c be e5 b9 66 3e 0c b3 5b bf
       0.08246197 -0.30625603 0.2253185 -0.8582008
000230 06 fe 12 3f 20 5c 91 3d 3d 3b 27 be 7b ed 25 bf
       0.5741886 0.070976496 -0.16331191 -0.6481549
000240 ac da 06 bd f4 f3 00 3d 6c a5 0b be 72 c4 02 3f
       -0.032923386 0.03148265 -0.13637322 0.51081
000250 8a cd b4 bd 3b 31 ac 3e f9 94 2d 3e ca ba 5a 3e
       -0.08828266 0.3363131 0.1695136 0.21360317
000260 82 4d 0f be cd 80 0f bd fa 63 b5 3d 4b 01 c4 3d
       -0.1399441 -0.035034943 0.0885696 0.09570559
000270 ef f9 7a bd f1 43 2d bd 5c a3 88 3e 24 d4 b5 bd
       -0.06127351 -0.042301122 0.26687133 -0.08878353
000280 45 5f 91 3e 9c 52 d5 3e 02 f5 8a be c6 a9 43 3e
       0.28392997 0.41664588 -0.2714005 0.19107732
000290 5a 5a 32 bd a0 04 95 3d 00 8d bd 3e c7 79 29 be
       -0.043543197 0.07276273 0.37021637 -0.1655036
0002a0 91 0f 53 be de cf 49 be f5 19 7d bd 94 bb 4c bd
       -0.20611407 -0.19708201 -0.061792333 -0.049983576
0002b0 5d 7a 8c 3e 0f 61 6d be 9b 34 bc 3e 41 bd ea 3c
       0.27437106 -0.23181556 0.36758885 0.028654696
0002c0 c2 67 eb bd 50 7a 2b bc 6f 98 10 3d 38 2c c0 3e
       -0.114943996 -0.010466173 0.035301622 0.37533736
0002d0 8f ad 10 3e e8 b0 1d 3e 50 7f 64 bc d0 5f 8c 3e
       0.14128707 0.15399516 -0.013946369 0.2741685
0002e0 fc 4a 9d bd 69 d4 91 bc fd da 9e 3d 4e 00 1a 3e
       -0.07680318 -0.01780148 0.077566124 0.15039179
0002f0 20 b5 4c 3e c3 20 be bd 54 fb 87 3e 9c cb 89 be
       0.19990969 -0.092835926 0.26558936 -0.26913154
000300 38 23 16 be c2 4b cf 3d c5 0d 12 bc 7f 02 93 be
       -0.14661872 0.101218715 -0.008914416 -0.28712842
000310 e0 73 e5 3c db ce 0c 3e 97 fd 2d 3d cc cf c6 bd
       0.028009355 0.13750784 0.04247817 -0.09707603
000320 c6 84 d5 bc 51 9c 1c be e7 3f 8e 3e 22 c7 4f bf
       -0.026064288 -0.15294005 0.2778313 -0.8116323
000330 4e 2d ef 3e d2 af eb bd 5e b2 38 be 19 59 2c bf
       0.46714252 -0.115081444 -0.18036792 -0.6732345
000340 f3 6f 03 3e ba df f8 bd 75 a5 c5 be 6e 14 0b 3f
       0.12835674 -0.121520475 -0.38602796 0.5432805
000350 fe 3a b6 bd 78 98 91 3e 0f 2f 3c 3e 33 b9 7f 3e
       -0.088979706 0.28436637 0.18377326 0.24972992
000360 62 0c 42 bd e5 7e 6e 3d 33 8e f4 3d 0e c9 2c 3e
       -0.04737509 0.058226485 0.11941185 0.16873571
000370 ca 02 b3 bd 14 44 97 3d 49 9e 66 3e 0e 44 c9 bd
       -0.08740766 0.07386032 0.22521318 -0.098274335
000380 86 64 1f 3e 37 ed 10 3f a0 14 c0 bd 3c e0 5f 3e
       0.1556569 0.5661196 -0.09378934 0.21862882
000390 e0 d9 04 3c d4 16 2e 3d 5d 80 ff 3e 21 be 04 be
       0.008108586 0.04250224 0.4990262 -0.12963153
0003a0 31 c5 22 be d6 c5 c8 bc 23 78 bf bd 6c c3 4e 3d
       -0.15895535 -0.024508398 -0.09349086 0.050479338
0003b0 7c 1f 91 3e 4c 5e 03 be 97 10 a2 3e eb 60 91 3d
       0.28344333 -0.1282894 0.31653282 0.07098564
0003c0 5f d1 a3 3b 78 d6 50 bd 12 37 90 3d d5 6f a6 3e
       0.004999324 -0.050985783 0.07041754 0.32507196
0003d0 56 3b 15 bd 17 d0 e6 3d 3a f7 d8 bd 1b da af 3e
       -0.03643354 0.11270159 -0.1059403 0.3434609
0003e0 90 99 d6 3c 62 d5 43 be 61 45 5b 3d f7 92 21 3e
       0.026196271 -0.19124368 0.05353296 0.15778719
0003f0 e9 00 59 3e b9 8d 25 3d f7 dc 8b 3d d9 e0 3a bd
       0.21191753 0.04041836 0.06829255 -0.045624588

fc3.bias f4 [20]
000000 73 bb c3 3f 66 2e 2a 3f 79 ee e7 3e 12 b4 f1 3e
       1.529158 0.6647705 0.45299128 0.47207695
000010 9d 27 d2 3e 7d 95 ab 3e 51 fa f2 3e d2 71 9d 3e
       0.41045848 0.33512488 0.474566 0.307509
000020 a9 ef 82 3e a1 b3 8f 3e 20 a7 1a 3e cd 99 4f 3e
       0.2557347 0.28066733 0.15102816 0.20273514
000030 03 d7 86 bc a6 6d 9f bd 76 7c 54 be a3 f4 1f be
       -0.016459947 -0.07784586 -0.20750603 -0.15620665
000040 74 58 11 be e7 e5 91 be 87 3c 4b be 86 53 00 bf
       -0.14193898 -0.28495714 -0.19847308 -0.50127447
