models/dqn_agent_firm_1_episode_1500.pth (torch, 101224 bytes, 24 tensors)

fc1.weight f4 [64, 3]
0	0x3d9a322f	0.07529103
1	0xbe1203cb	-0.1425926
2	0x3bd89079	0.0066090194
3	0xbf44e5d7	-0.7691321
4	0x3f097da4	0.5370734
5	0xbe31377d	-0.17306323
6	0x3e988e4b	0.2979606
7	0x3dbfbea3	0.09362533
8	0xbea8e5bb	-0.3298777
9	0xbe898a0f	-0.26863143
10	0xbe0bb15d	-0.13641877
11	0xbe98bb5e	-0.2983045
12	0xbf26f22d	-0.6521328
13	0xbeaeda65	-0.34150997
14	0x3e717d9c	0.23583072
15	0x3f33b31c	0.70195174
16	0x3f0352c4	0.51298165
17	0x3e439f09	0.19103636
18	0x3f1fa41c	0.62359786
19	0xbdf1f7fd	-0.11814878
20	0x3ab582b2	0.0013848154
21	0x3c06b259	0.008221232
22	0x3eb10505	0.34574142
23	0x3dab903e	0.083771214
24	0xbf1529ae	-0.58266723
25	0x3eab1975	0.3341786
26	0x3d86f387	0.06589418
27	0xbd17eb4d	-0.037089635
28	0x3f20f298	0.6287017
29	0x3e944d1b	0.28965077
30	0x3d9d899d	0.07692263
31	0xbf8f05e7	-1.1173676
32	0x3d5c64b6	0.053806983
33	0xbef6dd46	-0.48215693
34	0x3d1e4098	0.03863582
35	0xbdb0d653	-0.08634629
36	0xbf0b9274	-0.54520345
37	0xbee36290	-0.44411135
38	0xbe7a19a7	-0.24423848
39	0x3f305a2c	0.6888759
40	0xbe6116e5	-0.2198139
41	0x3c4767a5	0.012170707
42	0x3ed96685	0.4246103
43	0xbe13605c	-0.14392227
44	0x3cce1225	0.025155136
45	0xbf799764	-0.9749663
46	0x3d3cd72e	0.04610365
47	0xbd8c1354	-0.06839624
48	0xbed241df	-0.4106588
49	0xbe15bfa7	-0.14623891
50	0x3e0a6b7d	0.13517566
51	0xbeb73595	-0.35783067
52	0xbe77b1d6	-0.24188933
53	0xbb3944c5	-0.002826975
54	0x3ea8023e	0.3281421
55	0x3e64c326	0.22340068
56	0x3eca5fa8	0.39526105
57	0xbefbde3a	-0.49192983
58	0xbf1a9df7	-0.60397285
59	0x3e91eb42	0.284998
60	0x3e821256	0.25404614
61	0xbed77ea4	-0.42088807
62	0x3e38f8c1	0.18063642
63	0x3dde956f	0.10868346
64	0xbda7d1bd	-0.08194301
65	0xbba8c13c	-0.0051499885
66	0xbdee3271	-0.11630715
67	0x3e0c0c21	0.13676502
68	0xbdd094e7	-0.10184651
69	0xbf3ab715	-0.7293561
70	0x3ee558d0	0.4479432
71	0x3e18e834	0.14932328
72	0xbed5c8c3	-0.41754732
73	0xbefba1c9	-0.4914687
74	0x3e5cc31e	0.21558806
75	0x3e6409f2	0.22269419
76	0x3e648ad8	0.2231859
77	0xbbbdd4eb	-0.005793204
78	0x3dec2f2d	0.115324356
79	0xbf1fc720	-0.62413216
80	0x3e102a57	0.14078651
81	0xbd4fa98f	-0.050698813
82	0xbe3ba429	-0.18324341
83	0xbcb4516b	-0.02201148
84	0xbea71492	-0.3263288
85	0xbe803fd1	-0.25048688
86	0xbeaeb565	-0.34122768
87	0xbdfd58f7	-0.12370484
88	0xbeb5844c	-0.35452497
89	0xbf132676	-0.5748056
90	0xbe2f3c96	-0.17112955
91	0xbf0b4794	-0.54406095
92	0xbd9429f7	-0.07234567
93	0xbf4803b2	-0.7813064
94	0x3e8fa372	0.28054386
95	0xbc89b34f	-0.016809134
96	0x3e4d48d4	0.20047313
97	0xbf2bfebe	-0.6718558
98	0x3e40d1bd	0.18830009
99	0x3d680699	0.056646917
100	0x3d4fb5b2	0.050710388
101	0xbd98f292	-0.074681416
102	0xbd2570e6	-0.04039087
103	0xbe2a7b47	-0.16648589
104	0xbe1e5234	-0.15461046
105	0xbea26bfb	-0.31723008
106	0xbebc5231	-0.36781457
107	0xbec53147	-0.38514158
108	0x3e5b73a6	0.21430835
109	0xbe910c8e	-0.2832989
110	0xbe00c1d5	-0.12573941
111	0xbe1e40d9	-0.15454425
112	0xbeb34b92	-0.35018593
113	0xbed27849	-0.41107395
114	0x3e7fca44	0.24979502
115	0xbd80d9e6	-0.06291561
116	0xbd92f73f	-0.07176065
117	0xbea124c5	-0.31473365
118	0xbdbf86d9	-0.09351892
119	0x3d96e51b	0.07367917
120	0xbe3bdfce	-0.18347093
121	0x3f4df8a2	0.8045751
122	0x3ef14051	0.47119382
123	0x3cd00e01	0.025397303
124	0xbc4d3f34	-0.012527276
125	0xbe6091f5	-0.21930678
126	0xbec560e7	-0.38550493
127	0xbf23ab94	-0.6393368
128	0x3e168e61	0.1470275
129	0x3d92c1af	0.071658485
130	0x3edbb19e	0.4290895
131	0xbc8fe2b3	-0.017564153
132	0x3eae2920	0.3401575
133	0x3e5c85c7	0.21535407
134	0xbe77f0e6	-0.24212989
135	0x3e892d50	0.26792383
136	0x3f0ddaea	0.5541216
137	0xbccfe48a	-0.02537753
138	0x3de4e20b	0.11175927
139	0x3ebc2215	0.36744753
140	0xbbad631e	-0.0052913567
141	0x3dd826df	0.10554289
142	0xbd1c69c4	-0.038186803
143	0xbe34e474	-0.17665273
144	0x3e6dddc5	0.2322913
145	0x3e3d95af	0.18514131
146	0xbe281dba	-0.1641759
147	0xbd86ab0f	-0.065755956
148	0x3e8842cd	0.26613465
149	0xbb766ce9	-0.0037601537
150	0x3dfea855	0.124344505
151	0xbd3c615c	-0.045991287
152	0xbec65b83	-0.38741693
153	0xbe83a7c5	-0.25713935
154	0x3ecc478b	0.39898333
155	0x3c4cf8b8	0.012510471
156	0xbed1e369	-0.40993813
157	0x3ef763b7	0.48318264
158	0x3cbf6428	0.023363188
159	0xbefe238e	-0.496365
160	0xbe08e37c	-0.13368028
161	0xbf0f5be2	-0.5599958
162	0xbe57657e	-0.2103481
163	0xbec92183	-0.3928338
164	0x3e7584cf	0.23976444
165	0xbe9bcb03	-0.30428323
166	0xbc935483	-0.017984634
167	0x3e712748	0.23550141
168	0xbe84f4bb	-0.25967965
169	0x3d864680	0.065564156
170	0x3d691a58	0.05690989
171	0x3f1c189d	0.60975057
172	0x3efa945e	0.4894132
173	0xbd17eac4	-0.037089124
174	0x3e72ab6a	0.23698202
175	0x3f002e85	0.50070983
176	0x3d01586f	0.031578477
177	0xbdb2cd42	-0.08730556
178	0x3eb75338	0.35805678
179	0xbc076a70	-0.008265123
180	0xbe8f230b	-0.27956423
181	0xbe27827b	-0.16358368
182	0x3d9bcba9	0.076072045
183	0x3e06d03b	0.13165371
184	0x3ecd2fc9	0.4007552
185	0xbf05d294	-0.5227444
186	0x3da24cf7	0.07924836
187	0xbeafe911	-0.34357503
188	0x3e5e2c86	0.21696672
189	0x3f6bb305	0.9207004
190	0x3f1265aa	0.5718638
191	0xbd25fee6	-0.040526293

fc1.bias f4 [64]
0	0x406011dc	3.50109
1	0x400fa93d	2.2447045
2	0x404ce49f	3.201454
3	0xbee39790	-0.4445157
4	0xc03a9cfb	-2.9158313
5	0xbfec33d0	-1.8453312
6	0x405534d2	3.331349
7	0xbf9a433e	-1.2051771
8	0x40560829	3.344248
9	0xc032af29	-2.791941
10	0xbe97c9cc	-0.29646146
11	0xbefe240d	-0.4963688
12	0x3ef08adf	0.4698095
13	0x408765ae	4.231162
14	0x401ca083	2.4472969
15	0x3f23b18a	0.6394278
16	0x40923a58	4.569622
17	0xbed73396	-0.42031544
18	0xc03d3235	-2.9561894
19	0xc02efc6e	-2.734157
20	0x40113e51	2.2694285
21	0x40664b9e	3.5983653
22	0x406df31f	3.717964
23	0xc0174aae	-2.363933
24	0x400272c1	2.038254
25	0x4029e2c0	2.6544647
26	0xbff45048	-1.9087
27	0x3fc00884	1.5002599
28	0x3e9d8a58	0.3076961
29	0xbe500697	-0.20315014
30	0x3ea4c45d	0.32181063
31	0x3fb94bad	1.447622
32	0x405fb624	3.495492
33	0x407901e0	3.8907394
34	0x3e3215ab	0.17391078
35	0xbf00639e	-0.50152004
36	0x3db01258	0.08597249
37	0xbef1e66b	-0.47246107
38	0xbf5482df	-0.83012193
39	0x403a0c12	2.9069867
40	0xc03bbef7	-2.9335306
41	0xbb8132aa	-0.003942807
42	0xbf325ef8	-0.6967616
43	0x40438582	3.0550237
44	0x405c2929	3.4400122
45	0x405bbab4	3.4332705
46	0xbfac7e3a	-1.3476021
47	0x3dcd9b54	0.10039392
48	0x405de4f2	3.4670987
49	0x407fdbd6	3.9977927
50	0x402ce898	2.7016964
51	0x405c7dd0	3.445179
52	0x40596d1d	3.3972847
53	0xbea46690	-0.321095
54	0x402077d9	2.507315
55	0x3fb2411c	1.392612
56	0x407249cc	3.7857542
57	0x3f99bc00	1.2010498
58	0xbff9f382	-1.9527438
59	0x40782cef	3.8777425
60	0x40877cc7	4.2339816
61	0x4027fc79	2.6247847
62	0xc071448a	-3.7698083
63	0x3f9931a3	1.1968273

fc2.weight f4 [64, 64]
0	0x3d94b361	0.07260776
1	0x3d5da5ba	0.054113127
2	0xbd9023a8	-0.07038051
3	0xbd8a9fec	-0.06768784
4	0x3de41e50	0.11138594
5	0xbd1a0742	-0.037604578
6	0x3bb16cda	0.0054145874
7	0xbd5df9ce	-0.05419331
8	0xbbb29f29	-0.0054511023
9	0x3c9cf408	0.019159332
10	0x3ddd84e0	0.108163595
11	0x3d132498	0.03592357
12	0xbdf145dc	-0.11780903
13	0xbe1c9802	-0.15292361
14	0xbc8f51e8	-0.01749511
15	0x3c75e8e9	0.015009143
16	0xbd22f42f	-0.039783653
17	0xbde7a792	-0.113112584
18	0xbd84b83e	-0.06480454
19	0xbd8c7c68	-0.06859666
20	0xbdba4c66	-0.09096603
21	0xbd5cb1ce	-0.053880505
22	0xbe0d146c	-0.13777322
23	0xbd1f5105	-0.038895626
24	0xbcea5300	-0.02860403
25	0x3ca35198	0.019936368
26	0xbddd9b1e	-0.10820602
27	0xbddeffc2	-0.10888626
28	0xbcdfb8d8	-0.02730982
29	0x3b85bd20	0.0040813833
30	0xbde543f0	-0.11194599
31	0x3bd2e128	0.006435532
32	0x3d1a8ad8	0.037730068
33	0x3d3bae55	0.045820553
34	0x3d398d58	0.04530081
35	0xbc451220	-0.012028247
36	0x3dbd18a0	0.092332125
37	0xbda666d4	-0.08125082
38	0xbd5f754a	-0.054555215
39	0xbd020848	-0.03174618
40	0xbe0e066a	-0.13869634
41	0x3ddf6748	0.10908371
42	0xbdb9ef12	-0.09078802
43	0xbe1b346e	-0.15156719
44	0xbdcaab37	-0.09895938
45	0xbd71d825	-0.059044022
46	0xbe1db38f	-0.15400527
47	0x3d29404c	0.041321084
48	0x3dab1d89	0.08355243
49	0xbe12003d	-0.14257903
50	0xbdf5828c	-0.119877905
51	0x3d821dec	0.063533634
52	0xbe0a8174	-0.13525945
53	0x3c66d7d0	0.01408954
54	0x3cf73078	0.030174479
55	0xbe2072f1	-0.15668847
56	0xbe196e49	-0.14983477
57	0x3cd48b5a	0.025945354
58	0xbd18a7cf	-0.03726941
59	0x3da3b567	0.07993584
60	0xbce87368	-0.028375342
61	0x3d9f5473	0.07779779
62	0x3cc04ee8	0.023475125
63	0x3db9252f	0.09040295
64	0x3f9970fc	1.1987605
65	0x3ee4375f	0.44573495
66	0x3f00824a	0.50198805
67	0xbd81a676	-0.06330578
68	0xbf855b51	-1.0418493
69	0xbeb31494	-0.34976637
70	0x3f13ebac	0.5778148
71	0xbe8a6fdf	-0.27038476
72	0x3edcb240	0.43104744
73	0xbf2b0dbd	-0.6681784
74	0xbf238496	-0.63874185
75	0x3d9d1e06	0.07671742
76	0xbb78f2c0	-0.0037986487
77	0x3f5dbce9	0.8661638
78	0x3eaedd68	0.34153295
79	0x3c7a3568	0.015271522
80	0x3fc46a50	1.5344944
81	0xbdf61152	-0.12015022
82	0xbf12c85c	-0.57336974
83	0xbf8a96c6	-1.0827262
84	0x3dedbdd3	0.11608472
85	0x3f696421	0.9116841
86	0x3fc94220	1.5723305
87	0xbea931a4	-0.33045685
88	0x3df11ef9	0.11773486
89	0x3eb32ee1	0.34996703
90	0xbed061eb	-0.40699705
91	0x3f05b5fb	0.52230805
92	0xbd788a3c	-0.060678706
93	0x3d4518a8	0.048119217
94	0xbdc757a6	-0.097335145
95	0x3e61aae7	0.2203785
96	0x3ed16a82	0.40901572
97	0x400bf4c1	2.1868136
98	0xbda446fe	-0.08021353
99	0xbd2c2090	-0.04202324
100	0x3e7ef2a5	0.24897249
101	0x3dff5870	0.1246804
102	0xbd984279	-0.07434554
103	0x3f53359e	0.8250369
104	0xbf389173	-0.7209694
105	0x3cdb1fc8	0.026748553
106	0xbf94e3c3	-1.1632007
107	0x3ede3b7d	0.4340476
108	0x3fa64691	1.2990285
109	0x3f1d1625	0.61361915
110	0xbdeef1d9	-0.116672225
111	0x3d931fd2	0.071838036
112	0x3fa385e4	1.2775235
113	0x3f501e11	0.8129588
114	0x3fb2d3e3	1.3970913
115	0x3f52e896	0.8238615
116	0x3ec49dbd	0.38401595
117	0xbd31295c	-0.043252334
118	0x3e385564	0.18001324
119	0x3ceee821	0.029163422
120	0x3fb4a469	1.4112674
121	0x3d1a0ac0	0.03760791
122	0xbeb67108	-0.3563311
123	0x3f6ad87b	0.91736573
124	0x3fadf07e	1.3589017
125	0x3f1a1212	0.60183823
126	0xbf25d90b	-0.64784306
127	0x3de2390c	0.11046037
128	0x3f18d36e	0.59697616
129	0x3c21f32d	0.009884638
130	0x3f308235	0.6894868
131	0xbd6d28b4	-0.057900146
132	0x3d632193	0.05545194
133	0xbe0ca580	-0.13735008
134	0x3ed54553	0.41654453
135	0xbd85d337	-0.06534427
136	0x3dd3a8f8	0.103349626
137	0xbb3ba4d0	-0.0028632171
138	0xbd796ed0	-0.060896695
139	0x3d3e8740	0.046515703
140	0xbdf01ba6	-0.117240235
141	0x3ef4ccf3	0.47812614
142	0x3c8a0a99	0.016850756
143	0x3f00781c	0.5018327
144	0x3eea4455	0.45755258
145	0x3dc5b07c	0.09652802
146	0xbd8f11d9	-0.06985826
147	0xbc9bbb26	-0.019010138
148	0xbcf89e66	-0.030348968
149	0x3f0d0f75	0.5510171
150	0xbe9b53b2	-0.30337292
151	0xbe25ffd9	-0.1621088
152	0x3e42d17e	0.19025227
153	0xbdcd1768	-0.1001423
154	0x3d88aefa	0.06673999
155	0xbe99e2d5	-0.30055872
156	0xbddb5650	-0.10709822
157	0xbcc4d3b8	-0.024026737
158	0xbdb22a02	-0.086994186
159	0xbdd9c3db	-0.106330596
160	0x3d6be9f5	0.057596166
161	0xbf1d6d0b	-0.6149451
162	0xbb510d00	-0.0031898618
163	0x3d7dea30	0.061990917
164	0xbbc0cb6c	-0.005883625
165	0xbdd120b6	-0.10211317
166	0xbdb66a4b	-0.089069925
167	0x3e8a6797	0.27032158
168	0xbd9a9918	-0.075487316
169	0x39526800	0.00020065904
170	0xbdc5e596	-0.09662931
171	0x3dae3fd0	0.08508265
172	0x3ee8bc11	0.45455983
173	0xbe9c4996	-0.30524892
174	0xbe1b29d4	-0.15152675
175	0x3d9aa33c	0.07550666
176	0xbcec6f2e	-0.028861608
177	0x3ec2f687	0.3807871
178	0x3f25af7d	0.647209
179	0x3e8db752	0.27678925
180	0x3e2728a8	0.16324103
181	0xbd4cb90c	-0.049981162
182	0x3e20124f	0.15631984
183	0xbd3853e0	-0.045001864
184	0x3f32bdd9	0.69820935
185	0xbf10916f	-0.56471914
186	0xbd9db8d3	-0.07701268
187	0x3eca7e11	0.39549306
188	0x3ed9fc16	0.4257514
189	0x3f657080	0.89624786
190	0xbdf59780	-0.11991787
191	0xbf5f1426	-0.8714012
192	0xbdc80eec	-0.09768471
193	0xbd6d9fc3	-0.05801369
194	0xbc070002	-0.008239748
195	0x3d8662fa	0.06561847
196	0x3d0bb3e4	0.034107104
197	0xbccea751	-0.025226267
198	0xbde2ac90	-0.1106807
199	0xbd41c60b	-0.04730801
200	0xbc161a76	-0.009161582
201	0xbdd89221	-0.10574747
202	0xbdca89d2	-0.098895684
203	0xbdce5c64	-0.10076216
204	0x3c747ce0	0.014922351
205	0x3d7992c6	0.06093099
206	0xbda3cec4	-0.07998422
207	0xbe01f57f	-0.12691306
208	0x3d33a221	0.04385579
209	0xbd18fa18	-0.037347883
210	0xbdabad2c	-0.08382639
211	0x3d6295bc	0.05531858
212	0xbe06b818	-0.13156164
213	0xbcc4904f	-0.023994593
214	0xbda1ec6e	-0.079064235
215	0x3dbdda02	0.09270097
216	0x3cf1ed60	0.029532135
217	0x3da6c6e2	0.08143403
218	0xbc9f7340	-0.019464135
219	0xbd7aa259	-0.061189983
220	0x3dc4073c	0.09571692
221	0x3cf72070	0.030166835
222	0xbddf3acc	-0.108998865
223	0xbd17fcf1	-0.037106458
224	0xbdd38f2c	-0.10330042
225	0xbd56d229	-0.052446518
226	0xbd8d7f44	-0.069090396
227	0x3d1bd5e8	0.038045794
228	0xbdf8dfff	-0.12152099
229	0x3d782c54	0.06058915
230	0x3c39c384	0.011338118
231	0xbdd988da	-0.106218055
232	0xbd4cbfd5	-0.049987633
233	0xbc6f2840	-0.014596999
234	0xbdadc9da	-0.08485766
235	0x3d947cf7	0.07250398
236	0x3d4aca8d	0.049509574
237	0xbe15b2b5	-0.14618953
238	0xbe1c5153	-0.15265398
239	0x3b0a0d80	0.0021065176
240	0xba34604a	-0.0006880803
241	0x3bd4bf77	0.006492551
242	0x3d77cace	0.060496144
243	0xbe0b1291	-0.13581301
244	0xbd8ec13d	-0.06970451
245	0x3c393bd0	0.011305764
246	0xbdda0970	-0.10646331
247	0xbcfeec5c	-0.031118564
248	0x3d3ae656	0.04562982
249	0x3d75cec1	0.06001163
250	0x3ccd10cb	0.025032422
251	0xbc7e1b84	-0.01550949
252	0xbe03ef42	-0.12884238
253	0xbe002d95	-0.12517388
254	0xbb069d40	-0.0020540506
255	0x3c1a674a	0.00942404

fc2.bias f4 [64]
0	0x3cdf70dd	0.027275497
1	0x4015f8b0	2.3433037
2	0x3fede6db	1.8586076
3	0xbc919dce	-0.017775442
4	0x3f2607a1	0.6485539
5	0xbd997aaf	-0.07494103
6	0xbf7dfc8e	-0.9921349
7	0x3ff22e44	1.8920369
8	0xbdcc7f19	-0.099851795
9	0x4018691b	2.3814151
10	0x3e4957f8	0.19662464
11	0x3ff8fc17	1.9451932
12	0xbfc224bb	-1.5167459
13	0x401a0d15	2.4070485
14	0x3d4ee6bb	0.05051301
15	0x3cc01d9e	0.023451623
16	0x400b4534	2.1760988
17	0xbdd22f92	-0.102629796
18	0xbd089634	-0.03334637
19	0x400954e7	2.145807
20	0x3d9273f6	0.07151024
21	0xbd089f1d	-0.033354867
22	0x3d8490a3	0.064729
23	0x3d66a6d3	0.05631144
24	0xbf5e7038	-0.8688998
25	0x3fed2b3a	1.8528817
26	0x3ffabd46	1.9589012
27	0x400f877c	2.2426443
28	0xbe26ddfd	-0.1629562
29	0x400f4c28	2.2390232
30	0xbe127e13	-0.14305906
31	0xbf23ffba	-0.6406208
32	0x3ffddd41	1.9833146
33	0x3d8b58ff	0.06804084
34	0x3f4b5b86	0.7943653
35	0x3f85d594	1.0455804
36	0x4007b6e7	2.1205385
37	0xbe2c68e6	-0.1683689
38	0x40000b52	2.000691
39	0xc00f674e	-2.2406802
40	0x3f4f5ba8	0.8099923
41	0x3f6be500	0.921463
42	0x3fd283bd	1.6446453
43	0x3f6e61ca	0.93117964
44	0x3f8bac6c	1.0911994
45	0x3dea6cc0	0.11446524
46	0x40110274	2.2657747
47	0x3fc016b6	1.5006931
48	0x3fecefed	1.851072
49	0xbd4c2c24	-0.049846783
50	0x40036af2	2.0534024
51	0x3ff8bcde	1.9432638
52	0xbb1ea25a	-0.0024205656
53	0xbcf9a988	-0.030476347
54	0xbe14cc5b	-0.1453108
55	0xbdfee440	-0.12445879
56	0x3f8c94fb	1.0982965
57	0x40211413	2.5168502
58	0xbd2fe316	-0.042941175
59	0xbdb33ba3	-0.08751609
60	0x3ace5dad	0.001574447
61	0x3fcdb921	1.6072122
62	0xbd9c31d4	-0.076266915
63	0x40135be5	2.3024838

fc3.weight f4 [20, 64]
0	0xbc398d40	-0.0113251805
1	0xbfbfb949	-1.497842
2	0x3ea71518	0.3263328
3	0x3df1e57e	0.1181135
4	0x3e181147	0.14850341
5	0xbd9fb290	-0.0779773
6	0xbec5dc67	-0.38644716
7	0x3ed724b9	0.42020205
8	0x3d134dbc	0.035962805
9	0x3f001eae	0.50046813
10	0xbca8844e	-0.0205709
11	0x3ec97d80	0.3935356
12	0xbf0bac10	-0.5455942
13	0x3f2ad9e5	0.6673873
14	0xbddaaeb4	-0.10677853
15	0xbd1ebbc2	-0.03875328
16	0x3eaba737	0.33526012
17	0xbd5ca204	-0.053865448
18	0xbda9625a	-0.08270712
19	0x3f1e5de1	0.61862
20	0x3daf494a	0.08558901
21	0x3dd10da2	0.102076784
22	0x3d5734a7	0.052540448
23	0x3d67a4b8	0.056553572
24	0xbed9e4f1	-0.4255748
25	0x3e924de4	0.2857505
26	0x3eb01ac9	0.34395435
27	0x3f3abe1c	0.72946334
28	0xbbe3b5e7	-0.0069491747
29	0x3f1cd2a0	0.6125889
30	0x3be2dc77	0.006923254
31	0xbe6a8165	-0.22900923
32	0x3e94a2fe	0.29030603
33	0x3db8e215	0.09027497
34	0xbd6f1f3d	-0.0583794
35	0x3e81cc53	0.253512
36	0x3f0c0d5c	0.54707885
37	0xbdbde821	-0.09272791
38	0x3ea32e5e	0.31871313
39	0xbf445ec6	-0.7670711
40	0xbd1e4d44	-0.038647905
41	0x3fb0116a	1.3755314
42	0x3eb9750f	0.3622212
43	0x3d295265	0.041338343
44	0x3eae9337	0.3409669
45	0xbd05ed08	-0.032696754
46	0xbf9c42ab	-1.2207845
47	0x3e2fa2ef	0.17151998
48	0x3f2f019a	0.6836182
49	0x3df16310	0.11786473
50	0x3ea4aeb9	0.32164553
51	0xbf80147b	-1.000625
52	0xbd689ecc	-0.056792066
53	0xbdad35fa	-0.08457561
54	0x3da7ac2a	0.081871346
55	0xbd8ac4ca	-0.06775816
56	0x3bc8ac1b	0.006124032
57	0x3efc3bf0	0.4926448
58	0xbd5a59f8	-0.053308457
59	0xbd142894	-0.03617151
60	0xbdf1eb43	-0.11812451
61	0x3ebb5312	0.36586815
62	0xbd0636cf	-0.032767113
63	0x3ee0b71f	0.4388971
64	0x3dfba97e	0.122881874
65	0xbf3ca81f	-0.7369403
66	0x3e9028a4	0.28156006
67	0xbd513804	-0.05107881
68	0x3da44a8b	0.080220304
69	0xbdb30b1e	-0.08742355
70	0x3d72afe0	0.05924976
71	0x3eaa868c	0.33305776
72	0xbc8a9015	-0.016914407
73	0x3eaa36c1	0.332449
74	0xbe47b94d	-0.1950428
75	0x3ef46ff6	0.4774167
76	0xbd0035fe	-0.03130149
77	0x3ef33d5a	0.47507745
78	0x3c22e8b6	0.009943178
79	0x3daf5e96	0.08562963
80	0x3e985e44	0.2975942
81	0xbd8cc768	-0.06873971
82	0x3db31f58	0.08746213
83	0x3efac53b	0.489786
84	0xbd946442	-0.07245685
85	0xbda9e2ce	-0.08295213
86	0xbdfa5b94	-0.122244984
87	0x3dab27d4	0.08357206
88	0xbc135ad7	-0.008993826
89	0x3e8083ad	0.2510046
90	0x3e078aad	0.13236494
91	0x3eb35433	0.35025176
92	0xbcd66e17	-0.026175542
93	0x3f0ea1a9	0.55715424
94	0x3d8f3657	0.069927864
95	0xbd74a252	-0.059725113
96	0x3e43570c	0.19076174
97	0xbcd26220	-0.025681555
98	0xbd9e6b7b	-0.07735344
99	0x3eede61e	0.46464628
100	0x3e9ed0f0	0.31018782
101	0x3dd25eb4	0.102719694
102	0x3e57fde9	0.21092953
103	0xbe13cf68	-0.14434588
104	0xbe89ec40	-0.26938057
105	0xbe0d37f4	-0.13790876
106	0x3f00c22f	0.502963
107	0x3e05ca3f	0.13065432
108	0x3ef222ce	0.4729218
109	0xbe4e15de	-0.20125529
110	0xbf67f0ad	-0.9060162
111	0x3e6c594e	0.23080942
112	0x3e80cc2b	0.25155768
113	0xbd9ea6fc	-0.077466935
114	0x3e6beeff	0.23040389
115	0xbf3ef24b	-0.7458846
116	0x3da4116e	0.08011137
117	0xbde229e0	-0.11043143
118	0xbdde4c68	-0.10854417
119	0x3d8a174c	0.06742725
120	0x3e76fc97	0.24119793
121	0x3f1f9b87	0.6234669
122	0x3da3ffe6	0.08007793
123	0xbdd9946f	-0.106240146
124	0x3d35a9c7	0.044351365
125	0xbd2cc608	-0.042181045
126	0xbdb363d1	-0.08759273
127	0x3ec29276	0.38002366
128	0xbdf5f890	-0.120103
129	0xbf41993b	-0.75624436
130	0x3e221aa8	0.15830481
131	0xbcc4f200	-0.024041176
132	0xbcc3f73f	-0.023921607
133	0xbb8dbcc0	-0.0043254793
134	0xbcc2d4ab	-0.023783049
135	0x3ebfcdb8	0.37461638
136	0xbd92a6e8	-0.07160741
137	0x3ebdf2e2	0.37099367
138	0x3e764e1d	0.24053235
139	0x3f06347f	0.5242385
140	0xbe463097	-0.19354473
141	0x3f10ccbe	0.5656241
142	0x3d73d5fc	0.059530243
143	0x3a03de40	0.0005030371
144	0x3e8660f2	0.26245838
145	0x3b76b340	0.0037643462
146	0xbd19c9a4	-0.037545815
147	0x3ef0f3c1	0.4706097
148	0x3d135364	0.0359682
149	0x3de88d12	0.11355032
150	0x3d7052f8	0.058672875
151	0x3dfeface	0.12450181
152	0xbc4da7ae	-0.012552185
153	0x3e108b23	0.14115576
154	0x3e6b9f11	0.23009898
155	0x3f05f8f3	0.5233299
156	0x3e02a875	0.12759574
157	0x3f0df54b	0.5545241
158	0xbdc2b0a1	-0.095063455
159	0x3ce1a36f	0.027543752
160	0x3e49a40f	0.1969149
161	0x3d89adee	0.067226276
162	0x3ca76a31	0.020436378
163	0x3ef3c936	0.4761445
164	0x3ea9dbbd	0.3317546
165	0x3de88da1	0.113551386
166	0x3dd177ac	0.10227904
167	0xbe61df07	-0.22057734
168	0xbe5acc08	-0.21366894
169	0xbe83f61a	-0.25773698
170	0x3ed506c7	0.41606733
171	0xbde46c68	-0.11153489
172	0x3edeefab	0.43542227
173	0xbe8536f8	-0.260185
174	0xbf5d69a2	-0.8648931
175	0x3e9c22fd	0.30495444
176	0x3e8e9d03	0.27854165
177	0xbdfc63ba	-0.12323709
178	0x3e674ce1	0.2258792
179	0xbf165340	-0.5872078
180	0x3d565cf8	0.052334756
181	0xbbbfe500	-0.0058561563
182	0xbd3eb444	-0.046558633
183	0xbd6618f8	-0.056176156
184	0x3ec26064	0.37964165
185	0x3eebceb1	0.4605613
186	0xbd4c3828	-0.049858242
187	0x3c16848d	0.009186876
188	0x3cba79df	0.02276319
189	0xbd68250d	-0.05667596
190	0x3db04388	0.086066306
191	0x3e9f36ea	0.31096584
192	0xbd52e620	-0.051488996
193	0xbf24e63f	-0.6441383
194	0x3e7d8069	0.24756016
195	0xbde512ac	-0.11185202
196	0xbeada878	-0.33917594
197	0x3d431dc8	0.047635823
198	0xbe542215	-0.20716126
199	0x3ea44951	0.32087186
200	0x3d8c4a42	0.06850101
201	0x3ecd07c7	0.40044996
202	0x3e3b8b87	0.18314944
203	0x3eaa4a0b	0.33259615
204	0xbc4984aa	-0.012299696
205	0x3f152e7f	0.5827407
206	0xbd9c1bda	-0.076225
207	0x3d0a8df6	0.03382679
208	0x3e73baa0	0.2380166
209	0x3d5780cd	0.05261307
210	0x3d7ca5c8	0.06168154
211	0x3ec5b579	0.38615015
212	0x3d94c6e8	0.07264501
213	0x3a789500	0.0009482652
214	0x3daaf2b1	0.08347071
215	0x3d71d9b8	0.059045523
216	0xbe0e45d2	-0.13893822
217	0x3e8033d3	0.2503954
218	0x3e95ff49	0.2929633
219	0x3ec3d539	0.38248613
220	0x3ddf1d88	0.108943045
221	0x3eb88484	0.360386
222	0xbd218de6	-0.039441966
223	0x3d78b572	0.060719915
224	0x3e93ba41	0.28853038
225	0xbe106331	-0.14100339
226	0x3de8305e	0.1133735
227	0x3eb803b1	0.35940316
228	0x3e866108	0.26245904
229	0x395404dd	0.00020219707
230	0x3e6fe471	0.23426987
231	0xbe33f247	-0.1757289
232	0xbe1293a6	-0.14314136
233	0xbc2ec6d7	-0.010667524
234	0x3ecd441f	0.40091035
235	0x3eeaca19	0.45857313
236	0x3ef606cf	0.4805207
237	0xbdb3c9e8	-0.08778745
238	0xbf3f0981	-0.74623877
239	0x3f12a3bd	0.57281095
240	0x3f15377b	0.5828778
241	0x3c4608b0	0.012087032
242	0x3eb3bd5b	0.35105404
243	0xbf6be8b6	-0.92151964
244	0x3dcb2006	0.09918217
245	0x3d39b8c8	0.045342237
246	0x3c8566e0	0.016284406
247	0x3db39ef0	0.08770549
248	0x3f206c7f	0.6266555
249	0x3ede8e35	0.4346787
250	0xbd3798a9	-0.044823322
251	0xbdc45f3f	-0.09588479
252	0x3dcfaae0	0.10140014
253	0x3d832964	0.06404379
254	0x3dd806ed	0.10548196
255	0x3ec47532	0.38370663

fc3.bias f4 [20]
0	0x3ff30b60	1.8987846
1	0x3f76bea8	0.9638467
2	0x3f6801c6	0.90627706
3	0x3f2c736d	0.67363626
4	0x3f260911	0.64857584
5	0x3eea6327	0.45778772
6	0x3e5f5b87	0.21812259
7	0x3eaabf60	0.33349133
8	0x3ed60537	0.41800854
9	0x3e747f97	0.23876797
10	0x3e2e5bcc	0.17027205
11	0xbd48cf8a	-0.04902605
12	0x3e84beab	0.25926718
13	0xbdb65e49	-0.08904702
14	0xbe74e158	-0.23914087
15	0xbe184e58	-0.14873636
16	0xbe04d81e	-0.12973067
17	0xbef9483f	-0.48687932
18	0xbebb188f	-0.36542174
19	0xbebe3061	-0.37146285

fc1.weight f4 [64, 3]
0	0x3d855db0	0.0651201
1	0xbe197a0b	-0.14987962
2	0x3b6419c3	0.0034805394
3	0xbf328b1f	-0.6974353
4	0x3f109884	0.5648272
5	0xbe3b9923	-0.18320136
6	0x3e96e1c1	0.29469112
7	0x3dc6bef7	0.097043924
8	0xbeb275b4	-0.34855425
9	0xbe898a0f	-0.26863143
10	0xbe0bb15d	-0.13641877
11	0xbe98bb5e	-0.2983045
12	0xbf13c2fd	-0.57719404
13	0xbe9af2de	-0.30263418
14	0x3e7f0b9e	0.24906775
15	0x3f341a4c	0.70352626
16	0x3f08ba1b	0.53408974
17	0x3e507959	0.2035879
18	0x3f1d80bb	0.6152455
19	0xbdff3aa3	-0.12462356
20	0xbb1f8b51	-0.0024344514
21	0x3af4b06b	0.0018668299
22	0x3ebd63e4	0.36990273
23	0x3de4d90d	0.11174212
24	0xbf17c6b4	-0.5928757
25	0x3eab45e4	0.3345176
26	0x3d91af81	0.07113553
27	0xbd383ac5	-0.044977922
28	0x3f24b9dd	0.64346105
29	0x3e987257	0.29774734
30	0x3dac11f1	0.084018596
31	0xbf739d0b	-0.95161504
32	0x3d5c9d14	0.05386074
33	0xbef6de15	-0.4821631
34	0x3d1e4098	0.03863582
35	0xbdb0d653	-0.08634629
36	0xbf0b9274	-0.54520345
37	0xbee36290	-0.44411135
38	0xbe7a1a38	-0.24424064
39	0x3f2f7b5d	0.6854761
40	0xbe6515a5	-0.22371538
41	0x3c1326c6	0.008981412
42	0x3edbfc87	0.429661
43	0xbe16baca	-0.14719692
44	0x3cbc69c9	0.022999661
45	0xbf5d5ef1	-0.86472994
46	0x3db8a59f	0.09015965
47	0xbd3677e5	-0.044547934
48	0xbed7f743	-0.42180833
49	0xbe145035	-0.14483722
50	0x3e0c25a8	0.1368624
51	0xbeb73595	-0.35783067
52	0xbe77b1d6	-0.24188933
53	0xbb393a1e	-0.00282634
54	0x3ea5168a	0.32243758
55	0x3e769525	0.24080332
56	0x3ecf271e	0.40459532
57	0xbee716d7	-0.45134613
58	0xbf15936e	-0.58428085
59	0x3e9698a3	0.29413328
60	0x3e842ead	0.2581686
61	0xbed16bd7	-0.40902588
62	0x3e4338e5	0.19064672
63	0x3dc990c6	0.098420665
64	0xbdb993ad	-0.0906137
65	0xbc08ecb7	-0.0083572185
66	0xbdeff0ce	-0.11715852
67	0x3e0f444a	0.13990894
68	0xbdd7055b	-0.10499068
69	0xbf343109	-0.7038732
70	0x3ef01c3d	0.46896544
71	0x3e23b048	0.15985215
72	0xbeded52f	-0.4352202
73	0xbef113e9	-0.47085503
74	0x3e6d272c	0.23159474
75	0x3e5e7431	0.21724011
76	0x3e60ab18	0.21940267
77	0xbc1b140e	-0.009465231
78	0x3da1c085	0.07898048
79	0xbf1758e7	-0.5912003
80	0x3e248a50	0.16068387
81	0xbd837356	-0.06418483
82	0xbe2bfb62	-0.16795114
83	0xbc9f8498	-0.019472405
84	0xbea71492	-0.3263288
85	0xbe803fd1	-0.25048688
86	0xbeaeb565	-0.34122768
87	0xbdfd58f7	-0.12370484
88	0xbeb5844c	-0.35452497
89	0xbf132676	-0.5748056
90	0xbe2f3c96	-0.17112955
91	0xbf0b4794	-0.54406095
92	0xbd9429f7	-0.07234567
93	0xbf45a441	-0.77203757
94	0x3e8c82c0	0.27443504
95	0xbc07e0bd	-0.008293328
96	0x3e58b720	0.21163607
97	0xbf2c1938	-0.6722598
98	0x3e45eb3d	0.19328018
99	0x3d67b00a	0.05656437
100	0x3d5a7e4c	0.053343102
101	0xbda7b713	-0.081892155
102	0xbd2570e6	-0.04039087
103	0xbe2a7b47	-0.16648589
104	0xbe1e5234	-0.15461046
105	0xbea26bfb	-0.31723008
106	0xbebc5231	-0.36781457
107	0xbec53147	-0.38514158
108	0x3e37977f	0.17928885
109	0xbe644873	-0.22293262
110	0xbdc003ae	-0.09375702
111	0xbe1e40d9	-0.15454425
112	0xbeb34b92	-0.35018593
113	0xbed27849	-0.41107395
114	0x3e880ab7	0.26570675
115	0xbd21b3e9	-0.039478216
116	0xbd362f9b	-0.044478994
117	0xbec90337	-0.39260265
118	0xbdcb4f20	-0.09927201
119	0x3d9ad931	0.07560957
120	0xbe45226f	-0.19251417
121	0x3f50b464	0.81525254
122	0x3ef6803a	0.48144704
123	0x3cd00e01	0.025397303
124	0xbc4d3f34	-0.012527276
125	0xbe6091f5	-0.21930678
126	0xbebd7586	-0.37003726
127	0xbf24a743	-0.6431772
128	0x3e1731a0	0.14765024
129	0x3d91149f	0.07084011
130	0x3edc02f6	0.4297101
131	0xbca1f54e	-0.01977029
132	0x3eb04171	0.34424928
133	0x3e4c9b19	0.1998104
134	0xbe808f35	-0.25109258
135	0x3e8ebbf1	0.27877763
136	0x3f0d7823	0.5526144
137	0xbce71573	-0.02820847
138	0x3de96287	0.11395746
139	0x3ecb83b4	0.3974892
140	0x3cb8d469	0.022562223
141	0x3dd826df	0.10554289
142	0xbd1c69c4	-0.038186803
143	0xbe34e474	-0.17665273
144	0x3e662d66	0.22478256
145	0x3e44ecf0	0.1923101
146	0xbe2f8333	-0.17139892
147	0xbd9ab0b4	-0.07553235
148	0x3e85db66	0.2614395
149	0xbbe48ef6	-0.00697505
150	0x3e18b24f	0.1491177
151	0xbd3d86b9	-0.04627106
152	0xbec42201	-0.38307193
153	0xbe84ad6c	-0.2591356
154	0x3ecc71fd	0.39930716
155	0x3c39f63e	0.011350213
156	0xbecbdfea	-0.3981927
157	0x3ef7f939	0.4843233
158	0x3ce1e908	0.027576938
159	0xbefe238e	-0.496365
160	0xbe08e37c	-0.13368028
161	0xbf0f5be2	-0.5599958
162	0xbe5e87cb	-0.21731488
163	0xbec5a366	-0.38601226
164	0x3e82face	0.25581974
165	0xbea9c7cd	-0.33160248
166	0xbc0414b6	-0.0080615785
167	0x3e840ffa	0.2579344
168	0xbe87457b	-0.26420197
169	0x3d850aa5	0.06496171
170	0x3d616445	0.055027265
171	0x3f20c3ba	0.62798655
172	0x3efa2651	0.48857358
173	0xbd56d5a0	-0.052449822
174	0x3e72f590	0.23726487
175	0x3f062b68	0.5240998
176	0x3cfd0804	0.030887611
177	0xbdc3372b	-0.09532007
178	0x3eb5f65a	0.35539514
179	0xbc2cfd2a	-0.010558406
180	0xbe99b5e0	-0.30021572
181	0xbe292093	-0.16516332
182	0x3d9d0ad7	0.07668083
183	0x3d96ffff	0.07373046
184	0x3ec6cc5b	0.38827786
185	0xbf048d09	-0.517777
186	0x3db3d200	0.08780289
187	0xbea7b077	-0.3275182
188	0x3e65a5ce	0.2242653
189	0x3f708533	0.93953246
190	0x3f0db83b	0.5535924
191	0xbd4dc31b	-0.050234895

fc1.bias f4 [64]
0	0x405d6d15	3.4597828
1	0x400f5c9f	2.2400281
2	0x404acfdc	3.1689367
3	0xbee39790	-0.4445157
4	0xc035fc87	-2.843538
5	0xbfe628e1	-1.7981225
6	0x4052b490	3.2922707
7	0xbf95f2e8	-1.1714754
8	0x4053de47	3.3104417
9	0xc02fc386	-2.7463088
10	0xbe71ebd0	-0.23625112
11	0xbefe240d	-0.4963688
12	0x3ef08adf	0.4698095
13	0x408623b0	4.1918564
14	0x401ad0cd	2.4189942
15	0x3f27e1e7	0.65579075
16	0x4090d05a	4.5254335
17	0xbed7309a	-0.42029268
18	0xc039b7ea	-2.9018502
19	0xc02b0a12	-2.6724896
20	0x40108ea2	2.2587056
21	0x4063a7ba	3.5571122
22	0x406c186e	3.688991
23	0xc0133c9d	-2.3005745
24	0x4001c02a	2.0273538
25	0x4027af73	2.6200836
26	0xbfece391	-1.8506948
27	0x3fb3462b	1.4005789
28	0x3e9d8a99	0.30769804
29	0xbe500697	-0.20315014
30	0x3ea4c45d	0.32181063
31	0x3fb95e26	1.4481857
32	0x405df2d1	3.4679453
33	0x4076d536	3.8567634
34	0x3e3215ab	0.17391078
35	0xbf00639e	-0.50152004
36	0x3cf5069d	0.02991038
37	0xbef1e66b	-0.47246107
38	0xbf4e987e	-0.80701435
39	0x40371bda	2.861075
40	0xc038e8ed	-2.8892167
41	0xbb8132aa	-0.003942807
42	0xbf1ff2b2	-0.624797
43	0x404165c2	3.0218358
44	0x4059d8ce	3.4038577
45	0x405960a4	3.3965235
46	0xbfa7efe6	-1.3120086
47	0x3dcd9b72	0.100394145
48	0x405b614b	3.4278133
49	0x407d6007	3.958986
50	0x402c5be2	2.693108
51	0x405a1aaf	3.4078786
52	0x40579704	3.3685923
53	0xbea46690	-0.321095
54	0x401ed10e	2.4815097
55	0x3fb27688	1.3942423
56	0x406fbc7c	3.7458792
57	0x3f9dee59	1.2338363
58	0xbff5e21b	-1.9209627
59	0x4075a455	3.838155
60	0x408615bd	4.1901536
61	0x4027142c	2.6106062
62	0xc06d72b9	-3.710127
63	0x3f9e7ddc	1.2382159

fc2.weight f4 [64, 64]
0	0x3d955818	0.07292193
1	0x3d5ef14d	0.05442934
2	0xbd8f7dcb	-0.07006415
3	0xbd8a9fec	-0.06768784
4	0x3de41e50	0.11138594
5	0xbd18bbe8	-0.037288576
6	0x3bbbc16c	0.005729845
7	0xbd5cae91	-0.053877417
8	0xbba84c33	-0.005136037
9	0x3c9f88fa	0.019474495
10	0x3ddd84e0	0.108163595
11	0x3d132498	0.03592357
12	0xbdf145dc	-0.11780903
13	0xbe1c47bb	-0.15261738
14	0xbc8f51ed	-0.01749512
15	0x3c7b1377	0.015324465
16	0xbd21a90f	-0.039467867
17	0xbde7a792	-0.113112584
18	0xbd8413cc	-0.064490885
19	0xbd8c7c68	-0.06859666
20	0xbdba4c66	-0.09096603
21	0xbd5b6672	-0.053564496
22	0xbe0cc30a	-0.13746276
23	0xbd1e0747	-0.03858116
24	0xbcea531a	-0.028604079
25	0x3ca5e5fa	0.020251263
26	0xbddd9b1e	-0.10820602
27	0xbddeffc2	-0.10888626
28	0xbcdfb8d8	-0.02730982
29	0x3b85bd20	0.0040813833
30	0xbde543f0	-0.11194599
31	0x3bdd3427	0.006750602
32	0x3d1a8ad8	0.037730068
33	0x3d3cf9e0	0.046136737
34	0x3d398d58	0.04530081
35	0xbc451220	-0.012028247
36	0x3dbd18d4	0.09233251
37	0xbda666d4	-0.08125082
38	0xbd5e2d59	-0.054242466
39	0xbd020848	-0.03174618
40	0xbe0db539	-0.13838662
41	0x3ddf6748	0.10908371
42	0xbdb9ef12	-0.09078802
43	0xbe1ae442	-0.15126136
44	0xbdca0649	-0.0986448
45	0xbd70906f	-0.058731493
46	0xbe1d6102	-0.15369037
47	0x3d29404c	0.041321084
48	0x3dabc273	0.083866976
49	0xbe11ace5	-0.1422611
50	0xbdf4df2a	-0.11956628
51	0x3d82c23a	0.06384702
52	0xbe0a2ee2	-0.13494447
53	0x3c66d877	0.014089695
54	0x3cf73078	0.030174479
55	0xbe202025	-0.15637262
56	0xbe191b40	-0.14951801
57	0x3cd71fd4	0.026260294
58	0xbd175c58	-0.0369533
59	0x3da45be4	0.08025339
60	0xbce5dfce	-0.02806082
61	0x3d9ffac8	0.078115046
62	0x3cc04ee8	0.023475125
63	0x3db9cc3e	0.09072159
64	0x3f97c29a	1.1856263
65	0x3eec9459	0.4620693
66	0x3f00e186	0.5034412
67	0xbd81a676	-0.06330578
68	0xbf8529a8	-1.0403337
69	0xbeaf3613	-0.34220943
70	0x3f1561c1	0.58352286
71	0xbe8e03a4	-0.27737153
72	0x3ed52bd2	0.41634995
73	0xbf2a6db0	-0.6657362
74	0xbf118c50	-0.56854725
75	0x3d9d1e06	0.07671742
76	0xbb78f2c0	-0.0037986487
77	0x3f5f599e	0.8724612
78	0x3eb0fd95	0.34568468
79	0x3d20ae82	0.039228924
80	0x3fc2b430	1.5211239
81	0xbdf60f0c	-0.12014589
82	0xbf11096b	-0.56654996
83	0xbf892bb3	-1.0716461
84	0x3deb30fb	0.11483952
85	0x3f66aeae	0.9011029
86	0x3fd0b29e	1.630451
87	0xbeaca59f	-0.3372011
88	0x3ddffebf	0.10937261
89	0x3eb244f4	0.34818232
90	0xbeb61e2e	-0.355699
91	0x3ec83a25	0.3910686
92	0xbd788a3c	-0.060678706
93	0x3d4518a8	0.048119217
94	0xbdc757a6	-0.097335145
95	0x3e561fa6	0.2091051
96	0x3ed169a7	0.4090092
97	0x400d2ed7	2.2059839
98	0xbda446fe	-0.08021353
99	0xbd2c2106	-0.04202368
100	0x3e001909	0.1250955
101	0x3dff5870	0.1246804
102	0xbdabb2db	-0.08383723
103	0x3f4d2c18	0.80145407
104	0xbf380be0	-0.7189312
105	0x3cdb206d	0.02674886
106	0xbf9620d5	-1.172877
107	0x3edbd4f6	0.42935914
108	0x3faa32d9	1.3296767
109	0x3f1dc7f3	0.61633223
110	0xbdf4c2b1	-0.11951197
111	0x3d931fd2	0.071838036
112	0x3fa70068	1.3046999
113	0x3f4d6d9c	0.80245376
114	0x3fbb0bb4	1.4612947
115	0x3f4f9942	0.8109323
116	0x3ebe8239	0.37208727
117	0xbd31295c	-0.043252334
118	0x3e31697c	0.17325395
119	0x3cb5dfdf	0.022201477
120	0x3fb287b5	1.3947664
121	0x3d521987	0.051293876
122	0xbeb4ea42	-0.35334975
123	0x3f6876ac	0.9080608
124	0x3fab54da	1.338527
125	0x3f17dede	0.59324443
126	0xbf1cb823	-0.6121847
127	0x3e01b044	0.12664896
128	0x3f13797a	0.57607234
129	0x3b746bb7	0.0037295648
130	0x3f35f9a6	0.7108406
131	0xbd6d28b4	-0.057900146
132	0x3d8bea4f	0.068318
133	0xbe0e6f32	-0.13909605
134	0x3ebf5ee0	0.3737707
135	0xbd70e076	-0.058807813
136	0x3deb17b6	0.11479132
137	0x3b888ea9	0.004167397
138	0xbc66cefa	-0.014087433
139	0x3d3e8740	0.046515703
140	0xbdf01ba6	-0.117240235
141	0x3edefaf5	0.4355084
142	0x383aa98e	4.4503766e-05
143	0x3ec20b52	0.37899262
144	0x3eec2a8f	0.4612622
145	0x3dc5b3fa	0.096534684
146	0xbd857ae6	-0.06517582
147	0xbc0cbc96	-0.008589884
148	0xbce232fc	-0.027612202
149	0x3f059a4a	0.5218855
150	0xbea6e9e6	-0.32600325
151	0xbe131f82	-0.14367488
152	0x3e50bf1e	0.20385405
153	0xbdde645d	-0.108589865
154	0x3d8b7b5e	0.0681064
155	0xbea2a76b	-0.31768355
156	0xbddb5650	-0.10709822
157	0xbcc4d3b8	-0.024026737
158	0xbdb22a02	-0.086994186
159	0xbda14819	-0.0787508
160	0x3d663efe	0.056212418
161	0xbf1e45ca	-0.6182524
162	0xbb510d00	-0.0031898618
163	0x3d7deacb	0.061991494
164	0x3cdb05f6	0.02673624
165	0xbdd120b6	-0.10211317
166	0xbd49bc08	-0.049251586
167	0x3e90f5e4	0.283126
168	0xbd8b4c17	-0.06801622
169	0x39526800	0.00020065904
170	0xbda37378	-0.07981008
171	0x3da7298f	0.081622235
172	0x3ed41563	0.41422567
173	0xbea18d2e	-0.31553024
174	0xbe19ddee	-0.15026066
175	0x3d9aa33c	0.07550666
176	0xbd81deca	-0.06341322
177	0x3ebf5cf3	0.37375602
178	0x3f0f1f29	0.5590692
179	0x3e907053	0.28210697
180	0x3e2f0ce2	0.17094758
181	0xbd4cb90c	-0.049981162
182	0x3e27ab78	0.16374004
183	0xbd0faf75	-0.03507944
184	0x3f3382b3	0.70121306
185	0xbf11456a	-0.5674654
186	0xbda86d70	-0.082239985
187	0x3ec883ef	0.39163157
188	0x3edaf1c7	0.42762586
189	0x3f5ee830	0.8707304
190	0xbde47ccb	-0.11156615
191	0xbf62705e	-0.8845271
192	0xbdc7bf77	-0.09753316
193	0xbd6d00c0	-0.057862043
194	0xbc047f75	-0.008087029
195	0x3d8662fa	0.06561847
196	0x3d0bb422	0.034107335
197	0xbccd66eb	-0.02507349
198	0xbde25c12	-0.11052717
199	0xbd41260c	-0.047155425
200	0xbc139a09	-0.009008893
201	0xbdd84215	-0.10559479
202	0xbdca8a47	-0.098896556
203	0xbdce5c64	-0.10076216
204	0x3c747ce0	0.014922351
205	0x3d7a3386	0.061084293
206	0xbda37e20	-0.07983041
207	0xbe01cdec	-0.12676209
208	0x3d344108	0.04400733
209	0xbd18fa18	-0.037347883
210	0xbdab5dbe	-0.08367489
211	0x3d6295bc	0.05531858
212	0xbe0690b0	-0.13141131
213	0xbcc350d9	-0.023842262
214	0xbda19d9e	-0.07891391
215	0x3dbe2a35	0.09285394
216	0x3cf1ed60	0.029532135
217	0x3da717e1	0.081588514
218	0xbc9f7340	-0.019464135
219	0xbd7a05b1	-0.061040584
220	0x3dc4073c	0.09571692
221	0x3cf7207d	0.030166859
222	0xbddf3b39	-0.10899968
223	0xbd175e87	-0.036955383
224	0xbdd38f2c	-0.10330042
225	0xbd5634b7	-0.052296367
226	0xbd8d7f44	-0.069090396
227	0x3d1bd5e8	0.038045794
228	0xbdf88fbe	-0.12136792
229	0x3d782c54	0.06058915
230	0x3c3c438f	0.011490717
231	0xbdd988da	-0.106218055
232	0xbd4c1eae	-0.049833946
233	0xbc6f2840	-0.014596999
234	0xbdadc9da	-0.08485766
235	0x3d94cc40	0.0726552
236	0x3d4b6acb	0.049662393
237	0xbe158caa	-0.1460444
238	0xbe1c281a	-0.15249673
239	0x3b0a0d80	0.0021065176
240	0xba0c5c2c	-0.0005354311
241	0x3bd9c1c3	0.0066454126
242	0x3d786ac2	0.060648687
243	0xbe0aea02	-0.1356583
244	0xbd8e7348	-0.06955582
245	0x3c393bd0	0.011305764
246	0xbdda0970	-0.10646331
247	0xbcfdae6f	-0.030966965
248	0x3d3b884f	0.04578429
249	0x3d766ee7	0.06016436
250	0x3cce50fe	0.025185104
251	0xbc7b9b5c	-0.015356865
252	0xbe03c5ea	-0.12868467
253	0xbe0006af	-0.1250255
254	0xbb069d40	-0.0020540506
255	0x3c1ce80f	0.009576811

fc2.bias f4 [64]
0	0x3ce204fe	0.027590271
1	0x4015f06c	2.3427992
2	0x3fe81720	1.8132057
3	0xbc905db7	-0.017622812
4	0x3f210116	0.6289228
5	0xbd99779e	-0.07493518
6	0xbf71a750	-0.94395924
7	0x3fee70a0	1.862812
8	0xbdcc7727	-0.09983664
9	0x4016407e	2.3476863
10	0x3e49decd	0.19713898
11	0x3ff4f7cc	1.9138122
12	0xbfbb28a6	-1.462178
13	0x4017a1b6	2.369245
14	0x3d4ee77a	0.050513722
15	0x3cc02566	0.023455333
16	0x40094707	2.1449602
17	0xbdd0f284	-0.10202506
18	0xbd089634	-0.03334637
19	0x40072a64	2.1119623
20	0x3d9a6d64	0.07540396
21	0xbd020602	-0.03174401
22	0x3d84a4ae	0.06476723
23	0x3d66a996	0.056314074
24	0xbf526dd2	-0.8219882
25	0x3fe87fa6	1.8163955
26	0x3ff705a7	1.92986
27	0x400d1fad	2.2050583
28	0xbe1449b5	-0.14481242
29	0x400cf9fb	2.2027576
30	0xbe0efecd	-0.13964386
31	0xbf1a0c08	-0.6017461
32	0x3ffa655d	1.9562184
33	0x3d8b5a49	0.0680433
34	0x3f444217	0.76663345
35	0x3f848d17	1.0355557
36	0x40052da2	2.0809102
37	0xbe2c6076	-0.16833672
38	0x3ffcbb74	1.9744706
39	0xc00bdbb3	-2.1852844
40	0x3f4ed2a4	0.8079016
41	0x3f6adfa8	0.9174752
42	0x3fcf26fb	1.6183771
43	0x3f6f3435	0.93439037
44	0x3f8c6a0a	1.096986
45	0x3dc5da85	0.0966082
46	0x40109913	2.259343
47	0x3fba4a19	1.4553863
48	0x3fe7fb35	1.8123537
49	0xbd4c28b2	-0.049843498
50	0x4001cb0a	2.0280175
51	0x3ff81e40	1.9384232
52	0xbb1e2a6b	-0.002413417
53	0xbcf9a988	-0.030476347
54	0xbe1490f3	-0.14508419
55	0xbdfee4cc	-0.12445983
56	0x3f89bd9d	1.076099
57	0x401efec6	2.4843001
58	0xbd2fdcba	-0.04293511
59	0xbdb18489	-0.08667857
60	0x3ace7234	0.0015750588
61	0x3fc8efc0	1.5698166
62	0xbd9c2ef0	-0.0762614
63	0x40114177	2.2696207

fc3.weight f4 [20, 64]
0	0xbc398d40	-0.0113251805
1	0xbfbfb509	-1.4977123
2	0x3eab3652	0.3343988
3	0x3df1e57e	0.1181135
4	0x3e5924b3	0.21205406
5	0xbd9fb290	-0.0779773
6	0xbeb29487	-0.34878942
7	0x3ed48bc6	0.4151289
8	0x3d132d4b	0.035931867
9	0x3efc2100	0.49243927
10	0xbcda597b	-0.026653996
11	0x3ecb3655	0.3968989
12	0xbf057eee	-0.52146804
13	0x3f29e0bd	0.6635855
14	0xbddab30c	-0.10678682
15	0xbd1ebf31	-0.038756553
16	0x3eaba214	0.33522093
17	0xbd5ca204	-0.053865448
18	0xbda9625a	-0.08270712
19	0x3f1ca7da	0.6119362
20	0x3daf49a0	0.08558965
21	0x3dd10e45	0.102078
22	0x3d575a9e	0.052576654
23	0x3d67a4b8	0.056553572
24	0xbec7a7b5	-0.38995138
25	0x3e9505f7	0.29106113
26	0x3eaf02cc	0.3418182
27	0x3f38c0c3	0.7216913
28	0xbbe3beae	-0.006950221
29	0x3f1ad548	0.6048169
30	0x3c29704d	0.010341716
31	0xbe558f41	-0.20855428
32	0x3e93955c	0.2882489
33	0x3db8e698	0.09028357
34	0xbcb6569c	-0.022258095
35	0x3e751e4c	0.23937339
36	0x3f0c4c5d	0.5480402
37	0xbdbdebc4	-0.09273484
38	0x3ea0e312	0.3142324
39	0xbf3e8a8a	-0.74430144
40	0xbbd4716e	-0.0064832484
41	0x3fae687a	1.3625634
42	0x3eb82105	0.35962692
43	0x3d5122e3	0.05105866
44	0x3eabe6c5	0.335745
45	0xbc87a81c	-0.016559653
46	0xbf9c8a94	-1.2229791
47	0x3e3ccb55	0.1843694
48	0x3f2d6abe	0.67741
49	0x3df163b8	0.11786598
50	0x3ea1f1c2	0.3162976
51	0xbf83b6bc	-1.0290141
52	0xbd689ecc	-0.056792066
53	0xbdad365f	-0.08457636
54	0x3da7ac62	0.08187176
55	0xbd8ac4ca	-0.06775816
56	0x3c2accf3	0.01042484
57	0x3ef92e8c	0.48668325
58	0xbd5a624e	-0.053316407
59	0xbd179775	-0.037009675
60	0xbdf1e889	-0.11811931
61	0x3ebb7a16	0.36616582
62	0xbd0639c5	-0.032769937
63	0x3ede7965	0.43451992
64	0x3dfba97e	0.122881874
65	0xbf418eb1	-0.75608355
66	0x3e939995	0.2882811
67	0xbd513804	-0.05107881
68	0x3e274935	0.1633652
69	0xbdb30b1e	-0.08742355
70	0x3da28044	0.07934621
71	0x3ea67432	0.32510525
72	0xbc8a9af4	-0.01691959
73	0x3ea93cde	0.3305425
74	0xbd84d7ef	-0.064864986
75	0x3ef42599	0.47684935
76	0xbc88b678	-0.01668857
77	0x3ef1629d	0.47145548
78	0x3c22e214	0.009941597
79	0x3daf5d28	0.0856269
80	0x3e9b0916	0.3028037
81	0xbd8cc768	-0.06873971
82	0x3db31f58	0.08746213
83	0x3ef7cac2	0.4839688
84	0xbd946442	-0.07245685
85	0xbda9e2ce	-0.08295213
86	0xbdfa5b94	-0.122244984
87	0x3dab27d4	0.08357206
88	0x3c81390b	0.01577427
89	0x3e86562e	0.26237625
90	0x3e09a1ca	0.13440624
91	0x3eafccae	0.34335846
92	0xbc03acb1	-0.008036778
93	0x3f046889	0.5172201
94	0x3d8f3a7c	0.06993577
95	0xbcc39c74	-0.023878314
96	0x3e4b0a4b	0.19828145
97	0xbcd26220	-0.025681555
98	0xbb7bf95e	-0.0038448195
99	0x3ecd59d1	0.40107587
100	0x3ea51854	0.32245123
101	0x3dd25e36	0.102718756
102	0x3e5bca58	0.21463907
103	0xbe09d7e3	-0.1346126
104	0xbe33d333	-0.17561035
105	0xbd7ff715	-0.062491495
106	0x3effd5f7	0.4996793
107	0x3e17052e	0.1474807
108	0x3efb66f1	0.49101976
109	0xbdc53282	-0.09628774
110	0xbf68310f	-0.9069986
111	0x3e6dc1cf	0.23218463
112	0x3e8638d5	0.26215234
113	0xbd9ea6fc	-0.077466935
114	0x3e6dddbf	0.2322912
115	0xbf3c080c	-0.7344978
116	0x3da4116e	0.08011137
117	0xbde229e0	-0.11043143
118	0xbdde4cf0	-0.108545184
119	0x3d8a174c	0.06742725
120	0x3e706d19	0.23479117
121	0x3f1d33d7	0.61407226
122	0x3da3ffe6	0.08007793
123	0xbdd995e3	-0.10624292
124	0x3d35a68e	0.044348292
125	0xbc970451	-0.018434675
126	0xbdb3646b	-0.087593876
127	0x3ec0b1b9	0.37635592
128	0xbdf5f890	-0.120103
129	0xbf4282d4	-0.7598088
130	0x3e1baa97	0.15201794
131	0xbcc4f200	-0.024041176
132	0xbcb6ee72	-0.022330496
133	0xbb8dbcc0	-0.0043254793
134	0xbc05708f	-0.008144512
135	0x3ebde1ca	0.37086326
136	0xbd92b3a3	-0.07163169
137	0x3ebea03f	0.37231633
138	0x3e757469	0.23970188
139	0x3effdf95	0.49975267
140	0xbe329d25	-0.17442758
141	0x3f0f0073	0.5586006
142	0x3d73d4ba	0.059529044
143	0x3a02dec5	0.00049923017
144	0x3e849761	0.25896743
145	0x3b76b340	0.0037643462
146	0xbd19c9a6	-0.037545823
147	0x3eeede2b	0.46653876
148	0x3d135364	0.0359682
149	0x3de88d12	0.11355032
150	0x3d7052f8	0.058672875
151	0x3dfeface	0.12450181
152	0x3bd7b18b	0.006582444
153	0x3e0e625b	0.13904707
154	0x3e6b3b9a	0.22971955
155	0x3f04d508	0.5188756
156	0x3e02a7b3	0.12759285
157	0x3f0b147d	0.5432814
158	0xbdbbb1d6	-0.09164779
159	0x3d7b918f	0.061418112
160	0x3e459942	0.19296744
161	0x3d89adee	0.067226276
162	0x3dbff96c	0.09373745
163	0x3ef243a8	0.47317243
164	0x3ea8ceca	0.32970268
165	0x3de88df9	0.11355204
166	0x3dcc84c7	0.09986263
167	0xbe48611c	-0.19568294
168	0xbdeab902	-0.11461069
169	0xbe6bf74b	-0.23043554
170	0x3ed3493a	0.41266805
171	0xbdc040ee	-0.09387384
172	0x3eddf3be	0.43350023
173	0xbddf63d1	-0.1090771
174	0xbf5f5d26	-0.8725151
175	0x3e8e4ef3	0.27794608
176	0x3e8fb088	0.2806437
177	0xbdfc6429	-0.123237915
178	0x3e655e92	0.22399357
179	0xbf189da1	-0.5961552
180	0x3d565da9	0.052335415
181	0xbbbfe500	-0.0058561563
182	0xbd3eb444	-0.046558633
183	0xbd66190f	-0.05617624
184	0x3e9048d9	0.28180578
185	0x3eea251f	0.45731446
186	0xbd4c3828	-0.049858242
187	0x3c1681cb	0.0091862185
188	0x3cba78f2	0.02276275
189	0xbda5ba90	-0.080922246
190	0x3db043a1	0.08606649
191	0x3e9d3573	0.3070484
192	0xbd52e620	-0.051488996
193	0xbf205921	-0.62636
194	0x3e47f02e	0.19525215
195	0xbde51356	-0.11185329
196	0xbea355b6	-0.3190133
197	0x3d432038	0.047638148
198	0xbe781e60	-0.24230337
199	0x3ea19482	0.31558615
200	0x3d8c5867	0.06852799
201	0x3ecaf383	0.3963891
202	0x3db87c31	0.09008063
203	0x3e904330	0.2817626
204	0xbd25a85a	-0.040443756
205	0x3f10f806	0.56628454
206	0xbd9c1f4f	-0.07623159
207	0x3d0a8b41	0.03382421
208	0x3e5be21d	0.21472974
209	0x3d59fce2	0.053219683
210	0x3d7ca692	0.06168229
211	0x3ec33acf	0.38130805
212	0x3d94c6e8	0.07264501
213	0x3a789500	0.0009482652
214	0x3daaf5a9	0.08347637
215	0x3d71d9b8	0.059045523
216	0xbe301565	-0.17195661
217	0x3e6bee17	0.23040043
218	0x3e92930a	0.28627807
219	0x3ec2fbb5	0.38082662
220	0x3ddf1bf9	0.10894007
221	0x3eb7b5a9	0.35880783
222	0xbd2191dc	-0.039445743
223	0xbd04c046	-0.03240993
224	0x3e8d85c0	0.27641106
225	0xbe10635e	-0.14100406
226	0x3d47101e	0.048599355
227	0x3eb8f226	0.36122245
228	0x3e795722	0.24349645
229	0x39534e8a	0.00020151786
230	0x3e69a255	0.22815831
231	0xbe4b6ed5	-0.19866498
232	0xbe280a4f	-0.16410182
233	0xbd656e2e	-0.05601328
234	0x3ec136a9	0.37737015
235	0x3edf5542	0.43619734
236	0x3ef30fd2	0.47473007
237	0xbde63d52	-0.11242165
238	0xbf38f77f	-0.7225265
239	0x3eff7edc	0.49901474
240	0x3f150cb4	0.5822251
241	0x3c4608b0	0.012087032
242	0x3eb24466	0.3481781
243	0xbf629b0c	-0.8851783
244	0x3dcb2006	0.09918217
245	0x3d39b8c8	0.045342237
246	0x3c8566e0	0.016284406
247	0x3db39f04	0.08770564
248	0x3f0e0f1a	0.55491793
249	0x3ed6e452	0.4197107
250	0xbd379fcb	-0.044830125
251	0xbdc46021	-0.09588648
252	0x3dcfaacc	0.10139999
253	0x3d371235	0.044695098
254	0x3dd80773	0.10548296
255	0x3ebc3492	0.36758858

fc3.bias f4 [20]
0	0x3fec0b30	1.8440914
1	0x3f74f4bf	0.9568595
2	0x3f684005	0.90722686
3	0x3f2b72e0	0.6697216
4	0x3f242054	0.6411183
5	0x3ee76762	0.45196062
6	0x3e5b919c	0.21442264
7	0x3eab7c45	0.33493248
8	0x3ed22f56	0.4105174
9	0x3e722677	0.23647486
10	0x3e2a77e4	0.16647297
11	0xbd72f190	-0.059312403
12	0x3e82554b	0.25455698
13	0xbdad1349	-0.08450944
14	0xbe6d4f85	-0.23174866
15	0xbe150a32	-0.1455467
16	0xbe05837a	-0.13038436
17	0xbef12efd	-0.47106162
18	0xbeb733da	-0.35781747
19	0xbeba4fb5	-0.36388937

exp_avg f4 [64, 3]
0	0x412ed3a7	10.926673
1	0x414cbef4	12.796619
2	0xc44de39c	-823.5564
3	0xbd465923	-0.04842485
4	0x3edac821	0.4273081
5	0x40ea4e32	7.3220453
6	0xc1ed7ec5	-29.6869
7	0xc1d6e35c	-26.861015
8	0xc22a09fd	-42.509754
9	0x00000000	0.0
10	0x00000000	0.0
11	0x00000000	0.0
12	0x3f9a14fb	1.2037653
13	0x404e89c9	3.2271597
14	0x430bc505	139.7696
15	0x40a708d4	5.2198277
16	0x41013298	8.074852
17	0x4201d9ff	32.462887
18	0x411b4d18	9.706322
19	0x4127afa8	10.480385
20	0xc3e4abc9	-457.34207
21	0x409762b4	4.7307987
22	0x40e46fb2	7.1386347
23	0x4144ff38	12.312309
24	0xc0304d2b	-2.75471
25	0xbf75d04c	-0.9602096
26	0xc30f7a20	-143.47705
27	0x40a5b31b	5.1781135
28	0x4120326a	10.012308
29	0x42b637dc	91.1091
30	0xbed781b0	-0.4209113
31	0x3f2b4650	0.66904163
32	0x423c209d	47.03185
33	0x00000000	0.0
34	0x00000000	0.0
35	0x00000000	0.0
36	0x00000000	0.0
37	0x00000000	0.0
38	0x00000000	0.0
39	0x41091b10	8.569107
40	0x4127d458	10.489342
41	0xc40283f8	-522.062
42	0x40d0ac18	6.5210075
43	0x40b70ed9	5.7205625
44	0xc3122d6e	-146.17746
45	0x3d05b8a5	0.032646794
46	0x3f30ca8b	0.69059056
47	0x3e311f8c	0.1729719
48	0x3f1d9e8d	0.61570054
49	0xc0b6e3d4	-5.715311
50	0xc3a45261	-328.6436
51	0x00000000	0.0
52	0x00000000	0.0
53	0x00000004	6e-45
54	0x40d35d05	6.605105
55	0x410d9c28	8.850624
56	0x42b9d4c5	92.915565
57	0xbfbf0287	-1.4922646
58	0x408b8592	4.360055
59	0x42b0d0c8	88.407776
60	0x40097042	2.1474767
61	0x3e8899f7	0.26679966
62	0xc266df7b	-57.718243
63	0x413051e2	11.019991
64	0x4148a4c3	12.540225
65	0xc44952b0	-805.292
66	0xc239f294	-46.486893
67	0xc1e60b5e	-28.75555
68	0x42cb732e	101.72496
69	0x3fab0ae5	1.33627
70	0x40665ffd	3.5996087
71	0x42da100a	109.03133
72	0xbfa999ef	-1.3250102
73	0xbf1edad0	-0.6205263
74	0xc2501e2d	-52.02947
75	0x40b4278d	5.629828
76	0x40e76a83	7.231752
77	0xc3554111	-213.25417
78	0xbeb20595	-0.34769884
79	0xbd933882	-0.071885124
80	0x4147a5f0	12.478012
81	0x4099a2ad	4.801108
82	0x3fc87c1c	1.5662875
83	0x41922900	18.27002
84	0x00000000	0.0
85	0x00000000	0.0
86	0x00000000	0.0
87	0x00000000	0.0
88	0x00000000	0.0
89	0x00000000	0.0
90	0x00000000	0.0
91	0x00000000	0.0
92	0x00000000	0.0
93	0xbe41e4c0	-0.18934917
94	0xbf3e97cf	-0.7445039
95	0xbfed78c5	-1.8552481
96	0x40064cb8	2.0984325
97	0xbe22170e	-0.15829107
98	0xc3030511	-131.01979
99	0xc22fd9a8	-43.962555
100	0xc1f71ec8	-30.89003
101	0x432645e6	166.27304
102	0x00000000	0.0
103	0x00000000	0.0
104	0x00000000	0.0
105	0x00000000	0.0
106	0x00000000	0.0
107	0x00000000	0.0
108	0xc055a100	-3.3379517
109	0xbf66c75b	-0.9014794
110	0xc053c91f	-3.3091505
111	0x00000000	0.0
112	0x00000000	0.0
113	0x00000000	0.0
114	0x3e7e3e61	0.24828483
115	0x3defdf79	0.11712546
116	0x3e9935e6	0.29923934
117	0xc00c7579	-2.19467
118	0xc0591fe2	-3.392571
119	0xc34ba39d	-203.63911
120	0x40bda67e	5.9265738
121	0x4125c38e	10.360243
122	0x42962da7	75.089165
123	0x00000000	0.0
124	0x00000000	0.0
125	0x00000000	0.0
126	0x3ef91d95	0.48655382
127	0x41571c3a	13.444391
128	0x42c3a656	97.824875
129	0x4030d25e	2.7628398
130	0x40809435	4.0180917
131	0xc32314a8	-163.08069
132	0xc2182f21	-38.046024
133	0xc23d0586	-47.255394
134	0x4005309a	2.0810914
135	0x3fd8f4bb	1.6949686
136	0x3fc6a2c6	1.5518425
137	0xc2d6e2e5	-107.44315
138	0x404084ed	3.0081131
139	0x4052261c	3.283576
140	0x40b924e2	5.7857523
141	0x00000000	0.0
142	0x00000000	0.0
143	0x00000000	0.0
144	0xc205665d	-33.349964
145	0xc22d3bc9	-43.308384
146	0x425a92a8	54.64322
147	0x40fe44ca	7.945897
148	0x414b10d6	12.69161
149	0xc40dee1f	-567.72064
150	0x3f977211	1.1831685
151	0xc06806db	-3.6254184
152	0x3f8fa62a	1.1222584
153	0x40c3244d	6.0981812
154	0x40fb87c1	7.8603215
155	0xc3b5b40a	-363.40656
156	0xbf6b8c82	-0.9201127
157	0x4077f5c0	3.8743744
158	0xc35e9094	-222.56476
159	0x00000000	0.0
160	0x00000000	0.0
161	0x00000000	0.0
162	0x3e3977e5	0.18112142
163	0xbf39f699	-0.72641903
164	0xc252aa9f	-52.666622
165	0x404e6e55	3.2254841
166	0x407b50b5	3.926801
167	0xc1b07c07	-22.06056
168	0x40fb2bd6	7.849101
169	0x411c7dd0	9.780716
170	0xc42bb334	-686.80005
171	0x4060e4c3	3.5139625
172	0x40a9cbbc	5.30612
173	0x4021af01	2.5263064
174	0x4076ff5c	3.859336
175	0x40c712df	6.2210536
176	0x42662b49	57.54227
177	0x40892990	4.2863235
178	0x40aed92d	5.4640107
179	0xc3cda504	-411.28918
180	0xc0570e5e	-3.360252
181	0xc0bdb745	-5.928622
182	0xc3c31dc3	-390.2325
183	0xc10f0f6a	-8.941263
184	0xc1c24dc5	-24.287973
185	0xc1a74f96	-20.91386
186	0x400ce79e	2.2016368
187	0x40758a47	3.8365648
188	0x438cdf19	281.74295
189	0x409130cc	4.5372066
190	0x409c3f45	4.8827233
191	0x408ac1e3	4.336168
