models/dqn_agent_firm_1_episode_1500.pth (torch, 101224 bytes, 24 tensors)

fc1.weight f4 [64, 3]
000000 f9 e1 46 3f b4 99 96 3e 38 a9 01 be 5b 38 18 3f
       0.77688557 0.2941414 -0.12662208 0.5946099
000010 d3 ac 90 3d a3 a4 e7 3b dc 75 44 be e7 08 46 be
       0.070642136 0.007069187 -0.19185585 -0.19339333
000020 5a 2b 1c 3d ce 49 55 bd 05 3e 24 be 61 8f aa 3c
       0.03812728 -0.05207234 -0.16039284 0.020820322
000030 08 9e 20 be 25 37 93 3e 7d 52 a3 3d f0 1d 02 3e
       -0.15685284 0.2875301 0.07974718 0.12706733
000040 d9 d6 ac 3d b6 8b a4 be b5 97 4c be 62 b3 8f 3d
       0.084394164 -0.3213784 -0.19979747 0.070166364
000050 c7 d4 ac 3c 1e c9 9d 3d 70 42 42 3c 18 06 bc bd
       0.021097554 0.07704376 0.01185666 -0.0918085
000060 ae 3e 78 3d 5e 66 83 3e 19 a2 4c 3e 61 05 2f 3f
       0.06060665 0.25664037 0.1998371 0.6836758
000070 04 44 9d be 8b 5b 16 3d 77 09 02 bf ef f9 f0 3e
       -0.30715954 0.036708396 -0.5079569 0.47065684
000080 02 08 90 be d4 46 fa 3d 8e 40 b4 3d d5 cd 4c be
       -0.2813111 0.12220541 0.08801375 -0.20000394
000090 4d 8d 6c be 60 2f 32 bc 0c 7b 01 3d f7 40 a2 be
       -0.23100777 -0.010875553 0.031611487 -0.3169019
0000a0 07 58 70 3e 85 58 a5 3d 5f e5 01 be f6 d7 6f 3e
       0.2347108 0.080735244 -0.12685154 0.23422226
0000b0 3d a3 13 3c 44 5f 33 be 8d 85 b2 3e 16 cf 47 3b
       0.009011087 -0.1751681 0.34867516 0.0030488423
0000c0 17 2e 9b 3d 50 a0 0e 3e d9 d0 cd bd 0e 83 7c 3c
       0.0757715 0.13928342 -0.100496 0.015412105
0000d0 8a 03 42 bf 85 32 70 b8 8d cf bf 3e 9b 49 10 bf
       -0.7578665 -5.726751e-05 0.37463036 -0.56362313
0000e0 25 ce 03 bf 51 3e 2a 3d ad 25 2f 3e 31 c3 f3 3d
       -0.51486427 0.041563336 0.17104216 0.11902464
0000f0 ca e6 20 3f 00 17 38 3f 2a 5c f9 3e 7b 21 c2 be
       0.62852156 0.71910095 0.48703128 -0.3791617
000100 29 3d 25 bd df a9 b9 3c 97 bd 18 3e 92 0e 4a 3e
       -0.04034153 0.022664009 0.14916073 0.1973212
000110 be 41 2f bb fa be 65 3e c0 a1 f4 be 0e 9d 05 bf
       -0.0026742066 0.22436133 -0.47779655 -0.5219277
000120 10 99 d3 bd 0a a5 3c 3f 08 32 90 bd d7 32 c4 3d
       -0.10331929 0.7368933 -0.07040793 0.095800094
000130 a8 53 0d 3f 9b 99 84 bd b9 8a b8 be 0d 48 09 be
       0.55205774 -0.064746104 -0.36043337 -0.13406391
000140 8a 5c 8c be 93 c6 df 3e 28 55 e0 be f8 c9 89 3e
       -0.27414352 0.43706188 -0.4381497 0.26911902
000150 14 b5 d6 be 49 b4 d4 be 94 29 22 be dc 28 63 be
       -0.41935027 -0.41543797 -0.15836173 -0.22183555
000160 0e 65 e6 be 7f fd 84 3e 54 a1 5a be 05 77 e7 be
       -0.44998974 0.25974652 -0.21350604 -0.45207992
000170 1b 9e 0c bf 92 ca 19 bf bc 5a 06 3d 92 a1 08 be
       -0.5492875 -0.6007472 0.032801375 -0.13342884
000180 30 0e b7 3e a2 97 91 3e 7b b9 20 3d 01 a2 f8 3d
       0.35753012 0.28436 0.039239388 0.12140275
000190 e0 da 42 3d 00 4a e2 bd 0e bf ac be e1 60 ee bd
       0.047572017 -0.11049271 -0.33739513 -0.11639572
0001a0 e4 a7 2c 3e e1 49 5d be de 44 4b 3c 87 58 0e bf
       0.1686092 -0.21610214 0.012406556 -0.5560383
0001b0 f0 9e c9 3e 56 cc 06 bd 25 bd fd 3c 9c 0e 56 3e
       0.39379072 -0.032909714 0.03097398 0.2090401
0001c0 d1 a7 01 3e 81 1a 36 3d ac a2 f6 be 70 66 22 be
       0.12661673 0.04445887 -0.48170984 -0.1585939
0001d0 69 06 3b 3e 4d d9 f0 be 6e 59 27 be 58 34 81 be
       0.18264164 -0.47040787 -0.16342708 -0.25235248
0001e0 b4 ef da be 6e f8 88 3d e2 c8 13 bf 97 73 20 be
       -0.42761004 0.06688009 -0.577284 -0.15669094
0001f0 9d b6 50 be ff b4 7f 3d a8 4f 01 bf a2 eb e3 3d
       -0.20382161 0.06242847 -0.5051217 0.11128928
000200 49 1a a4 3d c8 78 46 3e 18 eb 0b bf c5 d6 98 3c
       0.08012826 0.19382012 -0.546556 0.018657098
000210 95 51 72 bd 48 55 fc 3e 92 cb 38 3e 7d ae 9f 3d
       -0.059159834 0.49283814 0.18046406 0.07796953
000220 59 54 04 3d bd 8f f1 3c e1 28 f8 3c 84 5a e0 bd
       0.032307003 0.029487485 0.03029293 -0.109547645
000230 93 81 b6 be e9 48 4f be 2b 76 08 be b8 c8 9c 3d
       -0.35645732 -0.20242657 -0.13326328 0.076554716
000240 7f d3 87 bf 15 f7 c5 be c7 23 17 3e 57 13 02 be
       -1.0611418 -0.3866507 0.14759742 -0.1270269
000250 a5 59 66 3f 03 58 2a 3d 85 fe f2 be d5 d7 94 3e
       0.89980537 0.04158784 -0.47459808 0.29070917
000260 0a 00 32 be 41 97 0a 3f b2 68 e9 3e f9 3f be 3a
       -0.17382827 0.54137045 0.4558769 0.0014514915
000270 01 8a 09 3f 3a 68 11 bf 1a ed ae 3d 63 da 01 bc
       0.537262 -0.5679966 0.08541317 -0.007925603
000280 f5 01 7b be 96 b3 ab 3a 3d b5 c5 be f6 6e 0f bf
       -0.24512465 0.0013099785 -0.38614836 -0.5602869
000290 bf 9c 12 be a4 3b 21 3f 7a 1e 6e 3e d8 4a 89 3b
       -0.14317606 0.6298163 0.23253813 0.0041898303
0002a0 a5 b8 80 3e ca d2 03 bf fb 2e b7 3d 7b b8 7c 3e
       0.25140873 -0.51493514 0.08944508 0.24679749
0002b0 7a d2 17 3e d9 20 1f be 29 7b b0 3e 87 d7 32 3e
       0.14826384 -0.15539874 0.34468964 0.1746503
0002c0 0b 7e 17 3e d9 d9 38 3e 97 e3 bb be 92 0e 58 be
       0.14794175 0.18051852 -0.36697075 -0.21099308
0002d0 2d 0f 8f 3e f5 d0 6d bd 3c da 64 bc 02 39 bb 3e
       0.27941266 -0.058060605 -0.013968047 0.3656693
0002e0 96 6f 40 3d 0e 80 56 3b 82 2e f6 bd 0f 89 da be
       0.046981417 0.0032730135 -0.120205894 -0.42682692
0002f0 73 0a b5 be 8a a1 c5 3e 61 13 bc be 31 65 51 3e
       -0.35359535 0.38599807 -0.36733535 0.20448758

fc1.bias f4 [64]
000000 45 8f 2e 3f 98 cf 39 40 40 03 8b 40 1a 10 81 40
       0.6818736 2.9032955 4.3441467 4.0332155
000010 94 e0 58 be 24 39 44 40 27 ad 74 40 2a d6 42 40
       -0.2117942 3.0659876 3.8230684 3.0443215
000020 f0 79 04 40 3c c9 90 3f c8 28 37 40 fe 4a 84 40
       2.0699425 1.1311412 2.861864 4.1341543
000030 5b 59 52 40 b4 8d 6b 40 e2 f0 6b 40 6a 93 43 40
       3.2867038 3.6805239 3.6865773 3.0558724
000040 cb 6d 46 40 b5 98 89 be 48 f2 26 bd d1 09 16 bf
       3.1004512 -0.2687432 -0.0407584 -0.5860873
000050 d3 7a 37 c0 aa b0 2d 40 c6 81 43 40 7e 47 0b bf
       -2.8668716 2.7139077 3.0547957 -0.54405963
000060 58 6e 6b be 5a 28 e8 3f ad 96 87 be b0 cd 20 c0
       -0.22991312 1.8137314 -0.26482144 -2.5125542
000070 5f d4 5e 3d f9 12 5e c0 f7 55 ff be 09 b2 ea be
       0.05440175 -3.469908 -0.49870273 -0.45838955
000080 05 ac 86 bf 96 ec 7b 3e 0e 88 4f c0 e7 6b ff be
       -1.0521246 0.24601969 -3.242679 -0.4988701
000090 9f b4 07 40 23 f1 07 40 0a 2f 57 c0 a4 3d 88 be
       2.1203992 2.1240928 -3.362246 -0.26609528
0000a0 5c 3c fd be 0a b8 7e 40 53 ec 44 40 aa 7e 04 c0
       -0.49460113 3.9799829 3.076924 -2.070231
0000b0 cd e2 c6 bf 4c d0 38 40 4d 48 ad be 20 4e 60 40
       -1.5537964 2.8877134 -0.33844224 3.5047684
0000c0 ad 21 1f c0 03 5c 13 c0 0d 16 40 3f ba a8 41 40
       -2.4864304 -2.302491 0.75033647 3.0259233
0000d0 a3 5e 10 40 46 33 05 40 82 dd f3 be 36 6d 33 40
       2.2557762 2.0812545 -0.47629935 2.8035407
0000e0 6f 4c ec 3f 34 a5 7e 40 b4 3a a1 3f d3 d3 bf bd
       1.8460826 3.9788332 1.259604 -0.09366574
0000f0 1d 9a 36 40 5f 18 26 40 9b a2 8e be 3e 48 03 c0
       2.8531563 2.5952375 -0.27858433 -2.0512843

fc2.weight f4 [64, 64]
000000 72 38 2a bc 9e ba 96 3b 18 7f 95 bc 3c 9e 14 be
       -0.010389434 0.004599883 -0.01824908 -0.14513487
000010 34 e0 38 bd 8d fa d9 bd 68 80 ff 3b 06 69 3c be
       -0.04513569 -0.10643492 0.0077972896 -0.18399438
000020 bc 55 6c 3c f3 5d 48 bd 8e 64 76 bd eb e6 45 3d
       0.014424738 -0.048917722 -0.06015449 0.048315924
000030 be 1f 1e 3c 15 85 4f 3d 44 25 14 be c5 db 0a be
       0.009651123 0.050664026 -0.1446734 -0.13560398
000040 5c 96 90 bd af 33 88 bd e8 1f 7a 3d a1 a1 b3 3d
       -0.07059929 -0.06650483 0.061065584 0.08771063
000050 a0 ea 37 3d 25 91 25 3d 9f 7d dc 3c 28 ea 21 bd
       0.04490149 0.040421624 0.02691537 -0.03952995
000060 fb e4 aa bd 01 cf 99 3d 0c ef 07 bd 47 b6 07 be
       -0.08344456 0.07510186 -0.033186957 -0.13253127
000070 a4 d6 ac 3d 6c f8 37 3d 6c e3 34 3d c8 5f e4 3c
       0.08439377 0.044914648 0.0441622 0.027877703
000080 18 a8 f8 3d 97 35 56 bd 0c 3c 73 bc 80 84 f4 bc
       0.12141436 -0.0522972 -0.014845859 -0.029848337
000090 ba 1a f4 bd f3 cf 71 3c 4a 31 b0 3d e8 86 c5 3c
       -0.1191916 0.014759052 0.08603151 0.02411218
0000a0 e0 f5 ff 3c bc 4f 09 be b3 03 3a 3d 61 2b 08 bd
       0.031245172 -0.13409323 0.045413684 -0.033244494
0000b0 99 3d 85 bd 6b 7f b4 bd cc 23 0a 3d 13 0d 05 be
       -0.065058894 -0.088133655 0.033725545 -0.12993269
0000c0 9c 38 f8 bd 3a f2 bf 3d c0 f9 85 3c 9a 0d 96 bc
       -0.121201724 0.09372373 0.016354442 -0.018317033
0000d0 04 da d4 bd 84 8f dc bd 40 35 89 bd 40 4c 6a 3d
       -0.10393146 -0.10769561 -0.0669961 0.057201624
0000e0 bb df 13 bd 74 43 ab 3c e6 d3 a8 bd 7a 9e b1 bd
       -0.036102038 0.020906188 -0.082435414 -0.08672805
0000f0 69 b5 5c bd 1a 82 af bd 4c 83 84 bd f8 d1 6b bd
       -0.053883944 -0.08569737 -0.064703554 -0.05757329
000100 af b5 87 3d eb cf dc 3d ff 2b 36 bd 4a e9 cf bd
       0.0662645 0.10781845 -0.04447555 -0.10151918
000110 94 8b 0a bd 60 ea e1 3b e3 d8 99 bd f1 65 12 bd
       -0.03382452 0.0068943948 -0.07512071 -0.03574175
000120 df bb ba 3d 80 00 d5 3a 92 dc 67 3c 60 5e 09 bd
       0.09117865 0.0016250759 0.014151709 -0.03353727
000130 d9 18 20 3d 23 41 e3 bc de 37 6c bc 0d 66 98 3d
       0.039086197 -0.02774102 -0.014417617 0.0744134
000140 e5 ba 41 3d f6 61 a4 bd 04 0f dc 3d 59 a9 8b bd
       0.047297377 -0.08026497 0.107450515 -0.0681941
000150 73 39 66 bd fd 20 87 bc 7b 44 d2 bc 14 d5 b0 bd
       -0.05620713 -0.016495222 -0.02566742 -0.086343914
000160 c9 01 ba bd 33 c1 b4 3d 00 d3 a7 bc 38 0d f1 3c
       -0.09082372 0.08825912 -0.020486355 0.029425249
000170 e4 e3 31 3d f0 9f 9b 3c b2 52 b8 bd 46 97 f9 3d
       0.043430224 0.018997163 -0.09000148 0.12187056
000180 91 95 a9 3d e9 84 56 3d 40 90 54 3c 0c 7d e8 bd
       0.08280481 0.052372847 0.012973845 -0.11351976
000190 57 fc aa bd dd d1 fa bd 00 d9 d8 ba ec 5f 00 3d
       -0.08348911 -0.122470595 -0.0016544163 0.03134148
0001a0 46 91 ed 3d a0 ff b7 bc c1 bb 2c 3c 32 65 e7 3d
       0.11599974 -0.022460759 0.010542811 0.11298598
0001b0 49 a6 f5 bd db c0 49 bd 78 80 13 bd 84 5c 5b 3d
       -0.11994607 -0.049256187 -0.03601119 0.053555027
0001c0 f3 6c ea bd 13 5c 78 bd 7b 9d a5 bd b3 ab af bc
       -0.11446562 -0.060634684 -0.08086678 -0.021444177
0001d0 c0 d0 a7 3b c9 54 6d 3d bc 7c 68 bd c5 4a a9 bd
       0.0051213205 0.057942186 -0.05675958 -0.08266214
0001e0 88 e1 c0 3c 8e 2f f5 bd 57 ac 63 bd f0 75 68 3c
       0.023545042 -0.11971961 -0.055584278 0.014188275
0001f0 5a bf b3 bd 50 e0 dd bd 40 68 e5 bd 8a 16 99 bd
       -0.08776732 -0.108338 -0.11201525 -0.07475002
000200 e6 16 06 be b8 6f bb bd cd 5a 2f 3d cc b5 86 bd
       -0.13094673 -0.09152168 0.042811204 -0.06577644
000210 77 bf a1 bd 26 e9 c4 3d ec 58 ec bd 64 f0 7c 3d
       -0.07897847 0.09614782 -0.11540398 0.061752692
000220 73 99 79 bd ec ed 83 bd e2 55 ec 3d 68 d7 6e 3b
       -0.060937356 -0.06441864 0.11539818 0.003644431
000230 22 fa aa bd d9 3a d1 bd 68 7a e1 3d 2b 7c 1f 3d
       -0.0834849 -0.102163024 0.11009675 0.038936775
000240 51 21 64 bd 88 71 e3 bd 08 28 e2 bd 63 b9 15 bc
       -0.055695836 -0.11105639 -0.110427916 -0.009138438
000250 21 d1 16 3d 1f ef 83 bc 90 f6 71 3d 50 19 d0 3d
       0.036820535 -0.016105233 0.05907303 0.10161078
000260 2c 23 5c bb b4 6c 84 3d e0 12 a7 3c 20 41 23 bd
       -0.00335903 0.06466046 0.020394742 -0.03985703
000270 ac 6d f5 bd 3d 6c 15 be c4 27 d4 bd 7c 39 bc 3d
       -0.11983809 -0.14592071 -0.10359147 0.09190652
000280 c2 57 53 3c 41 e3 7d 3c 63 19 d8 bd 9a 56 c8 bd
       0.012899341 0.015496076 -0.10551717 -0.09782143
000290 1f c3 b3 bd 6a de 89 3c 63 81 34 3c fa 27 be bd
       -0.08777451 0.016829688 0.011017176 -0.09284969
0002a0 c0 11 82 3b 79 34 c2 3c d5 ce e3 bd 25 0a 22 bd
       0.003969401 0.023706662 -0.111234345 -0.039560456
0002b0 ef 88 20 be 55 d7 d2 3b 66 5c a5 bd 6a 5e 08 be
       -0.15677236 0.006434361 -0.08074264 -0.13317266
0002c0 e6 fc f7 bc 43 ec 82 bd 7a 43 9a bd 5f ac 64 bd
       -0.030271959 -0.063927196 -0.075324014 -0.05582845
0002d0 4e 91 fb 3d e2 b5 06 be b4 ad b4 bd d0 70 ac 3d
       0.12283574 -0.1315532 -0.08822194 0.08419955
0002e0 2a 31 08 3d 23 ea 85 3d d3 3d 3d bd d0 ec 33 3d
       0.03325001 0.06538799 -0.04620154 0.043927014
0002f0 01 cd 0a bd b5 3e 33 bd 90 62 e6 bd ee 05 a3 bd
       -0.033886913 -0.043760974 -0.11249268 -0.079601154
000300 97 d4 c4 3c e6 ae ef bd d4 d5 07 3f 7e 7f 79 3f
       0.024027152 -0.11703281 0.5306065 0.9746016
000310 75 87 c6 be 35 94 c4 3f 31 94 b8 3e e5 bc 03 40
       -0.3877522 1.5357729 0.3605056 2.0584042
000320 0f c6 89 bd 87 58 02 3e 24 15 5c 3f 37 a2 00 40
       -0.0672723 0.12729083 0.8596976 2.0099008
000330 aa cc 49 3e 4b 23 16 bd 34 78 90 3e d8 49 a9 bd
       0.1970698 -0.03665475 0.28216708 -0.08266038
000340 91 0e 4b 3f a2 44 49 be b8 b4 c2 3c 99 e4 6e be
       0.793191 -0.19655088 0.023767814 -0.2332939
000350 e8 e3 4c be 90 cc d9 3e ee a8 0d 3e 1a 5a b7 3d
       -0.20008814 0.4253888 0.13833973 0.089527324
000360 08 7c 78 be 36 0d a1 3e 18 b6 0b 3d 28 a4 a6 be
       -0.24266064 0.31455392 0.034109205 -0.32547116
000370 00 c4 31 bd 0d 5c 2a bf 60 db 40 bd 22 1e 70 3d
       -0.04339981 -0.6654671 -0.047084212 0.058622487
000380 68 7e 39 bd 27 4d 78 bd da 74 c9 3d 7e c7 e4 3d
       -0.045286566 -0.060620453 0.09836741 0.111708626
000390 04 89 59 bd 20 4f ac 3d a8 b6 e4 bd 90 32 e0 bc
       -0.053109184 0.084135294 -0.111676514 -0.02736786
0003a0 00 0a ba 3c 22 0e 05 3e e2 b8 b2 3e 54 5d 3f 3e
       0.022709846 0.12993672 0.3490668 0.18687946
0003b0 d2 b1 69 be e2 eb 3d 3d 24 b2 33 3d e1 31 47 3e
       -0.2282174 0.046367534 0.04387106 0.19452621
0003c0 45 c3 94 bf b8 65 e1 3c 5b 1d 1f 3e 30 b0 92 bd
       -1.1622092 0.027514324 0.15538542 -0.07162511
0003d0 57 ec 14 3e 37 69 88 3d ea 6a df 3d 91 64 be 39
       0.14543281 0.06660693 0.10909064 0.00036314552
0003e0 a0 16 eb 3c 17 55 cf 3f 9a f8 0b be 72 eb 8c 3d
       0.028697312 1.6197842 -0.13669053 0.06880845
0003f0 25 2d 08 3f 6d 14 ab bd d8 4d 6e 3d 73 62 cd bd
       0.53193885 -0.08353505 0.058179706 -0.10028543

fc2.bias f4 [64]
000000 0c 69 ca bd 0d 8c ba 3d 07 c6 83 3d f2 a0 11 3f
       -0.09883317 0.09108744 0.06434255 0.5688621
000010 44 fa d5 bd 37 0d 1e 3e 5e 83 ec bd 84 d7 fb 3d
       -0.10448125 0.15434729 -0.11548494 0.12296966
000020 52 bb 2b 3e 04 de 53 bf e0 fa ee 3f c2 08 16 40
       0.16770676 -0.82760644 1.8670311 2.3442845
000030 f5 34 d9 3f c8 6e 90 bd 88 34 a3 3f b2 5c a7 3f
       1.6969286 -0.0705238 1.2750406 1.3075163
000040 38 29 6b 3f c6 80 b0 bd 1f 54 df 3e ca 95 10 40
       0.9185977 -0.086183116 0.43618867 2.2591424
000050 c0 4f a7 bc 06 27 a2 3f 91 3d 08 40 47 79 ec 3f
       -0.02042377 1.2668159 2.1287577 1.8474511
000060 bb 9b 69 3f 68 19 33 bb 5d 98 e8 bd 69 ff d3 3f
       0.9125325 -0.0027328376 -0.11357186 1.656232
000070 e4 ef 04 3d ce 68 f3 bd 54 12 e1 3f 00 42 82 3a
       0.03245534 -0.11885224 1.7583718 0.0009937882
000080 e7 e7 f0 3f 95 06 20 40 d0 0c 85 bf 7c be 03 40
       1.8820771 2.5004017 -1.0394535 2.0585012
000090 6c 0e 19 be 6e 92 3f 3f 69 01 01 40 45 c0 1d 3f
       -0.14946908 0.7483281 2.015711 0.61621505
0000a0 17 78 b2 3f 5e 1c 98 bd ac 63 6e 3d b0 6b 8f bd
       1.3942899 -0.074272856 0.058200523 -0.07002962
0000b0 c2 bc a3 3f ef 3c 23 bf d8 df a0 3f 2d 6a f7 bd
       1.2791979 -0.6376485 1.2568312 -0.12080798
0000c0 59 5c a5 3c f0 bf c6 3c db aa 66 3c 4c 84 cf 3f
       0.020185636 0.024261445 0.014078821 1.6212249
0000d0 0e 72 85 3f 1a 6f f9 3f 0c fe cc bd 63 14 e9 3f
       1.0425432 1.948703 -0.10009393 1.8209347
0000e0 c9 3b 1d 3c fb 4d e5 3e f7 7a 78 3f de 17 73 3c
       0.009596773 0.44786057 0.9706263 0.014837233
0000f0 cc 2f 0b 40 35 32 e3 3d e7 3a f6 3f a5 ea b5 bd
       2.1747923 0.110935606 1.9236726 -0.088826455

fc3.weight f4 [20, 64]
000000 c9 7a e0 3b 70 f5 27 3c 5f 58 65 bc cb 5a 67 3f
       0.0068505746 0.010251388 -0.01399812 0.90372914
000010 ea 69 2d 3d c9 d9 8f 3c 08 d2 cf bd 88 d9 4c 3d
       0.042337336 0.017559903 -0.10147482 0.05001214
000020 14 a5 c3 3e 94 42 8d be f6 a1 66 3f 6a a5 e2 bf
       0.38211882 -0.27589858 0.9009088 -1.770673
000030 6c e6 fb 3e 80 bf 10 bd 4e df 55 3e d1 95 ce bf
       0.49199235 -0.03533888 0.20885965 -1.613947
000040 92 7d 5f 3e 86 6e 3a 3d 29 a3 b9 3e 1a 43 6b 3f
       0.21825245 0.04551556 0.36257294 0.91899264
000050 9a c9 ef 3d d9 e1 cb 3e 99 05 04 3f 1f bf 9c 3e
       0.11708374 0.39820746 0.5157104 0.30614564
000060 06 b7 e1 bc 7f 6d 10 3e 7a 91 04 be 1e 91 67 3e
       -0.027553093 0.1410427 -0.1294612 0.22613952
000070 46 72 cd 3d 69 89 3f 3d 22 d7 df 3e 00 73 b0 3b
       0.100315616 0.046761904 0.4371882 0.005384803
000080 db 91 b9 3e 0f b6 24 3f bd a6 e9 be 36 da 01 3f
       0.3624409 0.643403 -0.45635024 0.5072359
000090 af 0c 50 bd 29 8c 9a 3d e0 e0 15 3f 63 12 11 3f
       -0.050793346 0.07546265 0.58546257 0.5666868
0000a0 10 b4 2a bf 3a d6 c8 bc 80 3e 03 be 6c e0 36 bd
       -0.66681004 -0.024516214 -0.1281681 -0.04464762
0000b0 cc 37 fb 3d 57 6c 8c be 7c 62 d7 3e 72 2e dc bb
       0.12266502 -0.27426407 0.42067325 -0.006719404
0000c0 78 f5 93 3d 1f e5 1d 3d e7 e9 b4 3d c2 d4 e2 3e
       0.07224554 0.038548585 0.08833676 0.44302946
0000d0 11 db 0d 3e f1 f1 19 3f 1c 2c 21 3d 4f 34 9b 3e
       0.13853098 0.601348 0.039348707 0.30313346
0000e0 d2 07 aa 3d d6 77 6c 3b 05 56 81 3c 64 55 bb be
       0.08302273 0.003608217 0.015788088 -0.36588585
0000f0 da 37 05 3f 97 f2 06 be 9e aa f5 3e 93 63 84 bd
       0.5203835 -0.13178478 0.47981733 -0.06464305
000100 60 e6 19 bb 20 fd 2c 3c 8f 70 d1 bd 73 16 a6 be
       -0.0023483261 0.010558397 -0.10226547 -0.32439002
000110 8e d3 94 bd 9d e5 c0 3b 52 a7 ad 3d fc 2f 89 3d
       -0.07266913 0.005886747 0.084791794 0.066986054
000120 33 88 f2 3e 56 4e 0f be 63 e3 91 3e 60 44 81 bf
       0.47369537 -0.13994727 0.28493795 -1.0098991
000130 87 f1 ea 3e a0 07 96 3c 4e c5 6b 3d 91 32 30 bf
       0.45887396 0.018314183 0.05756121 -0.6882716
000140 63 96 14 be 44 0b 8e bd cf a5 79 be 64 dc 2b 3f
       -0.14510493 -0.069357425 -0.24379657 0.67133164
000150 7e 52 bd bd bf 2f d1 3e 98 85 4e 3e 48 eb 92 3e
       -0.0924425 0.4085674 0.2016815 0.2869513
000160 59 dd 95 3c c5 b1 0f 3d b0 58 53 bd 84 dc a3 3e
       0.018294023 0.035081644 -0.05159825 0.32004178
000170 38 1f 6a bd 25 0b e5 3c c2 72 b1 3e b8 02 32 bd
       -0.05715868 0.027959416 0.34657866 -0.043459624
000180 51 0c 22 3e f2 67 e5 3e 26 71 07 be 20 d9 9e 3e
       0.15825011 0.44805866 -0.13226756 0.31025028
000190 e2 31 b8 bc 8b 73 16 be a0 91 fd 3e f8 01 73 3d
       -0.022484723 -0.14692514 0.49525166 0.05932805
0001a0 e3 27 bd be d1 d1 c4 bd 3a a2 83 bd 10 ab 21 3c
       -0.36944494 -0.09610332 -0.06427427 0.009867445
0001b0 81 ff 66 3e 28 39 98 be be ac d9 3e 33 33 bf bd
       0.22558405 -0.29731107 0.42514604 -0.09335937
0001c0 83 41 7a 3d 4d 16 f6 3d fe 86 b6 bc b4 25 1c 3f
       0.061097633 0.12015972 -0.022281166 0.6099503
0001d0 a5 6e 0e 3e c7 a1 cd 3d 84 86 1e 3d cb f6 05 3f
       0.13909395 0.10040622 0.038702503 0.523297
0001e0 81 61 31 3b ec 28 0b 3f bb ba 0c 3f 67 bf d9 3d
       0.0027066173 0.54359317 0.5497243 0.1063221
0001f0 17 36 2a 3e da 55 34 3e a7 a5 9c 3e 26 73 0f 3e
       0.16622196 0.17610875 0.30595133 0.1400877
000200 df 96 e4 3d 60 56 5f bc fc 6e 1c 3c 27 fa 37 be
       0.11161589 -0.013631433 0.009547945 -0.1796652
000210 35 9f 81 3d 25 3c 5a 3e 04 8a f4 3d 40 d9 cd bc
       0.063291945 0.21312006 0.11940387 -0.025128007
000220 3c ea bf 3d 22 7e 2a be d2 39 2e 3e 2d 60 70 bf
       0.093708485 -0.16649678 0.17014244 -0.9389675
000230 06 4d 23 3f 20 5c 91 3d 52 7d 44 be ce d4 3d bf
       0.63789403 0.070976496 -0.19188431 -0.7415284
000240 8f 8e a2 3d f4 f3 00 3d be cb da bd 7d 07 0f 3f
       0.07937347 0.03148265 -0.10683392 0.558708
000250 8a cd b4 bd 96 d8 cf 3e 23 53 5f 3e b6 18 8a 3e
       -0.08828266 0.4059493 0.21809058 0.26971978
000260 df d4 22 be 71 7e 0f bd 1d 6b b5 3d 4c a4 23 3e
       -0.15901516 -0.035032693 0.08858321 0.15980643
000270 3b e0 7f bd 7b 82 2c bd 13 29 a6 3e 24 d4 b5 bd
       -0.062469702 -0.042116623 0.32453212 -0.08878353
000280 d0 c6 a0 3e 0d 47 f3 3e 3b 9a cd bd fb 8d 6e 3e
       0.31401682 0.47515145 -0.10039183 0.23296349
000290 c3 3e 32 bd 12 b8 95 be 2f 83 e2 3e e3 27 c8 3c
       -0.043516885 -0.29241997 0.4424071 0.024433082
0002a0 08 63 a0 be cc 2a 26 bc a5 ca 7c bd 94 bb 4c bd
       -0.31325555 -0.0101420395 -0.061716694 -0.049983576
0002b0 01 45 91 3e e6 1b 4f 3c 81 8c d9 3e 12 03 eb 3c
       0.28372958 0.012640929 0.42490008 0.028687987
0002c0 3a 16 f2 bd 89 5d c7 bb 0b a4 10 3d 2b 5b ea 3e
       -0.11820646 -0.0060841483 0.035312694 0.4577268
0002d0 90 1b bb 3e c6 12 4b 3e 50 7f 64 bc 3a 03 b4 3e
       0.36544466 0.1983138 -0.013946369 0.35158712
0002e0 fc 4a 9d bd 48 2c a8 3e 77 45 2d 3c b3 49 31 3e
       -0.07680318 0.32846284 0.010575644 0.1731327
0002f0 75 f5 6a 3e 53 8a 62 3d 01 a1 9b 3e 7c 7a 49 bc
       0.22945197 0.055307698 0.30396274 -0.012297269
000300 53 0a 21 be c2 4b cf 3d a0 3d 12 bc 75 85 a4 be
       -0.15726595 0.101218715 -0.008925825 -0.3213307
000310 e0 73 e5 3c 0b 60 fd 3e 04 fd 2d 3d cc cf c6 bd
       0.028009355 0.49487337 0.042477623 -0.09707603
000320 48 62 ed 3d 27 cb 2b be 8e d4 97 3e 94 c7 52 bf
       0.11591011 -0.16776715 0.29654354 -0.8233578
000330 c3 2e 0a 3f d2 af eb bd b1 73 3d be 1f 11 35 bf
       0.539776 -0.115081444 -0.18501164 -0.7072925
000340 12 8d d4 bc d2 14 f9 bd dc ab b6 be e2 30 1c 3f
       -0.025946174 -0.12162174 -0.35677993 0.6101209
000350 84 3a b6 bd e0 70 b8 3e 4a 7e 52 3e 66 ff 8d 3e
       -0.0889788 0.36023617 0.20555988 0.27733916
000360 8e a3 0d be 0a af 6e 3d 2b 95 f4 3d 90 8f 5a 3e
       -0.13831922 0.0582724 0.11942514 0.21343827
000370 a9 93 b1 bd a3 52 96 3d 1e 32 89 3e 0e 44 c9 bd
       -0.08670742 0.073399805 0.2679605 -0.098274335
000380 97 ee 42 3e 17 16 1e 3f ad 1a b4 bd 08 96 7a 3e
       0.19036327 0.61752456 -0.087941505 0.24471295
000390 04 58 05 3c 5b 89 31 be d3 83 0e 3f c0 5c 8a be
       0.00813866 -0.17337553 0.556699 -0.27023888
0003a0 88 d9 68 be 35 d4 d2 bd 53 71 bf bd 6c c3 4e 3d
       -0.22739232 -0.102943815 -0.09347787 0.050479338
0003b0 90 eb 9e 3e c8 5d 41 be eb 5e c7 3e 14 74 91 3d
       0.31039095 -0.18883431 0.38939604 0.07102218
0003c0 51 f5 2a 3b b9 ff af bd 3d 3d 90 3d 4f 28 cd 3e
       0.0026086161 -0.08593697 0.0704293 0.40069816
0003d0 d7 55 82 3e 66 95 d4 3d 3a f7 d8 bd 99 47 d0 3e
       0.25456116 0.10380058 -0.1059403 0.40679625
0003e0 90 99 d6 3c ba 66 55 3d 87 c7 c9 3d 9f 55 5a 3e
       0.026196271 0.05209992 0.0985251 0.21321724
0003f0 15 1d 7c 3e ec 32 57 3e 1b cb ec 3d 37 78 47 3e
       0.24620469 0.21015519 0.11562177 0.19479452

fc3.bias f4 [20]
000000 c8 7e e3 3f 26 3c 32 3f 2b 1c 01 3f 7f e9 00 3f
       1.7773066 0.6962303 0.50433606 0.50356287
000010 d7 8f f2 3e f9 32 bd 3e 1d c8 02 3f 02 ba 9f 3e
       0.47375366 0.36952952 0.510866 0.311966
000020 c9 5b 8b 3e bc 0f a7 3e 5a 88 3c 3e 7c 76 80 3e
       0.27218464 0.32629192 0.18411389 0.25090396
000030 56 41 0b 3d 2c e8 1c bd ee 24 50 be 24 b3 04 be
       0.033997856 -0.038307354 -0.20326588 -0.12958962
000040 61 9b fb bd 44 c2 95 be 91 61 50 be 31 bf f7 be
       -0.122854955 -0.29249775 -0.20349719 -0.48388055

fc1.weight f4 [64, 3]
000000 c3 34 4e 3f f0 41 9e 3e 85 65 e5 bd d7 94 18 3f
       0.8054926 0.3090968 -0.11201004 0.5960211
000010 72 fb 9a 3d 06 18 f5 3a 90 0f 5b be 2f cc 47 be
       0.07567491 0.0018699176 -0.21392655 -0.19511484
000020 25 7a 12 3d 7e 4c 5f bd 8a c6 20 be 31 b7 89 3c
       0.035761017 -0.054516308 -0.15700737 0.016810985
000030 ff 5d 1c be bb 08 9a 3e a0 cd ce 3d 15 3c e8 3d
       -0.15270232 0.30084786 0.100978136 0.11339585
000040 d8 7a d6 3d ce 3b a1 be c2 9b 4f be 62 fc 99 3d
       0.10472649 -0.3149094 -0.2027426 0.07518841
000050 d3 93 91 3c 1c 0e 90 3d 2b 5e 2b 3c a3 5a eb bd
       0.017770683 0.07033941 0.010459463 -0.11491897
000060 a4 27 8a 3d 69 f8 89 3e e7 2c 49 3e 40 37 3a 3f
       0.06745842 0.26947334 0.19646035 0.72740555
000070 5d 07 91 be 40 27 0d 3d 1b 6f 05 bf 9c 0d f0 3e
       -0.2832593 0.03446126 -0.5212266 0.46885383
000080 21 77 8d be 95 79 06 3e 70 fb ae 3d 5b 5c 52 be
       -0.2762995 0.13132317 0.08544052 -0.20543043
000090 3e 52 83 be c6 9d 0a bc de 57 09 3d eb 7e ae be
       -0.25648683 -0.008460468 0.033531062 -0.34081206
0000a0 0d 93 73 3e c6 eb 9b 3d 55 a8 05 be 91 ea 74 3e
       0.23786564 0.076133296 -0.13052495 0.23917605
0000b0 95 0e aa 3b 70 db 2f be 07 9b b6 3e 25 73 15 3a
       0.0051897266 -0.17173553 0.3566515 0.0005701057
0000c0 16 e3 9d 3d 79 48 1a 3e f1 e2 c5 bd dd 1f 88 3c
       0.07709329 0.15066709 -0.09662426 0.016616756
0000d0 19 db 41 bf b9 3b dc 3a 26 d0 bf 3e 9b 49 10 bf
       -0.7572494 0.0016802467 0.37463492 -0.56362313
0000e0 25 ce 03 bf 29 9f 3b 3d 7a 69 3c 3e 16 24 ff 3d
       -0.51486427 0.045806084 0.18399611 0.12458055
0000f0 d2 ae 21 3f 2a 4f 3a 3f 51 df fa 3e ee 5f ae be
       0.6315738 0.72777045 0.48998502 -0.34057564
000100 d3 79 b2 bc a6 c2 ff 3c c4 45 18 3e 93 f2 4e 3e
       -0.021786606 0.031220745 0.14870363 0.20209722
000110 c4 0e f9 bb 36 bf 65 3e c0 a1 f4 be 0e 9d 05 bf
       -0.007600637 0.22436222 -0.47779655 -0.5219277
000120 9d 9a 00 be 8f b0 3a 3f dc 4e 98 bd 31 b0 b3 3d
       -0.1255898 0.7292566 -0.07436916 0.0877384
000130 2f db 10 3f ee ba 2a bd b9 8a b8 be 0d 48 09 be
       0.5658445 -0.041682176 -0.36043337 -0.13406391
000140 8a 5c 8c be ac 6f d0 3e 19 28 ec be f2 d6 90 3e
       -0.27414352 0.407102 -0.46124342 0.2828899
000150 14 b5 d6 be 49 b4 d4 be 94 29 22 be 97 c2 88 be
       -0.41935027 -0.41543797 -0.15836173 -0.2671096
000160 26 9a d8 be e3 9d 85 3e 54 a1 5a be 05 77 e7 be
       -0.42305106 0.2609702 -0.21350604 -0.45207992
000170 83 9e 0c bf a6 c9 19 bf 1d 5e 06 3d 10 9f 08 be
       -0.5492937 -0.60073316 0.032804597 -0.13341928
000180 c3 2d bb 3e 9c 51 99 3e d7 6d 36 3d 8a 27 21 3e
       0.3655835 0.29945076 0.044538345 0.15737739
000190 1c f8 bd 3d 94 bf 98 bd 25 01 9a be d4 26 cf bd
       0.09275839 -0.07458416 -0.30078998 -0.10114828
0001a0 2c 74 33 3e e1 49 5d be de 44 4b 3c 87 58 0e bf
       0.17524785 -0.21610214 0.012406556 -0.5560383
0001b0 aa 6b d2 3e bb 77 d9 bc 6e de be 3c 3b 45 62 3e
       0.41097766 -0.02654635 0.023299422 0.22096722
0001c0 60 43 12 3e f3 8b 38 3d fe f3 df be b5 5a 0f be
       0.14283514 0.04505534 -0.4374084 -0.13999446
0001d0 37 4b 43 3e 4d d9 f0 be 6e 59 27 be 9a 34 81 be
       0.19071661 -0.47040787 -0.16342708 -0.25235444
0001e0 b4 ef da be 6e f8 88 3d e2 c8 13 bf d9 35 2d be
       -0.42761004 0.06688009 -0.577284 -0.16915073
0001f0 b6 94 4f be d8 49 78 3d a5 cb 05 bf a6 58 fe 3d
       -0.20271572 0.060617298 -0.5226386 0.12419252
000200 e3 f5 9e 3d 1f 47 38 3e bc 77 f4 be f8 eb 25 3d
       0.07761743 0.1799588 -0.477476 0.04050824
000210 44 fc 77 bd 9d 29 00 3f 32 98 38 3e 56 a9 b0 3d
       -0.060543314 0.50063497 0.18026808 0.08626048
000220 7c 12 29 3d 79 39 d9 3c e1 28 f8 3c 84 5a e0 bd
       0.041277394 0.026516663 0.03029293 -0.109547645
000230 93 81 b6 be d6 30 63 be 5b 97 05 be 33 28 9e 3d
       -0.35645732 -0.22186598 -0.13046019 0.07722511
000240 71 2f 80 bf 33 60 c3 be 44 4b 1b 3e 51 45 d9 bd
       -1.0014478 -0.38159332 0.1516543 -0.10608924
000250 1c 01 68 3f b4 e3 32 3d 26 3b cb be 2b 93 a4 3e
       0.9062669 0.043674186 -0.39693564 0.3214353
000260 55 ca 18 be 0d 73 0b 3f 87 40 ec 3e cc 39 8e bb
       -0.14920934 0.5447243 0.4614298 -0.004340386
000270 c6 06 10 3f 2e 6e 0f bf dd 77 9f 3d 1b e8 3b 3c
       0.56260335 -0.56027496 0.07786534 0.0114689125
000280 55 be 6d be 06 f0 75 3c 3d b5 c5 be f6 6e 0f bf
       -0.23217137 0.015010839 -0.38614836 -0.5602869
000290 bf 9c 12 be ce a7 21 3f 29 0e 74 3e ff 89 24 ba
       -0.14317606 0.63146675 0.23833527 -0.00062766665
0002a0 9a fb 85 3e 76 27 f8 be 6e ce df 3d ac 47 81 3e
       0.2616852 -0.48467606 0.10928045 0.25249994
0002b0 3d 2c 1c 3e 1d e6 29 be 91 20 b6 3e d8 08 41 3e
       0.1525125 -0.16591688 0.3557172 0.1885103
0002c0 37 ad 14 3e d9 d9 38 3e 97 e3 bb be 43 0f 58 be
       0.14519201 0.18051852 -0.36697075 -0.21099572
0002d0 17 2c a5 3e 63 1d 52 bd dc a2 81 bc 5a 9c bb 3e
       0.322602 -0.051297557 -0.015824728 0.36642724
0002e0 ce 67 57 3d 92 78 cb b9 82 2e f6 bd 0f 89 da be
       0.05258923 -0.0003880901 -0.120205894 -0.42682692
0002f0 73 0a b5 be 18 2d c1 3e 70 74 bd be 7e 6a 57 3e
       -0.35359535 0.37729716 -0.37002897 0.21036717

fc1.bias f4 [64]
000000 1c 15 35 3f 97 92 37 40 d5 61 89 40 ab 48 7f 40
       0.70735335 2.8683221 4.2931924 3.9888103
000010 26 5a 3c be 50 91 43 40 a6 e4 71 40 7d 85 40 40
       -0.18393764 3.0557442 3.7795806 3.0081475
000020 c8 f9 03 40 d0 a1 92 3f 6d d8 34 40 14 97 83 40
       2.0621204 1.1455631 2.8257096 4.112192
000030 c2 51 4f 40 b3 99 68 40 45 4f 69 40 54 3d 41 40
       3.239365 3.634381 3.6454632 3.0193682
000040 45 f3 44 40 21 a6 88 be 48 f2 26 bd e5 69 0f bf
       3.077348 -0.26689246 -0.0407584 -0.5602096
000050 43 df 34 c0 f3 0b 2b 40 d0 22 41 40 7e 47 0b bf
       -2.8261268 2.6726043 3.0177498 -0.54405963
000060 bf 79 4f be ba 42 e8 3f ad 96 87 be fa fe 1e c0
       -0.20261286 1.8145363 -0.26482144 -2.4843125
000070 5f d4 5e 3d 89 f2 59 c0 14 56 ff be db b0 ea be
       0.05440175 -3.4054282 -0.4987036 -0.45838055
000080 4c 61 83 bf f7 48 92 3e db bf 4a c0 e7 6b ff be
       -1.0264068 0.28571293 -3.16796 -0.4988701
000090 ff 43 06 40 57 e5 06 40 9d 66 52 c0 a4 3d 88 be
       2.0979002 2.1077478 -3.287513 -0.26609528
0000a0 5c 3c fd be ae ac 7b 40 fb 37 42 40 65 83 00 c0
       -0.49460113 3.9324145 3.0346668 -2.0080197
0000b0 13 90 c3 bf 68 a8 36 40 4d 48 ad be 8b 4e 5d 40
       -1.5278343 2.8540287 -0.33844224 3.457919
0000c0 81 af 19 c0 0c f2 0f c0 c7 06 4c 3f c0 96 3f 40
       -2.401337 -2.2491484 0.7969784 2.993576
0000d0 44 75 0e 40 92 29 03 40 82 dd f3 be 84 4b 31 40
       2.2259073 2.0494123 -0.47629935 2.770234
0000e0 da 0c ec 3f 35 c5 7c 40 52 af a2 3f 0e d4 bf bd
       1.8441422 3.9495366 1.2709754 -0.09366618
0000f0 c6 d2 33 40 b1 eb 23 40 9b a2 8e be d6 ee 01 c0
       2.8097396 2.5612605 -0.27858433 -2.0302024

fc2.weight f4 [64, 64]
000000 6c e7 3b bc bf 05 6d 3b b3 89 8b bc 03 68 13 be
       -0.0114687495 0.0036166755 -0.017033434 -0.14395146
000010 e3 09 37 bd ac a6 d7 bd 12 16 0d 3c ea d4 3b be
       -0.044687163 -0.10529837 0.008611219 -0.18342939
000020 05 ef 74 3c 3a 4b 49 bd 6c 7e 72 bd e4 3a 48 3d
       0.014949565 -0.049144007 -0.059202597 0.048884287
000030 6e 9f 2e 3c 43 8a 52 3d 38 cb 13 be c5 a2 0a be
       0.010658128 0.051401388 -0.1443299 -0.13538654
000040 41 39 90 bd af 31 88 bd e8 1f 7a 3d 04 81 b4 3d
       -0.0704217 -0.066501014 0.061065584 0.0881367
000050 a8 8a 39 3d 7e 73 29 3d f1 79 d9 3c 28 ea 21 bd
       0.04529825 0.041369908 0.026547404 -0.03952995
000060 16 44 aa bd 55 e9 98 3d 47 ef 07 bd 4b f9 06 be
       -0.083137676 0.074663796 -0.033187177 -0.13181035
000070 a4 d6 ac 3d 7a cb 3b 3d 6c e3 34 3d c8 5f e4 3c
       0.08439377 0.045848347 0.0441622 0.027877703
000080 94 cb f7 3d eb c7 5a bd 2f 8d 68 bc 83 84 f4 bc
       0.12099376 -0.053413313 -0.014193817 -0.029848343
000090 57 63 f5 bd 9b a6 74 3c c9 9a b1 3d e8 86 c5 3c
       -0.11981838 0.0149323 0.08672101 0.02411218
0000a0 3c f6 ff 3c b6 4f 08 be c3 ff 3c 3d 1f 4f 03 bd
       0.031245343 -0.13311657 0.04614235 -0.032057878
0000b0 9b 77 84 bd 7f cf b3 bd cc 23 0a 3d 9c 1c 04 be
       -0.064681254 -0.08779811 0.033725545 -0.12901539
0000c0 06 86 f5 bd 57 c5 bf 3d 84 ae 8b 3c 89 5e 9b bc
       -0.119884536 0.093638115 0.017050989 -0.018965976
0000d0 b4 9d d3 bd 87 d3 da bd 40 35 89 bd 1c be 66 3d
       -0.10332814 -0.10684877 -0.0669961 0.056333646
0000e0 1f eb 10 bd 2b 10 ab 3c 00 15 a8 bd 7a 9e b1 bd
       -0.03538048 0.020881733 -0.082071304 -0.08672805
0000f0 cf bb 61 bd dc 1a b1 bd 4c 83 84 bd b7 d8 69 bd
       -0.05511075 -0.08647701 -0.064703554 -0.05709144
000100 96 b8 87 3d 06 d2 dc 3d 5e 2b 36 bd 4c e9 cf bd
       0.06627004 0.10782246 -0.044474952 -0.1015192
000110 41 8b 0a bd bb ea e1 3b 46 d9 99 bd 18 63 12 bd
       -0.03382421 0.006894437 -0.07512145 -0.035739034
000120 41 bf ba 3d 80 00 d5 3a 3d e0 67 3c 78 5e 09 bd
       0.0911851 0.0016250759 0.014152584 -0.033537358
000130 db 1a 20 3d 94 3e e3 bc 6e 35 6c bc 14 6a 98 3d
       0.03908811 -0.0277398 -0.0144170355 0.07442108
000140 57 bc 41 3d f6 61 a4 bd 04 0f dc 3d 6a a8 8b bd
       0.047298755 -0.08026497 0.107450515 -0.06819232
000150 4f 38 66 bd 3f 20 87 bc de 42 d2 bc 14 d5 b0 bd
       -0.056206044 -0.016494868 -0.02566665 -0.086343914
000160 d9 ff b9 bd fc c3 b4 3d 72 d3 a7 bc c8 0d f1 3c
       -0.09082002 0.088264436 -0.020486567 0.029425517
000170 e4 e3 31 3d f0 9f 9b 3c b2 52 b8 bd 46 97 f9 3d
       0.043430224 0.018997163 -0.09000148 0.12187056
000180 93 98 a9 3d a1 88 56 3d b8 90 54 3c 0c 7d e8 bd
       0.08281054 0.052376393 0.012973957 -0.11351976
000190 0d fc aa bd d0 d1 fa bd 00 d9 d8 ba ec 5f 00 3d
       -0.08348856 -0.1224705 -0.0016544163 0.03134148
0001a0 46 91 ed 3d 20 00 b8 bc 52 bf 2c 3c 32 65 e7 3d
       0.11599974 -0.022460997 0.010543661 0.11298598
0001b0 94 a5 f5 bd 27 bf 49 bd 78 80 13 bd ed 5e 5b 3d
       -0.11994472 -0.049254563 -0.03601119 0.053557325
0001c0 8a 6a ea bd fe 58 78 bd 08 9d a5 bd 49 ab af bc
       -0.11446102 -0.060631745 -0.08086592 -0.02144398
0001d0 c0 d0 a7 3b 8c 58 6d 3d bc 7c 68 bd 73 4a a9 bd
       0.0051213205 0.057945773 -0.05675958 -0.08266153
0001e0 97 e1 c0 3c 8e 2f f5 bd f5 ab 63 bd 89 76 68 3c
       0.02354507 -0.11971961 -0.055583913 0.014188417
0001f0 5a bf b3 bd 90 df dd bd 40 68 e5 bd 8a 16 99 bd
       -0.08776732 -0.10833657 -0.11201525 -0.07475002
000200 9e 16 06 be 0b 6f bb bd 3f 60 2f 3d c5 b6 86 bd
       -0.13094565 -0.09152039 0.042816397 -0.06577829
000210 2e bc a1 bd db e8 c4 3d a3 5a ec bd 56 f0 7c 3d
       -0.078972206 0.09614726 -0.11540725 0.06175264
000220 a5 96 79 bd d3 ef 83 bd d4 52 ec 3d b9 c2 6e 3b
       -0.06093468 -0.06442227 0.11539236 0.0036431982
000230 fb f7 aa bd 3d 39 d1 bd 5a 7d e1 3d e9 7e 1f 3d
       -0.0834808 -0.102159955 0.11010237 0.03893939
000240 0c 25 64 bd 72 70 e3 bd 08 28 e2 bd 43 a4 15 bc
       -0.055699393 -0.111054316 -0.110427916 -0.009133401
000250 e0 d6 16 3d ba e4 83 bc 28 f8 71 3d 50 19 d0 3d
       0.036826015 -0.016100276 0.05907455 0.10161078
000260 d3 05 5c bb d4 6c 84 3d e0 12 a7 3c 0d 3c 23 bd
       -0.0033572807 0.0646607 0.020394742 -0.03985219
000270 ac 6d f5 bd 73 6c 15 be c4 27 d4 bd 7c 39 bc 3d
       -0.11983809 -0.14592151 -0.10359147 0.09190652
000280 d6 6c 53 3c d9 f6 7d 3c f9 16 d8 bd 9a 56 c8 bd
       0.0129043665 0.015500748 -0.10551257 -0.09782143
000290 2c c2 b3 bd 31 e5 89 3c 99 98 34 3c fa 27 be bd
       -0.0877727 0.01683292 0.01102271 -0.09284969
0002a0 c0 11 82 3b a5 3e c2 3c 1d cf e3 bd 94 03 22 bd
       0.003969401 0.023711512 -0.11123488 -0.039554194
0002b0 3c 88 20 be d7 f6 d2 3b 66 5c a5 bd a8 5c 08 be
       -0.1567697 0.006438117 -0.08074264 -0.13316596
0002c0 cf f1 f7 bc 1b ea 82 bd a6 46 9a bd dd a9 64 bd
       -0.03026667 -0.06392308 -0.07533006 -0.055826057
0002d0 39 91 fb 3d de b2 06 be b4 ad b4 bd 0d 73 ac 3d
       0.122835584 -0.1315417 -0.08822194 0.08420382
0002e0 81 34 08 3d bd e7 85 3d 53 39 3d bd 24 ed 33 3d
       0.033253197 0.06538341 -0.046197247 0.043927327
0002f0 a9 cd 0a bd 5c 3d 33 bd 47 63 e6 bd 4c 04 a3 bd
       -0.03388754 -0.04375969 -0.112494044 -0.07959804
000300 98 75 eb 3c 8a 38 02 be b6 2b d3 3e de f6 69 3f
       0.028742597 -0.1271688 0.41244286 0.91392314
000310 a6 f1 d3 be 12 26 cb 3f 70 ce 9b 3e 99 a6 03 40
       -0.413953 1.5870993 0.30430937 2.0570433
000320 15 b8 bd bd a9 e4 d2 3d de a8 5a 3f a0 d4 01 40
       -0.092636265 0.1029752 0.8541392 2.0286026
000330 a6 12 c4 3d 66 99 b8 bd ab e1 7e 3e 45 0a e4 bd
       0.095738694 -0.090136334 0.24890773 -0.11134771
000340 ee 01 4a 3f d1 17 49 be b8 b4 c2 3c 0c 76 82 be
       0.78909194 -0.19637991 0.023767814 -0.25480688
000350 25 b1 58 be 07 e6 97 3e 25 12 f5 3d 1a 5a b7 3d
       -0.21161325 0.29667684 0.119663514 0.089527324
000360 68 45 82 be ca cd 9c 3e 18 b6 0b 3d db 3e af be
       -0.25443578 0.30625755 0.034109205 -0.34227642
000370 00 c4 31 bd 06 54 1d bf 60 db 40 bd 67 1a 70 3d
       -0.04339981 -0.61456335 -0.047084212 0.05861893
000380 34 77 38 bd 9e eb 49 bd bd 47 25 3e 7e c7 e4 3d
       -0.045035556 -0.049296968 0.16140647 0.111708626
000390 ff 91 8d bd 81 43 8a 3d 1a 70 f0 bc 90 32 e0 bc
       -0.06912612 0.067511566 -0.02935033 -0.02736786
0003a0 00 0a ba 3c 63 e3 1a 3d e4 42 5f 3e 78 87 b4 3d
       0.022709846 0.03781451 0.2180286 0.08814901
0003b0 80 b5 7b be d2 cd 91 3c 8c b2 33 3d ac 06 ce 3d
       -0.24580956 0.017798338 0.043871447 0.10059866
0003c0 ed 2a 75 bf 41 1f 93 3c 09 15 d3 3d a1 0e a5 bd
       -0.95768625 0.017959239 0.103067465 -0.08059431
0003d0 80 93 e1 3d 67 e5 c2 3c ea 6a df 3d 48 ce 08 bc
       0.110144615 0.023791028 0.10909064 -0.0083499625
0003e0 ae 56 9b 3b cb f5 cf 3f c3 65 1c be 72 eb 8c 3d
       0.0047405576 1.6246885 -0.15273194 0.06880845
0003f0 cf e1 03 3f 36 fa c7 bd d8 4d 6e 3d e0 8d e7 bd
       0.5151643 -0.09764521 0.058179706 -0.113063574

fc2.bias f4 [64]
000000 e5 b8 c9 bd 61 90 ba 3d c3 c8 83 3d 99 12 08 3f
       -0.09849719 0.09109569 0.06434777 0.5315338
000010 c2 71 d4 bd 70 59 22 3e 5e 83 ec bd 89 d7 fb 3d
       -0.1037326 0.1585443 -0.11548494 0.122969694
000020 e9 80 3c 3e 40 9b 49 bf a2 d9 ea 3f f3 9a 15 40
       0.1840855 -0.7875252 1.8347666 2.3375823
000030 86 ad d4 3f 16 6f 90 bd 1e 8f 9e 3f d0 70 a7 3f
       1.6615455 -0.07052438 1.2387426 1.3081303
000040 ea 8e 67 3f 39 7e b0 bd 6d 81 d7 3e dc c5 0d 40
       0.90452445 -0.08617825 0.42090932 2.2152014
000050 c0 4f a7 bc e9 fe 9d 3f 01 dc 05 40 4d e7 e8 3f
       -0.02042377 1.2343417 2.091553 1.8195587
000060 33 03 6e 3f 8f 0c 33 bb c9 95 e8 bd e7 fe d0 3f
       0.9297363 -0.0027320718 -0.11356694 1.632779
000070 e6 25 05 3d fb 6b f3 bd 0a 72 dc 3f 22 42 82 3a
       0.032506846 -0.1188583 1.7222302 0.0009937922
000080 e6 b8 ec 3f 9f 7a 1d 40 01 ff 7f bf ef 5b 01 40
       1.8493927 2.4606092 -0.9999848 2.0212362
000090 f2 90 14 be ac b8 3c 3f af 21 fd 3f 28 79 15 3f
       -0.14508417 0.73719287 1.9775904 0.58387995
0000a0 59 06 b0 3f 2e 0a 11 bd 58 69 6e 3d b0 6b 8f bd
       1.3751937 -0.0354101 0.058205932 -0.07002962
0000b0 e9 e1 a1 3f c4 21 1b bf c4 b5 9c 3f b5 6a f7 bd
       1.2647067 -0.605984 1.224297 -0.120808996
0000c0 59 e5 a5 3c 11 eb d1 3c 99 af 66 3c 48 f0 ca 3f
       0.020250963 0.025624784 0.014079952 1.5854578
0000d0 d4 e7 82 3f 71 27 f5 3f 0c fe cc bd 76 9c e5 3f
       1.0226998 1.9152662 -0.10009393 1.7938373
0000e0 8a f2 24 3c 5f 78 f2 3e 13 24 7e 3f ae b8 29 3d
       0.010067591 0.4735746 0.99273795 0.04143589
0000f0 f1 db 08 40 98 4a ec 3d 19 9c f1 3f bd 06 94 bd
       2.1384242 0.11537665 1.8875762 -0.07227848

fc3.weight f4 [20, 64]
000000 df 3e 0a 3c 70 f5 27 3c a5 59 65 bc 51 b3 5e 3f
       0.008437841 0.010251388 -0.013998424 0.86992365
000010 1f 61 30 3d 7e 58 ea 3c 08 d2 cf bd 88 d9 4c 3d
       0.043061372 0.02860665 -0.10147482 0.05001214
000020 8a 2b cc 3e 57 16 91 be b1 0f 5f 3f 9c 55 e1 bf
       0.39876968 -0.28337356 0.8713332 -1.7604251
000030 f9 df fb 3e 80 bf 10 bd b6 e6 46 3e 06 66 cd bf
       0.49194315 -0.03533888 0.19423947 -1.604676
000040 09 90 11 3e ef 69 3a 3d 14 39 b5 3e 1e 39 6b 3f
       0.14215101 0.045511182 0.3539511 0.9188403
000050 9a c9 ef 3d 00 10 cd 3e ba 58 05 3f 38 29 a0 3e
       0.11708374 0.4005127 0.5208851 0.31281447
000060 7d c5 8f 3b 2e 6b 10 3e fc 8f 04 be 63 17 71 3e
       0.004387556 0.14103386 -0.1294555 0.23544078
000070 89 85 cd 3d 8b 81 3f 3d 65 cb e0 3e 00 73 b0 3b
       0.100352354 0.0467544 0.43905178 0.005384803
000080 02 e9 bb 3e 39 dd 24 3f 76 cb e7 be c3 74 02 3f
       0.36701208 0.6440006 -0.45272416 0.50959414
000090 5b 10 50 bd b2 0c 4b 3d 16 0a 16 3f 4a b7 0f 3f
       -0.050796848 0.049572654 0.5860914 0.5613905
0000a0 46 62 2b bf 77 01 26 bd 23 3c 03 be 6c e0 36 bd
       -0.6694683 -0.04052874 -0.12815909 -0.04464762
0000b0 c6 74 06 3e b3 15 94 be f0 65 d7 3e 28 3b dc bb
       0.13130483 -0.28922805 0.4206996 -0.006720919
0000c0 bb 33 94 3d 87 65 26 3d 25 e7 b4 3d ee c7 e4 3e
       0.07236429 0.040624168 0.0883315 0.44683784
0000d0 96 b4 16 3e 31 23 1c 3f 4c 2c 21 3d 0f 2b 9c 3e
       0.14717326 0.609912 0.039348885 0.305016
0000e0 d2 07 aa 3d 5b e8 8f 3c 76 d7 3b 3d 28 fa c4 be
       0.08302273 0.01756685 0.045859776 -0.38472104
0000f0 e4 3a 06 3f 26 a9 c5 bd 07 a6 f7 3e 2f 4d b1 bd
       0.5243361 -0.09651403 0.48368856 -0.086573
000100 56 54 ac bb 20 fd 2c 3c ed 6f d1 bd af b8 b4 be
       -0.005259077 0.010558397 -0.10226426 -0.35297152
000110 8e d3 94 bd 1b 88 ef bc a7 a7 ad 3d fc 2f 89 3d
       -0.07266913 -0.029239705 0.08479243 0.066986054
000120 bd 0e dc 3e 7b d9 34 be c0 cf 92 3e 3b ba 81 bf
       0.42979994 -0.17661087 0.28674126 -1.0134958
000130 1d cb e6 3e a0 07 96 3c 2b 4f c0 3d c6 af 31 bf
       0.45076838 0.018314183 0.093901 -0.69408834
000140 03 b5 e4 bd 72 09 8e bd ed cf a8 be ac 95 29 3f
       -0.11167338 -0.06935395 -0.32971135 0.66244006
000150 7e 52 bd bd 9f f2 cc 3e a9 a1 44 3e 79 62 8e 3e
       -0.0924425 0.40028855 0.19202293 0.27809504
000160 ee 6e ae 3d ae af 0f 3d 1e 5c 53 bd ee b1 9d 3e
       0.08517252 0.03507965 -0.05160152 0.30799812
000170 a4 52 6a bd a0 88 e4 3c 94 74 ac 3e b8 02 32 bd
       -0.05720772 0.02789718 0.33682692 -0.043459624
000180 ec fd 19 3e a9 b7 e0 3e 3c 8f 04 be 71 40 9a 3e
       0.1503827 0.43890122 -0.12945265 0.3012729
000190 e9 33 b8 bc ab 49 19 be f0 37 f9 3e 2e e4 6c 3d
       -0.02248569 -0.14969508 0.4867549 0.057834797
0001a0 74 23 ca be ad 7d c1 bd 8a a7 83 bd 10 ab 21 3c
       -0.39480174 -0.09447799 -0.0642844 0.009867445
0001b0 ec bd 65 3e fd 70 71 be 80 8d d5 3e e5 33 bf bd
       0.2243573 -0.23578258 0.41709518 -0.0933607
0001c0 cd c4 7a 3d 7e a9 f4 3d 1e 89 b6 bc 4d 8e 19 3f
       0.06122284 0.119463906 -0.02228218 0.5998276
0001d0 a2 c0 06 3e f8 94 b2 3d 84 86 1e 3d 4e bb 03 3f
       0.13159421 0.0871982 0.038702503 0.5145768
0001e0 0c 83 12 3b bb b2 af 3e d9 ae 06 3f 14 a2 dd 3d
       0.0022355942 0.34316048 0.52610546 0.108219296
0001f0 d6 14 22 3e f6 86 29 3e 40 0a 98 3e 49 46 ef 3d
       0.15828261 0.1655539 0.2969532 0.11683328
000200 bb 0c de 3d 91 56 5f bc ee 7f 1c 3c 7c 95 57 be
       0.10842272 -0.013631479 0.009551985 -0.21053118
000210 f9 a1 81 3d 3d ce 48 3e 04 8a f4 3d 40 d9 cd bc
       0.06329722 0.19609924 0.11940387 -0.025128007
000220 2f 46 18 3e 53 bf 52 be 0f 57 38 3e 16 9c 6e bf
       0.14870523 -0.20580797 0.1800196 -0.9320692
000230 57 f5 20 3f 20 5c 91 3d 06 3a 50 be 12 bf 3c bf
       0.6287436 0.070976496 -0.20334634 -0.7372905
000240 ea 7c 17 3d f4 f3 00 3d 33 e2 2f be 92 2d 0e 3f
       0.03698436 0.03148265 -0.17176132 0.55538285
000250 8a cd b4 bd be 4d c9 3e bb 18 59 3e 79 76 87 3e
       -0.08828266 0.39317125 0.2120084 0.26457575
000260 af 7a 12 be cd 80 0f bd 0e 68 b5 3d 0e 17 1b 3e
       -0.14304613 -0.035034943 0.088577375 0.15145513
000270 b0 a9 7f bd 29 8d 2c bd 85 71 a1 3e 24 d4 b5 bd
       -0.062417686 -0.04212681 0.3153192 -0.08878353
000280 b8 50 a0 3e c8 5f ee 3e d7 09 1a be d4 63 6a 3e
       0.31311584 0.4655745 -0.15042816 0.22889644
000290 72 3f 32 bd 09 db 87 be aa 6c dc 3e 28 67 38 bc
       -0.043517537 -0.26534298 0.43051654 -0.011255063
0002a0 ec ce 99 be 55 a6 a4 bd 61 cf 7c bd 94 bb 4c bd
       -0.3004068 -0.08039538 -0.06172121 -0.049983576
0002b0 f1 2e 9e 3e d7 f0 ff bc 2c b8 d3 3e 7c 01 eb 3c
       0.30895188 -0.031242771 0.4135145 0.028687231
0002c0 6e ca f1 bd d9 99 da bb df a1 10 3d 4b 55 e2 3e
       -0.118061885 -0.006671172 0.035310622 0.44205698
0002d0 3e 70 b9 3e 04 7b 4f 3e 50 7f 64 bc 8d 53 ad 3e
       0.36218446 0.2026177 -0.013946369 0.33852807
0002e0 fc 4a 9d bd db 90 89 3e 39 0a 6d 3d 2d 14 18 3e
       -0.07680318 0.26868328 0.057871077 0.14851446
0002f0 50 15 69 3e 98 ad 97 3d a1 6a 99 3e 63 9a 3a bd
       0.22762036 0.07406157 0.29964164 -0.04555739
000300 fb 7b 20 be c2 4b cf 3d 08 3c 12 bc bc 86 9f be
       -0.15672295 0.101218715 -0.008925445 -0.31157482
000310 e0 73 e5 3c 69 29 c5 3e 97 fd 2d 3d cc cf c6 bd
       0.028009355 0.38508156 0.04247817 -0.09707603
000320 05 2d d8 3d 1b 9e 4f be 0a a0 a0 3e e3 95 4d bf
       0.10555462 -0.20275156 0.313721 -0.80306834
000330 c3 cb 05 3f d2 af eb bd ab e1 08 be c5 34 2d bf
       0.5226404 -0.115081444 -0.13367335 -0.67658645
000340 47 45 08 3c 25 14 f9 bd 7b a9 b2 be 1f b9 18 3f
       0.008317298 -0.121620454 -0.34894928 0.5965747
000350 fe 3a b6 bd 17 9b a9 3e d2 72 42 3e fd af 81 3e
       -0.088979706 0.33126137 0.18989113 0.2532958
000360 fc d2 bc bd 66 ac 6e 3d 23 94 f4 3d af a9 2f 3e
       -0.092199296 0.05826988 0.11942317 0.17154573
000370 9e a5 b1 bd 66 5f 96 3d 7d e6 82 3e 0e 44 c9 bd
       -0.08674167 0.073424146 0.25566474 -0.098274335
000380 57 60 33 3e a6 ad 1a 3f e5 50 26 be d6 aa 74 3e
       0.1751722 0.60421216 -0.16241796 0.23893294
000390 8e 53 05 3c 26 8b e9 bd d9 cd 09 3f a5 c0 84 be
       0.008137597 -0.114034936 0.53829724 -0.25928226
0003a0 e6 39 3c be 39 c9 cb bd 65 72 bf bd 6c c3 4e 3d
       -0.18381462 -0.099504896 -0.09347991 0.050479338
0003b0 db e7 9e 3e ab e0 1e be 94 1e be 3e e7 70 91 3d
       0.31036267 -0.15515392 0.37132704 0.071016125
0003c0 c8 d5 31 3b 5d 8b a6 bd 4e 3c 90 3d 49 df b8 3e
       0.002713548 -0.0813205 0.07042752 0.36107853
0003d0 33 92 2d 3e 5a 2a bc 3d 3a f7 d8 bd 41 b7 c2 3e
       0.16950302 0.091877654 -0.1059403 0.38030437
0003e0 90 99 d6 3c 55 56 19 be 43 92 d9 3d 72 e4 67 3e
       0.026196271 -0.1497434 0.106236 0.22645739
0003f0 c9 83 6d 3e 50 8b 20 3e a9 ed be 3d d6 71 08 3e
       0.23194803 0.15678144 0.09322674 0.13324675

fc3.bias f4 [20]
000000 1f 40 dd 3f 92 cb 30 3f 86 7c fb 3e 10 b0 fd 3e
       1.7285193 0.69060624 0.4911844 0.49548388
000010 ba 5b ea 3e 74 12 b6 3e 84 98 02 3f 17 58 a6 3e
       0.45773107 0.35560954 0.5101397 0.32489082
000020 9e 43 8f 3e e3 42 a3 3e f4 bf 36 3e a2 b6 7a 3e
       0.27981275 0.31886968 0.17846662 0.24483731
000030 38 3b a1 3c 42 31 49 bd 13 78 4c be 52 a8 08 be
       0.019681558 -0.04911924 -0.1996768 -0.13345459
000040 8b 19 fe bd 9c f7 98 be cb 1b 54 be 46 b5 fa be
       -0.12407216 -0.2987641 -0.20713727 -0.48966426
