models/dqn_agent_firm_1_final.pth (torch, 437746 bytes, 32 tensors)

fc1.weight f4 [128, 3]
-0.48337483 -0.41624203 0.21586132 -0.20434885 -0.56569797 0.0719964 0.17682076 0.68797135
0.06847103 0.14931287 -0.2377931 -0.018459694 -0.34296086 -1.1742225 0.08775924 0.068362325
-0.8886572 0.03660531 -0.12015567 -0.35918066 0.0042268396 -0.9955605 -0.12483977 0.056683224
0.34701893 -0.64597964 0.0059334734 -0.26916215 0.45415482 0.004991569 0.23281364 0.30413616
-0.031865906 -0.04063284 -1.9881884 0.031371534 -0.23603882 -0.49323446 -0.28883177 -0.33144355
-1.1177762 0.12027641 0.10767463 -0.38515824 0.08730922 -0.22634144 -0.33629173 -0.12885946
0.22067404 0.40123236 -0.03345927 -0.091074534 -0.036564723 -0.4648027 0.41293553 -0.5579255
-0.56719494 0.49994692 0.5727397 -0.07231782 -0.11683753 -0.058149297 -0.007176377 0.31085506
0.2951633 -0.19301191 -0.43450618 0.9616422 -0.003799561 0.36314845 0.49628395 -0.040982395
0.19930674 0.19931652 -0.031232692 0.30300376 -0.56800824 -0.15659225 -0.848327 -1.976908
0.054022357 0.005297739 -0.31904238 0.0484895 -1.0225213 -0.9876955 0.11496935 -0.2484863
-1.1776857 0.15995671 -0.46718958 -0.41621694 -0.5720361 -1.1883298 -1.2973502 0.045656722
-0.25070658 0.023668911 -0.46215495 0.13517739 -0.21540153 0.18137738 0.21842925 -0.053367004
-0.018691929 -0.35314667 -0.26018226 -0.50383943 0.7585918 0.62098736 -0.11951743 -0.16002542
-0.062361795 0.025376966 0.0772075 0.59905195 -0.005129103 0.0157268 -0.0037870947 -0.112875834
-0.28254458 -0.091699295 -0.03170564 -0.137499 0.16666546 -0.033702083 -0.045338944 -0.5543415
-0.17608064 0.1224075 -0.056258667 0.1288852 -0.18151912 0.21743016 0.24010947 -0.44271827
0.40920588 0.027836818 0.4904854 0.12838878 -0.444059 0.5501598 -0.27284548 -0.10252309
-0.14744593 0.093791015 -0.020533914 0.526475 0.082069695 0.33668864 0.18708871 0.5264311
0.03498595 0.10720751 -1.2981381 0.015408027 -0.49369437 -0.047913156 -0.11933973 0.23984255
-1.2421875 0.16263239 0.41383967 -0.52706414 0.061148886 -0.36272153 0.51159 -0.03924822
-0.49881607 -0.44024172 -0.46564144 -0.12603475 0.97898287 0.024132578 -0.43217865 0.18734257
-0.04838251 -0.2429107 0.47398075 -0.07776725 -0.17260124 -0.4534706 -0.26963842 0.040317573
-0.5325898 -0.5273173 -0.07733024 -0.13857862 -0.002002278 -0.55681026 -0.3716844 -0.2047908
-0.2833727 0.92667425 0.012640504 0.29606488 -0.30799055 -0.2854359 0.0061166026 0.32565168
-0.039106067 0.12551516 -0.41113862 -0.22977005 0.8998858 0.011330993 -0.03485918 0.109108105
0.77338254 0.017564382 0.60670453 -0.39986575 -0.36478376 -0.48462158 -0.054436922 -0.23980165
-0.11580999 -0.007407178 -0.01801061 -1.0806276 0.05820691 0.038071457 -0.40750527 0.16958512
-0.15635486 -0.22244689 -0.2807161 -0.5718374 0.5105339 -0.101092614 -0.100210816 0.20405264
-0.18788165 -0.004906961 0.08867149 -0.19771877 -0.45068902 -0.48546454 -0.64427394 0.14279674
0.494244 0.20990303 0.042983662 0.46794298 0.22955067 -0.038547583 0.26273927 -0.27332786
-0.23868519 0.2345654 -0.5569515 -0.2864275 -0.004659011 -0.3474442 0.22162 0.18496305
00000000: e87c f7be ad1d d5be c00a 5d3e d340 51be
00000010: 95d1 10bf d972 933d 8010 353e e41e 303f
00000020: 8a3a 8c3d 79e5 183e 0980 73be c938 97bc
00000030: 9198 afbe ec4c 96bf 1ebb b33d 8c01 8c3d
00000040: 0a7f 63bf 73ef 153d 2d14 f6bd 87e6 b7be
00000050: 4d81 8a3b 0edd 7ebf feab ffbd ab2c 683d
00000060: 77ac b13e ec5e 25bf 956d c23b 9fcf 89be
00000070: fb86 e83e 5190 a33b b366 6e3e bcb7 9b3e
00000080: d385 02bd 9f6e 26bd f57c febf 707f 003d
00000090: 29b4 71be 3a89 fcbe c2e1 93be f8b2 a9be
000000a0: 4a13 8fbf 7a53 f63d 8484 dc3d 7633 c5be
000000b0: 2dcf b23d 0dc6 67be 6e2e acbe bcf3 03be
000000c0: 60f8 613e 546e cd3e 960c 09bd 4985 babd
000000d0: e4c4 15bd 9ffa edbe 496c d33e 35d4 0ebf
000000e0: b033 11bf 0bf9 ff3e 129f 123f 5d1b 94bd
000000f0: 8448 efbd f52d 6ebd d027 ebbb 6528 9f3e
00000100: a51f 973e eaa4 45be 9877 debe 2f2e 763f
00000110: 0e02 79bb 98ee b93e ee18 fe3e 28dd 27bd
00000120: 1117 4c3e a119 4c3e b4db ffbc 4f23 9b3e
00000130: fd68 11bf b859 20be f52b 59bf 520b fdbf
00000140: 8c46 5d3d a898 ad3b 8659 a3be ed9c 463d
00000150: fae1 82bf 9dd9 7cbf 0d75 eb3d 3173 7ebe
00000160: 68be 96bf b1cb 233e 7933 efbe 631a d5be
00000170: f570 12bf 311b 98bf 920f a6bf 8b02 3b3d
00000180: 9d5c 80be 4ee5 c13c 939f ecbe f16b 0a3e
00000190: 3892 5cbe feba 393e ebab 5f3e 5c97 5abd
000001a0: d11f 99bc a4cf b4be 9c36 85be 9ffb 00bf
000001b0: 1233 423f 07f9 1e3f 8ec5 f4bd b4dd 23be
000001c0: 156f 7fbd 5be3 cf3c f71e 9e3d 785b 193f
000001d0: 0912 a8bb 7dd5 803c e830 78bb 722b e7bd
000001e0: afa9 90be d7cc bbbd c6dd 01bd 8acc 0cbe
000001f0: 5aaa 2a3e 320b 0abd 54b5 39bd 53e9 0dbf
00000200: 7c4e 34be c9b0 fa3d 7d6f 66bd 7bfa 033e
00000210: 26e0 39be 03a6 5e3e 42df 753e f8ab e2be
00000220: 6f83 d13e 0a0a e43c e720 fb3e 5978 033e
00000230: b45b e3be 46d7 0c3f 67b2 8bbe a0f7 d1bd
00000240: 11fc 16be 8115 c03d bd36 a8bc 11c7 063f
00000250: 2814 a83d 7462 ac3e 2f94 3f3e 30c4 063f
00000260: 6d4d 0f3d 9c8f db3d 6429 a6bf f371 7c3c
00000270: 82c5 fcbe 9640 44bd 6368 f4bd 4999 753e
00000280: 0000 9fbf 1b89 263e cbe2 d33e aded 06bf
00000290: 4177 7a3d a3b6 b9be 90f7 023f bec2 20bd
000002a0: d264 ffbe 5d67 e1be 8e68 eebe 410f 01be
000002b0: 9f9e 7a3f afb1 c53c 8546 ddbe bbd6 3f3e
000002c0: bd2c 46bd 95bd 78be 9bad f23e 7044 9fbd
000002d0: 61be 30be 4c2d e8be 0c0e 8abe 0a24 253d
000002e0: ce57 08bf 44fe 06bf 515f 9ebd 8ee7 0dbe
000002f0: a738 03bb 1e8b 0ebf 6b4d bebe aeb4 51be
00000300: 3a16 91be 863a 6d3f 1e1a 4f3c d195 973e
00000310: f0b0 9dbe a724 92be c86d c83b d1bb a63e
00000320: af2d 20bd 0c87 003e c380 d2be d748 6bbe
00000330: ea5e 663f a1a5 393c 80c8 0ebd 1274 df3d
00000340: 66fc 453f 2ee3 8f3c fd50 1b3f 34bb ccbe
00000350: f0c4 babe 5220 f8be 40f9 5ebd 908e 75be
00000360: ca2d edbd eab7 f2bb fd8a 93bc 0152 8abf
00000370: 5e6a 6e3d d1f0 1b3d 88a4 d0be b9a7 2d3e
00000380: 7d1b 20be 1ec9 63be 05ba 8fbe f063 12bf
00000390: 5ab2 023f a509 cfbd 543b cdbd 2df3 503e
000003a0: 0c64 40be 93ca a0bb 6699 b53d ca76 4abe
000003b0: b6c0 e6be cf8e f8be 23ef 24bf 4f39 123e
000003c0: 8d0d fd3e d2f0 563e a30f 303d 3996 ef3e
000003d0: 550f 6b3e 12e4 1dbd c385 863e a1f1 8bbe
000003e0: e469 74be ea31 703e 6094 0ebf a0a6 92be
000003f0: 9eaa 98bb 35e4 b1be 5af0 623e f466 3d3e

fc1.bias f4 [128]
-1.5419208 -1.1960474 -2.3149786 1.2836168 -0.7326572 -0.7594382 -0.5466848 -1.3936907
-1.059425 3.7039962 3.4500825 1.028993 -0.35870874 0.287116 -0.28049883 -0.3716047
3.5777307 0.20974617 -0.21539241 1.6309105 3.8094108 1.6871198 -1.726864 3.4331794
3.464436 0.04528248 0.31882018 -1.2730951 0.09062845 1.0996168 0.1259626 -0.18999599
0.14322059 2.898249 2.6743197 0.21565484 1.3559631 2.9777968 -1.2729166 1.2461774
1.8638247 1.6527836 0.46458068 -2.4566267 -1.877694 2.5096579 1.0537978 -0.346849
1.7755527 -2.3670294 -2.508039 -0.8005374 0.3747053 -1.7268013 -1.8732038 0.09440086
0.10496228 -1.5110577 1.8728291 -0.5453056 -0.53921324 0.24203524 3.7866073 -0.5129377
-1.4330673 -0.24977267 2.5382943 0.15409365 0.6040744 -1.4226787 0.63128865 0.066881604
2.3285062 -1.3385787 0.7509318 -0.23989691 -0.33082774 2.8341093 -0.55029845 -1.6481171
-2.8504024 3.349463 -0.2623247 -0.15339768 -2.0058498 1.6152725 -0.50755537 -0.55904776
-0.3261715 0.28120136 0.7989058 1.5072448 -0.47778514 0.11242159 -2.8523176 -1.918263
1.8029927 1.5762843 3.7620056 -0.2540018 0.9548706 1.2867739 0.56438214 0.84866256
0.09731068 -0.24954706 -1.9938182 1.1562319 3.4913478 0.16324724 3.578162 2.641478
-0.31925952 1.3379143 0.06548286 -0.8071709 1.7138116 -1.3825231 -0.5514169 2.8508422
0.0047418713 2.3382344 -0.59388846 -1.6049249 1.4295106 0.19314717 2.5882914 1.8488662
00000000: a95d c5bf 1518 99bf 9c28 14c0 8e4d a43f
00000010: 6c8f 3bbf 8b6a 42bf 89f3 0bbf 7564 b2bf
00000020: 3d9b 87bf 460e 6d40 27ce 5c40 0bb6 833f
00000030: aca8 b7be de00 933e 8b9d 8fbe f942 bebe
00000040: 8af9 6440 b3c7 563e d48f 5cbe adc1 d03f
00000050: 63cd 7340 8bf3 d73f e109 ddbf 36b9 5b40
00000060: 52b9 5d40 1f7a 393d 663c a33e c8f4 a2bf
00000070: 699b b93d 3ec0 8c3f 57fc 003e 4f8e 42be
00000080: 6ba8 123e e97c 3940 0e28 2b40 9fd4 5c3e
00000090: 3390 ad3f 3994 3e40 eeee a2bf be82 9f3f
000000a0: cf91 ee3f 6a8e d33f 85dd ed3e 5f39 1dc0
000000b0: 4758 f0bf 3c9e 2040 d9e2 863f 3196 b1be
000000c0: 5045 e33f 697d 17c0 b683 20c0 05f0 4cbf
000000d0: 60d9 bf3e d307 ddbf 24c5 efbf 3d55 c13d
000000e0: 77f6 d63d 576a c1bf ddb8 ef3f 2699 0bbf
000000f0: e109 0abf 16d8 773e c657 7240 e34f 03bf
00000100: c06e b7bf 68c4 7fbe 6a73 2240 baca 1d3e
00000110: 9fa4 1a3f 561a b6bf 229c 213f 39f9 883d
00000120: 3f06 1540 8c56 abbf 113d 403f 89a7 75be
00000130: 4162 a9be 0c62 3540 5ce0 0cbf 80f5 d2bf
00000140: fe6c 36c0 9a5d 5640 6c4f 86be 4814 1dbe
00000150: d85f 00c0 40c1 ce3f 26ef 01bf c11d 0fbf
00000160: f3ff a6be a0f9 8f3e 1785 4c3f 66ed c03f
00000170: 41a0 f4be 4a3d e63d 5f8c 36c0 a489 f5bf
00000180: 77c8 e63f afc3 c93f b3c4 7040 860c 82be
00000190: 6672 743f 02b5 a43f 597b 103f f341 593f
000001a0: d24a c73d 4489 7fbe 6f35 ffbf 68ff 933f
000001b0: 3e72 5f40 492a 273e 9b00 6540 fa0d 2940
000001c0: fc75 a3be c740 ab3f e11b 863d c1a2 4ebf
000001d0: 2e5e db3f 84f6 b0bf a829 0dbf 3374 3640
000001e0: b361 9b3b a2a5 1540 1309 18bf 2e6e cdbf
000001f0: 34fa b63f 5fc8 453e 91a6 2540 a6a7 ec3f

fc2.weight f4 [128, 128]
-0.06786947 0.04881914 0.050189853 0.028307963 -0.06889439 0.012096017 -0.022820186 -0.06673444
0.036961906 -0.027211415 -0.083160356 -0.04014289 -0.018640075 0.00074022444 -0.08186336 -0.052207973
-0.09152964 0.07686878 -0.018580839 0.03607274 -0.0114821885 -0.037810504 0.05330093 -0.10965551
0.013759497 0.024062762 0.024687285 -0.08693877 -0.0991613 -0.051161923 0.03171599 -0.058849115
-0.076686636 0.024105882 -0.018442467 -0.08575903 -0.010180401 0.018955555 -0.10190714 -0.052503187
0.03585413 -0.037249684 0.006507821 -0.109691955 0.02529805 -0.09805965 -0.026849713 -0.052321255
-0.09616133 0.043650363 0.04277173 -0.063879125 -0.00980028 -0.006044359 0.056553353 -0.08908289
-0.037223283 -0.051525634 0.024544492 0.0047660214 0.04618834 0.018481182 -0.0011992796 -0.07782043
-0.02936104 -0.08037076 -0.050639223 0.045844477 -0.10099868 -0.103976704 -0.038794614 0.012967121
-0.013367082 -0.005764628 0.021266697 -0.041858815 0.07627463 -0.111864 -0.02575913 0.03948245
0.015593483 0.023842504 0.020431643 -0.018568216 -0.09953635 -0.039157268 0.052565433 -0.039410908
-0.07256977 -0.0587732 -0.095081694 -0.08105716 -0.04231748 -0.054653365 -0.039605264 0.040192544
-0.07920792 0.04901777 0.043501448 0.07877583 -0.03021419 -0.10628311 0.0035114435 0.027015911
-0.0040839664 -0.015351947 0.0064589465 -0.06164939 -0.08539413 0.037831116 0.04720351 -0.03369756
-0.026240744 -0.00471622 -0.0499855 -0.022369368 -0.11035652 0.04975725 -0.012501904 -0.008374771
-0.0169155 -0.10992609 -0.04243388 0.042960055 0.031747095 -0.07399007 0.0013062733 -0.018759605
0.06434699 0.10373131 -0.014514443 -0.05854778 0.28360808 0.1064612 0.0007465936 0.18975587
0.09638119 0.06970084 -0.2118421 0.26406464 -0.011461835 0.18614708 0.07636057 -0.045073155
-0.24871854 0.07850285 -0.052404296 -0.23976536 -0.0447043 0.45373183 0.1469919 -0.29557112
-0.19438222 0.05925499 0.5638705 0.18219683 0.1856069 0.12486652 0.035034273 0.3612969
-0.12407984 0.14678922 -0.28855535 -0.018087078 0.123835355 0.06159474 0.37141734 -0.13191436
-0.11745915 0.10399147 0.08781592 0.15021747 0.17279007 -0.109412484 -0.07198458 -0.3742195
0.04669653 0.08258294 0.29022232 0.2485304 0.042540975 0.41221532 0.1458394 -0.0021100384
0.03566187 -0.36093366 -0.123450115 0.013189017 0.06472347 -0.036905307 0.25847477 0.052711546
-0.20199586 0.0098113725 -0.4179211 0.042773075 0.1974332 -0.17382872 0.1896596 0.07620088
0.033508874 0.26642737 -0.014502246 0.011380281 -0.26234165 -0.005458469 0.08686728 0.1850691
0.15957348 -0.2576842 -0.05348488 -0.037831526 0.15748766 0.13474596 0.45544836 0.17818743
0.06293569 -0.0023778935 0.016966088 -0.41213417 0.19199759 -0.04995626 0.14243948 0.16803585
-0.05041891 -0.053116255 -0.04051117 -0.06443996 0.6629248 -0.0627369 -0.072859354 0.39665902
-0.0049724956 -0.034510113 0.06755864 -0.09658369 -0.08527983 -0.07683447 -0.1986958 0.037430152
-0.19656909 0.17574897 -0.0031705599 0.18324742 0.09913755 0.026263524 -0.14894822 0.058272947
0.04820242 0.07801309 0.13487533 0.10134699 -0.1333979 -0.050896786 -0.37138256 0.08165887
00000000: 26ff 8abd 94f6 473d e093 4d3d 1ae6 e73c
00000010: 8018 8dbd 5f2e 463c 66f1 babc 11ac 88bd
00000020: 5e65 173d 79ea debc fa4f aabd df6c 24bd
00000030: 12b3 98bc 9f0b 423a faa7 a7bd 07d8 55bd
00000040: e473 bbbd 616d 9d3d d836 98bc 02c1 133d
00000050: ca1f 3cbc 30df 1abd 1352 5a3d 1193 e0bd
00000060: 836f 613c 451f c53c fd3c ca3c f40c b2bd
00000070: 1415 cbbd 2a8f 51bd a0e8 013d c50b 71bd
00000080: e20d 9dbd b379 c53c a814 97bc 6ea2 afbd
00000090: b2cb 26bc ae48 9b3c b1b4 d0bd 950d 57bd
000000a0: c8db 123d 2093 18bd 8f3f d53b 2da6 e0bd
000000b0: db3d cf3c 7fd3 c8bd eef3 dbbc d04e 56bd
000000c0: 3bf0 c4bd b9ca 323d 6931 2f3d 0fd3 82bd
000000d0: 5b91 20bc c20f c6bb 7da4 673d 1771 b6bd
000000e0: 7177 18bd 8b0c 53bd 8811 c93c 492c 9c3b
000000f0: fc2f 3d3d d965 973c 2531 9dba 5160 9fbd
00000100: 9086 f0bc 6d99 a4bd 136b 4fbd 6bc7 3b3d
00000110: 65d8 cebd bdf1 d4bd 1ae7 1ebd 0c74 543c
00000120: 9b01 5bbc 34e5 bcbb 7f37 ae3c 2674 2bbd
00000130: e035 9c3d f418 e5bd d004 d3bc 59b8 213d
00000140: cf7b 7f3c 5b51 c33c 4360 a73c 5f1c 98bc
00000150: b7d9 cbbd 5f63 20bd da4e 573d 556d 21bd
00000160: 769f 94bd 2bbc 70bd 31ba c2bd 4c01 a6bd
00000170: 1855 2dbd 35dc 5fbd 2139 22bd f0a0 243d
00000180: c337 a2bd dbc6 483d 932e 323d 3955 a13d
00000190: c083 f7bc f6aa d9bd 3f20 663b 7950 dd3c
000001a0: cbd2 85bb bc86 7bbc 92a5 d33b 1284 7cbd
000001b0: 1ee3 aebd cdf4 1a3d 7858 413d 7406 0abd
000001c0: d4f6 d6bc 858a 9abb 98bd 4cbd f73f b7bc
000001d0: 9902 e2bd 42ce 4b3d c9d4 4cbc 5636 09bc
000001e0: 6092 8abc ee20 e1bd 26cf 2dbd e2f6 2f3d
000001f0: 3e09 023d 1b88 97bd 4237 ab3a bead 99bc
00000200: 5bc8 833d 1571 d43d fdcd 6dbc cccf 6fbd
00000210: 1435 913e 5408 da3d 0cb7 433a 5d4f 423e
00000220: 8063 c53d 50bf 8e3d 23ed 58be 7b33 873e
00000230: 6cca 3bbc 579d 3e3e ee62 9c3d a19e 38bd
00000240: 13b0 7ebe 1ac6 a03d e3a5 56bd 0d85 75be
00000250: db1b 37bd 8a4f e83e 0b85 163e 1955 97be
00000260: 220c 47be 5cb5 723d d159 103f ce91 3a3e
00000270: bc0f 3e3e 05ba ff3d 1980 0f3d e8fb b83e
00000280: 921d febd ea4f 163e 87bd 93be 5a2b 94bc
00000290: 649d fd3d c44a 7c3d 6a2a be3e 8f14 07be
000002a0: 6c8e f0bd 7bf9 d43d d5d8 b33d 9cd2 193e
000002b0: e1ef 303e a713 e0bd a76c 93bd b399 bfbe
000002c0: dc44 3f3d 3f21 a93d 0598 943e c17e 7e3e
000002d0: 723f 2e3d e30d d33e ec56 153e 9248 0abb
000002e0: 2e12 123d 4ccc b8be 6ad3 fcbd bf16 583c
000002f0: bd8d 843d 052a 17bd ce56 843e 10e8 573d
00000300: 01d8 4ebe e1bf 203c c1f9 d5be d232 2f3d
00000310: ee2b 4a3e 2800 32be 2036 423e 350f 9c3d
00000320: 9a40 093d 2b69 883e d49a 6dbc 5c74 3a3c
00000330: a551 86be f5dc b2bb 79e7 b13d c182 3d3e
00000340: 3b67 233e 2fef 83be f612 5bbd 3bf5 1abd
00000350: 7244 213e d8fa 093e 8730 e93e c476 363e
00000360: 6de4 803d 6fd6 1bbb 77fc 8a3c 4003 d3be
00000370: 049b 443e ef9e 4cbd a8db 113e 9711 2c3e
00000380: 0f84 4ebd 6e90 59bd 0aef 25bd 19f9 83bd
00000390: 71b5 293f 347c 80bd 4937 95bd e416 cb3e
000003a0: 51f0 a2bb 7a5a 0dbd 2f5c 8a3d abcd c5bd
000003b0: 31a7 aebd 645b 9dbd e976 4bbe 5c50 193d
000003c0: 6849 49be 8af7 333e 2bc9 4fbb 36a5 3b3e
000003d0: a108 cb3d 9a26 d73c e285 18be 9daf 6e3d
000003e0: e76f 453d 54c5 9f3d c21c 0a3e 038f cf3d
000003f0: 7699 08be 2679 50bd db25 bebe c43c a73d

fc2.bias f4 [128]
0.0059665907 0.16710936 0.055337988 -0.06839446 1.0240674 -0.060053144 0.9611776 -0.019469906
-0.025291638 2.5803354 -0.028611021 -0.325636 1.0797002 0.6778447 0.48346597 -0.054721877
0.041535847 -0.16180049 2.4724178 1.6214662 -0.3854016 -0.038333796 0.05459636 1.3169844
-0.05433108 -0.044264834 1.0593914 -0.07707078 2.6044755 0.01521692 -0.013806427 -0.09606446
0.009035068 -0.02164601 0.0071076304 -0.13320923 1.2610773 -1.4721094 1.4398603 -0.024025863
-0.22198206 -0.37070706 0.9783498 2.5624897 -1.2167882 0.07727342 0.969804 -0.045791104
-0.05336976 -0.0649218 -0.034681085 2.7023678 0.055161558 0.8477563 -0.08268473 1.9186281
-0.03689391 0.2311076 0.17557926 2.8391705 0.02844306 1.6144116 0.6600914 -0.056863677
0.29036412 -0.08427506 0.03180964 0.051495437 -0.083608024 0.111755066 2.6950395 0.004793463
1.8473904 0.05791636 0.059653584 0.040502395 0.86489743 1.1981678 1.0571233 0.6072037
-0.4883058 0.9008863 1.3939666 -0.57561094 0.89092255 -0.07788379 0.5789035 0.039543185
0.23996036 -0.018824829 0.17453371 -0.077054694 -0.082216166 0.048455358 0.05040738 -0.062364526
-0.49598837 -0.028003266 1.3306737 -0.02619849 -0.103952594 0.06896333 -0.50711775 1.719053
-0.3951551 0.3627286 -0.087563224 -0.014863815 -0.034582708 0.0030826377 0.4213176 0.9555858
-0.020182313 -0.16523767 0.43174422 -0.9186046 -0.07756814 -0.048072983 -0.08312049 -0.08037353
0.8655198 0.0046224706 0.034403794 0.6703639 0.17533575 -0.009561953 0.019255092 0.05616105
00000000: 6483 c33b b71e 2b3e 16aa 623d 6512 8cbd
00000010: a414 833f 49fa 75bd bc0f 763f 5a7f 9fbc
00000020: 6930 cfbc 3724 2540 a961 eabc c3b9 a6be
00000030: 9e33 8a3f 3b87 2d3f da88 f73e 0c24 60bd
00000040: 7e21 2a3d 07af 25be 183c 1e40 348c cf3f
00000050: 5c53 c5be e603 1dbd 6fa0 5f3d f292 a83f
00000060: 448a 5ebd 0b4f 35bd 239a 873f 49d7 9dbd
00000070: baaf 2640 6350 793c 5a34 62bc 72bd c4bd
00000080: d207 143c f952 b1bc 20e7 e83b 0068 08be
00000090: fb6a a13f 156e bcbf 584d b83f e3d1 c4bc
000000a0: 444f 63be 51cd bdbe 2275 7a3f d5ff 2340
000000b0: b7bf 9bbf 8741 9e3d 1345 783f 748f 3bbd
000000c0: 409a 5abd b8f5 84bd c10d 0ebd 98f3 2c40
000000d0: 16f1 613d 8f06 593f 9d56 a9bd 9b95 f53f
000000e0: 121e 17bd 78a7 6c3e 0dcb 333e f8b4 3540
000000f0: 6c01 e93c 0aa5 ce3f c0fb 283f e3e9 68bd
00000100: 9baa 943e 6798 acbd d34a 023d e1ec 523d
00000110: af3a abbd d7df e43d 877b 2c40 7b12 9d3b
00000120: 4a77 ec3f b539 6d3d 5157 743d d7e5 253d
00000130: eb69 5d3f 905d 993f d14f 873f b471 1b3f
00000140: 3803 fabe 7ca0 663f 7f6d b23f 3d5b 13bf
00000150: 8013 643f 8981 9fbd 0533 143f 09f8 213d
00000160: 2bb8 753e 8736 9abc f7b8 323e dace 9dbd
00000170: f360 a8bd 2079 463d f877 4e3d f271 7fbd
00000180: 30f2 fdbe 1b67 e5bc 8453 aa3f 379e d6bc
00000190: 19e5 d4bd a53c 8d3d 78d2 01bf ee09 dc3f
000001a0: c551 cabe 90b7 b93e 5954 b3bd 5c87 73bc
000001b0: 99a6 0dbd 1406 4a3b f1b6 d73e 45a1 743f
000001c0: 6155 a5bc 1034 29be 940d dd3e ac29 6bbf
000001d0: 0cdc 9ebd 2de8 44bd 133b aabd e19a a4bd
000001e0: b592 5d3f 1878 973b feea 0c3d f89c 2b3f
000001f0: 378b 333e bda9 1cbc dbbc 9d3c 2109 663d

fc3.weight f4 [64, 128]
-0.017850645 0.08172304 -0.019639894 0.06719718 0.13544123 -0.010302112 -0.2605221 -0.047039527
-0.08505389 0.1644151 -0.029420234 -0.095006436 0.5438194 0.06323603 0.03161121 0.04218598
0.0076461877 -0.3507955 -0.016486397 -0.21833962 0.18178956 -0.018765917 -0.019657271 -0.7101183
-0.012657584 0.063878156 0.49729672 -0.26867923 0.18371648 -0.028931294 -0.054868344 0.04356465
-0.068091765 0.0815251 0.0070156483 0.3711264 -0.10162969 1.2689844 -0.0065801134 0.002648632
0.10093466 0.07269195 0.8421631 0.19556083 0.6110463 -0.08528032 0.039844476 -0.037175283
-0.048451096 0.021519212 0.08708463 0.22035341 0.032353718 0.24191314 -0.10408808 0.02608053
-0.06529445 -0.23125933 0.022296468 0.20036596 -0.0050840825 0.018456142 0.0091966735 0.009925761
-0.07058205 -0.05810554 -0.027712239 0.05676114 -0.030686824 -0.2355591 0.24828619 -0.020188654
-0.13809863 0.07167132 -0.0644654 0.015196657 0.30297273 -0.24723658 0.45559552 0.43737024
0.010650535 -0.011434265 -0.56128263 -0.04618093 -0.31210142 -0.03432049 0.29184768 0.016653253
0.011553171 -0.085159816 0.020628601 0.039850593 -0.04783022 -0.004193155 -0.010548502 -0.012963925
-0.03707552 -0.019966833 -0.6388934 0.00946897 0.067058966 -3.1699754e-05 -0.4644066 -0.034800377
-0.2179284 0.023437757 0.053319924 -0.022406077 0.065707795 -0.02921317 0.14110808 -0.112252794
-0.055288687 -0.33458522 0.19549909 -0.14495838 0.011740558 -0.02798904 0.08073145 -0.07208659
0.07166451 -0.044211224 0.037825227 -0.25473613 -0.09584718 -0.009305328 0.0054734605 -0.06361398
0.05078458 -0.035920233 0.066823184 0.08662049 -0.039139163 0.04757184 0.010261348 -0.085644364
-0.0023932771 -0.030522086 -0.009918112 -0.05722485 -0.06387815 -0.083098434 -0.08032095 0.06889625
0.08592021 -0.04408189 -0.09957675 -0.009912852 0.008978957 0.07601186 -0.064811535 -0.055198573
0.03455065 0.059779275 -0.081740886 0.0038154067 0.0015398205 0.085059546 -0.05935431 0.055737656
0.045057088 -0.032269828 -0.01746814 0.07068473 -0.011132521 -0.09601955 -0.02127394 0.08349079
0.063557535 -0.05105824 -0.013733119 0.06754339 0.003591874 -0.01647632 0.011763332 0.03730528
0.033084907 -0.07844382 -0.07479389 -0.058462497 0.054429293 0.049358267 0.055117436 -0.038969524
0.03173053 -0.09757324 0.022328878 0.049621142 0.025828768 0.04132851 -0.0049819867 0.008840596
0.014626691 0.049628355 0.072676815 -0.055168707 -0.035033334 -0.04291292 -0.07749347 0.030350303
-0.098717436 0.039115205 0.0702577 -0.05145543 -0.082763195 -0.015863273 0.018459529 0.042252094
0.017351372 0.0593967 -0.085307 -0.08819261 0.029285334 0.016491493 -0.040168155 -0.018056827
-0.033979196 0.026315765 0.084787995 0.045681484 -0.08914025 -0.04674138 -0.021282367 0.030581985
0.042568818 0.036088925 0.005865464 -0.00894256 0.046621874 -0.022616599 0.038970757 -0.09640523
0.07017405 -0.021871738 -0.022536373 0.04595198 0.07379418 0.011302626 -0.05673053 -0.046916988
-0.010242833 -0.01619823 -0.06163349 0.014479605 0.030097032 -0.05888413 -0.07112537 0.005689635
0.019947443 0.048069187 -0.08534318 0.009280985 -0.06570347 -0.050994903 0.08179779 -0.052199155
00000000: 843b 92bc 695e a73d d8e3 a0bc ad9e 893d
00000010: 1bb1 0a3e 31ca 28bc 2763 85be 85ac 40bd
00000020: bc30 aebd 6f5c 283e b402 f1bc bc92 c2bd
00000030: c037 0b3f e481 813d c27a 013d 35cb 2c3d
00000040: df8c fa3b 789b b3be 7b0e 87bc 6c94 5fbe
00000050: 0b27 3a3e fbba 99bc 4908 a1bc 50ca 35bf
00000060: c161 4fbc 8dd2 823d ad9d fe3e 5390 89be
00000070: 2c20 3c3e 5201 edbc a1bd 60bd d970 323d
00000080: b273 8bbd a2f6 a63d 86e3 e53b 4804 be3e
00000090: 3a23 d0bd 156e a23f fe9d d7bb ac94 2d3b
000000a0: d5b6 ce3d 84df 943d 0098 573f 1941 483e
000000b0: 886d 1c3f 73a7 aebd f633 233d 1c45 18bd
000000c0: a874 46bd 0f49 b03c 6d59 b23d 53a4 613e
000000d0: 5585 043d 14b8 773e 222c d5bd d6a6 d53c
000000e0: 19b9 85bd 3fcf 6cbe 15a7 b63c bc2c 4d3e
000000f0: 6098 a6bb 5631 973c a5ad 163c a99f 223c
00000100: 528d 90bd 1300 6ebd c704 e3bc 5e7e 683d
00000110: ef62 fbbc 6836 71be bc3e 7e3e ad62 a5bc
00000120: ba69 0dbe 6ac8 923d 7006 84bd 66fb 783c
00000130: 3e1f 9b3e 962b 7dbe d143 e93e feee df3e
00000140: 957f 2e3c c956 3bbc 38b0 0fbf 3728 3dbd
00000150: c2cb 9fbe a493 0cbd 0f6d 953e 676c 883c
00000160: 8349 3d3c 4568 aebd 50fd a83c 603a 233d
00000170: 9fe9 43bd bc66 89bb a0d3 2cbc a466 54bc
00000180: 80dc 17bd 7c91 a3bc 858e 23bf bd23 1b3c
00000190: 3656 893d 5af5 04b8 b4c6 edbe d78a 0ebd
000001a0: 9f28 5fbe 8a00 c03c fe65 5a3d f38c b7bc
000001b0: cf91 863d 7550 efbc a37e 103e cbe4 e5bd
000001c0: 6476 62bd c14e abbe ea30 483e f86f 14be
000001d0: 785b 403c 4549 e5bc 8856 a53d 22a2 93bd
000001e0: d8c4 923d d416 35bd a0ee 1a3d c66c 82be
000001f0: 874b c4bd 6075 18bc b75a b33b 0c48 82bd
00000200: 7e03 503d 1821 13bd 98da 883d 1566 b13d
00000210: 6350 20bd b1da 423d 371f 283c 5066 afbd
00000220: 87d8 1cbb 7409 fabc 947f 22bc 9b64 6abd
00000230: 8cd2 82bd 832f aabd 4f7f a4bd 7a19 8d3d
00000240: eff6 af3d 368f 34bd e5ee cbbd 8469 22bc
00000250: 7a1c 133c 1bac 9b3d e9bb 84bd e617 62bd
00000260: fb84 0d3d 1ddb 743d c467 a7bd e70b 7a3b
00000270: cdd3 c93a b333 ae3d 811d 73bd 2b4d 643d
00000280: c88d 383d 5e2d 04bd 5819 8fbc 28c3 903d
00000290: 2d65 36bc e6a5 c4bd b046 aebc 38fd aa3d
000002a0: 742a 823d 7222 51bd e000 61bc 3054 8a3d
000002b0: a565 6b3b 59f9 86bc feba 403c 6ccd 183d
000002c0: 0a84 073d 27a7 a0bd 8a2d 99bd 5f76 6fbd
000002d0: 40f1 5e3d e52b 4a3d d2c2 613d 829e 1fbd
000002e0: dff7 013d 7bd4 c7bd 0deb b63c 8a3f 4b3d
000002f0: da96 d33c 1548 293d ef3f a3bb 26d8 103c
00000300: caa4 6f3c 1a47 4b3d 95d7 943d 95f8 61bd
00000310: 1d7f 0fbd 75c5 2fbd e5b4 9ebd 33a1 f83c
00000320: 5e2c cabd 4437 203d 45e3 8f3d eec2 52bd
00000330: c07f a9bd b2f3 81bc 7038 973c 8810 2d3d
00000340: 7724 8e3c f449 733d 70b5 aebd 549e b4bd
00000350: cce7 ef3c 2b19 873c 5d87 24bd e9eb 93bc
00000360: c52d 0bbd 2994 d73c 54a5 ad3d 821c 3b3d
00000370: 2a8f b6bd e473 3fbd 5c58 aebc 1287 fa3c
00000380: a45c 2e3d fbd1 133d 1433 c03b d183 12bc
00000390: 94f6 3e3d 7246 b9bc cd9f 1f3d 1b70 c5bd
000003a0: 6ab7 8f3d 5c2c b3bc 339e b8bc 2538 3c3d
000003b0: 6721 973d a62e 393c 465e 68bd 072c 40bd
000003c0: 8ed1 27bc 27b2 84bc 6673 7cbd dd3b 6d3c
000003d0: 0d8e f63c 7c30 71bd 2eaa 91bd 1e70 ba3b
000003e0: d268 a33c 32e4 443d 68c8 aebd 460f 183c
000003f0: 8a8f 86bd 08e0 50bd 9a85 a73d c8ce 55bd

fc3.bias f4 [64]
0.33849207 0.0013335983 0.031751815 1.2053125 -0.101043716 0.12490393 -0.09168009 -0.2413538
0.0013560011 0.064561285 -0.10402724 -0.022235781 0.31413892 1.5878875 -0.03651386 -0.42687482
-0.22551197 -0.0069342526 0.07596088 0.0059788823 0.041266777 0.054054633 -0.36347547 -0.07005218
-0.15685411 0.038437936 0.41467983 -0.25717658 -0.37714443 -0.04937513 -0.089437075 0.047399625
0.98243386 0.0060596745 0.077138916 -0.029836336 -0.11386935 -0.10666233 0.13967252 -0.3324635
0.80429494 0.10198053 0.00230965 -0.36435527 0.032598224 0.30675468 0.069466546 0.12442347
-0.016882721 0.040167328 -0.056110103 0.011395981 -0.0077525005 -0.0010262938 0.05474677 -0.31471655
2.1694138 0.76035583 -0.058969572 -0.06038743 0.1577582 -0.19106184 0.04835864 -0.0052936277
00000000: d54e ad3e 22cc ae3a 310e 023d ae47 9a3f
00000010: 02f0 cebd a2cd ff3d c5c2 bbbd 7325 77be
00000020: d9bb b13a b538 843d 3c0c d5bd d027 b6bc
00000030: d1d6 a03e e63f cb3f 8f8f 15bd 568f dabe
00000040: 9cec 66be ba38 e3bb 6191 9b3d 80ea c33b
00000050: 5a07 293d 6468 5d3d 7519 babe 8477 8fbd
00000060: 5d9e 20be 1971 1d3d ea50 d43e a6ac 83be
00000070: 1319 c1be 943d 4abd c92a b7bd 1c26 423d
00000080: c980 7b3f 3c90 c63b 02fb 9d3d 556b f4bc
00000090: 5534 e9bd c871 dabd 5006 0f3e a838 aabe
000000a0: 46e6 4d3f 2bdb d03d 7f5d 173b c68c babe
000000b0: b785 053d f30e 9d3e 7a44 8e3d bbd1 fe3d
000000c0: a24d 8abc 7f86 243d b5d3 65bd 35b6 3a3c
000000d0: b008 febb b584 86ba 263e 603d 8722 a1be
000000e0: add7 0a40 aea6 423f 148a 71bd cf58 77bd
000000f0: 5e8b 213e b7a5 43be b613 463d 2b76 adbb

fc4.weight f4 [20, 64]
-0.021932915 -0.007283762 -0.036548387 0.30215085 -0.08220984 0.012067467 0.06199912 -0.14591482
-0.020029962 0.040002853 -0.05801145 -0.0065191826 -0.00747442 0.51034194 -0.01050215 -0.23622923
-0.20223229 0.018967353 -0.111663245 -0.06771786 0.07363778 -0.089258626 -0.2895432 -0.24708045
-0.14498562 0.02036625 -0.060407463 -0.12775165 -0.20363562 -0.053195816 -0.2628847 -0.053213343
0.21190144 -0.06298567 -0.19943684 0.081935994 -0.025079498 0.08563722 -0.7930006 -0.18529014
0.9871783 0.06312082 -0.0127313435 -0.25618708 0.0017348946 -0.021849819 -0.10378408 0.031917013
-0.049021155 -0.10331085 -0.0584234 -0.035200015 -0.06994982 0.031747248 -0.071473405 -0.14728646
0.31893355 0.6253138 -0.10213323 -0.0002199934 -0.15988266 -0.362106 -0.0034572184 -0.074886456
0.053862583 0.009231933 0.021013655 0.30034918 -0.008966584 0.2104861 -0.07003038 -0.2478653
0.025672764 -0.08685872 -0.010342931 0.071950346 -0.063592955 0.5512022 0.06713087 -0.24632275
-0.3690574 0.10715277 -0.08511924 -0.10928832 0.016961433 0.058868792 -0.15865706 -0.26132888
-0.08556807 -0.12409274 0.029938783 -0.2754034 -0.32661822 -0.08056581 -0.16854534 -0.006966481
0.34897497 0.05088639 -0.26741746 0.008975759 -0.16299346 -0.072319 -0.31454915 -0.39625344
0.7957044 -0.20790048 -0.105888344 -0.3426907 -0.09971318 0.01601984 -0.037108775 -0.04500933
-0.04080221 -0.04099575 -0.011367535 -0.01412041 0.07799254 -0.08558725 0.056383442 -0.15781997
0.18118356 0.40788043 0.037900202 0.059688408 0.039294492 -0.3874958 0.06318048 -0.0022552218
-0.093401484 0.090049684 0.080011666 0.31443408 0.036485955 0.378056 -0.010056868 -0.19015016
0.006494075 -0.10719228 -0.17522115 -0.06315801 -0.10091591 0.47616282 -0.11099939 -0.53932536
-0.45478684 0.040533695 -0.06221538 0.04372333 0.03985752 0.002586946 -0.3817757 -0.11362667
0.19970195 -0.20095502 -0.083370075 0.07374151 -0.27047464 0.10721478 -0.2850633 -0.057592362
0.26086143 -0.12223685 -0.01118379 0.012891024 -0.33098438 -0.035067722 -0.22706278 -0.199304
0.87321585 -0.11241967 0.1154418 -0.18716367 0.05456853 -0.14856133 0.035757273 -0.06269378
-0.12071739 -0.04433228 -0.117380574 -0.055997252 -0.042026132 -0.09816583 0.045359105 -0.059683297
0.15730289 0.33836514 -0.0032445153 0.036346767 0.04246797 -0.4435928 0.062278986 0.0938362
-0.03922572 0.12406637 0.09879803 0.4532699 0.092923604 0.0155979935 -0.11394866 -0.24359521
0.00077193975 0.030324027 -0.12565507 -0.10799019 -0.18178034 0.49367434 0.09320078 -0.41169065
-0.43425575 0.021387948 -0.3052673 -0.088719904 0.028691802 0.08923276 -0.39259425 -0.12062146
-0.15906063 -0.16137041 -0.024309287 -0.0064273505 -0.27958152 -0.011407793 -0.30028397 -0.11968891
-0.013501655 0.025618538 -0.07209581 0.02077271 -0.20780171 -0.023980632 -0.23719423 -0.22148214
0.6082494 -0.13566735 0.0777808 -0.28059736 -0.018713318 -0.113379166 -0.11137456 -0.12936057
0.060869053 -0.076079056 0.06632437 -0.06418568 -0.07129388 -0.02872391 0.06766673 0.2915351
0.17141132 0.42452353 0.06393987 -0.1362562 -0.1387142 -0.11612822 0.009518996 0.05811662
00000000: a8ac b3bc a0ac eebb c3b3 15bd 84b3 9a3e
00000010: a25d a8bd a0b6 453c caf2 7d3d b26a 15be
00000020: e015 a4bc 08da 233d 6a9d 6dbd de9e d5bb
00000030: fbeb f4bb c5a5 023f 3611 2cbc 13e6 71be
00000040: fb15 4fbe 6c61 9b3c b3af e4bd a9af 8abd
00000050: 68cf 963d 3acd b6bd 023f 94be a802 7dbe
00000060: 1c77 14be 1fd7 a63c d16d 77bd 54d1 02be
00000070: db85 50be dbe3 59bd d398 86be 3cf6 59bd
00000080: b1fc 583e a2fe 80bd 2c39 4cbe 0fce a73d
00000090: 8573 cdbc 9162 af3d 1602 4bbf b3bc 3dbe
000000a0: b8b7 7c3f 7d45 813d 2097 50bc f42a 83be
000000b0: 6765 e33a 64fe b2bc bf8c d4bd 6abb 023d
000000c0: 68ca 48bd a494 d3bd 604d 6fbd e42d 10bd
000000d0: da41 8fbd 6709 023d a660 92bd 43d2 16be
000000e0: 424b a33e 9114 203f 3a2b d1bd 07ae 66b9
000000f0: 48b8 23be f565 b9be 8092 62bb 125e 99bd
00000100: 039f 5c3d 8941 173c d424 ac3c 5ec7 993e
00000110: 94e8 12bc ab89 573e 166c 8fbd 67d0 7dbe
00000120: b04f d23c fce2 b1bd 6675 29bc b45a 933d
00000130: 063d 82bd 961b 0d3f e97b 893d 083c 7cbe
00000140: 17f5 bcbe e972 db3d ff52 aebd 8ed2 dfbd
00000150: b4f2 8a3c 6720 713d ff76 22be e6cc 85be
00000160: 503e afbd 5624 febd 2e42 f53c ad01 8dbe
00000170: 813a a7be b0ff a4bd 2697 2cbe 1447 e4bb
00000180: d9ac b23e 3f6e 503d f1ea 88be 100f 133c
00000190: c2e7 26be fc1b 94bd 960c a1be bbe1 cabe
000001a0: 49b3 4b3f dde3 54be fddb d8bd 2875 afbe
000001b0: 6c36 ccbd 0a3c 833c 5fff 17bd b45b 38bd
000001c0: 3820 27bd 29eb 27bd e63e 3abc 4b59 67bc
000001d0: 8eba 9f3d 5e48 afbd 53f2 663d 8f9b 21be
000001e0: 2f88 393e b4d5 d03e 3e3d 1b3d d57b 743d
000001f0: 43f3 203d d965 c6be c464 813d 58cc 13bb
00000200: 4749 bfbd f86b b83d 28dd a33d 81fd a03e
00000210: 4c72 153d 8e90 c13e 90c5 24bc b9b6 42be
00000220: 40cc d43b a087 dbbd 2c6d 33be fd58 81bd
00000230: 00ad cebd 9dcb f33e a653 e3bd 3a11 0abf
00000240: d2d9 e8be a906 263d 8ed5 7ebd 3c17 333d
00000250: a441 233d c089 293b 1b78 c3be 19b5 e8bd
00000260: ab7e 4c3e 27c7 4dbe eebd aabd ca05 973d
00000270: a77b 8abe 6c93 db3d d1f3 91be f8e5 6bbd
00000280: a18f 853e 5057 fabd 373c 37bc e034 533c
00000290: c976 a9be 2ca3 0fbd 2583 68be 5916 4cbe
000002a0: 138b 5f3f 493c e6bd c06c ec3d d5a7 3fbe
000002b0: 4083 5f3d 7620 18be 3876 123d 9965 80bd
000002c0: ae3a f7bd c495 35bd 3a65 f0bd 605d 65bd
000002d0: 9823 2cbd 2b0b c9bd 78ca 393d 7976 74bd
000002e0: 0214 213e 323e ad3e efa1 54bb 59e0 143d
000002f0: e5f2 2d3d 981e e3be 4018 7f3d 322d c03d
00000300: 26ab 20bd 8216 fe3d 9f56 ca3d fe12 e83e
00000310: bb4e be3d ba8e 7f3c ea5d e9bd 0671 79be
00000320: 005c 4a3a 186a f83c b9ab 00be f629 ddbd
00000330: a024 3abe e2c2 fc3e 0de0 be3d 1ec9 d2be
00000340: c556 debe c735 af3c ff4b 9cbe c8b2 b5bd
00000350: 120b eb3c aabf b63d 1d02 c9be 6208 f7bd
00000360: cae0 22be 493e 25be 4524 c7bc 869c d2bb
00000370: 4f25 8fbe c0e7 3abc d2be 99be 761f f5bd
00000380: 0c36 5dbc f8dd d13c f8a6 93bd 882b aa3c
00000390: f9c9 54be 0873 c4bc 0be3 72be 37cc 62be
000003a0: 3cb6 1b3f 62ec 0abe 8a4b 9f3d 75aa 8fbe
000003b0: ac4c 99bc 5633 e8bd 5818 e4bd 1977 04be
000003c0: d451 793d 56cf 9bbd 12d5 873d c873 83bd
000003d0: 8702 92bd 684e ebbc db94 8a3d 1744 953e
000003e0: 7386 2f3e 265b d93e e8f2 823d bf86 0bbe
000003f0: 180b 0ebe a2d4 edbd 90f5 1b3c b10b 6e3d

fc4.bias f4 [20]
1.0485939 0.5835703 0.0046993415 0.18509383 0.02717336 0.23897015 -0.013871784 -0.10696763
-0.072170444 -0.3460392 -0.23671298 0.0060001886 -0.22142205 -0.18903352 0.02194214 -0.4288697
-0.28760046 -0.029337658 -0.44829205 -0.16878179
00000000: 5338 863f dd64 153f effc 993b 3d89 3d3e
00000010: ab9a de3c 97b4 743e 7b46 63bc d811 dbbd
00000020: 19ce 93bd 0d2c b1be e364 72be 3b9d c43b
00000030: 76bc 62be 0192 41be 01c0 b33c cf94 dbbe
00000040: 5e40 93be 8755 f0bc 8986 e5be 22d5 2cbe

fc1.weight f4 [128, 3]
-0.46748462 -0.4084713 0.2208397 -0.19684015 -0.5585561 0.07544146 0.17881344 0.69040334
0.06917356 0.15441857 -0.24285607 -0.012469584 -0.34517545 -1.1814677 0.08849277 0.09036325
-0.87982535 0.04528112 -0.12015334 -0.35916734 0.0042270944 -0.96292514 -0.13078094 0.05878121
0.34826696 -0.6425792 0.012954796 -0.278009 0.45423865 0.0045727645 0.23058984 0.30430183
-0.031214701 -0.036185827 -1.9777031 0.031159976 -0.23603882 -0.49323446 -0.28883293 -0.34940618
-1.1288694 0.12156347 0.1245115 -0.37402594 0.09395761 -0.22634411 -0.33629173 -0.12885946
0.21858156 0.40144306 -0.032682426 -0.091074534 -0.036564723 -0.4648027 0.41293553 -0.5579255
-0.56719494 0.5040872 0.56802046 -0.07584048 -0.122368485 -0.059762627 -0.0065222015 0.31251186
0.2914962 -0.19507442 -0.43229672 0.9611693 -0.0054134033 0.36099222 0.49650216 -0.03934321
0.19708063 0.19934393 -0.030612063 0.30872768 -0.556023 -0.15580843 -0.8360843 -1.9737214
0.051383823 0.006644909 -0.3199627 0.047342617 -1.0106664 -1.0024264 0.11288368 -0.24052946
-1.1797559 0.16162147 -0.46718958 -0.41621694 -0.5720361 -1.1659088 -1.2907085 0.03781725
-0.25068548 0.023669867 -0.46213567 0.13672309 -0.21751563 0.1860434 0.21666496 -0.05740248
-0.018768493 -0.35314718 -0.26018226 -0.50383943 0.7569606 0.6237307 -0.11288471 -0.1676649
-0.064419106 0.027335284 0.07789697 0.5996474 -0.004117588 0.013558797 -0.0019554717 -0.113646284
-0.3014125 -0.08423643 -0.03433039 -0.1307002 0.17102104 -0.03184087 -0.04533923 -0.5543415
-0.17608185 0.12031267 -0.055797547 0.13048196 -0.18110447 0.21902207 0.24332808 -0.45315248
0.40808135 0.02741174 0.48474964 0.1321126 -0.447184 0.55387133 -0.26871532 -0.10295188
-0.15468243 0.09493164 -0.021160966 0.5272272 0.0823775 0.33912742 0.189326 0.52693665
0.033896457 0.12452498 -1.2586799 0.018287532 -0.49369675 -0.04791344 -0.11934122 0.24505983
-1.2432911 0.16126622 0.43201894 -0.50530905 0.066866286 -0.36530912 0.5102559 -0.040487424
-0.49881607 -0.44024172 -0.46564144 -0.12198092 0.9791547 0.023523776 -0.4283241 0.19149604
-0.04007955 -0.23238817 0.47861344 -0.07565788 -0.17260124 -0.4534706 -0.26964 0.040317573
-0.5325898 -0.5273173 -0.07988862 -0.13959517 -0.0009790413 -0.55681026 -0.37168446 -0.2047908
-0.2809812 0.9271773 0.01313153 0.29607496 -0.3079663 -0.28543544 0.0072907046 0.3270134
-0.035321437 0.12551516 -0.41114324 -0.22977142 0.89785147 0.00925635 -0.031617787 0.11151594
0.77432376 0.016769126 0.60225403 -0.41471946 -0.36134425 -0.48462158 -0.054436922 -0.23980165
-0.12162729 -0.009386499 -0.015827203 -1.0427581 0.05551873 0.03646645 -0.39294153 0.17407617
-0.14864819 -0.22244689 -0.2807161 -0.5718374 0.51416355 -0.098192126 -0.10544409 0.2048357
-0.18810427 -0.0048840665 0.08867149 -0.19771877 -0.45069143 -0.479436 -0.6483362 0.14225547
0.49774572 0.21121076 0.042088702 0.4641851 0.23009713 -0.039519522 0.26275554 -0.27330574
-0.23868243 0.2345654 -0.5569515 -0.2864275 0.013002661 -0.34009385 0.22464293 0.18455613
00000000: 255a efbe 2623 d1be cd23 623e 7790 49be
00000010: 88fd 0ebf 0d81 9a3d df1a 373e 46be 303f
00000020: deaa 8d3d e71f 1e3e 43af 78be 3a4d 4cbc
00000030: d6ba b0be 553a 97bf b33b b53d 5e10 b93d
00000040: 3c3c 61bf b278 393d f412 f6bd c8e4 b7be
00000050: 7083 8a3b 4382 76bf 70eb 05be 91c4 703d
00000060: 0c50 b23e 1280 24bf 5a40 543c 3257 8ebe
00000070: f891 e83e 21d7 953b be1f 6c3e 73cd 9b3e
00000080: f9b5 ffbc 9737 14bd 6025 fdbf 3543 ff3c
00000090: 29b4 71be 3a89 fcbe e9e1 93be 5ee5 b2be
000000a0: cb7e 90bf 45f6 f83d e3ff fe3d 5480 bfbe
000000b0: d96c c03d c0c6 67be 6e2e acbe bcf3 03be
000000c0: d8d3 5f3e f289 cd3e 02de 05bd 4985 babd
000000d0: e4c4 15bd 9ffa edbe 496c d33e 35d4 0ebf
000000e0: b033 11bf dc0b 013f ca69 113f 4152 9bbd
000000f0: 549c fabd a8c9 74bd 31b8 d5bb 8e01 a03e
00000100: fd3e 953e 97c1 47be ff55 ddbe 310f 763f
00000110: eb62 b1bb f9d3 b83e 8835 fe3e 5926 21bd
00000120: 81cf 493e d120 4c3e 26c6 fabc 8e11 9e3e
00000130: 8657 0ebf 3f8c 1fbe 9f09 56bf e7a2 fcbf
00000140: d877 523d 89bd d93b 27d2 a3be 55ea 413d
00000150: 845d 81bf 824f 80bf 8f2f e73d 5b4d 76be
00000160: 3e02 97bf 1980 253e 7933 efbe 631a d5be
00000170: f570 12bf 803c 95bf f035 a5bf 43e6 1a3d
00000180: d959 80be 4fe7 c13c 0c9d ecbe 2301 0c3e
00000190: 6bbc 5ebe 2982 3e3e 6bdd 5d3e dd1e 6bbd
000001a0: 62c0 99bc b5cf b4be 9c36 85be 9ffb 00bf
000001b0: 2bc8 413f d1ac 1f3f 1930 e7bd 59b0 2bbe
000001c0: 2aee 83bd 3fee df3c 7288 9f3d 7e82 193f
000001d0: d5ec 86bb b725 5e3c 5f27 00bb 62bf e8bd
000001e0: bd52 9abe 2684 acbd 069e 0cbd 46d6 05be
000001f0: 2420 2f3e 926b 02bd a1b5 39bd 53e9 0dbf
00000200: cd4e 34be 7d66 f63d f88b 64bd 109d 053e
00000210: 7373 39be 5247 603e ff2a 793e 9a03 e8be
00000220: 0af0 d03e 968e e03c 1b31 f83e 8748 073e
00000230: 4df5 e4be 83ca 0d3f 0e95 89be 6fd8 d2bd
00000240: 1265 1ebe 856b c23d c359 adbc 5df8 063f
00000250: 89b5 a83d 1ca2 ad3e adde 413e 52e5 063f
00000260: 03d7 0a3d f406 ff3d 6c1c a1bf bccf 953c
00000270: d2c5 fcbe e240 44bd 2b69 f4bd f7f0 7a3e
00000280: 2a24 9fbf f922 253e 9631 dd3e ef5b 01bf
00000290: 31f1 883d cc09 bbbe 21a0 023f 24d6 25bd
000002a0: d264 ffbe 5d67 e1be 8e68 eebe 22d1 f9bd
000002b0: e2a9 7a3f efb4 c03c 4c4d dbbe 8a17 443e
000002c0: 742a 24bd 2af7 6dbe d20c f53e 85f2 9abd
000002d0: 61be 30be 4c2d e8be 410e 8abe 0a24 253d
000002e0: ce57 08bf 44fe 06bf a59c a3bd 09f2 0ebe
000002f0: 2d53 80ba 1e8b 0ebf 6d4d bebe aeb4 51be
00000300: c5dc 8fbe 7e5b 6d3f a125 573c 2397 973e
00000310: c2ad 9dbe 9824 92be dde6 ee3b 4d6e a73e
00000320: 36ad 10bd 0c87 003e 5e81 d2be 3349 6bbe
00000330: 98d9 653f f2a7 173c a781 01bd 7862 e43d
00000340: 153a 463f 685f 893c 522d 1a3f 1c56 d4be
00000350: 1d02 b9be 5220 f8be 40f9 5ebd 908e 75be
00000360: bb17 f9bd d5c9 19bc 0da8 81bc 1979 85bf
00000370: 9c67 633d d85d 153d a22f c9be 0641 323e
00000380: 3b37 18be 1ec9 63be 05ba 8fbe f063 12bf
00000390: 39a0 033f f418 c9bd 12f3 d7bd 73c0 513e
000003a0: 689e 40be 850a a0bb 6699 b53d ca76 4abe
000003b0: 07c1 e6be a378 f5be 5cf9 25bf 6bab 113e
000003c0: 87d8 fe3e a247 583e 3465 2c3d aba9 ed3e
000003d0: 959e 6b3e 39df 21bd e587 863e bbee 8bbe
000003e0: 2b69 74be ea31 703e 6094 0ebf a0a6 92be
000003f0: 1d09 553c c820 aebe cc08 663e 48fc 3c3e

fc1.bias f4 [128]
-1.5266548 -1.186236 -2.3034608 1.2789341 -0.7345169 -0.7455878 -0.5466711 -1.3813914
-1.0530626 3.69437 3.4416091 1.0254244 -0.35870874 0.2911118 -0.26202354 -0.3716047
3.5694196 0.20974617 -0.21539241 1.6247011 3.7997139 1.6824536 -1.720834 3.4258006
3.45569 0.048960306 0.32332772 -1.2711729 0.09030383 1.096111 0.1259626 -0.18835236
0.14322434 2.894691 2.6640189 0.21565484 1.356664 2.969196 -1.26476 1.2404668
1.8606104 1.655382 0.46458068 -2.4454439 -1.86732 2.5000482 1.0417818 -0.34226516
1.7707851 -2.3574562 -2.4984918 -0.79631805 0.3747053 -1.7190547 -1.8563175 0.0920096
0.10496228 -1.5010433 1.8763463 -0.53759235 -0.53921324 0.24203524 3.7772217 -0.5129377
-1.4218084 -0.24976903 2.5336971 0.15409365 0.6139076 -1.4124624 0.6174809 0.066881604
2.322448 -1.3284554 0.75536704 -0.23989691 -0.32189032 2.8255227 -0.55029845 -1.6390306
-2.8405917 3.3386137 -0.26230854 -0.15339768 -1.9910952 1.6134005 -0.51142955 -0.56050473
-0.32617152 0.28120345 0.8003629 1.5033866 -0.48003858 0.11242159 -2.8421292 -1.9049698
1.7997589 1.5741996 3.7534516 -0.2540018 0.95698005 1.2838442 0.56438214 0.8491126
0.09731068 -0.24954706 -1.9837116 1.150095 3.4796681 0.16324724 3.5698018 2.636548
-0.30891824 1.3299978 0.06548286 -0.80147177 1.7126852 -1.3660002 -0.5623586 2.8431184
0.0047418713 2.3388627 -0.59387857 -1.5985603 1.4267236 0.19314717 2.5852392 1.8358192
00000000: 6d69 c3bf 95d6 97bf e76b 13c0 1db4 a33f
00000010: 4d09 3cbf d8de 3ebf a3f2 0bbf 6fd1 b0bf
00000020: c1ca 86bf 8f70 6c40 5343 5c40 1b41 833f
00000030: aca8 b7be 9b0c 953e f327 86be f942 bebe
00000040: 5f71 6440 b3c7 563e d48f 5cbe 35f6 cf3f
00000050: 832e 7340 a45a d73f 4a44 dcbf 5140 5b40
00000060: 062a 5d40 9a8a 483d 368b a53e cbb5 a2bf
00000070: 37f1 b83d 5e4d 8c3f 57fc 003e 71df 40be
00000080: 67a9 123e 9e42 3940 497f 2a40 9fd4 5c3e
00000090: 2aa7 ad3f 4f07 3e40 a8e3 a1bf 9ec7 9e3f
000000a0: 7b28 ee3f 8fe3 d33f 85dd ed3e 2782 1cc0
000000b0: 5704 efbf ca00 2040 1b59 853f 613d afbe
000000c0: 16a9 e23f 90e0 16c0 4ae7 1fc0 80db 4bbf
000000d0: 60d9 bf3e fc09 dcbf d09b edbf 876f bc3d
000000e0: 77f6 d63d 3022 c0bf 1e2c f03f a79f 09bf
000000f0: e109 0abf 16d8 773e 00be 7140 e34f 03bf
00000100: d1fd b5bf 74c3 7fbe 1828 2240 baca 1d3e
00000110: 0c29 1d3f 91cb b4bf 3a13 1e3f 39f9 883d
00000120: fda2 1440 d40a aabf bc5f 413f 89a7 75be
00000130: cfce a4be 5dd5 3440 5ce0 0cbf c1cb d1bf
00000140: 41cc 35c0 d9ab 5540 4e4d 86be 4814 1dbe
00000150: 35dc febf e883 ce3f 0ced 02bf 3d7d 0fbf
00000160: f4ff a6be e6f9 8f3e 95e4 4c3f f96e c03f
00000170: 9ec7 f5be 4a3d e63d 72e5 35c0 0dd6 f3bf
00000180: 805e e63f 5f7f c93f 8d38 7040 860c 82be
00000190: a5fc 743f 0255 a43f 597b 103f 715f 593f
000001a0: d24a c73d 4489 7fbe 43ea fdbf 5036 933f
000001b0: e2b2 5e40 492a 273e a277 6440 34bd 2840
000001c0: 882a 9ebe 5e3d aa3f e11b 863d 412d 4dbf
000001d0: 4539 db3f 18d9 aebf bcf6 0fbf a7f5 3540
000001e0: b361 9b3b edaf 1540 6d08 18bf a09d ccbf
000001f0: e19e b63f 5fc8 453e 8f74 2540 20fc ea3f

fc2.weight f4 [128, 128]
-0.06786449 0.048822418 0.050193343 0.028309776 -0.06889439 0.012096639 -0.022818629 -0.06673199
0.036964666 -0.027210804 -0.08316073 -0.04014289 -0.018640075 0.0007402654 -0.08186431 -0.052207973
-0.09152784 0.07686878 -0.018581057 0.03607431 -0.011481958 -0.037810504 0.053304 -0.109655336
0.013760002 0.024062892 0.024687285 -0.086938225 -0.09915733 -0.051161934 0.03171599 -0.05884731
-0.076686636 0.024107594 -0.018441357 -0.08575903 -0.010179953 0.018957315 -0.101906635 -0.052503057
0.03585824 -0.037247796 0.006507821 -0.10969259 0.025299702 -0.09805463 -0.026849713 -0.052321255
-0.09616216 0.043651648 0.04277247 -0.06387838 -0.00980028 -0.006044129 0.05655622 -0.089084014
-0.037223283 -0.051523294 0.024545321 0.004766337 0.046188608 0.018481182 -0.0011992679 -0.07782043
-0.029360322 -0.08037076 -0.050636664 0.045844477 -0.10099765 -0.10397792 -0.038794614 0.012967121
-0.01336698 -0.0057642628 0.021267023 -0.041858815 0.07627463 -0.11186074 -0.02575913 0.039482996
0.0155938 0.023843095 0.020431643 -0.018568216 -0.09953732 -0.039157268 0.052565433 -0.039408494
-0.07256977 -0.0587732 -0.09508181 -0.08105219 -0.042317983 -0.054653365 -0.03960221 0.040194534
-0.07920442 0.049019862 0.043502636 0.07877583 -0.03021419 -0.10628018 0.0035114808 0.027017083
-0.0040839664 -0.015351947 0.006459038 -0.061648764 -0.08538848 0.037831116 0.047205623 -0.03369755
-0.026240744 -0.0047160457 -0.0499855 -0.022367863 -0.1103557 0.049761202 -0.012501904 -0.008374095
-0.0169155 -0.10992356 -0.042433467 0.04296246 0.031749193 -0.07399007 0.0013063713 -0.01875801
0.059409387 0.09909234 -0.019368052 -0.055541612 0.28016588 0.10641401 0.00074661017 0.18109463
0.09703156 0.06751536 -0.20906699 0.25687099 -0.011461835 0.18262942 0.071948834 -0.045073155
-0.24661802 0.07850285 -0.052404296 -0.25391337 -0.04575884 0.43599522 0.14470996 -0.2917114
-0.19055517 0.026472636 0.55538416 0.17947763 0.17764498 0.12121596 0.035034273 0.3489076
-0.124079846 0.14268495 -0.2849864 -0.018087078 0.09828339 0.058679126 0.36498398 -0.13191423
-0.022361415 0.11513111 0.08781592 0.14501145 0.16798115 -0.112820774 -0.117664084 -0.37155837
0.062593855 0.07783122 0.28559464 0.2504347 0.042541504 0.40784347 0.14137584 -0.008475757
0.03566187 -0.36518058 -0.1056692 0.030334879 0.06472347 -0.036905307 0.25709245 0.052711677
-0.20612195 0.009811144 -0.4122968 0.042773075 0.19052684 -0.17808416 0.1529046 0.0762018
0.042038266 0.253159 -0.014502277 0.011380281 -0.25902095 -0.005552988 0.08686728 0.17991255
0.1548011 -0.25333318 -0.05348282 -0.037831526 0.15249893 0.13726118 0.41023576 0.17122395
0.06293569 -0.0023778935 0.025331344 -0.40845504 0.18776898 -0.04995626 0.13771 0.16311367
-0.009754255 0.02685957 -0.041640546 -0.06443996 0.65753794 0.032873865 -0.072859354 0.38995007
-0.0049724956 -0.034510113 0.06272857 -0.0037874342 -0.083134994 -0.0768351 -0.19753893 0.036762744
-0.21201146 0.17240542 -0.0031705599 0.17158324 0.09591331 0.021565944 -0.18041703 0.05526505
0.04820242 0.07593225 0.13487959 0.09663024 -0.12471596 -0.050897434 -0.3718322 0.079245016
00000000: 8afc 8abd 04fa 473d 8997 4d3d e7e9 e73c
00000010: 8018 8dbd fb30 463c 22ee babc c8aa 88bd
00000020: 4368 173d 31e9 debc 2c50 aabd df6c 24bd
00000030: 12b3 98bc 5f0e 423a 7aa8 a7bd 07d8 55bd
00000040: f372 bbbd 616d 9d3d 4d37 98bc a8c2 133d
00000050: d31e 3cbc 30df 1abd 4c55 5a3d fa92 e0bd
00000060: a271 613c 8b1f c53c fd3c ca3c ab0c b2bd
00000070: 0013 cbbd 2d8f 51bd a0e8 013d e009 71bd
00000080: e20d 9dbd 4a7d c53c 5412 97bc 6ea2 afbd
00000090: d1c9 26bc 5f4c 9b3c 6db4 d0bd 720d 57bd
000000a0: 17e0 123d 2591 18bd 8f3f d53b 82a6 e0bd
000000b0: 5241 cf3c ded0 c8bd eef3 dbbc d04e 56bd
000000c0: abf0 c4bd 12cc 323d 2f32 2f3d abd2 82bd
000000d0: 5b91 20bc d40d c6bb 7fa7 673d ae71 b6bd
000000e0: 7177 18bd 170a 53bd 4513 c93c ef2e 9c3b
000000f0: 4430 3d3d d965 973c c130 9dba 5160 9fbd
00000100: 0f85 f0bc 6d99 a4bd 6468 4fbd 6bc7 3b3d
00000110: dbd7 cebd 60f2 d4bd 1ae7 1ebd 0c74 543c
00000120: 2d01 5bbc 24e2 bcbb 2e38 ae3c 2674 2bbd
00000130: e035 9c3d 3e17 e5bd d004 d3bc ecb8 213d
00000140: 237d 7f3c 9852 c33c 4360 a73c 5f1c 98bc
00000150: 39da cbbd 5f63 20bd da4e 573d cd6a 21bd
00000160: 769f 94bd 2bbc 70bd 41ba c2bd b1fe a5bd
00000170: 9f55 2dbd 35dc 5fbd ed35 22bd 06a3 243d
00000180: ed35 a2bd 0dc9 483d d22f 323d 3955 a13d
00000190: c083 f7bc 6ca9 d9bd df20 663b ee52 dd3c
000001a0: cbd2 85bb bc86 7bbc 56a6 d33b 6a83 7cbd
000001b0: 28e0 aebd cdf4 1a3d af5a 413d 7106 0abd
000001c0: d4f6 d6bc 0f89 9abb 98bd 4cbd cf3c b7bc
000001d0: 2b02 e2bd 67d2 4b3d c9d4 4cbc 8033 09bc
000001e0: 6092 8abc 9a1f e1bd b7ce 2dbd 68f9 2f3d
000001f0: 710b 023d 1b88 97bd 8c3a ab3a 66aa 99bc
00000200: 4257 733d edf0 ca3d c0a9 9ebc 9a7f 63bd
00000210: e771 8f3e 97ef d93d 29b8 433a df70 393e
00000220: 7cb8 c63d 7e45 8a3d a815 56be 9884 833e
00000230: 6cca 3bbc 3503 3b3e e959 933d a19e 38bd
00000240: 6f89 7cbe 1ac6 a03d e3a5 56bd ef00 82be
00000250: 9f6d 3bbd c43a df3e d92e 143e 325b 95be
00000260: e520 43be 24dd d83c a82d 0e3f fcc8 373e
00000270: 91e8 353e 1340 f83d 1980 0f3d 04a4 b23e
00000280: 931d febd 011c 123e bde9 91be 5a2b 94bc
00000290: cd48 c93d 8659 703d 2edf ba3e 8614 07be
000002a0: 492f b7bc dcc9 eb3d d5d8 b33d e27d 143e
000002b0: 4003 2c3e 940e e7bd def9 f0bd e63c bebe
000002c0: 3531 803d fa65 9f3d 7639 923e fa38 803e
000002d0: 0040 2e3d dcd0 d03e d4c4 103e e7dd 0abc
000002e0: 2e12 123d f3f8 babe 1869 d8bd da80 f83c
000002f0: bd8d 843d 052a 17bd 9fa1 833e 33e8 573d
00000300: a211 53be ecbe 203c 9118 d3be d232 2f3d
00000310: 7819 433e b25b 36be 0693 1c3e b00f 9c3d
00000320: 5130 2c3d 0e9e 813e f59a 6dbc 5c74 3a3c
00000330: 659e 84be d7f5 b5bb 79e7 b13d ff3a 383e
00000340: 2e84 1e3e e3b4 81be cd10 5bbd 3bf5 1abd
00000350: ae28 1c3e 328e 0c3e 6c0a d23e 5555 2f3e
00000360: 6de4 803d 6fd6 1bbb ae83 cf3c 0521 d1be
00000370: 8346 403e ef9e 4cbd da03 0d3e 4507 273e
00000380: 50d0 1fbc 9a08 dc3c 478f 2abd 19f9 83bd
00000390: 6854 283f bfa6 063d 4937 95bd 89a7 c73e
000003a0: 51f0 a2bb 7a5a 0dbd d677 803d 9a36 78bb
000003b0: ae42 aabd b95b 9dbd a547 4abe 8894 163d
000003c0: 8819 59be 0c8b 303e 2bc9 4fbb 84b3 2f3e
000003d0: 336e c43d 10ab b03c 3ebf 38be 9b5d 623d
000003e0: e76f 453d 5e82 9b3d e01d 0a3e 13e6 c53d
000003f0: 156b ffbd d479 50bd ca60 bebe 364b a23d
