models/dqn_agent_firm_1_episode_1500.pth (torch, 438054 bytes, 32 tensors)

fc1.weight f4 [128, 3]
0	0xbc71ec71	-0.014765845
1	0x3e8d23da	0.27566415
2	0xbc7ed5d5	-0.015553911
3	0x3e2ceff1	0.16888405
4	0xbf0609e3	-0.52358836
5	0xbeed8c57	-0.46396133
6	0x3e368a73	0.17826252
7	0x3d8a5bd6	0.067557976
8	0x3cce7653	0.025202906
9	0x3e247a98	0.16062391
10	0x3e3db04d	0.18524285
11	0xbe09b8aa	-0.1344935
12	0xbef6d095	-0.4820601
13	0x3f06d8a4	0.5267432
14	0xbe0107c3	-0.12600617
15	0x3c937eb5	0.018004755
16	0xbf013053	-0.5046436
17	0xbefaa8b6	-0.4895684
18	0xbe90f428	-0.28311276
19	0x3ea162c7	0.31520674
20	0x3d735c68	0.059414297
21	0xbf0cbc1d	-0.5497454
22	0xbee1bbff	-0.44088742
23	0xbdef4bad	-0.11684356
24	0xbead30a2	-0.33826166
25	0xbe57a806	-0.2106019
26	0x3e1fb582	0.15596583
27	0xbd87b06f	-0.06625449
28	0xbe7ea50b	-0.24867646
29	0xbcb7f7c7	-0.022457017
30	0xbe80715f	-0.25086495
31	0xbd83dc4c	-0.06438503
32	0xbec1f3c3	-0.37881288
33	0x3de818f3	0.11332884
34	0x3eb4fa87	0.35347387
35	0x3cf5c35f	0.030000387
36	0xbece3468	-0.40274358
37	0xbea5877b	-0.32329926
38	0xbf02dba0	-0.5111637
39	0x3d6ec68f	0.05829483
40	0xbd68125d	-0.056658138
41	0xbd8fd3e1	-0.070228346
42	0x3ed38740	0.41314125
43	0xbf0ce8ee	-0.5504292
44	0xbef6423a	-0.48097402
45	0xbed438e7	-0.41449663
46	0xbe894f30	-0.26818228
47	0xbe6109f0	-0.21976447
48	0xbef72a69	-0.48274544
49	0xbf2401bf	-0.64065164
50	0x3d29e68c	0.041479632
51	0xbeac5f4d	-0.3366646
52	0xbf275150	-0.6535845
53	0x3b132b4d	0.002245623
54	0xbea7a266	-0.32741088
55	0xbeb07b4f	-0.34469077
56	0xbe49dd60	-0.19713354
57	0xbf52ce4b	-0.8234603
58	0x3d6e65c9	0.05820254
59	0x3cc27fa4	0.023742504
60	0xbd040243	-0.03222872
61	0x3e69bb48	0.22825348
62	0xbbbcbf9f	-0.0057601477
63	0xbecb3fba	-0.39697057
64	0x3ece8c23	0.4034129
65	0xbf169837	-0.5882601
66	0x3ef0e2e9	0.4704812
67	0x3db1d48d	0.08683119
68	0x3d5ffb22	0.05468286
69	0xbecffd8c	-0.40623128
70	0x3e3eb998	0.18625486
71	0x3d8a1cf9	0.06743807
72	0x3e9a79db	0.30171093
73	0xbe4f6f1c	-0.20257229
74	0x3d39512f	0.04524344
75	0xbeb3cedd	-0.35118762
76	0xbeb4654a	-0.35233527
77	0xbf0a2e6e	-0.53977096
78	0xbd8861de	-0.06659292
79	0x3db61976	0.08891575
80	0xbcc544a5	-0.024080584
81	0xbe8d5c3d	-0.27609435
82	0x3e4da10c	0.20080966
83	0xbe97fd29	-0.29685333
84	0x3db6f893	0.089341305
85	0x3cc69501	0.024240972
86	0xbec627c0	-0.38702202
87	0xbe88f5a7	-0.26749918
88	0x3eb9c8ea	0.36286098
89	0xbf4eeeed	-0.8083332
90	0x3e0e0ed5	0.13872845
91	0xbf1d2bdf	-0.61395067
92	0xbd4945f9	-0.049138997
93	0x3e5005de	0.20314738
94	0xbca2bf5e	-0.019866642
95	0xbe26c8fb	-0.16287605
96	0xbef909e9	-0.48640373
97	0xbed36439	-0.412874
98	0xbe0d1a35	-0.13779528
99	0xbdf5890d	-0.11989031
100	0x3db899a7	0.09013682
101	0x3c09cca6	0.008410608
102	0xbe07735f	-0.13227604
103	0xbeddf86a	-0.43353587
104	0x3e1b8ea8	0.15191138
105	0xbe34afb4	-0.1764515
106	0xbf5f6304	-0.8726046
107	0xba8c2ce7	-0.0010694534
108	0xbf7d0083	-0.98828906
109	0xbdb377a8	-0.08763057
110	0x3cffcbd4	0.031225123
111	0x3d98a045	0.07452444
112	0xbf0fa41c	-0.56109786
113	0x3d807f82	0.0627432
114	0x3e85b478	0.2611425
115	0xbd867c3c	-0.065666646
116	0xbf1f7b77	-0.6229777
117	0xbe9b799a	-0.30366212
118	0xbd9fe8b3	-0.07808056
119	0x3e331406	0.17488107
120	0x3e666c8c	0.22502345
121	0xbe2d8081	-0.16943552
122	0xbe1eabde	-0.1549525
123	0xbe5d8cf5	-0.21635802
124	0xbe8b855a	-0.27250177
125	0xbee67776	-0.45013016
126	0x3e0f812b	0.14014117
127	0x3e2445a0	0.16042185
128	0x3e0f27e3	0.1398006
129	0x3eab31a1	0.334363
130	0x3d07585a	0.033043243
131	0xbf385ec8	-0.72019625
132	0xbf1f7947	-0.6229443
133	0x3d0da78a	0.034583606
134	0xbde9ead9	-0.11421747
135	0x3df84184	0.12121871
136	0xbf01feec	-0.50779605
137	0xbd5e6fed	-0.05430596
138	0xbf133de7	-0.5751633
139	0xbe84cc12	-0.25936943
140	0xbe5948c2	-0.21219161
141	0xbef6878b	-0.48150286
142	0xbe22d550	-0.15901685
143	0x3d56896c	0.05237715
144	0x3f0740fd	0.5283354
145	0x3ddbbf27	0.10729819
146	0x3da1d95b	0.079027854
147	0xbf509d27	-0.81489795
148	0xbfde5401	-1.7369386
149	0x3d7ca225	0.06167807
150	0x3e6b3c07	0.22972117
151	0x3e8e6bb5	0.2781655
152	0x3d64dcd8	0.055874676
153	0x3cbda009	0.0231476
154	0x3e3dedeb	0.1854779
155	0xbee23beb	-0.4418634
156	0xbf0704be	-0.5274161
157	0xbf08d638	-0.5345187
158	0xbe892049	-0.26782444
159	0xbe27b466	-0.1637741
160	0xbe31ca05	-0.1736222
161	0xbe4a3146	-0.19745359
162	0xbee2d28c	-0.4430126
163	0x3df656fb	0.12028309
164	0x3c64e6bf	0.01397103
165	0x3de49893	0.11161914
166	0xbe2c1a2b	-0.16806857
167	0x3d03ae0e	0.032148413
168	0xbda0f2c2	-0.078588024
169	0xbe8047c8	-0.25054765
170	0x3bdc82af	0.006729446
171	0xbdedb544	-0.11606839
172	0xbe5c46c1	-0.21511365
173	0x3e17c417	0.14820896
174	0xbf0c0de3	-0.5470869
175	0xbe8969ba	-0.26838475
176	0xbebb8328	-0.36623502
177	0xbe36376f	-0.17794584
178	0xbe10324c	-0.14081687
179	0x3db36b66	0.08760719
180	0x3d98046b	0.07422718
181	0x3ebb0ed2	0.36534745
182	0xbe8f6f3e	-0.2801456
183	0xbc538367	-0.012909747
184	0x3ed252f7	0.41078922
185	0xbd622b8b	-0.055217307
186	0xbe86c08d	-0.2631878
187	0x3e7b7ea0	0.24560022
188	0x3de54b98	0.11196059
189	0x3eeef81b	0.46673664
190	0xbd4a7625	-0.049429078
191	0xbe7962de	-0.24354121
192	0xbf01e65b	-0.5074212
193	0xbdf7bcaa	-0.12096532
194	0xbea297a2	-0.31756312
195	0x3dd1abf8	0.102378786
196	0x3e75b6b8	0.23995483
197	0xbc8d6ae6	-0.017262887
198	0x3ed11bc6	0.40841502
199	0xbec7129d	-0.38881388
200	0xbec51913	-0.38495693
201	0x3eb5f6a4	0.35539734
202	0x3d7d23ed	0.06180184
203	0xbed7a14c	-0.42115247
204	0xbdb5945f	-0.0886619
205	0xbeb92935	-0.3616425
206	0x3cbd5aad	0.023114527
207	0xbf1b031e	-0.6055163
208	0xbeb5a003	-0.35473642
209	0x3e36946a	0.17830053
210	0x3d5d457e	0.05402135
211	0xbe8ecb4e	-0.27889484
212	0x3dfe664d	0.12421856
213	0xbe59dfe8	-0.2127682
214	0xbe977896	-0.29584187
215	0x3d642a08	0.055704147
216	0xbe161086	-0.1465474
217	0xbe87c082	-0.2651406
218	0xbef0275a	-0.46905023
219	0x3c8c78b1	0.017147394
220	0x3d8b9e46	0.06817298
221	0xbe28944e	-0.16462824
222	0xbeecaaab	-0.4622396
223	0xbe29f9e1	-0.16599227
224	0xbe699000	-0.22808838
225	0x3d6992c9	0.05702475
226	0xbde055b8	-0.109538496
227	0x3bea150e	0.007143623
228	0xbca9b8b3	-0.020717954
229	0x3f0892d6	0.53349054
230	0xbe5b91fd	-0.21442409
231	0x3e2ff6b9	0.17183961
232	0xbdce0d74	-0.1006116
233	0x3c4018e7	0.011724687
234	0xbe243d64	-0.16039044
235	0xbd5d3197	-0.05400237
236	0x3b9dc469	0.0048146737
237	0x3e4edc0c	0.20201129
238	0xbb87a4de	-0.0041395267
239	0xbf10168e	-0.56284416
240	0xbd7b341e	-0.061329
241	0x3ed13e0d	0.40867653
242	0xbbdb158f	-0.0066859196
243	0x3f109c2b	0.56488293
244	0x3e5198ee	0.20468494
245	0xbea60212	-0.32423455
246	0xbc70d8e5	-0.014700149
247	0x3e5c68ca	0.21524349
248	0x3d587803	0.052848827
249	0x3ecb7609	0.3973849
250	0xbd38a8e0	-0.045082927
251	0xbf1ae798	-0.60509634
252	0xbeb6d463	-0.35708913
253	0xbf049514	-0.51789975
254	0xbeedc797	-0.46441337
255	0x3e1cd450	0.15315366

fc1.bias f4 [128]
0	0x401cbae1	2.4489062
1	0x3ed1e6d6	0.40996426
2	0xbf8b1b3c	-1.0867686
3	0x40009560	2.0091171
4	0x3f26d75b	0.65172356
5	0xbe281577	-0.16414438
6	0xc01f55f8	-2.489622
7	0xbe5d0f2b	-0.21587817
8	0xc0254dd5	-2.5828755
9	0x3fc1842d	1.5118462
10	0xbeda5485	-0.42642608
11	0x3fead776	1.8347003
12	0x3e3aa4b2	0.18226889
13	0x3e17f8ec	0.1484105
14	0x3e176ce7	0.14787637
15	0xbec22bdf	-0.37924096
16	0x3f460ee8	0.77366495
17	0xbf1f1b18	-0.62150717
18	0xbee6e2bb	-0.45094857
19	0xbfe07840	-1.7536697
20	0x400870e9	2.1318915
21	0x3f6cd019	0.9250503
22	0xc03c11e5	-2.9385922
23	0x4021d2b0	2.5284843
24	0x401c7172	2.4444242
25	0x3dd4e344	0.1039491
26	0x3f81d570	1.0143261
27	0xbe956e1d	-0.29185572
28	0x3fd4ffb5	1.6640536
29	0x3f7d0c7b	0.9884717
30	0xbf8c6e3e	-1.0971143
31	0x4001a0cb	2.025439
32	0xbedd8564	-0.4326583
33	0x401b45ea	2.4261422
34	0xc0274828	-2.613779
35	0xbe482b91	-0.1954787
36	0xbfcb10fb	-1.5864557
37	0xc00b560f	-2.1771276
38	0x3fe28378	1.7696371
39	0xc005b0be	-2.0889125
40	0x3d54ec1a	0.051982976
41	0xbe8418c9	-0.2580016
42	0xc01a7594	-2.4134264
43	0x3fde0e42	1.7348101
44	0xbd9d39f2	-0.07677068
45	0xbf4abf1e	-0.7919787
46	0xbebf41d4	-0.3735491
47	0xc0044f74	-2.0673494
48	0xc008bf5c	-2.1366796
49	0xbfd9eb1c	-1.7024875
50	0xbfbe3d59	-1.4862472
51	0x40081a99	2.1266234
52	0xbf0e28cf	-0.5553102
53	0x3dd3ecbd	0.103478886
54	0x40052da8	2.0809116
55	0x40432a07	3.0494401
56	0x401f85cc	2.4925413
57	0xc004c411	-2.074467
58	0xbec6e77a	-0.38848478
59	0xc01abda2	-2.4178243
60	0xbedf8967	-0.43659517
61	0x400d504d	2.2080262
62	0x3fd448b6	1.658469
63	0x3fb97cbf	1.4491194
64	0xbe8e1d40	-0.2775669
65	0x401cd69b	2.4505985
66	0x3fdb1f2c	1.7118888
67	0x3f2bb66a	0.67075217
68	0x4020b985	2.5113232
69	0x3fa0268a	1.2511761
70	0xbfcebe21	-1.6151773
71	0x3feb092d	1.8362175
72	0x3e8859e5	0.26631084
73	0x3ff5c17d	1.9199673
74	0x3ed1fcde	0.41013235
75	0xbfb8b77f	-1.4430999
76	0x4011242f	2.2678335
77	0x40328b7c	2.7897635
78	0xbf1ba475	-0.60797817
79	0x3f0cd24e	0.550084
80	0x402d1813	2.7045944
81	0xbf8bd840	-1.0925369
82	0xbfec827e	-1.8477323
83	0x3f54aee2	0.8307935
84	0x3e7c3a7e	0.24631688
85	0x3ff5a534	1.9191041
86	0x3f13a07b	0.5766675
87	0x401452bf	2.3175504
88	0x3cbf20b4	0.023331024
89	0x3fec7c40	1.8475418
90	0x400f25c6	2.2366805
91	0xbed5c79c	-0.41753852
92	0x400be596	2.1858878
93	0xbe34a3c2	-0.17640594
94	0x3ee698e0	0.4503851
95	0xbe8059cc	-0.2506851
96	0xbe3aef9b	-0.18255465
97	0xbfc3a4d3	-1.5284675
98	0xbf562440	-0.83649063
99	0xc01d3967	-2.4566286
100	0xbfb0908b	-1.3794111
101	0xbe86403a	-0.26220876
102	0x3fd25310	1.6431599
103	0x3f90a396	1.1299922
104	0x3f259142	0.6467477
105	0xc0090cf6	-2.141416
106	0xbd0f71b7	-0.035020556
107	0x3ef5b0c1	0.47986415
108	0x3fc0fcec	1.5077186
109	0xbd2b6a5f	-0.04184949
110	0xc0008c1b	-2.0085514
111	0x3ef71fab	0.48266348
112	0x3dac535a	0.084143355
113	0x402061d1	2.5059702
114	0xbed775ae	-0.4208197
115	0xbff81e82	-1.938431
116	0x3f7542aa	0.95804846
117	0x3df5de95	0.12005345
118	0x3eb9a4b2	0.36258465
119	0x403d9b15	2.9625905
120	0x40109a44	2.2594156
121	0xbff7b33f	-1.9351577
122	0xc001d75d	-2.0287697
123	0xbdb1b164	-0.08676413
124	0x3f108c16	0.56463754
125	0xbf48daae	-0.7845868
126	0x3ffcae69	1.9740726
127	0x3ff38480	1.9024811

fc2.weight f4 [128, 128]
0	0x3da40270	0.080082774
1	0x3d83a5c1	0.064280994
2	0xbe03bbd6	-0.12864622
3	0x3e842c4e	0.25815052
4	0xbf43fba1	-0.7655583
5	0xbc01bdde	-0.007918803
6	0xbeb23d29	-0.34812286
7	0xbcce72cc	-0.025201224
8	0xbd92b48d	-0.071633436
9	0x3db54c2f	0.088524215
10	0x3d72efee	0.059310846
11	0xbd8ed404	-0.069740325
12	0x3d65767c	0.0560212
13	0xbd9eca28	-0.07753402
14	0x3c19672a	0.009362975
15	0xbd114ac7	-0.035471704
16	0xbd2061ad	-0.03915565
17	0xbe8c6f18	-0.27428508
18	0xbb5022cb	-0.003175902
19	0xbe01baea	-0.12668958
20	0x3c9b6f4e	0.018973973
21	0x3e712aac	0.23551434
22	0xbec34b61	-0.38143447
23	0x3c6cd1cc	0.014454316
24	0x3bd73a6d	0.006568244
25	0xbd038c07	-0.032115962
26	0xbda83cbd	-0.0821471
27	0x3e08b91f	0.13351868
28	0x3eb1eab9	0.34749392
29	0x3ee72cf1	0.45151475
30	0x3dc16dda	0.09444781
31	0x3f22d6fd	0.63609296
32	0x3daee28c	0.08539304
33	0x3e90dd2f	0.2829375
34	0xbe453d74	-0.19261724
35	0x3bc617c0	0.0060453117
36	0xbcd8ef93	-0.026481425
37	0xbe92adb4	-0.2864815
38	0x3d8159d1	0.06315959
39	0x3c854a94	0.016270913
40	0xbef9f9b6	-0.48823327
41	0xbd8cbf1e	-0.0687239
42	0xbd70896e	-0.058724813
43	0x3ea70c2f	0.32626483
44	0x3c33707d	0.010952112
45	0xbcc289d5	-0.023747364
46	0x3d9a4d22	0.07534243
47	0xbd75aa51	-0.05997688
48	0xbe7cfd41	-0.24705984
49	0xbeec5425	-0.46157947
50	0xbeee7260	-0.46571636
51	0x3eaa69cf	0.3328385
52	0xbc06f9b3	-0.008238244
53	0x3d664882	0.056221493
54	0xbd888621	-0.06666208
55	0x3ea9b830	0.33148336
56	0x3de92d23	0.11385562
57	0x3d961ee5	0.073301114
58	0x3c2dc356	0.010605654
59	0xbe847b92	-0.25875527
60	0xbd85f87d	-0.06541536
61	0xbbe62db4	-0.007024491
62	0x3b76ded1	0.003766943
63	0xbe94b874	-0.29046977
64	0xbc3dd417	-0.011586211
65	0xbe6c5848	-0.23080552
66	0x3e239a55	0.15976842
67	0xbd933d33	-0.07189407
68	0x3df06da8	0.11739665
69	0x3d9f0739	0.077650495
70	0xbd1e660a	-0.03867153
71	0xbc8b545f	-0.017008005
72	0xbca4cc7d	-0.020117039
73	0x3ee26c51	0.44223264
74	0x3c5650a3	0.013080749
75	0xbd9e0e25	-0.077175416
76	0xbb896b7d	-0.004193722
77	0x3ed06a9d	0.4070634
78	0x3d8e72bb	0.06955477
79	0x3d9b1645	0.07572607
80	0x3b830d30	0.003999375
81	0xbe146a49	-0.1449367
82	0xbe374416	-0.17897066
83	0xbe4f866c	-0.20266122
84	0x3ca0ebd2	0.019643698
85	0xbd883388	-0.06650454
86	0x3cf97034	0.03044901
87	0xbd0801cb	-0.033204835
88	0x3d5c14fc	0.05373095
89	0x3c4c000e	0.012451185
90	0x3d06c0de	0.032898776
91	0xbd8c745f	-0.068581335
92	0xbe6f5df3	-0.23375683
93	0xbb9a319f	-0.0047056223
94	0x3e8a3769	0.269954
95	0x3d4422ca	0.04788474
96	0xbc07b570	-0.008283004
97	0xbdd54d80	-0.104151726
98	0x3bbb7b19	0.0057214615
99	0xbe9ec12a	-0.31006747
100	0xbdb11e10	-0.08648312
101	0x3b4538a9	0.0030093587
102	0xbe3da051	-0.18518187
103	0xbe1c8753	-0.15285997
104	0xbf46280d	-0.7740486
105	0xbda1adde	-0.07894491
106	0xbd04d52a	-0.03242985
107	0x3c38bf74	0.011276115
108	0x3db982f0	0.090581775
109	0xbc9d1f81	-0.019180061
110	0xbd821e07	-0.063533835
111	0xbda4c0e0	-0.080446005
112	0xbe5e2be4	-0.2169643
113	0x3d592fa8	0.053023964
114	0xbc127ad8	-0.008940421
115	0xbd936eb7	-0.071988516
116	0x3e47fb68	0.19529498
117	0xbc1d0c8b	-0.00958551
118	0xbecf150a	-0.4044574
119	0x3dd964e0	0.106149435
120	0x3d8701c7	0.06592136
121	0xbc17d277	-0.009266487
122	0x3d38dba0	0.045131326
123	0xbd49e6aa	-0.049292244
124	0x3cb1bc4a	0.021696229
125	0xbe7ae015	-0.24499543
126	0x3d09829a	0.033571817
127	0x3b872519	0.0041242954
128	0xbdcc4b33	-0.099752806
129	0x3d53992c	0.051659748
130	0xbd51a2cb	-0.051180642
131	0x3c8a789a	0.01690321
132	0xbdc781bb	-0.09741541
133	0xbcf6fdcc	-0.030150317
134	0xbd0ab82d	-0.03386705
135	0xbd861dc9	-0.0654865
136	0x3cdce162	0.02696294
137	0xbd6d0013	-0.0578614
138	0xbc09b1d9	-0.008404219
139	0x3ca8f636	0.020625215
140	0xbd0e5a5c	-0.034754142
141	0xbdb9907b	-0.090607606
142	0x3d0c76e3	0.034293067
143	0x3c105a3d	0.008810577
144	0x3cdb30e4	0.026756711
145	0xbda8d1ef	-0.08243167
146	0xbcce5b32	-0.02518997
147	0xbd1acc67	-0.03779259
148	0x3c17b557	0.009259543
149	0x3d670bb1	0.056407634
150	0xbc885066	-0.0166399
151	0x3d5835dd	0.052785743
152	0x3c3f1812	0.011663454
153	0x3db15ae8	0.08659917
154	0xbcb1ca4f	-0.021702914
155	0xbd96aca3	-0.073571466
156	0xbd6b1f73	-0.05740304
157	0xbbefe25e	-0.0073206862
158	0xbc94eeb9	-0.018180238
159	0xbd9c29ab	-0.07625135
160	0xbd43ecda	-0.0478333
161	0x3d1a73be	0.037708037
162	0xbdad1be2	-0.08452584
163	0xbdc61920	-0.09672761
164	0xbd42cd21	-0.047558907
165	0xbd0f0b3f	-0.034922834
166	0xbdad49c6	-0.08461337
167	0x3d376243	0.044771444
168	0x3be57dd1	0.007003524
169	0xbd8ea00f	-0.069641225
170	0x3d8bd015	0.06826798
171	0xbb99fe9e	-0.004699542
172	0xbb281bab	-0.0025651257
173	0x3d359bf6	0.04433819
174	0x3d842b21	0.06453539
175	0xbd10efc1	-0.035384897
176	0x3d8cec0d	0.068809606
177	0xbda1b5c4	-0.07895997
178	0xbd9d121b	-0.07669469
179	0xbd47ae16	-0.048750006
180	0x3cd5c8ea	0.02609678
181	0xbd6e8432	-0.05823154
182	0xbd064e0c	-0.032789275
183	0xbd40af2a	-0.04704205
184	0xbdc496be	-0.09599064
185	0xbc813682	-0.015773062
186	0x3d2abbfe	0.04168319
187	0xbd25b6a4	-0.040457383
188	0x3ccabbaa	0.024747688
189	0x3cdc43d9	0.026887821
190	0xbcea5e85	-0.028609524
191	0x3bef6cec	0.0073066857
192	0x3b092aec	0.0020930124
193	0xbd7ee22c	-0.062227413
194	0x3d3b8609	0.045782123
195	0x3cda9f44	0.026687272
196	0xbda9c8a0	-0.08290219
197	0x3cb44651	0.022006186
198	0xbd9db630	-0.07700765
199	0x3d3533b0	0.044238746
200	0xbd17048b	-0.036869567
201	0x3b18eb58	0.0023333635
202	0xbbeaaa4a	-0.0071614133
203	0x3d9b936b	0.07596477
204	0x3d2dba69	0.042414103
205	0x3d027baf	0.031856235
206	0xbd63cdb8	-0.05561611
207	0x3d0273d4	0.031848744
208	0x3c73cc21	0.014880211
209	0xbb89b166	-0.0042020557
210	0x3c5e48e6	0.013567185
211	0x3d2a2881	0.041542534
212	0xbd4a2ae7	-0.04935732
213	0x3d1ea05a	0.038727142
214	0x3d398d20	0.045300603
215	0xbd3fdaec	-0.04683964
216	0xbd978219	-0.07397861
217	0xbdb32834	-0.087479025
218	0x3d173b67	0.036921885
219	0x3d3de787	0.04636338
220	0xbd695ef7	-0.05697533
221	0xbccd3ae0	-0.025052488
222	0x3d639227	0.055559304
223	0x3d16e519	0.03683958
224	0x3d5371f4	0.051622346
225	0x3cea1daf	0.028578607
226	0xbc80953c	-0.01569616
227	0xbd62e92b	-0.055398148
228	0x3ab9e43b	0.0014182398
229	0x3daa5efb	0.08318897
230	0xbd95885e	-0.073014006
231	0x3c8cab58	0.017171547
232	0xbc4c33f0	-0.012463555
233	0x3ccfad66	0.025351238
234	0x3ca3c4e4	0.019991346
235	0x3d72dae2	0.059290774
236	0x3d380900	0.044930458
237	0xbda926fa	-0.08259387
238	0x3d650097	0.055908766
239	0xbce1b045	-0.027549872
240	0xbcca016c	-0.024658881
241	0xbd489044	-0.048965707
242	0xbd875714	-0.06608406
243	0x3c06bd76	0.008223882
244	0xbd243aa3	-0.040094983
245	0xbd647530	-0.05577582
246	0xbd940528	-0.07227546
247	0xbe049aac	-0.12949628
248	0xbc1b3cf8	-0.009474985
249	0xbca59622	-0.02021319
250	0xba72aff0	-0.0009257784
251	0x3d935c23	0.07195308
252	0x3d7e1178	0.06202838
253	0xbdb6e6fa	-0.08930774
254	0xbd551f11	-0.05203158
255	0xbc2a678a	-0.010400662

fc2.bias f4 [128]
0	0x3f56bc91	0.8388148
1	0xbd19de4f	-0.037565526
2	0xbfce5817	-1.6120633
3	0x3fb94443	1.4473957
4	0x3f943ccd	1.1581055
5	0x3fadfd2b	1.3592886
6	0x3e8bec74	0.27328837
7	0x3fcf0785	1.617417
8	0x3f4277e9	0.7596422
9	0x3f8c13f1	1.0943586
10	0x3f5048f6	0.8136133
11	0x3da61874	0.08110133
12	0x3fcdea6d	1.6087166
13	0x3ea2c09a	0.31787568
14	0xbe05aa20	-0.13053179
15	0x3fd611cf	1.6724185
16	0x3a78fcc7	0.0009498116
17	0x3fc78cef	1.5589885
18	0x3fbc6448	1.4718103
19	0x3c752c9c	0.014964249
20	0x3fea6205	1.8311163
21	0xbd7c65c2	-0.06162048
22	0xbd672717	-0.056433763
23	0x3d78067d	0.060553063
24	0x3d29ef49	0.041487966
25	0xbd22764b	-0.039663594
26	0xbd63d6a4	-0.05562462
27	0xbd80a201	-0.062809
28	0x3b1a23ce	0.0023519876
29	0x3fbd103e	1.4770582
30	0x3fb4a1bb	1.4111856
31	0x3fa76c98	1.3080015
32	0xbec2b958	-0.3803203
33	0xbd8f1032	-0.06985511
34	0x3fe7a598	1.809741
35	0x3fe743a5	1.8067518
36	0xbfb4ae3f	-1.4115676
37	0xbc02264c	-0.007943701
38	0x3fe4c02b	1.7871145
39	0x3d7d79cb	0.06188373
40	0x3d2b4fe9	0.041824255
41	0xbd52590b	-0.05135445
42	0xbda4180f	-0.08012401
43	0xbddfe4ed	-0.10932336
44	0x3fdc8722	1.7228739
45	0xbdbc1c71	-0.09185112
46	0x3ebb3dde	0.36570638
47	0xbdca573b	-0.09879919
48	0x3fa78e84	1.3090367
49	0xbcfc1bb5	-0.03077493
50	0x3fadd3a3	1.3580211
51	0x3fdfe8df	1.7492942
52	0x3f822d43	1.0170063
53	0x3ea3abb0	0.31966925
54	0x3cd3f015	0.025871316
55	0x3f6f5b85	0.9349902
56	0xbf073337	-0.5281252
57	0xbbc1fafe	-0.005919813
58	0x3fe6d0d9	1.8032485
59	0x3efe8acb	0.49715266
60	0x3faf7683	1.3708042
61	0x3f8a4439	1.080207
62	0xbdd0cf7e	-0.10195826
63	0x3f039007	0.51391643
64	0xbb9adb80	-0.0047258735
65	0x3c15067f	0.009095787
66	0x3e9e30e6	0.30896682
67	0x3fc2b1fa	1.5210564
68	0xbd2d3e6a	-0.04229585
69	0xbd503c5b	-0.05083881
70	0x3fd9c1bd	1.7012249
71	0xbfe7813f	-1.8086318
72	0x3c189ceb	0.009314756
73	0x3f79fa83	0.97647876
74	0xbda0bdbe	-0.078486905
75	0x3e7a13e8	0.24421656
76	0x3f0d6ff5	0.5524896
77	0xbe547f82	-0.20751765
78	0xbd90bb2e	-0.07066952
79	0xbf8234a4	-1.0172315
80	0x3f4e4774	0.8057778
81	0xbdc13bb7	-0.09435218
82	0x3ebe50d4	0.37171042
83	0xbd3bdf61	-0.045867328
84	0x3fceb16c	1.6147895
85	0x3fe902a6	1.8203933
86	0x3fca6f20	1.5815163
87	0x3d9d5904	0.07682994
88	0x3f926f42	1.1440203
89	0xbdd9a6dd	-0.1062753
90	0x3fab6739	1.3390876
91	0xbde45634	-0.111492544
92	0x3f7e5988	0.99355364
93	0x3f52c601	0.8233338
94	0x3fc7e305	1.5616156
95	0xbdec69ee	-0.11543642
96	0x3fc5a5e1	1.5441247
97	0xbd8b06e4	-0.06788424
98	0xbc46db82	-0.012137296
99	0x3e8d953f	0.27652928
100	0xbd84151d	-0.064493395
101	0x3f9ad4ab	1.2096151
102	0x3d6e9112	0.05824382
103	0x3d8c87a9	0.068618126
104	0xbd7aafbe	-0.061202757
105	0xbdf77526	-0.12082891
106	0xbfe5ebb4	-1.7962556
107	0x3cfe039a	0.031007577
108	0x3f09eb99	0.5387512
109	0x3e8469c8	0.25861955
110	0x3fe31069	1.7739383
111	0xbd9015b5	-0.0703539
112	0x3fe2f427	1.7730759
113	0x3c74b8b3	0.014936614
114	0x3f889db3	1.0673126
115	0x3c650108	0.013977297
116	0x3f475dd3	0.7787754
117	0x3f2bab5c	0.6705835
118	0x3fc9c0b1	1.576193
119	0x3f45cd3c	0.7726629
120	0x3fd26f85	1.6440283
121	0xbd97ae93	-0.07406344
122	0xbd94b500	-0.072610855
123	0xb9fd1192	-0.0004826901
124	0xbd9e3a08	-0.07725912
125	0x3b7c3ac4	0.0038487175
126	0x3f1391cb	0.5764434
127	0x3c1375d3	0.009000259

fc3.weight f4 [64, 128]
0	0xbce3ea78	-0.027821764
1	0x3dab98e5	0.08378772
2	0xbdad84ed	-0.08472619
3	0xbce8dda3	-0.028425997
4	0x3d5dad7a	0.05412052
5	0xbcd2d06e	-0.025734153
6	0xbd37556f	-0.04475921
7	0x3d1238f0	0.03569883
8	0xbd5d0413	-0.053958964
9	0xbd0dff86	-0.034667514
10	0xbdace659	-0.08442373
11	0xbda59ad9	-0.080861755
12	0xbd0b4146	-0.033997796
13	0x3b2801fb	0.0025635946
14	0xbdaf4131	-0.08557356
15	0xbd54a5b2	-0.051915832
16	0xbd41f789	-0.04735521
17	0x3d83588a	0.06413372
18	0xbd98227a	-0.07428451
19	0xbda2f36d	-0.07956586
20	0xbd1b8282	-0.03796626
21	0xbd268532	-0.04065437
22	0x3d274458	0.040836662
23	0xbd4ecf7e	-0.05049085
24	0x3c3780c5	0.011200135
25	0xbd82aaf5	-0.06380264
26	0xbdabf389	-0.0839606
27	0xbdac40f2	-0.08410825
28	0xbbd3d2af	-0.0064643244
29	0xbcd78143	-0.026306754
30	0x3cc6ae47	0.024253024
31	0x3c327ca4	0.010893974
32	0x3d1d1065	0.038345713
33	0x3d838e54	0.06423631
34	0xbd331bb2	-0.043727584
35	0x3c54de2f	0.012992426
36	0xbd9d168b	-0.07670315
37	0x3c009d3d	0.0078499885
38	0xbd69ae63	-0.057051074
39	0xbc9f695b	-0.019459417
40	0x3c8929a8	0.016743496
41	0xbd031443	-0.032001745
42	0x3cf7f28b	0.03026702
43	0x39948aca	0.00028332166
44	0xbba264c0	-0.004955858
45	0x3cdfab5d	0.027303392
46	0x3ceb8078	0.028747782
47	0x3d9b3365	0.07578162
48	0x3d0859f3	0.033288907
49	0xbd164eed	-0.036696363
50	0x3bb3dc35	0.005488897
51	0xbdc2b904	-0.09507945
52	0xbd438e0b	-0.047742885
53	0x3cb20c24	0.021734305
54	0xbd27fddc	-0.041013584
55	0xbd2cb08f	-0.042160567
56	0x3c495983	0.012289408
57	0x3c56b94e	0.0131057035
58	0xbcb59c0e	-0.02216914
59	0x3cc3e89c	0.023914628
60	0xbd23b948	-0.03997162
61	0x3cc5ba2e	0.024136629
62	0x3d6a4bb9	0.05720112
63	0xbcd4f14b	-0.025993964
64	0x3cffa108	0.031204715
65	0x3cdba3d9	0.026811527
66	0xbda4e0f7	-0.08050721
67	0xbdc1b46c	-0.09458241
68	0xbd1ab9e4	-0.037774935
69	0xbd156097	-0.03646907
70	0xbc788a39	-0.015169674
71	0xbdcf1865	-0.10112075
72	0x3d7c9186	0.06166222
73	0x3d11c2f9	0.03558633
74	0x3db1434a	0.086554125
75	0xbde4d4d4	-0.11173406
76	0x3d732f8f	0.059371527
77	0xbdaae7a6	-0.08344965
78	0xbceb195f	-0.028698621
79	0x3c8ee75a	0.017444301
80	0x3c8f1a0e	0.017468479
81	0xbd849fff	-0.06475829
82	0xbd802c53	-0.06258454
83	0xbd7e054e	-0.062016778
84	0xbd5fb6f6	-0.054617845
85	0xbd0a582e	-0.0337755
86	0xbd201496	-0.039082132
87	0x3c83928b	0.016061088
88	0xbc40ac7d	-0.011759874
89	0xbd833fb5	-0.064086355
90	0x3c459813	0.012060183
91	0x3d958ef3	0.07302656
92	0xbd118345	-0.03552558
93	0x3d3fb007	0.046798732
94	0xbda1fd78	-0.079096735
95	0x3c5ed395	0.01360025
96	0x3d3ccfb0	0.046096504
97	0xbdb1e16a	-0.086855724
98	0x3cd7cfdd	0.026344234
99	0xbd8c47a5	-0.068496026
100	0x3d7c7b9a	0.061641313
101	0xbb3fa2d0	-0.002924133
102	0xbd852539	-0.0650124
103	0xbdc7b90e	-0.09752093
104	0x3d9e6ab2	0.07735194
105	0xbd0aae04	-0.03385736
106	0x3cf45062	0.029823486
107	0xbc83a281	-0.016068699
108	0x3d4e0106	0.050293945
109	0xbd655034	-0.05598469
110	0x3c5ebf5d	0.013595429
111	0xbd211d40	-0.039334536
112	0xbd0f0208	-0.034914047
113	0xbc9a1bbf	-0.018812058
114	0xbdad0db9	-0.08449883
115	0xbd8a15b5	-0.067424215
116	0xbd55adff	-0.05216789
117	0x3ce455fa	0.027873028
118	0xbd6f07c4	-0.058357015
119	0xbdbc223b	-0.091862164
120	0xbdc31d97	-0.09527128
121	0xbd7c1bde	-0.061550014
122	0xbd0a3879	-0.033745263
123	0xbc4196fd	-0.011815784
124	0xbbc99436	-0.0061517013
125	0xbd6f7db4	-0.05846949
126	0x3d6afac6	0.057368062
127	0xbdaa4551	-0.08314002
128	0xbd5fba30	-0.05462092
129	0x3bc67772	0.0060567195
130	0xbe03c4e0	-0.1286807
131	0xbd194ca6	-0.037426613
132	0xbe03f0e7	-0.12884866
133	0xbad03f15	-0.001588794
134	0x3daedfa5	0.085387506
135	0x3d19b00a	0.0375214
136	0xbcd1a4ea	-0.025591332
137	0xbb92654e	-0.004467643
138	0xbc4bafe8	-0.012432076
139	0xbc4f0755	-0.012636025
140	0xbd47b57f	-0.048757073
141	0xbdc68f94	-0.09695354
142	0xbd904d9c	-0.07046053
143	0x3c66e676	0.014093032
144	0xbda1082c	-0.07862887
145	0x3ce0ee80	0.027457476
146	0xbdebfdc1	-0.11523009
147	0x3ca76782	0.020435099
148	0x3ca88e70	0.020575732
149	0x3d824898	0.063615024
150	0x3bab762f	0.0052325944
151	0x3d2f3a2e	0.042780094
152	0x3db444d9	0.08802194
153	0xbd8471bd	-0.06467006
154	0xbd6f1987	-0.058373954
155	0xbe04c78a	-0.12966743
156	0x3ccfba0f	0.025357274
157	0x3d2615cf	0.040548142
158	0xbdc82707	-0.09773069
159	0xbdd666f9	-0.10468859
160	0xbdbf7c18	-0.09349841
161	0x3b5fd7d2	0.0034155739
162	0x3c808080	0.015686274
163	0xbdf939d2	-0.121692315
164	0xbdc0efe6	-0.09420757
165	0xbce829ec	-0.028340302
166	0xbdb0875d	-0.086195685
167	0x3d2033d9	0.039111946
168	0x3cc09bc8	0.023511782
169	0x3d04a394	0.032382563
170	0xbc5732c7	-0.013134665
171	0xbd78c505	-0.060734767
172	0xbd0f659e	-0.03500902
173	0x3cd09854	0.02546326
174	0x3d4f4eca	0.05061225
175	0xbcc633dc	-0.02419465
176	0xbd85acb2	-0.0652708
177	0x3c01c56d	0.007920605
178	0xbe09279a	-0.13394013
179	0x3c86c70e	0.016452339
180	0xbe1027f9	-0.14077748
181	0xbe272d1c	-0.16325802
182	0xbc92937c	-0.017892592
183	0x3c2a4f29	0.01039485
184	0xbd546a94	-0.051859453
185	0x3a773e1f	0.0009431559
186	0xbd5e8c3c	-0.054332957
187	0xbdbe25f5	-0.092845835
188	0xbdb7bd8f	-0.08971702
189	0xbd39356a	-0.045216955
190	0xbd83063f	-0.06397676
191	0xbe11ca97	-0.14237438
192	0xbd86550e	-0.06559192
193	0xbdad0cb4	-0.084496886
194	0x3d1e30ec	0.038620874
195	0xbcad0c18	-0.02112393
196	0x3d0cbd56	0.034360252
197	0xbd5a2e66	-0.053266905
198	0x3d363861	0.04448736
199	0xbdde8416	-0.10865037
200	0x3bb836fc	0.005621789
201	0xbe32985d	-0.17440934
202	0xbb815482	-0.0039468417
203	0xbe0ebd7f	-0.13939475
204	0xbc03ca1c	-0.008043792
205	0xbd5c1e34	-0.05373974
206	0x3cfe48f6	0.03104065
207	0x3ce28f6b	0.027656278
208	0xbc5f3fe7	-0.013626075
209	0x3d0aea46	0.033914827
210	0x3daf4b2e	0.08559261
211	0xbc8a2302	-0.016862396
212	0xbc9d72c7	-0.01921977
213	0x3cbfd188	0.023415342
214	0xbce1baac	-0.027554832
215	0x3d780e11	0.06056029
216	0xbd5b97d3	-0.053611588
217	0x3d8ce402	0.068794265
218	0xbc4c9e8a	-0.0124889705
219	0xbd3385d4	-0.0438288
220	0xbd07dff8	-0.033172578
221	0xbd97aad8	-0.07405633
222	0xbd7ee33d	-0.06222843
223	0x3d9499c6	0.072558925
224	0xbdaa6f36	-0.08321993
225	0x3d84227a	0.064518884
226	0xbd5a4554	-0.053288773
227	0xbd97a8ad	-0.07405219
228	0xbd9910cb	-0.07473906
229	0xbdb1c588	-0.08680254
230	0x3d2e5ac1	0.04256702
231	0xbd7b1853	-0.061302494
232	0xbc6bca7b	-0.014391537
233	0xbd99949c	-0.07499048
234	0xbdf82e08	-0.12118155
235	0x3d1be0b3	0.038056087
236	0x3bbcbee9	0.005760063
237	0xbdeb1ee0	-0.11480498
238	0x3c93351d	0.017969662
239	0x3d2a1f2b	0.04153363
240	0x3c8ecf4e	0.017432835
241	0x3d6c401d	0.05767833
242	0xbd9ff2db	-0.07809993
243	0x3ad6f19e	0.0016398912
244	0x3c9c362d	0.019068802
245	0x3ba16686	0.004925552
246	0xbdcb9260	-0.09940028
247	0x3dbde176	0.09271519
248	0x3d72245e	0.059116714
249	0x3d38ee91	0.04514939
250	0x3daa8ba1	0.08327413
251	0x3d2025ff	0.039098736
252	0x3d933c41	0.07189227
253	0xbdaff1d4	-0.08591047
254	0xbd0c422d	-0.034242798
255	0x3d98d2e4	0.07462099

fc3.bias f4 [64]
0	0x3d5089ab	0.05091254
1	0xbe0012c2	-0.12507156
2	0xbe1479a1	-0.14499523
3	0x3f0c1626	0.54721296
4	0x3eafe80e	0.3435673
5	0xbdd81bd1	-0.105521806
6	0xbe05d61e	-0.1306996
7	0x3d1d9ca4	0.038479462
8	0x3d9bf719	0.076154895
9	0x3d9702f2	0.07373609
10	0x3fbd1a67	1.4773682
11	0xbd8b76fc	-0.06809804
12	0xbb7a7cea	-0.0038221427
13	0xbcec7590	-0.028864652
14	0xbd538829	-0.051643524
15	0xbde032a5	-0.1094716
16	0x3c4f8ed4	0.01266833
17	0xbe7c835c	-0.24659485
18	0x3d4ada38	0.049524516
19	0x3efa3222	0.48866373
20	0xbdc19859	-0.09452886
21	0x3fd7e94c	1.6868072
22	0x3f051273	0.51981276
23	0x3f2f1a54	0.6839955
24	0xbd4dd95b	-0.050256114
25	0xbda8ba6c	-0.08238682
26	0xbcd68338	-0.026185617
27	0x3b821861	0.0039701913
28	0x3f555dd2	0.83346283
29	0x3fc0b3ea	1.5054905
30	0x3f552aa3	0.83268183
31	0x3e41c8cb	0.18924253
32	0xbd746259	-0.059664104
33	0xbd569e85	-0.05239727
34	0xbe7e61a2	-0.24841931
35	0x3fde7b35	1.738135
36	0x3cc31052	0.023811493
37	0xbd736674	-0.05942388
38	0x3f43e5d5	0.7652257
39	0x3c541f9b	0.012946988
40	0x3f0e0c03	0.5548708
41	0x3fd3bc60	1.6541862
42	0xbc905a8c	-0.017621301
43	0xbdaf7b50	-0.08568442
44	0x3a1b47b4	0.00059234654
45	0x3fc211df	1.5161704
46	0x3f9ecf5c	1.2407031
47	0x3f102700	0.5630951
48	0x3f964f90	1.174303
49	0xbdc85d21	-0.09783388
50	0xbd7d9620	-0.06191075
51	0xbcf1c5f2	-0.029513333
52	0x3f87d8f8	1.0613089
53	0x3e2d78f9	0.16940679
54	0x3f0f013f	0.55861276
55	0x3cecd59b	0.028910449
56	0xbdded10c	-0.10879716
57	0x3d52fac9	0.0515087
58	0x3d9592cd	0.07303391
59	0x3fe01961	1.7507745
60	0x3d509700	0.050925255
61	0x3f5d8208	0.86526537
62	0x3cbd4458	0.023103878
63	0xbe4c7109	-0.19964994

fc4.weight f4 [20, 64]
0	0xbce8147d	-0.028330082
1	0x3c2a60ac	0.010399025
2	0x3d337fea	0.04382316
3	0x3d8f1618	0.06986636
4	0x3ca5685b	0.020191362
5	0xbd7bfa0b	-0.061517756
6	0xbdd1c3db	-0.102424346
7	0xbded6460	-0.11591411
8	0x3d88078d	0.06642065
9	0x3d92124a	0.071323946
10	0x3ee0abf1	0.4388118
11	0x3d8d6e78	0.06905836
12	0x3d2e20d4	0.042511776
13	0x3e16f333	0.1474121
14	0xbcd6c219	-0.0262156
15	0xbdd33b02	-0.10313989
16	0x3d654118	0.05597028
17	0xbd8ff784	-0.07029632
18	0x3d334b24	0.04377283
19	0x3e25e65b	0.16201155
20	0xbe9374b8	-0.28799987
21	0x3eba8415	0.36428896
22	0x3e2d0eb8	0.16900146
23	0xbd9cd144	-0.07657102
24	0x3d12ac7e	0.035809033
25	0x3d6db747	0.058036115
26	0xbdb33c60	-0.0875175
27	0x3ccffbd2	0.025388632
28	0x3d03c910	0.03217417
29	0x3e8fa781	0.28057483
30	0x3e23520c	0.15949267
31	0x3d039dc0	0.032132864
32	0x3e0464b7	0.12929045
33	0xbd140a19	-0.036142442
34	0xbe2f6076	-0.1712664
35	0x3e98e913	0.29865322
36	0xbdbc2f8c	-0.09188756
37	0x3c4b4880	0.012407422
38	0xbb68f5dc	-0.0035546934
39	0xbd9d5d29	-0.076837845
40	0x3e33ba84	0.17551619
41	0x3e851812	0.25994927
42	0xbd8567dd	-0.06513951
43	0x3c9c5af4	0.019086339
44	0x3dbf34e0	0.09336257
45	0x3e58481a	0.21121255
46	0x3ea8f1bf	0.32996938
47	0x3b02400f	0.0019874608
48	0x3e947f19	0.29003218
49	0xbb88f95c	-0.0041801166
50	0xbdd8da11	-0.10588468
51	0x3ce04bf1	0.027379962
52	0x3d9a13db	0.075233184
53	0x3d7d96e7	0.06191149
54	0x3c14aa04	0.009073738
55	0x3c2fa4a5	0.010720407
56	0x3d21b326	0.03947749
57	0x3df52b02	0.11971094
58	0x3d0f72ee	0.035021715
59	0x3e8469d5	0.25861993
60	0x3da2fe67	0.0795868
61	0x3e7da185	0.24768646
62	0x3d665224	0.05623068
63	0xbe4c764f	-0.19967006
64	0xbc0b74be	-0.00851172
65	0x3e593328	0.21210921
66	0xbd01e4fb	-0.031712513
67	0x3daa1a13	0.083057545
68	0x3e28ea04	0.1649552
69	0xbde8972f	-0.11356961
70	0xbde89188	-0.11355883
71	0xbcb3a24e	-0.021927979
72	0x3d1a493a	0.03766749
73	0x3dae8b26	0.08522634
74	0x3e59a9ec	0.21256226
75	0x3d0d5a63	0.034510028
76	0xbd8098b1	-0.062791236
77	0xbd92aae2	-0.071614996
78	0x3cda8e7f	0.026679276
79	0x3d2d3aa4	0.042292252
80	0x3bbfef20	0.0058573633
81	0xbde83d01	-0.113397606
82	0x3c378dc6	0.011203235
83	0xbc2c9372	-0.010533201
84	0xbd161974	-0.036645368
85	0x3e696532	0.22792509
86	0x3dd3c3a8	0.10340053
87	0xbdaaa245	-0.08331732
88	0x3db1e7f8	0.08686823
89	0x3df32094	0.11871448
90	0xbc953b99	-0.018216895
91	0xbd41b65d	-0.047293056
92	0x3e09a07f	0.1344013
93	0x3e829d79	0.25510767
94	0x3e0fa585	0.14027984
95	0x3db45349	0.08804948
96	0xbd1a1160	-0.037614226
97	0xbda165cf	-0.078807466
98	0xbe6502d6	-0.22364363
99	0x3e92c027	0.28662226
100	0x3d9026c8	0.07038647
101	0xbd7d0fc4	-0.061782613
102	0xbbb000a6	-0.005371171
103	0xbddfc2f3	-0.109258555
104	0x3e3289c7	0.1743537
105	0x3eb43a08	0.35200524
106	0x3dddd4c7	0.108316
107	0xbd888ad6	-0.06667106
108	0x3d9bc81a	0.07606526
109	0x3e23a331	0.15980221
110	0x3ee08116	0.43848485
111	0x3d4828f3	0.048867177
112	0x3eae353a	0.34024984
113	0xbd4030e0	-0.04692161
114	0x3d5f1f5a	0.05447326
115	0x3e25fe89	0.16210379
116	0x3e85a945	0.26105705
117	0x3e9faebc	0.31188
118	0x3d377458	0.04478869
119	0x3d442013	0.04788215
120	0x3dfaeb0c	0.12251863
121	0xbc593f2c	-0.01325969
122	0xbccd6799	-0.025073813
123	0x3e8328b8	0.25617003
124	0xbd575a7e	-0.052576534
125	0x3e9dbc91	0.30807927
126	0x3baeeb00	0.005338073
127	0xbe119418	-0.1421665
128	0x3d3e3749	0.046439443
129	0xbd7c03e3	-0.061527144
130	0xbc92307b	-0.017845383
131	0xbd72fe95	-0.05932482
132	0x3e56d6b2	0.20980337
133	0x3dba48dd	0.09095929
134	0xbdb569d3	-0.08858075
135	0x3da62ecc	0.081143945
136	0x3d8e28c0	0.06941366
137	0x3c9aa560	0.018877685
138	0x3e2808f1	0.16409661
139	0xbbb8bfad	-0.005638084
140	0x3d2305e5	0.039800543
141	0x3d90f2f6	0.07077591
142	0xbba6f807	-0.005095485
143	0xbc6510a0	-0.0139810145
144	0xbdc75b64	-0.09734228
145	0xbd57076c	-0.052497312
146	0xbc0c861e	-0.008576898
147	0xbd58a32a	-0.05288998
148	0xbdc959e3	-0.09831598
149	0x3ea0e01f	0.3142099
150	0x3d256d57	0.040387478
151	0x3dab8fdb	0.08377048
152	0x3d37ffb8	0.044921607
153	0x3c57c610	0.01316978
154	0x3d88d0ec	0.06680474
155	0x3d7905e1	0.060796622
156	0xbe168434	-0.14698869
157	0x3e942f2b	0.28942236
158	0x3e27046a	0.16310278
159	0xbd07eef7	-0.03318688
160	0xba106500	-0.0005508214
161	0x3d99343b	0.07480665
162	0xbea32d5e	-0.3187055
163	0x3e9d8356	0.30764264
164	0xbddafc88	-0.10692698
165	0x3dfc1426	0.123085305
166	0x3da4b264	0.08041838
167	0x3c755b10	0.014975324
168	0x3e3d0b4b	0.18461339
169	0x3ec46e7b	0.3836554
170	0xbc65f1f9	-0.014034742
171	0xbd3c5d74	-0.04598756
172	0x3dc93748	0.09824997
173	0x3e627a6c	0.22117013
174	0x3e9e3b54	0.3090464
175	0xbd851632	-0.06498374
176	0x3eabefa4	0.3358127
177	0xbca5845d	-0.020204717
178	0x3db800af	0.089845054
179	0xbe1a2f1b	-0.15057032
180	0x3e764ca1	0.24052669
181	0x3e70bb9b	0.23509066
182	0x3d9ac736	0.07557528
183	0xbddd567a	-0.1080751
184	0xbca61e60	-0.020278156
185	0x3cda11e5	0.02661986
186	0x3d953a9b	0.07286569
187	0x3e5e7ebf	0.21728037
188	0xbddaaaaa	-0.10677083
189	0x3e835466	0.25650328
190	0x3d0f1078	0.034927815
191	0xbe05211f	-0.13000916
192	0x3d87e351	0.06635154
193	0xb987f281	-0.00025929886
194	0xbc5bfd9e	-0.013427166
195	0x3b369ba9	0.0027863777
196	0xbdd6d4d7	-0.10489815
197	0xbc1fba52	-0.009749012
198	0xbe2ac249	-0.16675676
199	0xbd8b36f7	-0.06797593
200	0x3cc6a093	0.02424649
201	0xba1ece00	-0.0006057918
202	0x3e6c14f6	0.23054871
203	0x3d0efd4f	0.034909543
204	0x3d35ebc4	0.044414297
205	0xbd563524	-0.052296773
206	0xbe067e59	-0.13134135
207	0x3dedd994	0.11613765
208	0x3db4bb22	0.08824755
209	0xbdc05dfa	-0.093929246
210	0xbcdc63af	-0.026903002
211	0x3d299efd	0.04141139
212	0xbd05dfa2	-0.032683976
213	0x3e8e6ad5	0.2781588
214	0x3e5e7b45	0.21726711
215	0x3d21c494	0.039494112
216	0x3dc4b633	0.09605064
217	0x3d10b50c	0.03532891
218	0x3c34be08	0.011031635
219	0x3ac7fa29	0.0015257049
220	0x3e74c1bb	0.23902027
221	0x3e51da23	0.20493369
222	0x3dedd7ed	0.1161345
223	0x3e702a57	0.23453651
224	0x3c8510fc	0.01624345
225	0x3d2b01c9	0.04174975
226	0xbe442e1b	-0.19158213
227	0x3e8baca2	0.27280146
228	0xbd76df5c	-0.060271606
229	0x3d16f784	0.036857143
230	0x3c40bb27	0.011763371
231	0xbd42c1a0	-0.047547936
232	0x3e687b14	0.227032
233	0x3e8cfa16	0.2753455
234	0xbdd5f82d	-0.104477264
235	0x3da5b90c	0.080919355
236	0x3d25f430	0.04051608
237	0x3ebb4187	0.3657343
238	0x3eb5f8f1	0.3554149
239	0x3d805d3c	0.06267783
240	0x3ea3130d	0.31850472
241	0xbe336def	-0.17522405
242	0x3df7c892	0.120988026
243	0x3d9b4827	0.07582121
244	0x3e402c3b	0.18766873
245	0x3e238258	0.15967691
246	0x3e6fcc7e	0.23417851
247	0xbd47f4ef	-0.04881757
248	0xbdb5c6d2	-0.088758126
249	0xbddf6190	-0.109072804
250	0x3d7c539e	0.06160318
251	0x3e83cf98	0.2574432
252	0xbd9b90d6	-0.07595985
253	0x3ecd6117	0.40113136
254	0xbd2fbb38	-0.042903155
255	0xbea746cd	-0.32671204

fc4.bias f4 [20]
0	0x3fa8e756	1.3195598
1	0x3ec7a07e	0.38989633
2	0x3ec13f63	0.37743673
3	0x3edad8d3	0.4274355
4	0x3ec407eb	0.3828729
5	0x3f02bdb0	0.5107069
6	0x3e736ab5	0.23771174
7	0x3e5d82af	0.21631883
8	0x3e57867f	0.210474
9	0x3e4fa8c8	0.20279229
10	0x3de492da	0.11160822
11	0x3df5ebbd	0.12007854
12	0x3d1669a1	0.03672183
13	0xbd49ff2f	-0.049315628
14	0xbe31a2a8	-0.17347205
15	0x3d170e34	0.03687878
16	0xbd8294ab	-0.063760124
17	0xbedb7e54	-0.42869818
18	0xbe8f22a4	-0.27956116
19	0xbe4ec892	-0.20193699

fc1.weight f4 [128, 3]
0	0xbc18bcc3	-0.009322348
1	0x3e8a251c	0.26981437
2	0xbcad4f97	-0.021156115
3	0x3e2cf00e	0.16888449
4	0xbf0609e3	-0.52358836
5	0xbeed8c57	-0.46396133
6	0x3e40b58f	0.18819259
7	0x3d94503f	0.07241868
8	0x3cc17769	0.02361651
9	0x3e230c3c	0.15922636
10	0x3e3d4b3c	0.18485731
11	0xbe034812	-0.12820461
12	0xbeb5d79e	-0.35516065
13	0x3f0ab5eb	0.54183835
14	0xbe02e469	-0.12782444
15	0x3c937eb5	0.018004755
16	0xbf0130b2	-0.5046493
17	0xbefaa8b6	-0.4895684
18	0xbe99d426	-0.3004467
19	0x3ea166ad	0.31523648
20	0x3d6d85f3	0.057989072
21	0xbf0cbc1d	-0.5497454
22	0xbee1bbff	-0.44088742
23	0xbdef4bad	-0.11684356
24	0xbeb8e8eb	-0.36115202
25	0xbe595bb5	-0.2122639
26	0x3e25052d	0.16115256
27	0xbd5cc9e4	-0.053903475
28	0xbe7b1ba5	-0.24522264
29	0xbb21c095	-0.0024681438
30	0xbe80715f	-0.25086495
31	0xbd83dc4c	-0.06438503
32	0xbec1f3c3	-0.37881288
33	0x3df60bf0	0.12013996
34	0x3eb5ea46	0.355303
35	0x3cefac97	0.029257102
36	0xbece3468	-0.40274358
37	0xbea5877b	-0.32329926
38	0xbf02dba0	-0.5111637
39	0x3dbc94c0	0.09208059
40	0xbd228444	-0.03967692
41	0xbd41a789	-0.047278915
42	0x3ed38740	0.41314125
43	0xbf0ce8ee	-0.5504292
44	0xbef6423a	-0.48097402
45	0xbed438e7	-0.41449663
46	0xbe894f30	-0.26818228
47	0xbe6109f0	-0.21976447
48	0xbee3982a	-0.4445203
49	0xbf24bb13	-0.6434795
50	0x3d531ae6	0.051539324
51	0xbeac5988	-0.33662057
52	0xbf274665	-0.6534179
53	0x3b151162	0.0022745957
54	0xbea7a266	-0.32741088
55	0xbeb07b4f	-0.34469077
56	0xbe49dd60	-0.19713354
57	0xbf32c6fa	-0.69834864
58	0x3d9aff1e	0.07568191
59	0x3cf17a7a	0.029477347
60	0xbd10f567	-0.035390284
61	0x3e61a679	0.2203616
62	0xbc1836cd	-0.009290409
63	0xbeccaaac	-0.39973962
64	0x3eda1340	0.42592812
65	0xbf096561	-0.53670317
66	0x3ef81575	0.4845387
67	0x3dd2b193	0.10287776
68	0x3d6b5f72	0.05746407
69	0xbed6d4b0	-0.41959143
70	0x3e357031	0.17718579
71	0x3d86634d	0.06561909
72	0x3e9a9796	0.30193776
73	0xbe5e56ba	-0.21712771
74	0x3d253459	0.040333126
75	0xbeb3cedd	-0.35118762
76	0xbeb4654a	-0.35233527
77	0xbf0a2e6e	-0.53977096
78	0xbcf10717	-0.029422326
79	0x3df73e19	0.12072391
80	0xbc9880b1	-0.018616052
81	0xbe9b571e	-0.30339903
82	0x3e4994c5	0.19685657
83	0xbe974c7f	-0.2955055
84	0x3de7abc0	0.113120556
85	0x3b561525	0.0032666412
86	0xbec61f7e	-0.38695902
87	0xbe879bd4	-0.26486075
88	0x3eba0b92	0.36336952
89	0xbf4ae11f	-0.7924976
90	0x3e15f712	0.14645031
91	0xbf175e56	-0.5912832
92	0xbd0d286e	-0.034462385
93	0x3e4e0fca	0.2012321
94	0xbcc20c31	-0.023687454
95	0xbe2b341a	-0.16719094
96	0xbef909e9	-0.48640373
97	0xbed36439	-0.412874
98	0xbe0d1a35	-0.13779528
99	0xbe042f99	-0.12908782
100	0x3da4464a	0.08021219
101	0x3bb8d37b	0.005640445
102	0xbe197eb3	-0.14989738
103	0xbed32466	-0.41238707
104	0x3e254416	0.16139254
105	0xbe38194c	-0.179784
106	0xbf5d29a1	-0.86391646
107	0x3b4dd03a	0.003140463
108	0xbf594008	-0.8486333
109	0xbd5bb541	-0.053639654
110	0x3d12693f	0.0357449
111	0x3da068ce	0.0783249
112	0xbf0de66f	-0.5542974
113	0x3d93850e	0.072031125
114	0x3e84ac54	0.25912726
115	0xbd4cb5e2	-0.049978144
116	0xbf23edbe	-0.6403464
117	0xbead7f7c	-0.33886325
118	0xbd9a16b6	-0.07523863
119	0x3e379a4f	0.17929958
120	0x3e7ffe25	0.24999292
121	0xbe0bd341	-0.13654806
122	0xbe07fb12	-0.1327937
123	0xbe5d8d87	-0.2163602
124	0xbe8b855a	-0.27250177
125	0xbee67776	-0.45013016
126	0x3e0f9aec	0.14023942
127	0x3e26ec4b	0.16301076
128	0x3e0d51ae	0.1380069
129	0x3eb381a4	0.35059845
130	0x3cae591c	0.021282725
131	0xbf35a1e7	-0.7095017
132	0xbf1a8aa9	-0.6036783
133	0x3d41c758	0.04730925
134	0xbdccba96	-0.09996526
135	0x3e030e4c	0.12798423
136	0xbefd12fa	-0.4942854
137	0xbd31a17a	-0.043366887
138	0xbf133de7	-0.5751633
139	0xbe84cc12	-0.25936943
140	0xbe5948c2	-0.21219161
141	0xbec68d9b	-0.3877991
142	0xbe2a95a6	-0.16658649
143	0x3d7dfb9b	0.062007528
144	0x3f083ead	0.53220636
145	0x3dd42c23	0.10359981
146	0x3d92c828	0.07167083
147	0xbf11a984	-0.56899285
148	0xbfc17947	-1.5115136
149	0x3d539694	0.051657274
150	0x3e6a442f	0.22877572
151	0x3e8dea98	0.27718043
152	0x3d33d9c9	0.043908868
153	0x3cefadcc	0.029257677
154	0x3e5d4a29	0.21610321
155	0xbed2f8ca	-0.41205436
156	0xbf0704e6	-0.5274185
157	0xbf08d638	-0.5345187
158	0xbe892049	-0.26782444
159	0xbe27b466	-0.1637741
160	0xbe31ca43	-0.17362313
161	0xbe4a3146	-0.19745359
162	0xbed1df00	-0.40990448
163	0x3e07e303	0.13270192
164	0x3c94338e	0.01809099
165	0x3ddb60ba	0.107118085
166	0xbe3841a7	-0.17993794
167	0x3ce61b42	0.02808917
168	0x3a074f58	0.00051616644
169	0xbe729873	-0.23690967
170	0x3c091ffb	0.008369441
171	0xbe02dae0	-0.12778807
172	0xbe45520f	-0.19269584
173	0x3e270d78	0.16313732
174	0xbf0c0dfb	-0.5470883
175	0xbe8969ba	-0.26838475
176	0xbebb8328	-0.36623502
177	0xbe752ba7	-0.23942433
178	0xbe11aef4	-0.14226896
179	0x3db09858	0.08622807
180	0x3ded59e0	0.11589408
181	0x3ec5b9d7	0.38618347
182	0xbe91f208	-0.28504968
183	0xbc4462a5	-0.011986409
184	0x3ecec656	0.40385693
185	0xbd3957eb	-0.04524986
186	0xbe8957ab	-0.26824698
187	0x3e8038d3	0.25043353
188	0x3dec4ad3	0.11537709
189	0x3ef32910	0.47492266
190	0xbd158a47	-0.036508825
191	0xbe74e5df	-0.23915814
192	0xbf01e65b	-0.5074212
193	0xbdf7bcbe	-0.120965466
194	0xbea297a2	-0.31756312
195	0x3ddaf118	0.10690516
196	0x3e6ae940	0.2294054
197	0xbcabb4e3	-0.020960277
198	0x3ecda3b4	0.40163958
199	0xbeb12de5	-0.34605327
200	0xbec63a14	-0.38716185
201	0x3eb9d361	0.36294082
202	0x3dce9859	0.10087652
203	0xbec9ea5b	-0.39436612
204	0xbc867403	-0.01641274
205	0xbeb8db6c	-0.36104906
206	0x3ca1a7b7	0.019733293
207	0xbf210ba3	-0.6290838
208	0xbead50eb	-0.33850798
209	0x3e47dac8	0.19517052
210	0x3d8180af	0.063233726
211	0xbe8787ef	-0.26470897
212	0x3e05aa4e	0.13053247
213	0xbe3ad10f	-0.18243812
214	0xbe9022b1	-0.28151467
215	0x3da6102d	0.08108554
216	0xbe161086	-0.1465474
217	0xbe87c082	-0.2651406
218	0xbef0275a	-0.46905023
219	0x3cf679f4	0.030087449
220	0x3d6fe6cf	0.058569726
221	0xbe2af8ee	-0.16696522
222	0xbeecaaab	-0.4622396
223	0xbe29fa3c	-0.16599363
224	0xbe699000	-0.22808838
225	0x3d9bd5b3	0.07609119
226	0xbdd6651c	-0.10468504
227	0x3c4ee37e	0.012627481
228	0xbd535ef9	-0.051604245
229	0x3f072956	0.5279745
230	0xbe77d26e	-0.24201366
231	0x3e34dfd8	0.17663515
232	0xbde1462d	-0.10999713
233	0x3c0f5728	0.008748807
234	0xbe23dd0d	-0.16002293
235	0xbd5bf724	-0.05370249
236	0x3bb15d7a	0.0054127546
237	0x3e798a0c	0.24369067
238	0xbc138c4f	-0.00900562
239	0xbf0444c5	-0.51667434
240	0xbd8e6b8c	-0.06954107
241	0x3ecce78d	0.4002041
242	0xbc2020ae	-0.009773416
243	0x3f15b975	0.5848611
244	0x3e8809d3	0.26569995
245	0xbeab6326	-0.33474082
246	0xbc28beb0	-0.01029937
247	0x3e629cfd	0.22130199
248	0x3d7027c4	0.058631673
249	0x3edafb84	0.42770016
250	0xbd954cc4	-0.072900325
251	0xbf1332ed	-0.5749958
252	0xbeb6d463	-0.35708913
253	0xbf049514	-0.51789975
254	0xbeedc797	-0.46441337
255	0x3e347f8d	0.17626782

fc1.bias f4 [128]
0	0x4019e704	2.404725
1	0x3ed1e6d6	0.40996426
2	0xbf87a8e0	-1.0598412
3	0x3ffeeb24	1.9915509
4	0x3f2fb0fb	0.68629426
5	0xbe2815da	-0.16414586
6	0xc01cb746	-2.4486861
7	0xbe5d0f2b	-0.21587817
8	0xc021a16d	-2.5254776
9	0x3fbccb89	1.4749614
10	0xbeda5485	-0.42642608
11	0x3fe8f131	1.8198606
12	0x3e3aa4b2	0.18226889
13	0x3e3de8e1	0.18545868
14	0x3e176ce7	0.14787637
15	0xbec22bdf	-0.37924096
16	0x3f481be3	0.7816755
17	0xbf1f101d	-0.6213396
18	0xbee6e2bb	-0.45094857
19	0xbfd8577b	-1.6901697
20	0x40059b67	2.08761
21	0x3f6ca7fc	0.92443824
22	0xc0383b11	-2.8786051
23	0x401e9f64	2.4784784
24	0x401984e8	2.398737
25	0x3dd4e344	0.1039491
26	0x3f871234	1.055243
27	0xbe8b90df	-0.27258965
28	0x3fce11ee	1.6099222
29	0x3f74dbc3	0.9564783
30	0xbf89c654	-1.076365
31	0x3ffe90be	1.9887922
32	0xbedd85b7	-0.4326608
33	0x401812d2	2.3761487
34	0xc0232a4a	-2.5494561
35	0xbe46c790	-0.19412065
36	0xbfc4889e	-1.5354192
37	0xc0081bd4	-2.1266985
38	0x3fdfde58	1.7489729
39	0xc003fc79	-2.0622847
40	0x3d63ab45	0.055583257
41	0xbe8418c9	-0.2580016
42	0xc017fd71	-2.3748438
43	0x3fd9c4fb	1.7013239
44	0xbd6bc6b4	-0.057562545
45	0xbf47291a	-0.7779709
46	0xbebf41d4	-0.3735491
47	0xc000809e	-2.0078502
48	0xc006ae75	-2.104398
49	0xbfd8e33f	-1.694435
50	0xbfb9ebfa	-1.4525139
51	0x40070b69	2.1100714
52	0xbf0e290c	-0.5553138
53	0x3dd3ecbd	0.103478886
54	0x400297af	2.040508
55	0x404000e8	3.0000553
56	0x401cda39	2.4508193
57	0xc0017c61	-2.0232165
58	0xbec6e77a	-0.38848478
59	0xc017307d	-2.3623345
60	0xbedf92ee	-0.43666786
61	0x400c1daa	2.1893106
62	0x3fd2ceb0	1.6469326
63	0x3fb68ed7	1.4262341
64	0xbe8e1d54	-0.2775675
65	0x40199bb3	2.4001281
66	0x3fd84fd6	1.6899364
67	0x3f28e7b3	0.65978545
68	0x401d3e8c	2.4569426
69	0x3f9d6775	1.2297198
70	0xbfcbf7a7	-1.5934952
71	0x3fe8f852	1.8200781
72	0x3e8859e5	0.26631084
73	0x3ff05a33	1.8777527
74	0x3ed1fcde	0.41013235
75	0xbfb65ba3	-1.4246715
76	0x400e5e38	2.2245007
77	0x402f6555	2.7405598
78	0xbf1b6ab6	-0.607097
79	0x3f0d8401	0.55279547
80	0x4029e7ae	2.6547656
81	0xbf846de6	-1.0346038
82	0xbfe7f11b	-1.8120455
83	0x3f543d4e	0.82906044
84	0x3e7c3a7e	0.24631688
85	0x3ff122e8	1.8838778
86	0x3f13a07b	0.5766675
87	0x40111f20	2.2675247
88	0x3cbf20b4	0.023331024
89	0x3fe9237a	1.8213952
90	0x400c8b49	2.1960013
91	0xbeb65d66	-0.35618132
92	0x40094a84	2.145173
93	0xbe345add	-0.17612787
94	0x3ec52b7e	0.38509744
95	0xbe8059d9	-0.25068548
96	0xbe3aef9b	-0.18255465
97	0xbfbfd611	-1.4987203
98	0xbf55e855	-0.83557636
99	0xc019840d	-2.3986847
100	0xbfadd90d	-1.3581864
101	0xbe86403a	-0.26220876
102	0x3fd00cc2	1.6253893
103	0x3f909a16	1.1297023
104	0x3f1e8069	0.6191469
105	0xc005bf85	-2.0898144
106	0xbd0f71b7	-0.035020556
107	0x3ef5b14c	0.4798683
108	0x3fbeabeb	1.4896215
109	0xbd2b6a5f	-0.04184949
110	0xbff9a86f	-1.9504527
111	0x3efd64a4	0.49490845
112	0x3d9c0e35	0.07619897
113	0x401e2211	2.4708292
114	0xbed775ae	-0.4208197
115	0xbff538aa	-1.9157917
116	0x3f77bd1f	0.9677295
117	0x3df5de95	0.12005345
118	0x3ed29142	0.41126448
119	0x403a5884	2.9116526
120	0x400f2cda	2.2371125
121	0xbff6e312	-1.9288046
122	0xc0001827	-2.0014741
123	0xbdb1b164	-0.08676413
124	0x3f108c16	0.56463754
125	0xbf4170ed	-0.75562936
126	0x3ff64c5e	1.9242055
127	0x3fecf758	1.8512983
