models/dqn_agent_firm_1_final.pth (torch, 437746 bytes, 32 tensors)

fc1.weight f4 [128, 3]
000000 e0 57 98 bd f2 88 75 3e d8 e6 20 b9 f1 ef 2c 3e
       -0.07438636 0.23978022 -0.00015344785 0.16888405
000010 e3 09 06 bf 57 8c ed be 26 e2 e7 3d 34 52 d8 bb
       -0.52358836 -0.46396133 0.11322431 -0.0066015963
000020 71 2e 0f bd d5 ae 22 3e e6 d2 13 3e be a0 1c be
       -0.0349564 0.15887006 0.1443592 -0.15295693
000030 46 6f 23 bf e0 d9 e2 3e 9d 6c a7 bd b5 7e 93 3c
       -0.63841665 0.4430685 -0.08175013 0.018004755
000040 53 30 01 bf b6 a8 fa be bf a1 96 be 89 fd 91 3e
       -0.5046436 -0.4895684 -0.29420277 0.28513744
000050 1c ee 02 3d 1d bc 0c bf ff bb e1 be ad 4b ef bd
       0.03196536 -0.5497454 -0.44088742 -0.11684356
000060 08 5a 01 bf aa aa 82 be 53 05 97 3d 00 0d e4 bd
       -0.50528 -0.2552083 0.073740624 -0.11135292
000070 45 30 e0 be 51 d1 32 bd 5f 71 80 be 4c dc 83 bd
       -0.43786827 -0.04365665 -0.25086495 -0.06438503
000080 c3 f3 c1 be b2 9a 85 3d 9e a3 9e 3e 54 fe 21 3d
       -0.37881288 0.065236464 0.30984205 0.039549187
000090 68 34 ce be 7b 87 a5 be a0 db 02 bf f4 a9 e2 3b
       -0.40274358 -0.32329926 -0.5111637 0.0069172326
0000a0 87 ff cf bd 83 8a f2 bd 40 87 d3 3e ee e8 0c bf
       -0.1015616 -0.11842825 0.41314125 -0.5504292
0000b0 3a 42 f6 be e7 38 d4 be 30 4f 89 be f0 09 61 be
       -0.48097402 -0.41449663 -0.26818228 -0.21976447
0000c0 e3 e2 08 be 7a 0f 1a bf 90 6b a6 3d 4d 5f ac be
       -0.133678 -0.60179865 0.08125985 -0.3366646
0000d0 50 51 27 bf 4d 2b 13 3b 66 a2 a7 be 4f 7b b0 be
       -0.6535845 0.002245623 -0.32741088 -0.34469077
0000e0 60 dd 49 be 4c 1b 84 bf db b7 65 3b 30 3e 47 3d
       -0.19713354 -1.032083 0.0035052213 0.04864329
0000f0 2e c6 9b bd 08 7b 47 3e 33 f0 f7 3b 3c 0c 68 be
       -0.07606159 0.19480526 0.007566476 -0.22660917
000100 92 ce e3 3e f8 ed 09 bf ad 32 e4 3e 62 2f a0 3d
       0.44493538 -0.53878736 0.44569913 0.078215376
000110 03 7c 4f 3d 82 76 d3 be b9 c7 36 3e 72 cb a8 3d
       0.050655376 -0.41301352 0.17849626 0.08241929
000120 7b 54 97 3e e5 01 52 be 38 20 84 3d dd ce b3 be
       0.2955664 -0.20508535 0.06451458 -0.35118762
000130 4a 65 b4 be 6e 2e 0a bf 04 9f 82 be aa 1b a6 bc
       -0.35233527 -0.53977096 -0.25511944 -0.020276863
000140 c8 aa 56 bd e3 5f e8 be 30 22 11 3e 9f 72 b2 be
       -0.052408963 -0.45385656 0.14173198 -0.34853074
000150 f5 77 12 3e fc a7 07 3d b4 d7 c1 be 16 83 10 be
       0.14303572 0.033119187 -0.3785988 -0.14112505
000160 24 a9 cd 3e 36 4d 41 bf d5 0e 0e 3e df 2b 1d bf
       0.40168107 -0.7550844 0.13872845 -0.61395067
000170 f9 45 49 bd 59 ad 56 3e e6 2a a3 bc c9 38 18 be
       -0.049138997 0.20964564 -0.019917917 -0.14865412
000180 e9 09 f9 be 39 64 d3 be 35 1a 0d be 83 dd f2 bd
       -0.48640373 -0.412874 -0.13779528 -0.11858656
000190 67 f8 9f 3d b2 01 c6 3c 2a a6 2c be ae 80 cf be
       0.07811051 0.02417073 -0.16860262 -0.40527862
0001a0 cb 51 ee 3d b4 af 34 be 04 63 5f bf e7 2c 8c ba
       0.116366945 -0.1764515 -0.8726046 -0.0010694534
0001b0 46 6e 92 bf eb 84 3f be 9c 88 3f 3c 83 88 31 be
       -1.1439903 -0.18703048 0.011690285 -0.17337231
0001c0 00 85 03 bf 82 14 41 3d ff 19 29 3e 4b 8a 32 be
       -0.51374817 0.0471387 0.16513823 -0.17435567
0001d0 2a 9c 2e bf f2 43 89 be 71 57 9c bd 69 5e 38 3e
       -0.6820704 -0.2680965 -0.076338656 0.18004765
0001e0 fb ac 52 3e 0c 50 aa be 02 cb 1f be f5 8c 5d be
       0.205738 -0.33264196 -0.15604785 -0.21635802
0001f0 5a 85 8b be 76 77 e6 be c9 14 06 3e fb f5 26 3e
       -0.27250177 -0.45013016 0.13093866 0.16304772
000200 32 8a 24 3e 91 01 81 3e d7 2e f2 bc 5f 86 43 bf
       0.16068342 0.25196508 -0.02956335 -0.7637691
000210 47 79 1f bf 8a a7 0d 3d d9 ea e9 bd 84 41 f8 3d
       -0.6229443 0.034583606 -0.11421747 0.12121871
000220 ec fe 01 bf ed 6f 5e bd e7 3d 13 bf 12 cc 84 be
       -0.50779605 -0.05430596 -0.5751633 -0.25936943
000230 c2 48 59 be f7 db 1e bf 5b 88 12 be fc d1 6f 3d
       -0.21219161 -0.6205439 -0.14309828 0.058549866
000240 f1 29 01 3f 33 ef c0 3d b3 61 d0 3d 87 a1 7b bf
       0.5045462 0.09420624 0.10174885 -0.98293346
000250 89 24 f3 bf 19 9f 7b 3d 00 d3 66 3e b9 4f 90 3e
       -1.8995525 0.061431024 0.22541428 0.28185824
000260 8c a4 cc 3d b2 c4 a3 3d d3 26 42 3e 41 97 c5 be
       0.09992322 0.07996501 0.18960123 -0.3859196
000270 be 04 07 bf 38 d6 08 bf 49 20 89 be 66 b4 27 be
       -0.5274161 -0.5345187 -0.26782444 -0.1637741
000280 05 ca 31 be 46 31 4a be 14 c6 ab be 17 d8 98 3d
       -0.1736222 -0.19745359 -0.3354956 0.07463091
000290 8d 3c 49 bc 84 c6 ef 3d 29 e9 2d be f7 27 4f 3d
       -0.012282503 0.11707786 -0.16983475 0.050575223
0002a0 dc ab b7 bd f3 9b 00 bf 56 7c de bc 98 d5 1f be
       -0.089683264 -0.5023796 -0.027158897 -0.15608823
0002b0 ac a5 9a be 91 cf 13 3e e3 0d 0c bf ba 69 89 be
       -0.30204523 0.14434649 -0.5470869 -0.26838475
0002c0 28 83 bb be f7 ce b7 be 81 d9 22 be 71 77 83 3d
       -0.36623502 -0.3590009 -0.15903284 0.06419266
0002d0 63 ea d0 bd e9 5b 82 3e 45 b2 bd be 74 9c a8 bd
       -0.10200956 0.25460747 -0.3705007 -0.08232966
0002e0 40 cd d9 3e bc e0 2c bd 65 31 88 be d1 db 56 3e
       0.42539406 -0.04220651 -0.26600185 0.20982291
0002f0 24 55 e3 3d d8 4d d1 3e 8d 87 e2 bd 24 c4 a8 be
       0.11100224 0.40879703 -0.110610105 -0.32962143
000300 5b e6 01 bf aa bc f7 bd a2 97 a2 be 5b 33 fd 3c
       -0.5074212 -0.12096532 -0.31756312 0.030908277
000310 05 47 4f 3e 6b 24 dc bb d7 73 d0 3e e0 b5 13 bf
       0.20241936 -0.0067182085 0.4071338 -0.57699394
000320 f4 45 bc be 2c bc bf 3e 48 ca c7 3d 7e 5a d7 be
       -0.3677212 0.3744825 0.09755379 -0.42061228
000330 67 84 03 bd 48 a0 b3 be d8 58 ef 3c a0 6f a4 be
       -0.03210869 -0.35083222 0.029217169 -0.32116413
000340 ed 5c 97 be f7 e7 3d 3e d1 45 0c 3d 06 00 9c be
       -0.29563084 0.18545519 0.03424627 -0.30468768
000350 a7 bf 0a 3e b6 c3 ae be d6 24 02 bf 22 d9 67 bc
       0.13549672 -0.3413369 -0.5083746 -0.01415089
000360 86 10 16 be 82 c0 87 be 5a 27 f0 be cf 60 08 bb
       -0.1465474 -0.2651406 -0.46905023 -0.0020809656
000370 af 17 78 3d 80 56 34 be ab aa ec be e1 f9 29 be
       0.06056946 -0.17611122 -0.4622396 -0.16599227
000380 00 90 69 be a4 00 cf 3c d9 31 0b be 19 28 c6 bc
       -0.22808838 0.02526886 -0.13593234 -0.024189042
000390 f2 10 ec bc f5 fc f4 3e e7 01 62 be 3f a1 1b 3e
       -0.028816674 0.4784924 -0.22071038 0.15198229
0003a0 62 ee ee bd 86 34 cb 3c 64 3d 24 be 97 31 5d bd
       -0.11666562 0.024805319 -0.16039044 -0.05400237
0003b0 69 c4 9d 3b 92 51 d1 3d 93 ce 57 b9 a4 d5 22 bf
       0.0048146737 0.102206364 -0.00020580953 -0.6360724
0003c0 d4 63 a4 bd 49 a4 c5 3e da 39 02 3c 2c a0 d7 3e
       -0.08026853 0.38601902 0.007948363 0.4211439
0003d0 89 76 16 3e 7d ca d9 be c2 c6 c8 3c 30 33 6d 3e
       0.14693655 -0.425373 0.024508838 0.23164058
0003e0 9e 03 8a 3d 8a e0 bd 3e 15 83 10 be 46 b2 21 bf
       0.06738971 0.37085372 -0.14112504 -0.6316265
0003f0 63 d4 b6 be 14 95 04 bf 97 c7 ed be a3 16 e1 bd
       -0.35708913 -0.51789975 -0.46441337 -0.10990646

fc1.bias f4 [128]
000000 0e bd 20 40 d6 e6 d1 3e 1e ed 99 bf fa 07 06 40
       2.511539 0.40996426 -1.2025487 2.0942369
000010 11 ea 0a 3f 77 15 28 be c0 44 29 c0 2b 0f 5d be
       0.54263407 -0.16414438 -2.6448212 -0.21587817
000020 a6 d1 2f c0 1c 32 c2 3f 85 54 da be 60 c1 e7 3f
       -2.747171 1.5171542 -0.42642608 1.8105888
000030 b2 a4 3a 3e 48 45 d3 3d e7 6c 17 3e df 2b c2 be
       0.18226889 0.10315949 0.14787637 -0.37924096
000040 08 f4 53 3f 18 1b 1f bf bb e2 e6 be 69 48 f2 bf
       0.8279424 -0.62150717 -0.45094857 -1.8928348
000050 89 68 0c 40 79 f9 89 3f 81 59 43 c0 f1 49 27 40
       2.1938803 1.0779258 -3.052338 2.613888
000060 9e e7 20 40 44 e3 d4 3d cf d3 67 3f 1d 6a c1 be
       2.5141368 0.1039491 0.9055757 -0.3777627
000070 b9 0f e3 3f 65 20 8a 3f 3e 6e 8c bf a6 d7 07 40
       1.7739173 1.0791136 -1.0971143 2.1225371
000080 64 85 dd be 72 42 21 40 2d fb 31 c0 91 2b 48 be
       -0.4326583 2.5196805 -2.7809556 -0.1954787
000090 01 0c cf bf 76 3f 11 c0 bb a1 de 3f 38 bd 07 c0
       -1.6175538 -2.2694983 1.7393106 -2.120924
0000a0 14 9a 96 3d c9 18 84 be c9 16 1f c0 f1 be da 3f
       0.07353607 -0.2580016 -2.4857657 1.7089521
0000b0 f2 39 9d bd 1e bf 4a bf d4 41 bf be ac 8b 0b c0
       -0.07677068 -0.7919787 -0.3735491 -2.1804
0000c0 09 17 0e c0 84 cf db bf 41 66 c5 bf d0 20 11 40
       -2.220156 -1.7172704 -1.542183 2.2676277
0000d0 cf 28 0e bf bd ec d3 3d 0f 3c 07 40 8b f3 48 40
       -0.5553102 0.103478886 2.1130407 3.1398647
0000e0 b5 bb 20 40 9e 61 01 c0 7a e7 c6 be d6 58 24 c0
       2.5114567 -2.021583 -0.38848478 -2.567922
0000f0 50 e7 00 bf ae 29 0d 40 65 f1 d1 3f d5 38 c0 3f
       -0.50352955 2.205669 1.6401793 1.5017344
000100 40 1d 8e be 50 53 22 40 a7 3a db 3f 58 dd 51 3f
       -0.2775669 2.536335 1.7127274 0.8197837
000110 dd 99 26 40 37 51 a8 3f 1a 2e c6 bf 5f ba e7 3f
       2.603141 1.3149785 -1.5482819 1.8103751
000120 e5 59 88 3e 48 0a 01 40 de fc d1 3e de b7 bc bf
       0.26631084 2.0162525 0.41013235 -1.4743612
000130 e2 4e 1a 40 43 7d 38 40 75 a4 1b bf dd b7 05 3f
       2.4110646 2.8826454 -0.60797817 0.5223368
000140 10 68 32 40 87 c6 a1 bf 0f 3f f0 bf 4b d9 4d 3f
       2.7876015 -1.2638711 -1.8769244 0.8040969
000150 7e 3a 7c 3e 92 a2 f6 3f 7b a0 13 3f 16 90 1b 40
       0.24631688 1.9268363 0.5766675 2.4306693
000160 b4 20 bf 3c 88 fb f4 3f bd 42 13 40 11 d7 00 bf
       0.023331024 1.9139261 2.3009484 -0.50328165
000170 b1 1f 10 40 c2 a3 34 be ac 26 f1 3e cc 59 80 be
       2.2519343 -0.17640594 0.47099817 -0.2506851
000180 9b ef 3a be b8 cd d3 bf 40 24 56 bf 9d 9f 27 c0
       -0.18255465 -1.6547155 -0.83649063 -2.619117
000190 82 2a be bf 3a 40 86 be d4 95 d6 3f 6c bd 94 3f
       -1.4856722 -0.26220876 1.6764474 1.1620307
0001a0 7e 8a 2a 3f 77 0e 14 c0 b7 71 0f bd c1 b0 f5 3e
       0.6661757 -2.3133829 -0.035020556 0.47986415
0001b0 91 d7 c3 3f 5f 6a 2b bd a1 fa 00 c0 a5 7a e3 3e
       1.5300161 -0.04184949 -2.0152972 0.44429508
0001c0 73 e0 13 3e 3b c0 24 40 ae 75 d7 be c6 2a ff bf
       0.1444109 2.5742328 -0.4208197 -1.9934928
0001d0 e8 c9 6e 3f 95 de f5 3d aa a4 b9 3e f3 3e 43 40
       0.93276834 0.12005345 0.3625844 3.050717
0001e0 47 7a 0f 40 10 07 f2 bf 20 42 06 c0 64 b1 b1 bd
       2.2418382 -1.8908405 -2.097786 -0.08676413
0001f0 16 8c 10 3f 32 26 63 bf 15 ee 00 40 7b f0 00 40
       0.56463754 -0.88730156 2.0145314 2.0146778

fc2.weight f4 [128, 128]
000000 b1 cc 3c bd c1 a5 83 3d 75 0c 6f be a0 71 f9 3d
       -0.046093646 0.064280994 -0.23344596 0.121798754
000010 d5 3e 83 bf de bd 01 bc a7 91 ec be cc 72 ce bc
       -1.025355 -0.007918803 -0.46204874 -0.025201224
000020 89 eb 03 be 19 2e c7 3e ee ef 72 3d e8 11 3f be
       -0.12882818 0.38902357 0.059310846 -0.18659174
000030 7c 76 65 3d 9e c5 1f bd 2a 67 19 3c c7 4a 11 bd
       0.0560212 -0.03900682 0.009362975 -0.035471704
000040 90 42 1e 3e 18 6f 8c be cb 22 50 bb 32 46 65 be
       0.15455079 -0.27428508 -0.003175902 -0.22390059
000050 36 3f c0 bd d1 cc 41 3e b3 87 1a bf 4e 73 c9 bc
       -0.093870565 0.18925788 -0.6036331 -0.024591114
000060 7e fd 0a 3c 07 8c 03 bd 0c 40 1b be d7 82 38 3e
       0.008483289 -0.032115962 -0.1516115 0.18018661
000070 0c 61 bb 3e 65 f6 ce 3e da 6d c1 3d 6a 13 18 3f
       0.36597478 0.4042236 0.09444781 0.59404624
000080 8c e2 ae 3d b0 cc 6b 3e 54 12 52 be c0 17 c6 3b
       0.08539304 0.23027301 -0.20514804 0.0060453117
000090 d3 ff 7b bb c0 1b ce be 95 92 39 3d 95 28 38 3d
       -0.0038452044 -0.40255547 0.045305807 0.044960577
0000a0 aa 2d f1 be 1e bf 8c bd 4b 22 d0 bd 25 50 94 3e
       -0.4710515 -0.0687239 -0.10162791 0.28967395
0000b0 7d 70 33 3c d5 89 c2 bc 22 4d 9a 3d 66 e5 3f be
       0.010952112 -0.023747364 0.07534243 -0.18739852
0000c0 e6 25 bc be 78 12 fe be 09 89 28 bf 9d 35 ae 3e
       -0.36747664 -0.49623466 -0.658341 0.3402528
0000d0 b3 f9 06 bc 82 48 66 3d d0 52 b8 bd ff d8 a9 3e
       -0.008238244 0.056221493 -0.0900017 0.33173367
0000e0 ec e5 90 3e 3c 96 ec 3d 56 c3 2d 3c f3 3b b3 be
       0.28300416 0.115520924 0.010605654 -0.35006675
0000f0 76 ef 5f be 47 6b 8c be d0 76 22 bd df de 98 be
       -0.21868691 -0.27425596 -0.03966409 -0.29857537
000100 17 d4 3d bc be 03 b7 be bd 15 94 3e 91 8e e8 bd
       -0.011586211 -0.35745043 0.28922835 -0.113553174
000110 2e b2 7b 3e 9e a7 1a 3e 18 09 09 3d 0a 9e 1e 3e
       0.24579689 0.15103003 0.033455938 0.15489975
000120 7d cc a4 bc 00 13 cc 3e a3 50 56 3c 25 0e 9e bd
       -0.020117039 0.39858246 0.013080749 -0.077175416
000130 42 b3 67 be c3 8b c6 3e bb 72 8e 3d 98 64 9b 3d
       -0.22626975 0.38778505 0.06955477 0.07587546
000140 5e 15 0a be 28 63 e3 bd 08 15 b2 be 45 f0 64 be
       -0.13484713 -0.11102897 -0.3478167 -0.2235728
000150 d2 eb a0 3c ab a6 18 be 34 70 f9 3c b0 b7 dd bb
       0.019643698 -0.14907329 0.03044901 -0.006766282
000160 fc 14 5c 3d c3 7c 82 3d a7 5f fa 3d 59 4b 03 bd
       0.05373095 0.06371453 0.122252755 -0.03205428
000170 f9 1a 53 be 9f 31 9a bb 8d 1e 44 3d ca 22 44 3d
       -0.20615758 -0.0047056223 0.047880698 0.04788474
000180 70 b5 07 bc 57 d9 89 bd 19 7b bb 3b b4 8c b3 be
       -0.008283004 -0.067309074 0.0057214615 -0.35068285
000190 2f 68 32 be a9 38 45 3b 4f 59 86 be 1f d7 a8 bd
       -0.17422555 0.0030093587 -0.26240012 -0.08244156
0001a0 cf b5 30 bf a2 7b c3 bd 2a d5 04 bd 74 bf 38 3c
       -0.6902742 -0.095450655 -0.03242985 0.011276115
0001b0 82 ad 43 3e 81 1f 9d bc 07 1e 82 bd 30 c2 f1 bd
       0.19109157 -0.019180061 -0.063533835 -0.118046165
0001c0 20 33 e4 be 6c 47 5f bc d8 7a 12 bc 7f 52 d0 bd
       -0.44570255 -0.013627868 -0.008940421 -0.10171985
0001d0 11 8c 5d 3e 8b 0c 1d bc 0a 15 cf be ec 91 eb 3d
       0.21635462 -0.00958551 -0.4044574 0.11502442
0001e0 a9 6f e6 3d c8 d9 0f 3d 92 77 94 3d aa e6 49 bd
       0.11251766 0.0351198 0.07249369 -0.049292244
0001f0 4a bc b1 3c 76 70 0d bf 0d af c6 bd 50 1a 60 bd
       0.021696229 -0.55249727 -0.09701357 -0.054712594
000200 33 4b cc bd 2c 99 53 3d cb a2 51 bd 9a 78 8a 3c
       -0.099752806 0.051659748 -0.051180642 0.01690321
000210 bb 81 c7 bd cc fd f6 bc 2d b8 0a bd c9 1d 86 bd
       -0.09741541 -0.030150317 -0.03386705 -0.0654865
000220 62 e1 dc 3c 13 00 6d bd d9 b1 09 bc 36 f6 a8 3c
       0.02696294 -0.0578614 -0.008404219 0.020625215
000230 5c 5a 0e bd 7b 90 b9 bd e3 76 0c 3d 3d 5a 10 3c
       -0.034754142 -0.090607606 0.034293067 0.008810577
000240 e4 30 db 3c ef d1 a8 bd 32 5b ce bc 67 cc 1a bd
       0.026756711 -0.08243167 -0.02518997 -0.03779259
000250 57 b5 17 3c b1 0b 67 3d 66 50 88 bc dd 35 58 3d
       0.009259543 0.056407634 -0.0166399 0.052785743
000260 12 18 3f 3c e8 5a b1 3d 4f ca b1 bc a3 ac 96 bd
       0.011663454 0.08659917 -0.021702914 -0.073571466
000270 73 1f 6b bd 5e e2 ef bb b9 ee 94 bc ab 29 9c bd
       -0.05740304 -0.0073206862 -0.018180238 -0.07625135
000280 da ec 43 bd be 73 1a 3d e2 1b ad bd 20 19 c6 bd
       -0.0478333 0.037708037 -0.08452584 -0.09672761
000290 21 cd 42 bd 3f 0b 0f bd c6 49 ad bd 43 62 37 3d
       -0.047558907 -0.034922834 -0.08461337 0.044771444
0002a0 d1 7d e5 3b 0f a0 8e bd 15 d0 8b 3d 9e fe 99 bb
       0.007003524 -0.069641225 0.06826798 -0.004699542
0002b0 ab 1b 28 bb f6 9b 35 3d 21 2b 84 3d c1 ef 10 bd
       -0.0025651257 0.04433819 0.06453539 -0.035384897
0002c0 0d ec 8c 3d c4 b5 a1 bd 1b 12 9d bd 16 ae 47 bd
       0.068809606 -0.07895997 -0.07669469 -0.048750006
0002d0 ea c8 d5 3c 32 84 6e bd 0c 4e 06 bd 2a af 40 bd
       0.02609678 -0.05823154 -0.032789275 -0.04704205
0002e0 be 96 c4 bd 82 36 81 bc fe bb 2a 3d a4 b6 25 bd
       -0.09599064 -0.015773062 0.04168319 -0.040457383
0002f0 aa bb ca 3c d9 43 dc 3c 85 5e ea bc ec 6c ef 3b
       0.024747688 0.026887821 -0.028609524 0.0073066857
000300 ec 2a 09 3b 2c e2 7e bd 09 86 3b 3d 44 9f da 3c
       0.0020930124 -0.062227413 0.045782123 0.026687272
000310 a0 c8 a9 bd 51 46 b4 3c 30 b6 9d bd b0 33 35 3d
       -0.08290219 0.022006186 -0.07700765 0.044238746
000320 8b 04 17 bd 58 eb 18 3b 4a aa ea bb 6b 93 9b 3d
       -0.036869567 0.0023333635 -0.0071614133 0.07596477
000330 69 ba 2d 3d af 7b 02 3d b8 cd 63 bd d4 73 02 3d
       0.042414103 0.031856235 -0.05561611 0.031848744
000340 21 cc 73 3c 66 b1 89 bb e6 48 5e 3c 81 28 2a 3d
       0.014880211 -0.0042020557 0.013567185 0.041542534
000350 e7 2a 4a bd 5a a0 1e 3d 20 8d 39 3d ec da 3f bd
       -0.04935732 0.038727142 0.045300603 -0.04683964
000360 19 82 97 bd 34 28 b3 bd 67 3b 17 3d 87 e7 3d 3d
       -0.07397861 -0.087479025 0.036921885 0.04636338
000370 f7 5e 69 bd e0 3a cd bc 27 92 63 3d 19 e5 16 3d
       -0.05697533 -0.025052488 0.055559304 0.03683958
000380 f4 71 53 3d af 1d ea 3c 3c 95 80 bc 2b e9 62 bd
       0.051622346 0.028578607 -0.01569616 -0.055398148
000390 3b e4 b9 3a fb 5e aa 3d 5e 88 95 bd 58 ab 8c 3c
       0.0014182398 0.08318897 -0.073014006 0.017171547
0003a0 f0 33 4c bc 66 ad cf 3c e4 c4 a3 3c e2 da 72 3d
       -0.012463555 0.025351238 0.019991346 0.059290774
0003b0 00 09 38 3d fa 26 a9 bd 97 00 65 3d 45 b0 e1 bc
       0.044930458 -0.08259387 0.055908766 -0.027549872
0003c0 6c 01 ca bc 44 90 48 bd 14 57 87 bd 76 bd 06 3c
       -0.024658881 -0.048965707 -0.06608406 0.008223882
0003d0 a3 3a 24 bd 30 75 64 bd 28 05 94 bd ac 9a 04 be
       -0.040094983 -0.05577582 -0.07227546 -0.12949628
0003e0 f8 3c 1b bc 22 96 a5 bc f0 af 72 ba 23 5c 93 3d
       -0.009474985 -0.02021319 -0.0009257784 0.07195308
0003f0 78 11 7e 3d fa e6 b6 bd 11 1f 55 bd 8a 67 2a bc
       0.06202838 -0.08930774 -0.05203158 -0.010400662

fc2.bias f4 [128]
000000 9b 8e 4c 3f 4f de 19 bd 30 d9 d7 bf e1 4e b6 3f
       0.799051 -0.037565526 -1.6863155 1.4242822
000010 26 57 8c 3f 65 62 a2 3f 09 49 bf 3e dc a2 cb 3f
       1.0964096 1.2686278 0.3736041 1.5909076
000020 fb 71 5e 3f 3c b3 8a 3f de f3 42 3f 74 18 a6 3d
       0.8689267 1.0835948 0.7615336 0.08110133
000030 65 09 c6 3f 70 98 85 3e 20 aa 05 be e1 32 db 3f
       1.5471617 0.26092863 -0.13053179 1.7124902
000040 c7 fc 78 3a ed f8 c9 3f 56 9d c1 3f 9c 2c 75 3c
       0.0009498116 1.5779091 1.512614 0.014964249
000050 ec 68 f2 3f c2 65 7c bd 17 27 67 bd 5d d7 eb 3c
       1.893827 -0.06162048 -0.056433763 0.028789217
000060 19 be 25 3d 4b 76 22 bd a4 d6 63 bd 8e 87 04 be
       0.040464494 -0.039663594 -0.05562462 -0.12942335
000070 ce 23 1a 3b fa 61 bf 3f 61 0c b5 3f 58 e4 ad 3f
       0.0023519876 1.4951775 1.4144403 1.358531
000080 41 b3 d4 be fa 2a 90 bd 4b 9c f0 3f 11 27 ef 3f
       -0.4154301 -0.07039447 1.8797697 1.8683797
000090 b1 cd ba bf 4c 26 02 bc 71 95 ec 3f cb 79 7d 3d
       -1.4594022 -0.007943701 1.8483106 0.06188373
0000a0 e9 4f 2b 3d 0b 59 52 bd 0f 18 a4 bd ed e4 df bd
       0.041824255 -0.05135445 -0.08012401 -0.10932336
0000b0 f2 86 e2 3f 5e 69 c2 bd b7 9d bb 3e 3b 57 ca bd
       1.7697432 -0.094927534 0.36643764 -0.09879919
0000c0 67 f0 a4 3f b5 1b fc bc 6f e3 aa 3f 42 09 e8 3f
       1.2885865 -0.03077493 1.3350657 1.8127825
0000d0 31 94 89 3f eb 1d 9f 3e 15 f0 d3 3c 64 16 75 3f
       1.074835 0.31077513 0.025871316 0.9573729
0000e0 60 82 0f bf fe fa c1 bb 51 64 ef 3f ab 83 14 3f
       -0.5605831 -0.005919813 1.8702489 0.5801341
0000f0 bf 3b b7 3f bd d9 90 3f 7e cf d0 bd 92 ea 0d 3f
       1.4315108 1.1316448 -0.10195826 0.5543605
000100 40 72 15 bd 7f 06 15 3c 9b d0 93 3e 44 1c c7 3f
       -0.03648591 0.009095787 0.2887009 1.5555501
000110 6a 3e 2d bd 5b 3c 50 bd 4c a2 e1 3f 4d e5 f3 bf
       -0.04229585 -0.05083881 1.7627654 -1.9054352
000120 eb 9c 18 3c 04 5f 82 3f be bd a0 bd 98 d1 87 3e
       0.009314756 1.0185246 -0.078486905 0.26527095
000130 0f 88 18 3f 53 a5 57 be 2e bb 90 bd 6f 33 90 bf
       0.5958261 -0.2105916 -0.07066952 -1.1265696
000140 d5 af 43 3f b7 3b c1 bd 6e 06 9b 3e 61 df 3b bd
       0.76440173 -0.09435218 0.30278343 -0.045867328
000150 f6 2f d1 3f 20 f9 ef 3f e2 78 ce 3f 1d e5 6b 3d
       1.6342762 1.8747902 1.613064 0.057591546
000160 a9 7f 97 3f dd a6 d9 bd bd 79 b0 3f 34 56 e4 bd
       1.1835834 -0.1062753 1.3787152 -0.111492544
000170 8b 2a 88 3f 51 bd 4a 3f d7 8c c5 3f ee 69 ec bd
       1.0637983 0.79195124 1.5433606 -0.11543642
000180 3c 6d c4 3f e4 06 8b bd 82 db 46 bc 7b e2 83 3e
       1.5345836 -0.06788424 -0.012137296 0.25758728
000190 1d 15 84 bd 5d 8c 9d 3f 12 91 6e 3d 26 a3 83 3c
       -0.064493395 1.230846 0.05824382 0.016069006
0001a0 be af 7a bd 26 75 f7 bd 04 c6 f4 bf 9a 03 fe 3c
       -0.061202757 -0.12082891 -1.912293 0.031007577
0001b0 a5 7c 14 3f c8 69 84 3e d2 86 eb 3f b5 15 90 bd
       0.5800269 0.25861955 1.8400519 -0.0703539
0001c0 33 52 eb 3f b3 b8 74 3c a3 c6 7c 3f 08 01 65 3c
       1.838446 0.014936614 0.98740596 0.013977297
0001d0 fc f9 48 3f 49 9d 40 3f af 7d cc 3f 28 74 4c 3f
       0.78506446 0.7524 1.5975856 0.7986474
0001e0 a7 80 d9 3f 93 ae 97 bd 00 b5 94 bd 92 11 fd b9
       1.6992387 -0.07406344 -0.072610855 -0.0004826901
0001f0 08 3a 9e bd c4 3a 7c 3b f2 13 0d 3f d3 75 13 3c
       -0.07725912 0.0038487175 0.5510856 0.009000259

fc3.weight f4 [64, 128]
000000 78 ea e3 bc e5 98 ab 3d ed 84 ad bd a3 dd e8 bc
       -0.027821764 0.08378772 -0.08472619 -0.028425997
000010 7a ad 5d 3d 6e d0 d2 bc 6f 55 37 bd f0 38 12 3d
       0.05412052 -0.025734153 -0.04475921 0.03569883
000020 13 04 5d bd 86 ff 0d bd 59 e6 ac bd d9 9a a5 bd
       -0.053958964 -0.034667514 -0.08442373 -0.080861755
000030 46 41 0b bd fb 01 28 3b 31 41 af bd b2 a5 54 bd
       -0.033997796 0.0025635946 -0.08557356 -0.051915832
000040 89 f7 41 bd 8a 58 83 3d 7a 22 98 bd 6d f3 a2 bd
       -0.04735521 0.06413372 -0.07428451 -0.07956586
000050 82 82 1b bd 32 85 26 bd 58 44 27 3d 7e cf 4e bd
       -0.03796626 -0.04065437 0.040836662 -0.05049085
000060 c5 80 37 3c f5 aa 82 bd 89 f3 ab bd f2 40 ac bd
       0.011200135 -0.06380264 -0.0839606 -0.08410825
000070 af d2 d3 bb 43 81 d7 bc 47 ae c6 3c a4 7c 32 3c
       -0.0064643244 -0.026306754 0.024253024 0.010893974
000080 65 10 1d 3d 54 8e 83 3d b2 1b 33 bd 2f de 54 3c
       0.038345713 0.06423631 -0.043727584 0.012992426
000090 8b 16 9d bd 3d 9d 00 3c 63 ae 69 bd 5b 69 9f bc
       -0.07670315 0.0078499885 -0.057051074 -0.019459417
0000a0 a8 29 89 3c 43 14 03 bd 8b f2 f7 3c ca 8a 94 39
       0.016743496 -0.032001745 0.03026702 0.00028332166
0000b0 c0 64 a2 bb 5d ab df 3c 78 80 eb 3c 65 33 9b 3d
       -0.004955858 0.027303392 0.028747782 0.07578162
0000c0 f3 59 08 3d ed 4e 16 bd 35 dc b3 3b 04 b9 c2 bd
       0.033288907 -0.036696363 0.005488897 -0.09507945
0000d0 0b 8e 43 bd 24 0c b2 3c dc fd 27 bd 8f b0 2c bd
       -0.047742885 0.021734305 -0.041013584 -0.042160567
0000e0 83 59 49 3c 4e b9 56 3c 0e 9c b5 bc 9c e8 c3 3c
       0.012289408 0.0131057035 -0.02216914 0.023914628
0000f0 48 b9 23 bd 2e ba c5 3c b9 4b 6a 3d 4b f1 d4 bc
       -0.03997162 0.024136629 0.05720112 -0.025993964
000100 08 a1 ff 3c d9 a3 db 3c f7 e0 a4 bd 6c b4 c1 bd
       0.031204715 0.026811527 -0.08050721 -0.09458241
000110 e4 b9 1a bd 97 60 15 bd 39 8a 78 bc 65 18 cf bd
       -0.037774935 -0.03646907 -0.015169674 -0.10112075
000120 86 91 7c 3d f9 c2 11 3d 4a 43 b1 3d d4 d4 e4 bd
       0.06166222 0.03558633 0.086554125 -0.11173406
000130 8f 2f 73 3d a6 e7 aa bd 5f 19 eb bc 5a e7 8e 3c
       0.059371527 -0.08344965 -0.028698621 0.017444301
000140 0e 1a 8f 3c ff 9f 84 bd 53 2c 80 bd 4e 05 7e bd
       0.017468479 -0.06475829 -0.06258454 -0.062016778
000150 f6 b6 5f bd 2e 58 0a bd 96 14 20 bd 8b 92 83 3c
       -0.054617845 -0.0337755 -0.039082132 0.016061088
000160 7d ac 40 bc b5 3f 83 bd 13 98 45 3c f3 8e 95 3d
       -0.011759874 -0.064086355 0.012060183 0.07302656
000170 45 83 11 bd 07 b0 3f 3d 78 fd a1 bd 95 d3 5e 3c
       -0.03552558 0.046798732 -0.079096735 0.01360025
000180 b0 cf 3c 3d 6a e1 b1 bd dd cf d7 3c a5 47 8c bd
       0.046096504 -0.086855724 0.026344234 -0.068496026
000190 9a 7b 7c 3d d0 a2 3f bb 39 25 85 bd 0e b9 c7 bd
       0.061641313 -0.002924133 -0.0650124 -0.09752093
0001a0 b2 6a 9e 3d 04 ae 0a bd 62 50 f4 3c 81 a2 83 bc
       0.07735194 -0.03385736 0.029823486 -0.016068699
0001b0 06 01 4e 3d 34 50 65 bd 5d bf 5e 3c 40 1d 21 bd
       0.050293945 -0.05598469 0.013595429 -0.039334536
0001c0 08 02 0f bd bf 1b 9a bc b9 0d ad bd b5 15 8a bd
       -0.034914047 -0.018812058 -0.08449883 -0.067424215
0001d0 ff ad 55 bd fa 55 e4 3c c4 07 6f bd 3b 22 bc bd
       -0.05216789 0.027873028 -0.058357015 -0.091862164
0001e0 97 1d c3 bd de 1b 7c bd 79 38 0a bd fd 96 41 bc
       -0.09527128 -0.061550014 -0.033745263 -0.011815784
0001f0 36 94 c9 bb b4 7d 6f bd c6 fa 6a 3d 51 45 aa bd
       -0.0061517013 -0.05846949 0.057368062 -0.08314002
000200 30 ba 5f bd 72 77 c6 3b e0 c4 03 be a6 4c 19 bd
       -0.05462092 0.0060567195 -0.1286807 -0.037426613
000210 e7 f0 03 be 15 3f d0 ba a5 df ae 3d 0a b0 19 3d
       -0.12884866 -0.001588794 0.085387506 0.0375214
000220 ea a4 d1 bc 4e 65 92 bb e8 af 4b bc 55 07 4f bc
       -0.025591332 -0.004467643 -0.012432076 -0.012636025
000230 7f b5 47 bd 94 8f c6 bd 9c 4d 90 bd 76 e6 66 3c
       -0.048757073 -0.09695354 -0.07046053 0.014093032
000240 2c 08 a1 bd 80 ee e0 3c c1 fd eb bd 82 67 a7 3c
       -0.07862887 0.027457476 -0.11523009 0.020435099
000250 70 8e a8 3c 98 48 82 3d 2f 76 ab 3b 2e 3a 2f 3d
       0.020575732 0.063615024 0.0052325944 0.042780094
000260 d9 44 b4 3d bd 71 84 bd 87 19 6f bd 8a c7 04 be
       0.08802194 -0.06467006 -0.058373954 -0.12966743
000270 0f ba cf 3c cf 15 26 3d 07 27 c8 bd f9 66 d6 bd
       0.025357274 0.040548142 -0.09773069 -0.10468859
000280 18 7c bf bd d2 d7 5f 3b 80 80 80 3c d2 39 f9 bd
       -0.09349841 0.0034155739 0.015686274 -0.121692315
000290 e6 ef c0 bd ec 29 e8 bc 5d 87 b0 bd d9 33 20 3d
       -0.09420757 -0.028340302 -0.086195685 0.039111946
0002a0 c8 9b c0 3c 94 a3 04 3d c7 32 57 bc 05 c5 78 bd
       0.023511782 0.032382563 -0.013134665 -0.060734767
0002b0 9e 65 0f bd 54 98 d0 3c ca 4e 4f 3d dc 33 c6 bc
       -0.03500902 0.02546326 0.05061225 -0.02419465
0002c0 b2 ac 85 bd 6d c5 01 3c 9a 27 09 be 0e c7 86 3c
       -0.0652708 0.007920605 -0.13394013 0.016452339
0002d0 f9 27 10 be 1c 2d 27 be 7c 93 92 bc 29 4f 2a 3c
       -0.14077748 -0.16325802 -0.017892592 0.01039485
0002e0 94 6a 54 bd 1f 3e 77 3a 3c 8c 5e bd f5 25 be bd
       -0.051859453 0.0009431559 -0.054332957 -0.092845835
0002f0 8f bd b7 bd 6a 35 39 bd 3f 06 83 bd 97 ca 11 be
       -0.08971702 -0.045216955 -0.06397676 -0.14237438
000300 0e 55 86 bd b4 0c ad bd ec 30 1e 3d 18 0c ad bc
       -0.06559192 -0.084496886 0.038620874 -0.02112393
000310 56 bd 0c 3d 66 2e 5a bd 61 38 36 3d 16 84 de bd
       0.034360252 -0.053266905 0.04448736 -0.10865037
000320 fc 36 b8 3b 5d 98 32 be 82 54 81 bb 7f bd 0e be
       0.005621789 -0.17440934 -0.0039468417 -0.13939475
000330 1c ca 03 bc 34 1e 5c bd f6 48 fe 3c 6b 8f e2 3c
       -0.008043792 -0.05373974 0.03104065 0.027656278
000340 e7 3f 5f bc 46 ea 0a 3d 2e 4b af 3d 02 23 8a bc
       -0.013626075 0.033914827 0.08559261 -0.016862396
000350 c7 72 9d bc 88 d1 bf 3c ac ba e1 bc 11 0e 78 3d
       -0.01921977 0.023415342 -0.027554832 0.06056029
000360 d3 97 5b bd 02 e4 8c 3d 8a 9e 4c bc d4 85 33 bd
       -0.053611588 0.068794265 -0.0124889705 -0.0438288
000370 f8 df 07 bd d8 aa 97 bd 3d e3 7e bd c6 99 94 3d
       -0.033172578 -0.07405633 -0.06222843 0.072558925
000380 36 6f aa bd 7a 22 84 3d 54 45 5a bd ad a8 97 bd
       -0.08321993 0.064518884 -0.053288773 -0.07405219
000390 cb 10 99 bd 88 c5 b1 bd c1 5a 2e 3d 53 18 7b bd
       -0.07473906 -0.08680254 0.04256702 -0.061302494
0003a0 7b ca 6b bc 9c 94 99 bd 08 2e f8 bd b3 e0 1b 3d
       -0.014391537 -0.07499048 -0.12118155 0.038056087
0003b0 e9 be bc 3b e0 1e eb bd 1d 35 93 3c 2b 1f 2a 3d
       0.005760063 -0.11480498 0.017969662 0.04153363
0003c0 4e cf 8e 3c 1d 40 6c 3d db f2 9f bd 9e f1 d6 3a
       0.017432835 0.05767833 -0.07809993 0.0016398912
0003d0 2d 36 9c 3c 86 66 a1 3b 60 92 cb bd 76 e1 bd 3d
       0.019068802 0.004925552 -0.09940028 0.09271519
0003e0 5e 24 72 3d 91 ee 38 3d a1 8b aa 3d ff 25 20 3d
       0.059116714 0.04514939 0.08327413 0.039098736
0003f0 41 3c 93 3d d4 f1 af bd 2d 42 0c bd e4 d2 98 3d
       0.07189227 -0.08591047 -0.034242798 0.07462099

fc3.bias f4 [64]
000000 ab 89 50 3d c2 12 00 be a1 79 14 be 80 d0 01 3f
       0.05091254 -0.12507156 -0.14499523 0.5070877
000010 0e e8 af 3e d1 1b d8 bd ec 40 fa bd c9 63 bb 3b
       0.3435673 -0.105521806 -0.12219414 0.0057186824
000020 19 f7 9b 3d f2 02 97 3d 94 9b c9 3f fc 76 8b bd
       0.076154895 0.07373609 1.5750604 -0.06809804
000030 ea 7c 7a bb 90 75 ec bc 29 88 53 bd a5 32 e0 bd
       -0.0038221427 -0.028864652 -0.051643524 -0.1094716
000040 d4 8e 4f 3c 65 c1 8a be 38 da 4a 3d ef 42 f2 3e
       0.01266833 -0.27100673 0.049524516 0.4731669
000050 95 26 3f be 46 64 e2 3f e0 75 1e 3f 54 1a 2f 3f
       -0.18667062 1.7686851 0.6189861 0.6839955
000060 5b d9 4d bd 6c ba a8 bd 38 83 d6 bc 61 18 82 3b
       -0.050256114 -0.08238682 -0.026185617 0.0039701913
000070 52 df 50 3f 31 0d d2 3f 8d ed 71 3f cb c8 41 3e
       0.8159076 1.6410276 0.945031 0.18924253
000080 59 62 74 bd 85 9e 56 bd 9a d5 8a be 56 09 e9 3f
       -0.059664104 -0.05239727 -0.2711609 1.8205974
000090 52 10 c3 3c 74 66 73 bd d5 e5 43 3f 9b 1f 54 3c
       0.023811493 -0.05942388 0.7652257 0.012946988
0000a0 df af 19 3f 86 f8 e0 3f 8c 5a 90 bc 50 7b af bd
       0.60033983 1.7575843 -0.017621301 -0.08568442
0000b0 b4 47 1b 3a fa e4 ca 3f b0 c7 a9 3f 00 27 10 3f
       0.00059234654 1.5851128 1.3264065 0.5630951
0000c0 78 9a 9f 3f f3 b4 04 be 20 96 7d bd f2 c5 f1 bc
       1.2469015 -0.12959652 -0.06191075 -0.029513333
0000d0 63 22 93 3f 79 f3 31 3e 3f 01 0f 3f 9b d5 ec 3c
       1.1494869 0.17378034 0.55861276 0.028910449
0000e0 0c d1 de bd c9 fa 52 3d cd 92 95 3d 76 93 ea 3f
       -0.10879716 0.0515087 0.07303391 1.8326252
0000f0 00 97 50 3d b2 83 61 3f 58 44 bd 3c c4 46 61 be
       0.050925255 0.88091576 0.023103878 -0.21999651

fc4.weight f4 [20, 64]
000000 7d 14 e8 bc ac 60 2a 3c ea 7f 33 3d bf a2 23 3d
       -0.028330082 0.010399025 0.04382316 0.03995013
000010 5b 68 a5 3c 0b fa 7b bd 83 fd 6e 3c bb fd 41 be
       0.020191362 -0.061517756 0.014586809 -0.18944447
000020 8d 07 88 3d 4a 12 92 3d 5c 88 e3 3e 78 6e 8d 3d
       0.06642065 0.071323946 0.4443997 0.06905836
000030 d4 20 2e 3d 33 f3 16 3e 19 c2 d6 bc 02 3b d3 bd
       0.042511776 0.1474121 -0.0262156 -0.10313989
000040 18 41 65 3d b7 27 25 bd 24 4b 33 3d 5b e6 25 3e
       0.05597028 -0.04032108 0.04377283 0.16201155
000050 80 14 7a be 1e 9a bb 3e d6 8d 39 3e 44 d1 9c bd
       -0.24421883 0.3664102 0.18120512 -0.07657102
000060 7e ac 12 3d 47 b7 6d 3d 60 3c b3 bd d2 fb cf 3c
       0.035809033 0.058036115 -0.0875175 0.025388632
000070 c4 e9 94 3b 7f 06 87 3e 8f 27 f4 3d c0 9d 03 3d
       0.0045444686 0.26372144 0.11921608 0.032132864
000080 b7 64 04 3e 19 0a 14 bd 22 af 52 be 88 b6 9a 3e
       0.12929045 -0.036142442 -0.2057462 0.30217385
000090 8c 2f bc bd 80 48 4b 3c dc f5 68 bb 29 5d 9d bd
       -0.09188756 0.012407422 -0.0035546934 -0.076837845
0000a0 56 62 04 3e 89 00 84 3e dd 67 85 bd f4 5a 9c 3c
       0.12928137 0.25781658 -0.06513951 0.019086339
0000b0 e0 34 bf 3d 8b db 0b 3e 91 c8 89 3e 0f 40 02 3b
       0.09336257 0.13657968 0.26910833 0.0019874608
0000c0 c4 60 72 3e 5c f9 88 bb 11 da d8 bd f1 4b e0 3c
       0.23669726 -0.0041801166 -0.10588468 0.027379962
0000d0 f3 33 3e 3d a7 c8 3d 3d 04 aa 14 3c a5 a4 2f 3c
       0.04643626 0.046333935 0.009073738 0.010720407
0000e0 26 b3 21 3d 02 2b f5 3d ee 72 0f 3d 66 38 87 3e
       0.03947749 0.11971094 0.035021715 0.26410216
0000f0 67 fe a2 3d 19 63 4b 3e 24 52 66 3d a9 ad 69 be
       0.0795868 0.19862022 0.05623068 -0.22820152
000100 be 74 0b bc 28 33 59 3e fb e4 01 bd 88 16 17 3e
       -0.00851172 0.21210921 -0.031712513 0.14754689
000110 04 ea 28 3e 2f 97 e8 bd ab 52 11 be 2d 3a 20 bd
       0.1649552 -0.11356961 -0.14191692 -0.03911798
000120 3a 49 1a 3d 26 8b ae 3d 4d 41 72 3e 63 5a 0d 3d
       0.03766749 0.08522634 0.23657723 0.034510028
000130 b1 98 80 bd e2 aa 92 bd 7f 8e da 3c a4 3a 2d 3d
       -0.062791236 -0.071614996 0.026679276 0.042292252
000140 20 ef bf 3b dd ab f1 bd c6 8d 37 3c 72 93 2c bc
       0.0058573633 -0.118003584 0.011203235 -0.010533201
000150 2c ca 3b bc 4c 0a 84 3e 37 60 8e 3d 45 a2 aa bd
       -0.011461776 0.25789106 0.06951945 -0.08331732
000160 f8 e7 b1 3d 94 20 f3 3d 99 3b 95 bc 5d b6 41 bd
       0.08686823 0.11871448 -0.018216895 -0.047293056
000170 6d 6c fa 3d c8 d1 87 3e 7a 18 2f 3e 49 53 b4 3d
       0.12227712 0.26527238 0.17099181 0.08804948
000180 60 11 1a bd cf 65 a1 bd 9f 2a 64 be 1b 67 a1 3e
       -0.037614226 -0.078807466 -0.22281884 0.31523976
000190 c8 26 90 3d c4 0f 7d bd a6 00 b0 bb f3 c2 df bd
       0.07038647 -0.061782613 -0.005371171 -0.109258555
0001a0 70 a4 33 3e d4 79 b1 3e c7 d4 dd 3d d6 8a 88 bd
       0.17543197 0.3466326 0.108316 -0.06667106
0001b0 1a c8 9b 3d e0 28 44 3e 2d c8 a9 3e f3 28 48 3d
       0.07606526 0.19156218 0.33160535 0.048867177
0001c0 e4 97 a5 3e e0 30 40 bd 5a 1f 5f 3d 89 fe 25 3e
       0.32342446 -0.04692161 0.05447326 0.16210379
0001d0 80 df 87 3e 4f 1d 8b 3e 58 74 37 3d 13 20 44 3d
       0.26537704 0.27170798 0.04478869 0.04788215
0001e0 0c eb fa 3d 2c 3f 59 bc 99 67 cd bc 19 14 94 3e
       0.12251863 -0.01325969 -0.025073813 0.28921583
0001f0 7e 5a 57 bd 82 c3 96 3e 00 eb ae 3b 52 16 18 be
       -0.052576534 0.29446036 0.005338073 -0.14852265
000200 49 37 3e 3d e3 03 7c bd 7b 30 92 bc 95 fe 72 bd
       0.046439443 -0.061527144 -0.017845383 -0.05932482
000210 b2 d6 56 3e dd 48 ba 3d f2 1b fb bd d0 ad 61 3d
       0.20980337 0.09095929 -0.122611895 0.0550974
000220 c0 28 8e 3d 60 a5 9a 3c 6d 33 5a 3e ad bf b8 bb
       0.06941366 0.018877685 0.2130868 -0.005638084
000230 e5 05 23 3d f6 f2 90 3d 07 f8 a6 bb a0 10 65 bc
       0.039800543 0.07077591 -0.005095485 -0.0139810145
000240 64 5b c7 bd 5c fc 52 bd 1e 86 0c bc 2a a3 58 bd
       -0.09734228 -0.0515102 -0.008576898 -0.05288998
000250 af ee c1 bd ce ae a5 3e 57 6d 25 3d db 8f ab 3d
       -0.094693534 0.32359928 0.040387478 0.08377048
000260 b8 ff 37 3d 10 c6 57 3c ec d0 88 3d e1 05 79 3d
       0.044921607 0.01316978 0.06680474 0.060796622
000270 34 84 16 be 51 8c 89 3e 55 85 12 3e f7 ee 07 bd
       -0.14698869 0.26864865 0.14308675 -0.03318688
000280 00 65 10 ba 3b 34 99 3d 89 38 a2 be bb 6f a1 3e
       -0.0005508214 0.07480665 -0.31683758 0.31530556
000290 88 fc da bd 26 14 fc 3d 64 b2 a4 3d 10 5b 75 3c
       -0.10692698 0.123085305 0.08041838 0.014975324
0002a0 02 40 54 3e f7 ea a7 3e f9 f1 65 bc 74 5d 3c bd
       0.20727542 0.3279645 -0.014034742 -0.04598756
0002b0 48 37 c9 3d d5 0b e0 3d 28 c2 97 3e 32 16 85 bd
       0.09824997 0.10939757 0.29640317 -0.06498374
0002c0 04 4b ce 3e 5d 84 a5 bc af 00 b8 3d 1b 2f 1a be
       0.40291607 -0.020204717 0.089845054 -0.15057032
0002d0 5a dd 3f 3e e3 30 80 3e 36 c7 9a 3d 7a 56 dd bd
       0.18736783 0.25037298 0.07557528 -0.1080751
0002e0 60 1e a6 bc e5 11 da 3c 9b 3a 95 3d b2 57 80 3e
       -0.020278156 0.02661986 0.07286569 0.25066906
0002f0 aa aa da bd 11 6e 9b 3e 78 10 0f 3d df 32 34 be
       -0.10677083 0.30357412 0.034927815 -0.17597531
000300 51 e3 87 3d 81 f2 87 b9 9e fd 5b bc 57 46 85 3e
       0.06635154 -0.00025929886 -0.013427166 0.26030228
000310 d7 d4 d6 bd 52 ba 1f bc 1e 18 1c be fd b3 e5 bd
       -0.10489815 -0.009749012 -0.15243575 -0.11215971
000320 93 a0 c6 3c 00 ce 1e ba d3 bd 7b 3e 4f fd 0e 3d
       0.02424649 -0.0006057918 0.24584131 0.034909543
000330 c4 eb 35 3d 24 35 56 bd 59 7e 06 be 94 d9 ed 3d
       0.044414297 -0.052296773 -0.13134135 0.11613765
000340 22 bb b4 3d fd bd b8 bd af 63 dc bc fd 9e 29 3d
       0.08824755 -0.090206124 -0.026903002 0.04141139
000350 7e 5c 26 bb f6 ec 98 3e ac 60 0d 3e 94 c4 21 3d
       -0.002538472 0.29868287 0.13806409 0.039494112
000360 33 b6 c4 3d 0c b5 10 3d 08 be 34 3c 29 fa c7 3a
       0.09605064 0.03532891 0.011031635 0.0015257049
000370 bb c1 74 3e 67 c1 2c 3e be 03 b7 3d 57 2a 70 3e
       0.23902027 0.16870652 0.08936261 0.23453651
000380 fc 10 85 3c c9 01 2b 3d c2 5b 50 be 84 b4 94 3e
       0.01624345 0.04174975 -0.20347503 0.29043972
000390 5c df 76 bd 84 f7 16 3d 27 bb 40 3c a0 c1 42 bd
       -0.060271606 0.036857143 0.011763371 -0.047547936
0003a0 a9 2d 85 3e c3 33 b7 3e 2d f8 d5 bd 0c b9 a5 3d
       0.26011398 0.3578168 -0.104477264 0.080919355
0003b0 30 f4 25 3d 6e 90 e1 3e 7d 02 bc 3e 3c 5d 80 3d
       0.04051608 0.44055504 0.36720648 0.06267783
0003c0 73 65 83 3e ef 6d 33 be 92 c8 f7 3d 27 48 9b 3d
       0.25663337 -0.17522405 0.120988026 0.07582121
0003d0 7f f2 a6 3d d2 69 5e 3e 7e cc 6f 3e ef f4 47 bd
       0.08151721 0.21720055 0.23417851 -0.04881757
0003e0 d2 c6 b5 bd 90 61 df bd 9e 53 7c 3d 70 eb 84 3e
       -0.088758126 -0.109072804 0.06160318 0.25960875
0003f0 d6 90 9b bd 09 1d ca 3e 38 bb 2f bd 62 75 17 be
       -0.07595985 0.39475277 -0.042903155 -0.14790872

fc4.bias f4 [20]
000000 89 1d b5 3f 00 71 d0 3e 3d 87 9f 3e 6a 57 ee 3e
       1.4149638 0.40711212 0.31157866 0.46551067
000010 e6 c5 b1 3e 8a 49 12 3f db cd 64 3e 33 0d 51 3e
       0.34721297 0.5714346 0.22344153 0.20415191
000020 a3 fa 98 3e 42 16 9c 3e c7 9f 9b 3d ac 43 d4 3d
       0.2987872 0.3048573 0.075988345 0.1036447
000030 04 16 ae 3d cb b6 6a 3d ae 6d 24 bd d4 f7 1c 3e
       0.08500293 0.05730323 -0.04014366 0.15328914
000040 c2 d7 56 bc a0 1f e3 be ee 45 6e be 35 51 d2 be
       -0.013112964 -0.44360065 -0.23268864 -0.4107758

fc1.weight f4 [128, 3]
000000 1f bb 50 bd 8d a8 82 3e 3d a7 c1 bb 0e f0 2c 3e
       -0.050959703 0.2551922 -0.005909829 0.16888449
000010 e3 09 06 bf 57 8c ed be 13 8c 0d 3e 8f 20 81 3c
       -0.52358836 -0.46396133 0.13822965 0.015762595
000020 a8 ed 70 bc 44 67 23 3e 47 bf 15 3e 1a 3c 1e be
       -0.014705099 0.15957361 0.14623748 -0.15452614
000030 b4 a9 09 bf c3 41 eb 3e bc 66 e3 bd b5 7e 93 3c
       -0.5377457 0.4594861 -0.111035794 0.018004755
000040 b2 30 01 bf b6 a8 fa be f8 73 9d be 35 1b 8f 3e
       -0.5046493 -0.4895684 -0.3075254 0.27950445
000050 e8 6f 19 3d 1d bc 0c bf ff bb e1 be ad 4b ef bd
       0.037460238 -0.5497454 -0.44088742 -0.11684356
000060 b6 c8 d4 be 98 44 70 be ce b2 e7 3d 83 6d ce bd
       -0.4155938 -0.23463666 0.11313401 -0.100794815
000070 7d 59 c8 be 21 11 d0 bc 5f 71 80 be 4c dc 83 bd
       -0.39130774 -0.025398793 -0.25086495 -0.06438503
000080 c3 f3 c1 be c2 1c ae 3d 18 f1 a5 3e 3d 63 14 3d
       -0.37881288 0.08501579 0.32410502 0.036227454
000090 68 34 ce be 7b 87 a5 be a0 db 02 bf 0e 07 16 3d
       -0.40274358 -0.32329926 -0.5111637 0.03662782
0000a0 78 c7 94 bd 28 9b b9 bd 40 87 d3 3e ee e8 0c bf
       -0.07264608 -0.09062797 0.41314125 -0.5504292
0000b0 3a 42 f6 be e7 38 d4 be 30 4f 89 be f0 09 61 be
       -0.48097402 -0.41449663 -0.26818228 -0.21976447
0000c0 89 66 3a be b3 7e 22 bf 1b 95 94 3d 86 5f ac be
       -0.18203177 -0.6347458 0.07255002 -0.3366663
0000d0 a2 4e 27 bf 8b 41 13 3b 66 a2 a7 be 4f 7b b0 be
       -0.6535436 0.0022469487 -0.32741088 -0.34469077
0000e0 60 dd 49 be 71 59 7b bf d9 ac b2 3c 50 2d 2d 3d
       -0.19713354 -0.9818335 0.021810936 0.04227954
0000f0 80 c3 6d bd 12 67 57 3e 8a 8a 2e 3b a0 85 a1 be
       -0.05804777 0.21035412 0.0026632869 -0.3154726
000100 ac 38 dd 3e 65 a6 0d bf e8 8d e8 3e 97 50 98 3d
       0.432073 -0.5533202 0.45420766 0.07437246
000110 ca dd 51 3d 5e 11 cc be 80 99 3a 3e 1b cd 9e 3d
       0.051236905 -0.39857 0.18222618 0.077539645
000120 87 37 97 3e a6 79 54 be 7b 0e 6b 3d dd ce b3 be
       0.29534552 -0.2074953 0.057386857 -0.35118762
000130 4a 65 b4 be 6e 2e 0a bf 57 b5 52 be e6 2b a7 3b
       -0.35233527 -0.53977096 -0.20576988 0.0051016686
000140 b2 de 24 bd 8f be d2 be 20 ca 1e 3e c9 28 ac be
       -0.04025144 -0.4116101 0.15506792 -0.33624867
000150 54 23 19 3e 05 a8 d7 3c ff dd bb be 92 92 47 be
       0.14954883 0.026325235 -0.36692807 -0.19489506
000160 1e ca c2 3e dc 38 4a bf 6d 68 0e 3e c1 e9 1c bf
       0.38044828 -0.7899301 0.13907023 -0.6129418
000170 cd a4 46 bd 3e dc 57 3e 8e c2 9b bc c8 20 17 be
       -0.04849701 0.2108011 -0.01901367 -0.14758599
000180 e9 09 f9 be 39 64 d3 be 35 1a 0d be 59 20 f5 bd
       -0.48640373 -0.412874 -0.13779528 -0.119690605
000190 41 0f b0 3d 15 2f 9c 3c c2 62 26 be 7b af d7 be
       0.085966595 0.01906542 -0.1624861 -0.42126068
0001a0 d8 0e 06 3e e7 d4 34 be 34 4b 5f bf 31 f0 67 ba
       0.130916 -0.17659341 -0.87224126 -0.0008847742
0001b0 97 f3 8f bf 4b 7e 35 be 89 fd 6d 3c 76 3c cd bd
       -1.1246213 -0.17723958 0.0145257795 -0.10021298
0001c0 d4 eb 00 bf 53 bb 78 3d 3a b0 39 3e 31 4a c4 bd
       -0.50359845 0.06072552 0.18133631 -0.095844634
0001d0 b6 7e 2b bf 43 40 9c be 7c 75 b0 bd 27 ac 2c 3e
       -0.6699022 -0.30517778 -0.08616158 0.16862546
0001e0 02 cd 70 3e 13 60 95 be a8 ce 04 be 87 8d 5d be
       0.23515704 -0.2917486 -0.12969458 -0.2163602
0001f0 5a 85 8b be 76 77 e6 be dd 57 0a 3e 80 9d 21 3e
       -0.27250177 -0.45013016 0.1351008 0.15782738
000200 c9 ad 1b 3e 7e 4b 88 3e f3 1f 54 bc 68 be 40 bf
       0.15203013 0.26620096 -0.01294707 -0.75290537
000210 5d 41 1f bf a4 ef 0f 3d be a3 e8 bd 0b df f8 3d
       -0.6220911 0.03514065 -0.11359356 0.12151917
000220 05 d7 01 bf bf 7a 5c bd e7 3d 13 bf 12 cc 84 be
       -0.5071872 -0.053827997 -0.5751633 -0.25936943
000230 c2 48 59 be b8 a3 16 bf 46 4b 1b be ba ef 5c 3d
       -0.21219161 -0.58843565 -0.15165433 0.05393956
000240 89 a0 03 3f 2c c7 c6 3d 26 bb c0 3d 26 39 81 bf
       0.5141683 0.09705958 0.09410696 -1.0095565
000250 59 14 f6 bf f1 3d 77 3d 3f 57 6a 3e 22 4e 8e 3e
       -1.922496 0.060361806 0.22884844 0.27793986
000260 3e 31 b2 3d 60 fa 3c 3d 31 c3 41 3e d4 62 d1 be
       0.087007985 0.046137214 0.18922116 -0.40895712
000270 e6 04 07 bf 38 d6 08 bf 49 20 89 be 66 b4 27 be
       -0.5274185 -0.5345187 -0.26782444 -0.1637741
000280 43 ca 31 be 46 31 4a be 05 91 b8 be f6 59 a5 3d
       -0.17362313 -0.19745359 -0.3604814 0.08073799
000290 01 ab 05 ba d7 22 e6 3d 81 ab 2b be e3 87 36 3d
       -0.0005099029 0.11237114 -0.16764642 0.044563185
0002a0 34 96 f4 bd 23 66 da be e3 7a 78 bc d7 07 09 be
       -0.119427115 -0.4265605 -0.015166017 -0.13381897
0002b0 88 5b 8f be a2 b9 1c 3e fb 0d 0c bf ba 69 89 be
       -0.2799952 0.15305188 -0.5470883 -0.26838475
0002c0 28 83 bb be 6d a3 a5 be 57 19 2b be b5 ce 7c 3d
       -0.36623502 -0.32351246 -0.16708885 0.06172057
0002d0 2e 5c 2c bd 58 05 92 3e 0c 86 ac be a5 7c 7d bd
       -0.042080097 0.28519702 -0.3369602 -0.06188645
0002e0 28 d5 d9 3e 10 69 29 bd 28 23 87 be ca 04 5f 3e
       0.42545438 -0.04135996 -0.2639401 0.2177917
0002f0 62 ae e3 3d bb be df 3e cd 12 9b bd 64 d0 97 be
       0.11117245 0.43700203 -0.07571945 -0.29651177
000300 5b e6 01 bf be bc f7 bd a2 97 a2 be e8 b3 4c 3d
       -0.5074212 -0.120965466 -0.31756312 0.04997626
000310 fc d5 64 3e 9b 97 3c bc 0a 97 d3 3e 03 c2 04 bf
       0.22347254 -0.011510755 0.4132617 -0.5185854
000320 e8 fe ba be 9b 42 c5 3e df 52 c3 3d 01 83 ce be
       -0.36522603 0.38527378 0.09537291 -0.40334323
000330 d6 1d 06 bd 0b 56 b2 be 5c c8 f9 3c 90 17 cc be
       -0.032743298 -0.3483127 0.030491047 -0.39861727
000340 ac b6 ad be d4 9d 39 3e f3 c6 5a 3d b6 89 a5 be
       -0.3392843 0.18126613 0.05341239 -0.32331628
000350 78 2e 08 3e a6 b3 98 be e0 39 e8 be 94 ec 31 3b
       0.13298976 -0.2982456 -0.45356655 0.0027149068
000360 86 10 16 be 82 c0 87 be 5a 27 f0 be a4 6e 1a 3b
       -0.1465474 -0.2651406 -0.46905023 0.0023564482
000370 88 4f 8d 3d e7 61 28 be ab aa ec be 3c fa 29 be
       0.06899935 -0.16443597 -0.4622396 -0.16599363
000380 00 90 69 be 5e e6 ef 3c 2f 45 08 be 44 7d aa bc
       -0.22808838 0.029284652 -0.13307641 -0.020811684
000390 ba 72 f3 bc cd 54 f9 3e b7 84 66 be c2 6e 24 3e
       -0.029717792 0.4869751 -0.22511564 0.16057876
0003a0 43 9f da bd 14 00 ad 3c d2 3a 24 be f6 23 5d bd
       -0.10674908 0.021118201 -0.16038063 -0.053989373
0003b0 64 9f 9e 3b 19 3c 06 3e b6 cd 7f 3c 50 75 1d bf
       0.004840778 0.13108863 0.01561301 -0.6150713
0003c0 e3 b5 8c bd 8b ea cb 3e d3 54 56 3b 72 0b e3 3e
       -0.0687063 0.3982738 0.0032704368 0.4434467
0003d0 3c e9 fa 3d cc b2 d2 be 5d 2d 94 3b 18 53 66 3e
       0.12251517 -0.41152036 0.0045220093 0.22492635
0003e0 29 24 7d 3d b5 20 b5 3e f8 24 af bd fc 13 26 bf
       0.061802063 0.35376516 -0.08551973 -0.64874244
0003f0 63 d4 b6 be 14 95 04 bf 97 c7 ed be 40 21 c9 bc
       -0.35708913 -0.51789975 -0.46441337 -0.024551988

fc1.bias f4 [128]
000000 51 e5 1f 40 d6 e6 d1 3e c8 61 94 bf 54 5a 04 40
       2.4983714 0.40996426 -1.159234 2.0680132
000010 90 f6 12 3f da 15 28 be f2 1e 27 c0 2b 0f 5d be
       0.57407475 -0.16414586 -2.6112638 -0.21587817
000020 5f 5c 2b c0 e6 ac c3 3f 85 54 da be b3 cb e9 3f
       -2.677513 1.528714 -0.42642608 1.8265289
000030 b2 a4 3a 3e 20 ae 08 3e e7 6c 17 3e df 2b c2 be
       0.18226889 0.13347673 0.14787637 -0.37924096
000040 bd df 51 3f 0b 19 1f bf bb e2 e6 be f9 82 ec bf
       0.8198202 -0.6214759 -0.45094857 -1.847747
000050 62 83 0b 40 13 7b 82 3f 86 64 41 c0 3c 03 26 40
       2.179894 1.0193809 -3.0217605 2.5939474
000060 44 cb 1f 40 44 e3 d4 3d 36 45 70 3f 44 b9 b7 be
       2.4967813 0.1039491 0.9385561 -0.35883534
000070 b4 9e df 3f c1 6a 84 3f e0 4f 8c bf 8a 5e 06 40
       1.7470307 1.0345079 -1.0961876 2.0995202
000080 b7 85 dd be 30 b1 1f 40 ca 19 2e c0 2f 1b 48 be
       -0.4326608 2.4951897 -2.720324 -0.1954162
000090 30 50 ce bf b0 eb 0e c0 e3 37 df 3f 06 18 07 c0
       -1.6118221 -2.2331352 1.743893 -2.1108413
0000a0 09 79 bf 3d c9 18 84 be cb bf 1d c0 96 99 db 3f
       0.093492575 -0.2580016 -2.464831 1.7156246
0000b0 b7 80 9b bd bb 96 4a bf d4 41 bf be c0 27 09 c0
       -0.0759291 -0.79136246 -0.3735491 -2.1430511
0000c0 0d 5a 0c c0 09 e3 db bf dc fa c2 bf 7c d1 0d 40
       -2.1929963 -1.7178661 -1.5232806 2.215911
0000d0 0c 29 0e bf bd ec d3 3d 91 07 07 40 ae 7d 47 40
       -0.5553138 0.103478886 2.1098368 3.1170459
0000e0 f8 cf 20 40 3b 9d 00 c0 7a e7 c6 be d6 db 21 c0
       2.5126934 -2.0095966 -0.38848478 -2.5290427
0000f0 44 ba f9 be a4 83 0d 40 26 6c d3 3f d5 56 be 3f
       -0.48774922 2.2111597 1.6517379 1.4870249
000100 54 1d 8e be 51 e2 20 40 fc e9 db 3f 10 3c 48 3f
       -0.2775675 2.5138133 1.7180781 0.7821665
000110 d2 d6 24 40 2f 1e a5 3f e7 f6 c6 bf c2 0e e9 3f
       2.5756116 1.2899836 -1.5544099 1.8207629
000120 e5 59 88 3e 01 1d ff 3f de fc d1 3e 11 38 bc bf
       0.26631084 1.9930726 0.41013235 -1.470461
000130 46 c3 17 40 65 f1 36 40 c3 a1 1b bf 71 95 0b 3f
       2.3712935 2.8584836 -0.60793704 0.54524904
000140 d3 18 31 40 f7 12 9c bf 36 4a ee bf 94 1a 49 3f
       2.7671402 -1.2193288 -1.8616397 0.7855618
000150 7e 3a 7c 3e bc 30 f7 3f 7b a0 13 3f c7 9a 19 40
       0.24631688 1.9311748 0.5766675 2.4000719
000160 b4 20 bf 3c 8a da f2 3f 3d e3 12 40 01 fe f3 be
       0.023331024 1.8972943 2.2951195 -0.47654727
000170 6e 13 0f 40 69 9f 34 be 7d 3b ee 3e d9 59 80 be
       2.235561 -0.17638935 0.4652976 -0.25068548
000180 9b ef 3a be e7 84 ce bf 4f 22 56 bf 13 61 24 c0
       -0.18255465 -1.6134309 -0.836461 -2.568425
000190 a0 fd ba bf 3a 40 86 be bf 1d d6 3f 13 2e 91 3f
       -1.460865 -0.26220876 1.6727828 1.1342186
0001a0 01 9c 28 3f 4e 45 11 c0 b7 71 0f bd 4c b1 f5 3e
       0.65863043 -2.269855 -0.035020556 0.4798683
0001b0 bf e2 c4 3f 5f 6a 2b bd 09 cd 00 c0 4a 7d eb 3e
       1.5381697 -0.04184949 -2.0125144 0.45994025
0001c0 62 bd 0c 3e 06 b8 23 40 ae 75 d7 be 83 1d fd bf
       0.13744119 2.558107 -0.4208197 -1.9774631
0001d0 1f 42 6b 3f 95 de f5 3d fe bb ba 3e 90 a6 41 40
       0.9189777 0.12005345 0.36471552 3.0257912
0001e0 07 57 0e 40 17 63 f3 bf 16 e2 03 c0 64 b1 b1 bd
       2.2240617 -1.9014615 -2.0606742 -0.08676413
0001f0 16 8c 10 3f 35 23 5b bf 0b cc 00 40 6a 32 fc 3f
       0.56463754 -0.85600597 2.0124538 1.9702885
