models/dqn_agent_firm_1_final.pth (torch, 100986 bytes, 24 tensors)

fc1.weight f4 [64, 3]
00000000: 7ed5 833d 939c 23be 163b cc3c bdb5 17bf
00000010: 5143 123f a265 90bd f2b8 573e c593 df3d
00000020: cea7 b6be 0f8a 89be 5db1 0bbe 5ebb 98be
00000030: be18 42bf cd07 d1be d5e5 4f3e e288 343f
00000040: 214e 043f 1a04 4d3e e624 1c3f 4801 05be
00000050: b338 a03c 9359 923c 9aec aa3e f84f 913d
00000060: fd92 eabe e20e 8d3e 3382 8d3d 6dbf 83bb
00000070: cd3c 273f 0eca 903e 4788 74bc 90f7 c2bf
00000080: 891d af3c 46dd f6be 9840 1e3d 53d6 b0bd
00000090: 7492 0bbf 9062 e3be a719 7abe 33e0 293f
000000a0: c03c 7abe 73b6 013d 2253 be3e 371d 32be
000000b0: ecd1 2e3d 2582 83bf bb4b 113e c5fe a2bd
000000c0: c65e e2be af14 4cbe da1d 0d3e 9535 b7be
000000d0: d6b1 77be c544 39bb 56e5 b43e 32e9 873e
000000e0: 5465 c53e c760 05bf 1a60 24bf f821 823e
000000f0: cbe6 643e b9a5 cdbe 0344 433e 8853 ca3d
00000100: 141b c2bd 656c 643c 9484 13be 460f d43d
00000110: 2c13 a1bd c785 57bf dbc6 be3e ae5c 093e
00000120: 06f9 c0be 232a 02bf a60b 3a3e 761f 503e
00000130: 87d1 4f3e 62a1 333c 1d31 513e da24 2dbf
00000140: 6ba7 c63d 79c5 21bd eb30 66be 5db6 94bb
00000150: 9214 a7be d13f 80be 65b5 aebe f758 fdbd
00000160: 4c84 b5be 7626 13bf 963c 2fbe 9447 0bbf
00000170: f729 94bd af82 49bf bdd2 a03e af30 8c3b
00000180: f135 e43d 5f20 2fbf c58a 413e 5a9a 913d
00000190: eac5 443d 198f 98bd e670 25bd 477b 2abe
000001a0: 3452 1ebe fb6b a2be 3152 bcbe 4731 c5be
000001b0: 92a8 743e ec20 05bf 29a6 4ebd d940 1ebe
000001c0: 924b b3be 4978 d2be 9a8d 5a3e 80e0 57be
000001d0: 9700 15be a170 88be 52f7 05be 180b a03d
000001e0: 988a 1abe db9e 553f 593d ed3e 010e d03c
000001f0: 343f 4dbc f591 60be b2c9 a9be cb17 12bf
00000200: 1a37 233e 8acd 053d f4f4 c23e 3d7f 26bb
00000210: 94be b03e dcc2 443e 94d9 70be d2f4 373e
00000220: e8fe 003f 4e4e a7bd 98c9 553d 3b38 993e
00000230: c1df 8fbd df26 d83d c469 1cbd 74e4 34be
00000240: 5458 813e d259 343e e15f 02be 1f1a 99bd
00000250: d804 7b3e 980f 883c 8c98 a73d 2d94 1b3d
00000260: 6c72 b7be 6170 a4be 2249 b63e 7373 c23c
00000270: d8eb d8be 2c3a e43e 6570 0b3d 8e23 febe
00000280: 7ce3 08be e25b 0fbf fa21 8abe 3254 e0be
00000290: 99fd 5a3e d4ea 96be 3af7 25bd b65b 5c3e
000002a0: 467e 91be 4dcf e73c c6de 963d 0ab0 103f
000002b0: 915f 003f 8fda 023c 4de2 763e 2509 013f
000002c0: 8eae 663d 653e eabd 1551 a43e 2464 e03b
000002d0: 859c 95be 913a 46be 98e1 ac3d 4cbc e53d
000002e0: 67b3 cf3e 494a 09bf 5572 5b3e 7276 c2be
000002f0: cc14 393e 8751 583f 02df 263f eb46 103c
0.06437205 -0.15977697 0.024930518 -0.59261686 0.57133967 -0.07050635 0.21066645 0.10916857
-0.356749 -0.26863143 -0.13641877 -0.2983045 -0.75819004 -0.40826264 0.20302518 0.70521367
0.51681715 0.20021096 0.609938 -0.1298877 0.019558286 0.017864978 0.33383638 0.07095331
-0.45815268 0.27550417 0.06909599 -0.0040206225 0.6532715 0.28279155 -0.014925069 -1.52318
0.021376388 -0.48215693 0.03863582 -0.08634629 -0.54520345 -0.44411135 -0.24423848 0.66357726
-0.24437237 0.031668138 0.371728 -0.17393957 0.042680666 -1.0274092 0.14189045 -0.0795875
-0.4421293 -0.19929765 0.13780919 -0.35783067 -0.24188933 -0.002826975 0.3533122 0.265451
0.3855387 -0.52100796 -0.6420914 0.2541654 0.22353666 -0.401655 0.19068913 0.098792136
-0.09477821 0.013941859 -0.14406043 0.10354476 -0.07864985 -0.84188503 0.3726109 0.1341426
-0.3768999 -0.50845546 0.18168506 0.20324501 0.20294772 0.01096377 0.20428891 -0.67634356
0.09699901 -0.039494965 -0.22479598 -0.004538341 -0.3263288 -0.25048688 -0.34122768 -0.12370484
-0.35452497 -0.5748056 -0.17112955 -0.54406095 -0.07234567 -0.7871503 0.3141078 0.0042782645
0.11143101 -0.6840877 0.18900593 0.07109518 0.048040308 -0.07449169 -0.04039087 -0.16648589
-0.15461046 -0.31723008 -0.36781457 -0.38514158 0.2389243 -0.5200336 -0.05045143 -0.15454425
-0.35018593 -0.41107395 0.21343079 -0.21081734 -0.14551006 -0.2664843 -0.13082626 0.07814616
-0.15091932 0.8344552 0.46335867 0.025397303 -0.012527276 -0.21930678 -0.33161694 -0.57067555
0.15938988 0.03266672 0.3807751 -0.002540543 0.345204 0.19214958 -0.235205 0.17964485
0.50388956 -0.08169232 0.052194208 0.29925713 -0.070250995 0.10554289 -0.038186803 -0.17665273
0.25262702 0.17612389 -0.12731887 -0.07475685 0.24513566 0.016608998 0.08183393 0.03798311
-0.35829484 -0.32116988 0.3560267 0.023736691 -0.42367435 0.44575632 0.034042735 -0.496365
-0.13368028 -0.5599958 -0.26979047 -0.43814236 0.21385802 -0.29476035 -0.040518977 0.2151936
-0.2841665 0.02829709 0.073667094 0.56518614 0.5014582 0.007986679 0.24109764 0.5040458
0.056318812 -0.11437682 0.3209311 0.006847875 -0.29220977 -0.19358279 0.08441466 0.112175554
0.4056656 -0.53628975 0.21430333 -0.37980992 0.1807434 0.844994 0.6518403 0.008805971

fc1.bias f4 [64]
00000000: ec13 6040 e02f 1640 dc6c 5040 9097 e3be
00000010: f416 3fc0 a137 f0bf 100a 5540 c18c 9ebf
00000020: 5690 5540 5bd3 33c0 a2eb b5be 0d24 febe
00000030: df8a f03e f93e 8740 d8da 1a40 da1a 403f
00000040: b7b3 9140 9633 d7be 674d 3ec0 2f84 31c0
00000050: 4f31 1140 f364 6640 7ecc 6f40 07fc 1bc0
00000060: 4208 0040 f9a8 2840 1fa8 fcbf bdbe ce3f
00000070: 588a 9d3e 9706 50be 5dc4 a43e ee8a be3f
00000080: 408d 5e40 5a89 7c40 ab15 323e 9e63 00bf
00000090: 4a6c 113e 6be6 f1be 2f30 64bf 8639 3940
000000a0: 4ad8 3cc0 aa32 81bb 5194 37bf 2675 4140
000000b0: 8213 5c40 8a19 5440 27eb b6bf 549b cd3d
000000c0: 10ad 6240 56a8 7f40 6012 3240 2dde 5a40
000000d0: d302 5940 9066 a4be 4c18 1e40 5bac ac3f
000000e0: d0f3 7140 6d6e 903f 2bd5 f9bf cd57 7740
000000f0: ea63 8740 41e0 2a40 dba8 74c0 10c9 913f
3.501216 2.346672 3.2566442 -0.4445157 -2.985776 -1.8766977 3.3287392 -1.2386705
3.3369346 -2.809775 -0.35531336 -0.4963688 0.4698095 4.226437 2.4196072 0.7504097
4.553188 -0.42031544 -2.9734743 -2.7736928 2.2686346 3.5999115 3.7468562 -2.4372575
2.000504 2.6353133 -1.9738806 1.6151959 0.3076961 -0.20315014 0.32181063 1.4886148
3.4773712 3.9458833 0.17391078 -0.50152004 0.14201465 -0.47246107 -0.8913602 2.894136
-2.9507012 -0.003942807 -0.7171069 3.0227752 3.4386907 3.3140588 -1.4290513 0.10039392
3.541813 3.9946494 2.7823715 3.4198105 3.3907974 -0.321095 2.470233 1.3490099
3.7805061 1.1283699 -1.9518179 3.864734 4.2309465 2.6699374 -3.8228061 1.1389484

fc2.weight f4 [64, 64]
00000000: 61b3 943d baa5 5d3d a823 90bd ec9f 8abd
00000010: 501e e43d 4207 1abd da6c b13b cef9 5dbd
00000020: 299f b2bb 08f4 9c3c e084 dd3d 9824 133d
00000030: dc45 f1bd 0298 1cbe e851 8fbc e9e8 753c
00000040: 2ff4 22bd 92a7 e7bd 3eb8 84bd 687c 8cbd
00000050: 664c babd ceb1 5cbd 6c14 0dbe 0551 1fbd
00000060: 0053 eabc 9851 a33c 1e9b ddbd c2ff debd
00000070: d8b8 dfbc 20bd 853b f043 e5bd 28e1 d23b
00000080: d88a 1a3d 55ae 3b3d 588d 393d 2012 45bc
00000090: a018 bd3d d466 a6bd 4a75 5fbd 4808 02bd
000000a0: 6a06 0ebe 4867 df3d 12ef b9bd 6e34 1bbe
000000b0: 37ab cabd 25d8 71bd 8fb3 1dbe 4c40 293d
000000c0: 891d ab3d 3d00 12be 8c82 f5bd ec1d 823d
000000d0: 7481 0abe d0d7 663c 7830 f73c f172 20be
000000e0: 496e 19be 5a8b d43c cfa7 18bd 67b5 a33d
000000f0: 6873 e8bc 7354 9f3d e84e c03c 2f25 b93d
00000100: 5489 973f b464 d13e 0c7a e03e 76a6 81bd
00000110: 6e0b 85bf 6f9b d2be b622 053f 04bc 8abe
00000120: 6b25 d93e 8056 36bf d075 d8be 061e 9d3d
00000130: c0f2 78bb de3b 4e3f 18ff 923e 480b 56bc
00000140: 7a30 c03f 5211 f6bd 3359 22bf 96ed 88bf
00000150: 0719 7c3d c369 643f 58b1 b33f afef aabe
00000160: ae58 c73d b5ef 9e3e 292c c7be ac6d ce3e
00000170: 3c8a 78bd a818 453d a657 c7bd 2b39 5d3e
00000180: 7340 b63e a9e3 0640 fe46 a4bd 9020 2cbd
00000190: 21b1 db3d 7058 ff3d 6f12 8abc 4313 4d3f
000001a0: 3b5a 44bf c81f db3c 32cc 8fbf eabb cf3e
000001b0: 8e70 963f 76d8 0f3f 0698 ccbd d21f 933d
000001c0: 6813 9b3f 5894 4b3f df6b 903f ea1e 513f
000001d0: cb60 c23e 5c29 31bd eb5c 093e aa2f d13b
000001e0: c022 b43f 6f69 13bd 42a6 c8be ca5e 663f
000001f0: 3c94 ab3f 5095 043f ad95 3fbf 07d8 e93c
00000200: 17c0 063f 59e1 f53c 9df9 563f b428 6dbd
00000210: 3842 1e3d e363 56be 95ab b33e eb35 2abe
00000220: c41d 143c d1d1 91bd 7f65 a7bd 4087 3e3d
00000230: a61b f0bd fdb6 dd3e ffbe 56bd 1ddd 553f
00000240: 17e9 cd3e 7cb0 c53d e8fd 00be e3c5 2abd
00000250: 9756 a1bd 202c f03e c794 2bbe 6659 71be
00000260: 247c 133e 5ea4 5fbe 5bf7 bd3d 6eb4 abbe
00000270: 5056 dbbd b8d3 c4bc 022a b2bd 0897 dfbd
00000280: a90c bc3c 2263 20bf 000d 51bb 30ea 7d3d
00000290: 3e17 bcbd b620 d1bd e16e 7cbd 1362 4e3e
000002a0: 7ab8 11be 0068 5239 88cd cbbd 0469 2bbd
000002b0: 744f 253f 561f bebe 1992 6bbe 3ca3 9a3d
000002c0: 820f ba3c 01d4 8e3e 66a5 6c3f 78d7 2b3e
000002d0: 2d64 3b3d 0cb9 4cbd 8de6 d43d 8c1f e0bd
000002e0: 0632 1f3f 0ebf 1ebf 312e 2ebe de07 923e
000002f0: 1a00 bc3e 1d92 893f 8869 09be 9ab8 6ebf
00000300: ec0e c8bd c39f 6dbd 0200 07bc fa62 863d
00000310: e4b3 0b3d 51a7 cebc 90ac e2bd 0bc6 41bd
00000320: 761a 16bc 2192 d8bd d289 cabd 645c cebd
00000330: e07c 743c c692 793d c4ce a3bd 7ff5 01be
00000340: 21a2 333d 18fa 18bd 2cad abbd bc95 623d
00000350: 18b8 06be 4f90 c4bc 6eec a1bd 02da bd3d
00000360: 60ed f13c e2c6 a63d 4073 9fbc 59a2 7abd
00000370: 3c07 c43d 7020 f73c cc3a dfbd f1fc 17bd
00000380: 2c8f d3bd 29d2 56bd 447f 8dbd e8d5 1b3d
00000390: ffdf f8bd 542c 783d 84c3 393c da88 d9bd
000003a0: d5bf 4cbd 4028 6fbc dac9 adbd f77c 943d
000003b0: 8dca 4a3d b5b2 15be 5351 1cbe 800d 0a3b
000003c0: 4a60 34ba 77bf d43b ceca 773d 9112 0bbe
000003d0: 3dc1 8ebd d03b 393c 7009 dabd 5cec febc
000003e0: 56e6 3a3d c1ce 753d cb10 cd3c 841b 7ebc
000003f0: 42ef 03be 952d 00be 409d 06bb 4a67 1a3c
0.07260776 0.054113127 -0.07038051 -0.06768784 0.11138594 -0.037604578 0.0054145874 -0.05419331
-0.0054511023 0.019159332 0.108163595 0.03592357 -0.11780903 -0.15292361 -0.01749511 0.015009143
-0.039783653 -0.113112584 -0.06480454 -0.06859666 -0.09096603 -0.053880505 -0.13777322 -0.038895626
-0.02860403 0.019936368 -0.10820602 -0.10888626 -0.02730982 0.0040813833 -0.11194599 0.006435532
0.037730068 0.045820553 0.04530081 -0.012028247 0.092332125 -0.08125082 -0.054555215 -0.03174618
-0.13869634 0.10908371 -0.09078802 -0.15156719 -0.09895938 -0.059044022 -0.15400527 0.041321084
0.08355243 -0.14257903 -0.119877905 0.063533634 -0.13525945 0.01408954 0.030174479 -0.15668847
-0.14983477 0.025945354 -0.03726941 0.07993584 -0.028375342 0.07779779 0.023475125 0.09040295
1.1838784 0.40897143 0.43843114 -0.06330578 -1.0394113 -0.4113421 0.5200609 -0.2709657
0.4241136 -0.7122574 -0.42277384 0.07671742 -0.0037986487 0.805601 0.28710246 -0.013064213
1.5014794 -0.12015022 -0.6341736 -1.0697505 0.061547305 0.8922388 1.4038496 -0.3338599
0.09733711 0.31042257 -0.3890088 0.40318048 -0.060678706 0.048119217 -0.097335145 0.21603839
0.35596046 2.1076453 -0.08021353 -0.04202324 0.10727144 0.1246804 -0.016854493 0.80107516
-0.7670018 0.026748553 -1.123419 0.40573055 1.1753099 0.5618967 -0.09989934 0.071838036
1.2115297 0.7952323 1.128292 0.81687796 0.37964472 -0.043252334 0.13414352 0.006383856
1.4073105 -0.03598922 -0.39189345 0.89988387 1.3404613 0.5179033 -0.7483776 0.028545393
0.52636856 0.03001468 0.8397463 -0.057900146 0.03863737 -0.20936541 0.35091844 -0.1662213
0.0090403 -0.071200974 -0.08173656 0.046515703 -0.117240235 0.4330367 -0.05242824 0.8354052
0.40216896 0.09652802 -0.12596858 -0.041692626 -0.07877844 0.46908665 -0.16755973 -0.23569259
0.14402825 -0.21840045 0.09275695 -0.33536094 -0.10709822 -0.024026737 -0.086994186 -0.10917479
0.022955256 -0.62651265 -0.0031898618 0.061990917 -0.091841206 -0.10211317 -0.06162918 0.201546
-0.14230528 0.00020065904 -0.09951311 -0.041848198 0.6457436 -0.37133282 -0.2300495 0.07550666
0.022712473 0.2789612 0.9243988 0.16781414 0.045749832 -0.049981162 0.103955366 -0.10943517
0.62185705 -0.62010276 -0.17009808 0.28521627 0.36718827 1.0747715 -0.13419163 -0.9325043
-0.09768471 -0.05801369 -0.008239748 0.06561847 0.034107104 -0.025226267 -0.1106807 -0.04730801
-0.009161582 -0.10574747 -0.098895684 -0.10076216 0.014922351 0.06093099 -0.07998422 -0.12691306
0.04385579 -0.037347883 -0.08382639 0.05531858 -0.13156164 -0.023994593 -0.079064235 0.09270097
0.029532135 0.08143403 -0.019464135 -0.061189983 0.09571692 0.030166835 -0.108998865 -0.037106458
-0.10330042 -0.052446518 -0.069090396 0.038045794 -0.12152099 0.06058915 0.011338118 -0.106218055
-0.049987633 -0.014596999 -0.08485766 0.07250398 0.049509574 -0.14618953 -0.15265398 0.0021065176
-0.0006880803 0.006492551 0.060496144 -0.13581301 -0.06970451 0.011305764 -0.10646331 -0.031118564
0.04562982 0.06001163 0.025032422 -0.01550949 -0.12884238 -0.12517388 -0.0020540506 0.00942404

fc2.bias f4 [64]
00000000: dd70 df3c 51ac 1240 5499 ec3f ce9d 91bc
00000010: d1c6 273f af7a 99bd 01ba 7fbf dc84 f23f
00000020: 197f ccbd 0729 1940 1f7e 0f3e 10b2 fc3f
00000030: e204 c0bf 7dae 1b40 bbe6 4e3d 9e1d c03c
00000040: a895 0a40 922f d2bd 3496 08bd 729f 0a40
00000050: f673 923d 1d9f 08bd a390 843d d3a6 663d
00000060: bd0b 67bf f3f3 ec3f 9e99 f93f 7c46 1140
00000070: fddd 26be 186b 1040 137e 12be c0bb 31bf
00000080: b099 fb3f ff58 8b3d c025 413f 5b62 833f
00000090: b37a 0940 e668 2cbe 30d8 fe3f 776e 12c0
000000a0: 63ce 4e3f e378 6d3f b766 d23f 24a8 6a3f
000000b0: 3008 8e3f 300e 3a3e 1235 1040 c6c7 b83f
000000c0: 3697 f03f 242c 4cbd e923 0340 1b10 f73f
000000d0: 5aa2 1ebb 88a9 f9bc 5bcc 14be 40e4 febd
000000e0: 11eb 8a3f 4f02 2240 16e3 2fbd a33b b3bd
000000f0: ad5d ce3a 7cbc d43f d431 9cbd 2ec9 1340
0.027275497 2.2917674 1.8484292 -0.017775442 0.65537745 -0.07494103 -0.99893194 1.8946795
-0.099851795 2.393129 0.14012955 1.974184 -1.500149 2.432525 0.05051301 0.023451623
2.1653843 -0.102629796 -0.03334637 2.1659818 0.07151024 -0.033354867 0.064729 0.05631144
-0.90252286 1.8511947 1.9500005 2.269927 -0.1629562 2.2565365 -0.14305906 -0.6942711
1.9656277 0.06804084 0.75448227 1.0264391 2.148114 -0.1683689 1.9909725 -2.2879922
0.8078367 0.92762583 1.6437596 0.9166281 1.1096249 0.18169475 2.2532392 1.4435966
1.8796146 -0.049846783 2.0490668 1.930179 -0.0024205656 -0.030476347 -0.1453108 -0.12445879
1.0852987 2.531391 -0.042941175 -0.08751609 0.001574447 1.6620021 -0.076266915 2.309154

fc3.weight f4 [20, 64]
00000000: 408d 39bc 6e7c b4bf e480 6f3e 7ee5 f13d
00000010: 3efe e03d 90b2 9fbd 9b13 03be 4671 c23e
00000020: bc4d 133d ed08 f23e 4e84 a8bc bf8a ac3e
00000030: 28cb 6cbe f4b9 203f b4ae dabd c2bb 1ebd
00000040: 7384 8c3e 04a2 5cbd 5a62 a9bd d256 163f
00000050: 4a49 af3d a20d d13d a734 573d b8a4 673d
00000060: 41f7 a2be 1d94 3c3e 62cf 8c3e c8fa 313f
00000070: e7b5 e3bb db01 113f 77dc e23b 882d dbbd
00000080: 5536 5e3e 15e2 b83d 35b9 a8bd 4498 793e
00000090: 5db6 e53e 21e8 bdbd a2c7 8b3e a87a 0dbf
000000a0: 20e2 013c a604 973f a962 aa3e 0756 c93c
000000b0: c22e 9d3e edb7 853c fc80 92bf e5f6 b53d
000000c0: 5590 243f 1063 f13d 0f1a 8e3e a74f 55bf
000000d0: cc9e 68bd fa35 adbd 2aac a73d cac4 8abd
000000e0: d64b 533c d634 f03e f859 5abd 9428 14bd
000000f0: 43eb f1bd 2433 ba3e cf36 06bd 7ae3 ce3e
00000100: 7ea9 fb3d 48e0 42bf 6a78 a53e 0438 51bd
00000110: 33a9 513c 1e0b b3bd 22af ad3e 2a84 ab3e
00000120: 1590 8abc a4ec bd3e 7441 27be 8b82 da3e
00000130: fe35 00bd 7148 de3e b6e8 223c 965e af3d
00000140: 7397 953e 68c7 8cbd 581f b33d c06c fa3e
00000150: 4264 94bd cee2 a9bd 945b fabd d427 ab3d
00000160: d75a 13bc 3017 7d3e dfef 273e 51e7 b53e
00000170: 176e d6bc b79e 023f 5736 8f3d 656e 613e
00000180: a0a2 463e 2062 d2bc 118b ee3d 4a9c e73e
00000190: ac48 b63e b45e d23d e625 7f3e 68cf 13be
000001a0: d16c d2be 7f48 4e3c 917f f13e 3fca 053e
000001b0: 7a3d 1b3f ac78 bcbe c818 6fbf 81b1 873e
000001c0: edfb b13e fca6 9ebd 1a46 8d3e 6609 31bf
000001d0: 6e11 a43d e029 e2bd 684c debd 4c17 8a3d
000001e0: e5b8 e13c f03e 183f e6ff a33d 6f94 d9bd
000001f0: c7a9 353d e8f1 8bbb d163 b3bd 37f9 b53e
00000200: 90f8 f5bd 0187 37bf 35c7 533e 00f2 c4bc
00000210: fcb1 48bd c0bc 8dbb 9eb1 343e d26b bb3e
00000220: e8a6 92bd 2eb4 b83e 1d4e 763e c14a 0d3f
00000230: 7622 ab3c e5c5 113f fcd5 733d 40de 033a
00000240: 49b6 893e 40b3 763b a4c9 19bd 98ec eb3e
00000250: 6453 133d 128d e83d f852 703d cefa fe3d
00000260: aea7 4dbc 35c6 333e cda2 633e b36f 033f
00000270: 75a8 023e 4263 0b3f a1b0 c2bd ca52 ddbd
00000280: bf7a 483e eead 893d edf2 b93d e100 ef3e
00000290: 8766 af3e a18d e83d 9589 be3d 2de2 a7bd
000002a0: d2a8 5ebe 731b 58be 78d2 d63e afa3 e3bd
000002b0: 3ef1 d53e 1dd5 99be c631 52bf 6870 0f3f
000002c0: 2f92 893e ba63 fcbd e16f 593e 5b5b 17bf
000002d0: f85c 563d 00e5 bfbb 44b4 3ebd f818 66bd
000002e0: becf ac3e 5c77 ec3e 2838 4cbd 8d84 163c
000002f0: df79 ba3c 8530 11bd 8843 b03d ce80 9f3e
00000300: 20e6 52bd b27f 1fbf f305 093e ac12 e5bd
00000310: 609d 69be c81d 433d be44 56be 6e32 a93e
00000320: 424a 8c3d 5a3c d33e 878b 3b3e 8457 a03e
00000330: 10af debc ae5c 123f da1b 9cbd f68d 0a3d
00000340: 08f2 633e cd80 573d c8a5 7c3d 298e ca3e
00000350: e8c6 943d 0095 783a b1f2 aa3d b8d9 713d
00000360: 7ef0 11be 4a23 423e 43e4 953e b726 c83e
00000370: 881d df3d 174c ba3e e68d 21bd 6b50 9b3d
00000380: b246 8d3e 3163 10be 5148 353e cb78 bf3e
00000390: a4ec 813e dd04 5439 0784 7c3e d441 4ebe
000003a0: 0455 94bd d67c 84bd 8060 c83e 7c78 db3e
000003b0: df50 023f c27f 84bb d217 3bbf cbe6 e93e
000003c0: 0071 1a3f b008 463c d72d ba3e 007a 5ebf
000003d0: 0620 cb3d c8b8 393d e066 853c f09e b33d
000003e0: 10ff 073f 0e6d de3e a998 37bd 3f5f c4bd
000003f0: e0aa cf3d 528d 85bd ed06 d83d 0b47 c03e
-0.0113251805 -1.4100473 0.23389012 0.1181135 0.10985993 -0.0779773 -0.12800448 0.37977046
0.035962805 0.47272435 -0.0205709 0.33699605 -0.23124373 0.6278374 -0.10677853 -0.03875328
0.274448 -0.053865448 -0.08270712 0.5872623 0.08558901 0.102076784 0.052540448 0.056553572
-0.31829265 0.18415876 0.2750197 0.69523287 -0.0069491747 0.56643456 0.006923254 -0.10702044
0.21700414 0.09027497 -0.082384504 0.24374491 0.44865695 -0.09272791 0.27300745 -0.55265284
0.007927448 1.1798294 0.33278397 0.024577154 0.30699736 0.016323054 -1.1445613 0.08884982
0.64282733 0.11786473 0.27754256 -0.83324665 -0.056792066 -0.08457561 0.081871346 -0.06775816
0.012896499 0.4691531 -0.053308457 -0.03617151 -0.11812451 0.36367142 -0.032767113 0.40407926
0.122881874 -0.76123476 0.3231843 -0.05107881 0.012796688 -0.08742355 0.33922678 0.3349927
-0.016914407 0.37094605 -0.16333562 0.4267772 -0.03130149 0.43414643 0.009943178 0.08562963
0.2921711 -0.06873971 0.08746213 0.48911095 -0.07245685 -0.08295213 -0.122244984 0.08357206
-0.008993826 0.24715877 0.16400097 0.35528043 -0.026175542 0.5102343 0.069927864 0.22014768
0.19397974 -0.025681555 0.116476186 0.45236427 0.3560232 0.102719694 0.24916801 -0.14434588
-0.41098645 0.012590527 0.47167638 0.13065432 0.6064068 -0.36810815 -0.9339719 0.26502612
0.34762517 -0.077466935 0.27592546 -0.69154966 0.08011137 -0.11043143 -0.10854417 0.06742725
0.027553985 0.59471035 0.08007793 -0.106240146 0.044351365 -0.004270781 -0.08759273 0.35541698
-0.120103 -0.71690375 0.2068146 -0.024041176 -0.048997864 -0.0043254793 0.1764588 0.36605698
-0.07160741 0.36074966 0.24053235 0.5519219 0.020890456 0.5694259 0.059530243 0.0005030371
0.26896885 0.0037643462 -0.037545815 0.46078944 0.0359682 0.11355032 0.058672875 0.12450181
-0.012552185 0.17556079 0.22230072 0.51342314 0.12759574 0.5444833 -0.095063455 -0.108068064
0.19578074 0.067226276 0.090795375 0.46680358 0.3425791 0.113551386 0.093035854 -0.081974365
-0.21744087 -0.21104221 0.4195745 -0.111152045 0.41785616 -0.30045405 -0.821072 0.56030893
0.26869342 -0.12323709 0.21234085 -0.5912377 0.052334756 -0.0058561563 -0.046558633 -0.056176156
0.33752245 0.46184814 -0.049858242 0.009186876 0.02276319 -0.035446662 0.086066306 0.31152958
-0.051488996 -0.6230422 0.13381176 -0.11185202 -0.2281394 0.047635823 -0.2092466 0.33046287
0.06850101 0.41256982 0.18314944 0.3131677 -0.027183086 0.5717267 -0.076225 0.03382679
0.22260296 0.05261307 0.06168154 0.39561585 0.07264501 0.0009482652 0.08347071 0.059045523
-0.14251897 0.18958774 0.29275712 0.39092037 0.108943045 0.36386177 -0.039441966 0.07583698
0.27593 -0.14100339 0.17703368 0.37396845 0.25375855 0.00020219707 0.2465974 -0.20142299
-0.07242778 -0.06469123 0.39136124 0.4286536 0.5090465 -0.00404355 -0.7308322 0.45683894
0.60328674 0.012087032 0.36363098 -0.8690491 0.09918217 0.045342237 0.016284406 0.08770549
0.5312357 0.43442577 -0.044823322 -0.09588479 0.10140014 -0.06521095 0.10548196 0.375542

fc3.bias f4 [20]
00000000: ca0a fc3f 19a8 773f bf08 6a3f 8e83 2e3f
00000010: b819 293f f859 e93e 5002 663e 9744 b03e
00000020: a96b e43e dbd1 803e b85a 243e 8d8d 03bd
00000030: 618e 853e 024a a9bd 5821 6fbe c72c 26be
00000040: c499 0fbe a9fc f8be 1777 bcbe b49e c6be
1.9690793 0.9674087 0.91419595 0.68169487 0.6605487 0.45576453 0.2246182 0.3442733
0.44613388 0.25160107 0.16050231 -0.032117415 0.2608519 -0.08266069 -0.23352563 -0.16228019
-0.140235 -0.48630264 -0.36809608 -0.38792956

fc1.weight f4 [64, 3]
00000000: 36c3 8c3d a705 1dbe b6e9 9a3c bc67 22bf
00000010: 7423 0e3f f6bb acbd 4f1a 783e 671a d23d
00000020: 2e28 b4be 0f8a 89be 5db1 0bbe 5ebb 98be
00000030: 0dfc 45bf 680e cdbe d94b 563e 5677 343f
00000040: ba24 043f 99ec 453e b893 1d3f 3744 00be
00000050: 6b4a 5e3c 1601 6a3c 90cd ac3e a17c 913d
00000060: 5818 fdbe 036e 983e a9d2 883d 378f 72bc
00000070: 089a 253f e71f 8f3e b5c1 f6bc 0a35 bdbf
00000080: 8cd5 523d 15de f6be 9840 1e3d 53d6 b0bd
00000090: 7492 0bbf 9062 e3be 381a 7abe c815 2c3f
000000a0: 9bc4 71be 3b45 ce3c 7c18 c83e 881c 26be
000000b0: ab56 163d 6f2d 77bf fd13 243e 146a 70bd
000000c0: b59e ddbe a3b9 3dbe 67b4 0e3e 9535 b7be
000000d0: d6b1 77be 5944 39bb c40c b13e 8224 823e
000000e0: fa77 c43e 356b 0dbf 4352 23bf 17fd 833e
000000f0: 1e7b 733e 211f cdbe d65b 413e 5dcc d23d
00000100: eddd b6bd 317c f13b f9a2 0abe d681 eb3d
00000110: 9fbc bebd 786f 53bf c798 d03e 1054 073e
00000120: f78b c3be 4780 febe e929 493e 4aae 583e
00000130: 3200 563e f4bf ad3b 1621 303e f425 32bf
00000140: e58a e53d a70d 5fbd 7cd0 2cbe eeb3 87bc
00000150: 9214 a7be d13f 80be 65b5 aebe f758 fdbd
00000160: 4c84 b5be 7626 13bf 963c 2fbe 9447 0bbf
00000170: f729 94bd c028 53bf f4ac 8a3e b217 f4bc
00000180: bc01 0c3e b0bf 2bbf 4706 423e 0930 8a3d
00000190: 2fd6 603d 9987 9abd e670 25bd 477b 2abe
000001a0: 3452 1ebe fb6b a2be 3152 bcbe 4731 c5be
000001b0: 4199 713e 208a debe 4626 bfbd d940 1ebe
000001c0: 924b b3be 4978 d2be ca16 613e 4e1c 4abe
000001d0: 2074 06be e2f5 86be 9881 f9bd ced2 a03d
000001e0: c01d 25be 258b 533f f831 eb3e 010e d03c
000001f0: 343f 4dbc f591 60be afa0 c9be 67b7 14bf
00000200: d93b 1f3e bf63 3e3d 7c78 ca3e 2732 fabb
00000210: 95a9 ae3e da36 4f3e 0eb6 77be 25f1 5c3e
00000220: 9ea8 023f d3e9 39bd 96f3 a53d 8a53 b03e
00000230: 6633 c3bc df26 d83d c469 1cbd 74e4 34be
00000240: d4cf 7d3e 5c30 373e c42d 0abe 216e 91bd
00000250: 0d0c 813e 364d 1e3c 894d da3d 4058 333c
00000260: 6a41 b8be 69cf 94be 61cf bd3e 160e aa3c
00000270: 70ae e9be 861e e83e 9d76 d13c 8e23 febe
00000280: 7ce3 08be e25b 0fbf 676d 85be d7bf d7be
00000290: e7f7 633e 6036 95be 2ae1 08bd 1812 633e
000002a0: 2c8e 8bbe 907a 283d 4e68 8d3d 80a0 143f
000002b0: 5bd8 fc3e 01f2 95bc 152f 763e 4400 013f
000002c0: 64e9 353d 12ee d4bd 94df aa3e 19d6 0c3b
000002d0: 1052 a0be 288f 3fbe e940 aa3d c678 d23d
000002e0: d9cb cd3e 2ae8 0bbf 32a4 363e c315 bdbe
000002f0: dca5 453e ce51 603f f54e 203f afcb e5bc
0.06873171 -0.15334187 0.01891027 -0.63439536 0.5552285 -0.08434288 0.24228786 0.10258942
-0.35186905 -0.26863143 -0.13641877 -0.2983045 -0.77337724 -0.40050054 0.20927371 0.7049459
0.5161854 0.19328536 0.61553526 -0.12526022 0.013567547 0.0142824855 0.33750582 0.07103849
-0.49432635 0.29771432 0.06680805 -0.014804653 0.6468816 0.27954027 -0.030121664 -1.4781811
0.051473185 -0.4821631 0.03863582 -0.08634629 -0.54520345 -0.44411135 -0.24424064 0.67220736
-0.23610155 0.025179496 0.3908118 -0.16221821 0.036703747 -0.965537 0.1602325 -0.058694914
-0.43285146 -0.18527846 0.13936006 -0.35783067 -0.24188933 -0.0028269498 0.34580052 0.25418478
0.38372785 -0.5524171 -0.63797396 0.2577903 0.23777434 -0.40062812 0.18882689 0.102928855
-0.08929048 0.007369541 -0.13538732 0.114993736 -0.0931332 -0.8259196 0.4074156 0.13215661
-0.38192722 -0.49707243 0.19644894 0.21160236 0.20898512 0.0053024236 0.17200121 -0.6958916
0.11208133 -0.05445638 -0.16876405 -0.01656529 -0.3263288 -0.25048688 -0.34122768 -0.12370484
-0.35452497 -0.5748056 -0.17112955 -0.54406095 -0.07234567 -0.82484055 0.27085078 -0.029796455
0.13672537 -0.67089367 0.18947707 0.06747443 0.05489176 -0.075453945 -0.04039087 -0.16648589
-0.15461046 -0.31723008 -0.36781457 -0.38514158 0.23593618 -0.43464756 -0.09333472 -0.15454425
-0.35018593 -0.41107395 0.2198135 -0.1973736 -0.13130236 -0.2635947 -0.12182921 0.07852708
-0.1612463 0.8263419 0.4593656 0.025397303 -0.012527276 -0.21930678 -0.39380404 -0.5809235
0.15550174 0.046481844 0.39545047 -0.007635373 0.34113756 0.20235768 -0.24190542 0.21576364
0.5103854 -0.045389008 0.08103101 0.34438735 -0.02382822 0.10554289 -0.038186803 -0.17665273
0.24786311 0.17889541 -0.1349402 -0.071010835 0.25204507 0.009661963 0.1065932 0.010946333
-0.35987407 -0.2906449 0.3707228 0.02075867 -0.45640898 0.45335788 0.025569255 -0.496365
-0.13368028 -0.5599958 -0.2606003 -0.4213855 0.22262536 -0.29143047 -0.03341786 0.22174871
-0.27256906 0.04113251 0.0690466 0.58057404 0.49383816 -0.018303873 0.24041398 0.5039103
0.04441203 -0.10396971 0.33373702 0.0021489917 -0.3131261 -0.18706954 0.08313162 0.10276942
0.40194586 -0.5465113 0.17836073 -0.36930665 0.19301552 0.87624824 0.6262048 -0.028051225

fc1.bias f4 [64]
00000000: 5e85 6040 c904 1540 fcf6 4e40 9097 e3be
00000010: cb35 3ec0 d820 efbf f676 5540 e637 9dbf
00000020: 2489 5640 b9c6 33c0 76c8 a2be 0d24 febe
00000030: df8a f03e b584 8740 c4e0 1b40 e838 443f
00000040: 293f 9240 9a30 d7be a237 3ec0 c4fb 30c0
00000050: 05eb 1140 41ca 6640 ff14 6f40 90b4 1ac0
00000060: ae73 0140 d671 2940 a9e7 f7bf e762 ca3f
00000070: 998a 9d3e 9706 50be 5dc4 a43e 555f ba3f
00000080: b797 5f40 756e 7b40 ab15 323e 9e63 00bf
00000090: d24a e53d 6be6 f1be 6332 61bf f556 3a40
000000a0: 9dc3 3cc0 aa32 81bb 3bf7 38bf 7394 4240
000000b0: 773c 5c40 ebf2 5740 ea6d b1bf 729b cd3d
000000c0: e16a 6140 e511 8040 948d 3040 a10b 5c40
000000d0: 5dde 5840 9066 a4be 84c2 1f40 858d af3f
000000e0: aaab 7240 47d5 913f 2af5 f9bf f920 7840
000000f0: 68b4 8740 f19a 2940 d6f5 73c0 86fd 913f
3.50814 2.328417 3.2338247 -0.4445157 -2.9720333 -1.8681898 3.3353858 -1.2282684
3.3521204 -2.809004 -0.31793565 -0.4963688 0.4698095 4.2349496 2.4355936 0.7664933
4.57021 -0.42029268 -2.9721456 -2.7653666 2.2799695 3.6060946 3.7356565 -2.4172707
2.0226855 2.647573 -1.9367572 1.5811433 0.30769804 -0.20315014 0.32181063 1.4560343
3.493635 3.9286168 0.17391078 -0.50152004 0.111959115 -0.47246107 -0.8796751 2.9115574
-2.9494393 -0.003942807 -0.72252244 3.0403106 3.4411905 3.3742015 -1.3861668 0.100394145
3.5221484 4.0021844 2.7586412 3.4382098 3.388572 -0.321095 2.4962473 1.3715063
3.7917275 1.1393212 -1.9527943 3.8770125 4.2407722 2.6500819 -3.8118796 1.1405494

fc2.weight f4 [64, 64]
00000000: 47ba 943d 74b5 5d3d 881b 90bd ec9f 8abd
00000010: 501e e43d acf7 19bd 69e2 b13b 6bea 5dbd
00000020: 342b b2bb 3111 9d3c e084 dd3d 9824 133d
00000030: dc45 f1bd 7296 1cbe ed51 8fbc ed23 763c
00000040: dae4 22bd 92a7 e7bd 9eb1 84bd 687c 8cbd
00000050: 664c babd 4aa2 5cbd bd11 0dbe 2643 1fbd
00000060: 1a53 eabc 206e a33c 1e9b ddbd c2ff debd
00000070: d8b8 dfbc 20bd 853b f043 e5bd 0555 d33b
00000080: d88a 1a3d 07be 3b3d 588d 393d 2012 45bc
00000090: d418 bd3d d466 a6bd 3c69 5fbd 4808 02bd
000000a0: ee03 0ebe 4867 df3d 12ef b9bd f932 1bbe
000000b0: 19a4 cabd 53cc 71bd b4af 1dbe 4c40 293d
000000c0: a224 ab3d 92fb 11be fe7c f5bd 6724 823d
000000d0: 937d 0abe 77d8 663c 7830 f73c d66e 20be
000000e0: f069 19be daa7 d43c 1b98 18bd 14be a33d
000000f0: 9857 e8bc f85c 9f3d e84e c03c 6e2e b93d
00000100: e743 983f a4b1 d93e fa57 e13e 76a6 81bd
00000110: 3a6a 86bf 19f6 c6be b375 0a3f 360f 89be
00000120: 3342 da3e db66 32bf f6c1 fbbe 061e 9d3d
00000130: c0f2 78bb 71b5 533f 30fb 9c3e 2f3b 9b3c
00000140: 024d c13f 0c0f f6bd 47f0 1cbf 7c65 8abf
00000150: 89f5 a53d 6e50 663f a1cd ba3f e711 adbe
00000160: 43c2 d33d 6cc4 a63e e916 d5be 6bb8 c23e
00000170: 3c8a 78bd a818 453d a657 c7bd fef3 673e
00000180: 6c88 c13e 5b86 0840 fe46 a4bd 0621 2cbd
00000190: a8c9 2d3e 7058 ff3d a30a ccbc 79d3 4e3f
000001a0: 5f34 40bf 6d20 db3c 0d39 93bf e5a4 d53e
000001b0: 127f 9b3f eec4 143f 46f1 ddbd d21f 933d
000001c0: 8705 9e3f 7367 4d3f 9b74 963f a3f2 513f
000001d0: 4bfa c23e 5c29 31bd c14a 183e 679b 643c
000001e0: 9c48 b43f 9e01 32bc 5c2b c2be d232 683f
000001f0: d809 ac3f ab97 0d3f c0ac 36bf 2db3 6b3d
00000200: 67cc 0b3f 6dfb 19bd 1256 453f b428 6dbd
00000210: 7400 363d 8864 37be 8a5f bf3e e4c4 03be
00000220: 6a09 1a3d a423 38bd 85fc e5bd 4087 3e3d
00000230: a61b f0bd 334d e63e cd93 efbc 1b53 443f
00000240: 4cc6 d63e fab3 c53d 1e2f d3bd 8227 ffbc
00000250: 9300 77bd 028a fb3e 9f4d 82be 7e6c 57be
00000260: f23b 233e 9281 38be bd38 b33d 6774 abbe
00000270: 5056 dbbd b8d3 c4bc 022a b2bd 5518 00be
00000280: b0b2 183d 12af 25bf 000d 51bb cbea 7d3d
00000290: bbda f5bc b620 d1bd dc15 83bd d816 643e
000002a0: 6929 f0bd 0068 5239 2bee bbbd 01e7 03bb
000002b0: 0bef 163f b69e bdbe cb2b 59be 3ca3 9a3d
000002c0: 7ecd 38ba 7c63 9e3e 0c5e 4f3f 3d73 4b3e
000002d0: ccac a33d 0cb9 4cbd 7ba3 f93d c9c8 b2bd
000002e0: 5424 253f 6b81 18bf 4d3b 03be a3c8 a23e
000002f0: 90f2 c43e d63b 803f 3587 febd 782e 68bf
00000300: b60b c8bd ad99 6dbd f2e2 06bc fa62 863d
00000310: 22b4 0b3d fd98 cebc 4da8 e2bd f9be 41bd
00000320: 28fe 15bc 548e d8bd 478a cabd 645c cebd
00000330: e07c 743c 969a 793d 58ca a3bd 02f4 01be
00000340: 1ba8 333d 18fa 18bd fea9 abbd bc95 623d
00000350: c6b6 06be ed82 c4bc dee9 a1bd fbdd bd3d
00000360: 60ed f13c a7cb a63d 4073 9fbc cc9d 7abd
00000370: 3c07 c43d 7d20 f73c 393b dfbd 85f7 17bd
00000380: 2c8f d3bd aacd 56bd 447f 8dbd e8d5 1b3d
00000390: f7db f8bd 542c 783d 6bdf 393c da88 d9bd
000003a0: 9ab7 4cbd 4028 6fbc dac9 adbd 0080 943d
000003b0: ded1 4a3d c3b2 15be 304e 1cbe 800d 0a3b
000003c0: fc9e 32ba b6f9 d43b 8fd1 773d 1210 0bbe
000003d0: 8ebf 8ebd d03b 393c 7009 dabd 86e0 febc
000003e0: 68ef 3a3d bdd5 753d d01e cd3c 80ff 7dbc
000003f0: eceb 03be f92a 00be 409d 06bb f983 1a3c
0.07262092 0.054128125 -0.07036501 -0.06768784 0.11138594 -0.037589714 0.0054286015 -0.054178637
-0.005437279 0.019173237 0.108163595 0.03592357 -0.11780903 -0.15291765 -0.01749512 0.015023214
-0.03976903 -0.113112584 -0.0647919 -0.06859666 -0.09096603 -0.05386571 -0.13776298 -0.038882397
-0.028604079 0.019949973 -0.10820602 -0.10888626 -0.02730982 0.0040813833 -0.11194599 0.006449344
0.037730068 0.04583552 0.04530081 -0.012028247 0.09233251 -0.08125082 -0.05454372 -0.03174618
-0.13868687 0.10908371 -0.09078802 -0.15156163 -0.098945804 -0.05903275 -0.15399057 0.041321084
0.083565965 -0.14256123 -0.11986731 0.063545994 -0.13524465 0.014089695 0.030174479 -0.1566728
-0.14981818 0.025958944 -0.037254434 0.07995239 -0.02836208 0.07781404 0.023475125 0.09042059
1.1895722 0.42518342 0.44012433 -0.06330578 -1.0501168 -0.38859633 0.54085845 -0.26769418
0.4262863 -0.69688195 -0.49171418 0.07671742 -0.0037986487 0.8269873 0.3066039 0.01894912
1.5101626 -0.12014589 -0.61304134 -1.081222 0.08103473 0.89966476 1.4594003 -0.3380272
0.10339787 0.32571733 -0.41619042 0.38031325 -0.060678706 0.048119217 -0.097335145 0.2265167
0.37799394 2.1332004 -0.08021353 -0.04202368 0.16971457 0.1246804 -0.024907416 0.8079143
-0.7507991 0.02674886 -1.1501786 0.41727367 1.2148154 0.5811299 -0.10837035 0.071838036
1.2345437 0.80235976 1.1754335 0.8201086 0.38081583 -0.043252334 0.14872266 0.013953066
1.4084659 -0.010864643 -0.37923706 0.90702546 1.3440504 0.5530955 -0.71357346 0.057543922
0.5460877 -0.037593294 0.7708446 -0.057900146 0.044434026 -0.17909443 0.37377578 -0.12868077
0.037606634 -0.044955865 -0.11229805 0.046515703 -0.117240235 0.44980773 -0.029245282 0.7668931
0.41948164 0.096534684 -0.10311721 -0.031146768 -0.060303282 0.4912873 -0.25449845 -0.2103748
0.15940836 -0.18018177 0.08751056 -0.33487245 -0.10709822 -0.024026737 -0.086994186 -0.12509282
0.037279785 -0.6472026 -0.0031898618 0.061991494 -0.030011525 -0.10211317 -0.06400654 0.22274339
-0.11726648 0.00020065904 -0.09176286 -0.0020126703 0.589585 -0.3703515 -0.21208112 0.07550666
-0.00070496637 0.30935276 0.8100288 0.19868179 0.07991943 -0.049981162 0.121893845 -0.08729703
0.6450856 -0.59572476 -0.1281559 0.317937 0.3846631 1.001826 -0.124281324 -0.90695906
-0.09767859 -0.058007885 -0.008232819 0.06561847 0.034107335 -0.025219435 -0.11067257 -0.047301266
-0.009154834 -0.10574022 -0.098896556 -0.10076216 0.014922351 0.06093844 -0.079975784 -0.12690738
0.04386149 -0.037347883 -0.08382033 0.05531858 -0.1315566 -0.023988212 -0.07905935 0.09270855
0.029532135 0.08144312 -0.019464135 -0.061185643 0.09571692 0.030166859 -0.10899968 -0.037101287
-0.10330042 -0.05244223 -0.069090396 0.038045794 -0.1215133 0.06058915 0.011344771 -0.106218055
-0.049979784 -0.014596999 -0.08485766 0.072509766 0.04951655 -0.14618973 -0.15264201 0.0021065176
-0.00068138517 0.0064994944 0.060502585 -0.13580349 -0.0697013 0.011305764 -0.10646331 -0.03111292
0.04563847 0.06001829 0.025039107 -0.0155028105 -0.12882966 -0.12516393 -0.0020540506 0.009430879

fc2.bias f4 [64]
00000000: f38c df3c 57b7 1340 711e ed3f ca8f 91bc
00000010: a82b 243f 9e77 99bd 4e12 7ebf 9008 f33f
00000020: 497e ccbd 8f41 1940 7099 183e a1f9 fc3f
00000030: 39c0 c0bf 0876 1b40 7ae7 4e3d 461e c03c
00000040: dd1b 0b40 5123 d2bd 3496 08bd fb86 0a40
00000050: 39ce 923d ce56 08bd e393 843d 96a9 663d
00000060: 5e40 65bf 8404 ed3f 1db5 fa3f 4110 1140
00000070: 930e 26be d468 1040 fa58 12be 5233 29bf
00000080: cddc fc3f 495a 8b3d 72ba 433f 9aad 843f
00000090: 080a 0940 5667 2cbe ecba ff3f e265 11c0
000000a0: b0cb 523f 3bdc 6b3f dde4 d23f 0a9f 6b3f
000000b0: 940f 8e3f 0208 293e d44b 1040 7968 bc3f
000000c0: 43f3 ef3f 412c 4cbd f676 0340 2b5a f83f
000000d0: 8b9c 1ebb 88a9 f9bc 7ecb 14be cce4 febd
000000e0: 1a94 8b3f 63fc 2140 f9e1 2fbd 1728 b3bd
000000f0: c25e ce3a 0e50 d53f f02e 9cbd a6f4 1340
0.02728889 2.3080652 1.8524915 -0.01776876 0.64129114 -0.07493518 -0.9924668 1.8986988
-0.099850245 2.3946264 0.14902282 1.9763681 -1.5058662 2.429079 0.050513722 0.023451935
2.1735756 -0.10260642 -0.03334637 2.1644886 0.0716824 -0.03328591 0.0647352 0.056314074
-0.8955134 1.8517003 1.9586521 2.266617 -0.16216497 2.2563982 -0.14291754 -0.66093934
1.9754883 0.0680433 0.7645637 1.0365479 2.1412373 -0.16836295 1.9978919 -2.2718434
0.8234205 0.9213292 1.6476094 0.9203955 1.1098504 0.16506961 2.2546282 1.4719383
1.8746113 -0.04984689 2.0541358 1.9402517 -0.0024202194 -0.030476347 -0.14530751 -0.12445983
1.0904572 2.5310295 -0.042940114 -0.08747881 0.0015744793 1.6665056 -0.0762614 2.3118072

fc3.weight f4 [20, 64]
00000000: 408d 39bc 006f b8bf 7659 843e 7ee5 f13d
00000010: 4cb7 243e 90b2 9fbd 2a25 6dbe b5dd ca3e
00000020: 794d 133d 4248 f83e cdb4 aabc ab2f b73e
00000030: 116f adbe ecc0 243f 0cb3 dabd 31bf 1ebd
00000040: 48fb 983e 04a2 5cbd 5a62 a9bd 109d 193f
00000050: a049 af3d 450e d13d 6938 573d b8a4 673d
00000060: 2c1d a8be dcbe 613e af8d 9a3e 6e71 353f
00000070: acb7 e3bb d28a 153f c1c8 e73b cdcf eebd
00000080: 2ab6 7a3e 98e6 b83d fd4b 9abd 1a12 803e
00000090: b64b f83e c4eb bdbd a1f9 943e 2a57 1abf
000000a0: 39f4 68ba 1bb1 9f3f 5cdf b03e abdc e33c
000000b0: 7016 a43e 9d18 b73b bbb3 96bf 2e81 ef3d
000000c0: 9db0 283f b863 f13d 4363 973e 8982 5bbf
000000d0: cc9e 68bd 5f36 adbd 62ac a73d cac4 8abd
000000e0: ac37 f23b 4aab f53e 1c5d 5abd b150 14bd
000000f0: 89e8 f1bd fd72 b73e c539 06bd 5270 d63e
00000100: 7ea9 fb3d 9f4a 43bf 0ab0 a13e 0438 51bd
00000110: 7656 9e3c 1e0b b3bd f6be 853e 5045 ab3e
00000120: 1093 8abc df0e b93e 0550 28be 2e5d e93e
00000130: e32c fbbc eb66 e63e b6e5 223c 285d af3d
00000140: 4139 9b3e 68c7 8cbd 581f b33d b2d2 fa3e
00000150: 4264 94bd cee2 a9bd 945b fabd d427 ab3d
00000160: b48d 01bc c751 8b3e e4d6 213e 98bc b53e
00000170: 5dea cfbc 6403 053f 7c3a 8f3d f26c 123e
00000180: 55b8 483e 2062 d2bc 17bb ba3d 3299 e53e
00000190: 9c0e b03e 365e d23d 33be 753e 5c60 13be
000001a0: d3b4 d3be 6379 bcbc 3ec7 f83e ef8b 063e
000001b0: 0954 143f 4c15 b8be 3969 6ebf 274c a13e
000001c0: 3619 a63e fca6 9ebd 41a0 873e f74e 3bbf
000001d0: 6e11 a43d e029 e2bd f04c debd 4c17 8a3d
000001e0: 3b3a 973d db54 1a3f e6ff a33d e395 d9bd
000001f0: 8ea6 353d e5f5 82bb 6b64 b3bd 41da bb3e
00000200: 90f8 f5bd 4179 3cbf 3029 6c3e 00f2 c4bc
00000210: 77b0 15bd c0bc 8dbb 0fe8 c83d 4995 bc3e
00000220: 67a9 92bd bf1b ba3e ea45 763e eac6 0b3f
00000230: 1dd1 82bd 8401 113f bad4 733d f2d2 033a
00000240: 8812 8a3e 40b3 763b a6c9 19bd 77ab ec3e
00000250: 6453 133d 128d e83d f852 703d cefa fe3d
00000260: 1fe8 3fbc 21d3 293e 8f96 6a3e d2b9 033f
00000270: b3a7 023e 4855 0b3f eb61 c2bd 7607 e4bc
00000280: 482c 4e3e eead 893d 5762 5f3d 8f99 ed3e
00000290: 03a0 b23e f98d e83d fa09 ca3d 02df 0dbe
000002a0: 712f 73be 2faa 7abe 2528 d53e c71a e2bd
000002b0: 2246 da3e 1f19 9bbe 7825 57bf 942f 013f
000002c0: 1b95 8c3e 2964 fcbd 4a42 603e 53b4 14bf
000002d0: a95d 563d 00e5 bfbb 44b4 3ebd 0f19 66bd
000002e0: 6146 bd3e b4ae ea3e 2838 4cbd cb81 163c
000002f0: f278 ba3c d42b 49bc a143 b03d ea94 9e3e
00000300: 20e6 52bd 7983 20bf 0769 433e 5613 e5bd
00000310: 2a32 99be d01f 433d 56b0 57be fa90 a73e
00000320: 7a4c 8c3d 057c cf3e f95d 373e d638 aa3e
00000330: 4193 e2bc 3850 143f 4f1f 9cbd 418b 0a3d
00000340: 14dc 6c3e a29c 573d 92a6 7c3d 691f c93e
00000350: e8c6 943d 0095 783a 3cf4 aa3d b8d9 713d
00000360: e930 13be 9fe3 6e3e a25b 963e d28c c63e
00000370: f91b df3d 3174 bb3e dc91 21bd e43c 923d
00000380: 525e 8f3e 5e63 10be 8cb2 333e f8e7 bc3e
00000390: dc0e 843e d7fd 5339 37df 753e b3f4 4dbe
000003a0: 48b2 afbd fd95 85bd 3a16 cb3e e2cb db3e
000003b0: ec73 fe3e a94b 86bd b42a 3bbf c840 013f
000003c0: 6b21 173f b008 463c d458 b63e 95d7 64bf
000003d0: 0620 cb3d c8b8 393d e066 853c 049f b33d
000003e0: 0565 113f 24ee de3e 8e9a 37bd 2160 c4bd
000003f0: ccaa cf3d 288b 55bc 7307 d83d 45a5 c23e
-0.0113251805 -1.4408875 0.25849503 0.1181135 0.16085547 -0.0779773 -0.23158708 0.39622274
0.035962556 0.48492628 -0.020838166 0.35778555 -0.338738 0.64356875 -0.10678682 -0.038756553
0.29879212 -0.053865448 -0.08270712 0.60005283 0.08558965 0.102078 0.05254403 0.056553572
-0.32834756 0.22045463 0.3018622 0.70876205 -0.0069493856 0.5841495 0.0070734923 -0.116607286
0.24483553 0.09028357 -0.07534025 0.2501381 0.48495263 -0.09273484 0.29096702 -0.6028925
-0.00088864897 1.2475923 0.3454541 0.027815184 0.32048368 0.005587651 -1.1773599 0.11694561
0.6589449 0.11786598 0.29567918 -0.85746056 -0.056792066 -0.08457636 0.08187176 -0.06775816
0.0073918905 0.47982246 -0.053311452 -0.036209766 -0.11811931 0.35829917 -0.032769937 0.4188257
0.122881874 -0.7628574 0.3157962 -0.05107881 0.019328337 -0.08742355 0.26122254 0.3345132
-0.016915828 0.36144158 -0.16436775 0.45578903 -0.030661052 0.45000395 0.009942463 0.0856269
0.3031712 -0.06873971 0.08746213 0.48988873 -0.07245685 -0.08295213 -0.122244984 0.08357206
-0.00790732 0.2721083 0.1580463 0.35495448 -0.025380308 0.519583 0.06993577 0.14299372
0.19601567 -0.025681555 0.09117716 0.4484344 0.34386146 0.102718756 0.23998336 -0.14392227
-0.41348895 -0.0230071 0.4858951 0.13139318 0.5794073 -0.35953748 -0.9312931 0.31503412
0.3244111 -0.077466935 0.26489452 -0.73167366 0.08011137 -0.11043143 -0.108545184 0.06742725
0.073841535 0.6028573 0.08007793 -0.10624292 0.044348292 -0.003996598 -0.087593876 0.36689952
-0.120103 -0.7362252 0.23062587 -0.024041176 -0.036545243 -0.0043254793 0.09809887 0.36832646
-0.07161217 0.36349294 0.24050108 0.54600394 -0.063875414 0.5664294 0.059529044 0.0005028687
0.26967263 0.0037643462 -0.037545823 0.46224567 0.0359682 0.11355032 0.058672875 0.12450181
-0.011713057 0.16584446 0.22908996 0.51455414 0.12759285 0.54427004 -0.094913326 -0.027835589
0.2013408 0.067226276 0.054537144 0.46406218 0.34887704 0.11355204 0.09865184 -0.13854602
-0.23748566 -0.24478982 0.4163219 -0.110402636 0.42631632 -0.30292603 -0.8404155 0.50463223
0.27457508 -0.123237915 0.21900287 -0.5808765 0.052335415 -0.0058561563 -0.046558633 -0.05617624
0.36967757 0.45836413 -0.049858242 0.0091862185 0.02276275 -0.012278516 0.08606649 0.30972987
-0.051488996 -0.6270061 0.19083034 -0.11185329 -0.29921085 0.04763776 -0.2106336 0.32727796
0.06850524 0.40524307 0.17906941 0.33246487 -0.027658107 0.57934904 -0.07623159 0.03382421
0.23130828 0.05263961 0.06168229 0.39281777 0.07264501 0.0009482652 0.08347365 0.059045523
-0.14374126 0.23329018 0.29366785 0.38779312 0.10894007 0.36612085 -0.039445743 0.0714052
0.28001648 -0.14100406 0.17548579 0.36895728 0.25792587 0.00020217091 0.24010931 -0.20112877
-0.08578926 -0.065227486 0.39665395 0.42928988 0.49697816 -0.065574 -0.73112035 0.50489473
0.59035367 0.012087032 0.35614645 -0.8939145 0.09918217 0.045342237 0.016284406 0.08770564
0.5679477 0.43541062 -0.04482513 -0.09588648 0.10139999 -0.013033666 0.10548296 0.38016716

fc3.bias f4 [20]
00000000: 251d fa3f edf9 763f 8235 693f 2bd2 2c3f
00000010: 8c98 273f 39af e93e bdcc 633e 0f50 ad3e
00000020: 10a2 df3e e424 6e3e a146 273e 4f51 14bd
00000030: e9fa 843e c24c 98bd 63aa 70be 5ca6 23be
00000040: 355c 0ebe 3cee f4be 2a4c b7be aea3 c4be
1.9540144 0.96475106 0.9109727 0.6750819 0.65467143 0.45641497 0.2224607 0.33850142
0.4367833 0.2325626 0.16335537 -0.036210354 0.2597268 -0.074365154 -0.23502497 -0.1598143
-0.13902362 -0.47838008 -0.35800296 -0.38406128

exp_avg f4 [64, 3]
00000000: 2f89 e540 faf9 50c1 732b 2942 5e5b d3bb
00000010: 8f14 44bf 9896 48c1 3d05 ea40 acbb 4741
00000020: be82 1c41 0000 0000 0000 0000 0000 0000
00000030: 401e 8e3b 1009 b43e c738 9ac1 9592 9e3f
00000040: b3e8 41c0 3c4e 35c1 3537 6e40 a877 07c1
00000050: 4d56 a841 b3ab f83e fbb3 e5bf 0898 e8c0
00000060: 00c7 093f 37aa 6abf ed4b 4941 388a b73f
00000070: 3038 7bc0 162e c4c1 e067 abbc 3676 abbc
00000080: dd35 eabe 0000 0000 0000 0000 0000 0000
00000090: 0000 0000 0000 0000 0000 0000 4991 a240
000000a0: 9f2d 1bc1 c89a d741 dddf 5b3f 220c 2ac0
000000b0: 4b5a c840 6153 c73c 577c a43e ef5a ef3e
000000c0: deab 923e 6cae 4fc0 cbf0 3f42 0000 0000
000000d0: 0000 0000 0400 0000 95d6 9e3f da2f 38c0
000000e0: 376e 83c1 5d88 7e3d 2fdb c4be 6c57 82c1
000000f0: 23fa dd3f 30db dabf 2df2 fd3f 9901 d740
00000100: a8b7 47c1 95d0 1f42 1641 0441 55ca 9041
00000110: e1dd 193f 404d 07bf ccfb 54bf 7e79 96c1
00000120: 7e43 f1bd 48d9 8ebf 8bb2 c740 43ea a03e
00000130: 09bd 84c0 2a11 db40 4682 0040 112d 9a3d
00000140: 7482 b63f 24c4 78bf d57d a9be 921a 6e3f
00000150: 0000 0000 0000 0000 0000 0000 0000 0000
00000160: 0000 0000 0000 0000 0000 0000 0000 0000
00000170: 0000 0000 17c7 643c 6c60 4e3f 45d6 873f
00000180: c075 0340 36bf 24bf e476 5141 d796 a1c1
00000190: 059e 0d41 ee24 aac2 0000 0000 0000 0000
000001a0: 0000 0000 0000 0000 0000 0000 0000 0000
000001b0: 84de 11bf 7433 0fbe 68c0 e2be 0000 0000
000001c0: 0000 0000 0000 0000 0400 0000 0400 0000
000001d0: 0400 0000 43d4 183e 7202 1bc0 910d d041
000001e0: 304d 973f 8cf1 73c0 e2ae a0c1 0000 0000
000001f0: 0000 0000 0000 0000 ac2d 9b3d 5d7f d0be
00000200: 5c51 29c0 ecd7 8b3e 7b34 2cc0 6b90 f83f
00000210: 974a 30c1 ab92 94c0 1aa5 39c2 1831 d2bf
00000220: b518 3bc0 f13f b4c1 5058 983e fe6b e8bd
00000230: 652d 9f3f 0000 0000 0000 0000 0000 0000
00000240: fdc2 5dc1 c364 7741 0067 803f 6c16 a440
00000250: 16db 22c1 fbfe c341 1ab0 cc40 cd51 2141
00000260: 3b50 f440 7ae4 debf fc12 f8c0 1d65 1041
00000270: 8fd1 0dbf 915d 79c0 2b11 2841 0000 0000
00000280: 0000 0000 0000 0000 caab 7b3e 48a6 8ebf
00000290: 7632 0541 86f1 283f f285 24bf c982 1b3e
000002a0: f5c6 bf40 e48d 31c1 2b3f 3342 abe7 3cbf
000002b0: c38e 0dc0 8776 53c1 7227 7e3f fa3f 1ac0
000002c0: 25c3 6dc1 32fb 1140 b27b bdc0 b8cc a941
000002d0: 8e9a 403e 8f05 90c0 4efb 2642 3f08 5641
000002e0: e8d1 7441 6bca 5f41 28cf f13d 00a5 1f40
000002f0: 45f5 8bc1 c795 6ebf b365 d2bf 0492 65c1
7.172996 -13.061029 42.29243 -0.006450101 -0.7659387 -12.536766 7.3131394 12.483318
9.7819195 0.0 0.0 0.0 0.004337102 0.35163164 -19.277723 1.2388483
-3.0298278 -11.3316 3.7221196 -8.466713 21.04214 0.48568496 -1.7945551 -7.2685585
0.53819275 -0.9166598 12.581037 1.4339056 -3.9253044 -24.522503 -0.020923555 -0.02093039
-0.4574422 0.0 0.0 0.0 0.0 0.0 0.0 5.080235
-9.698638 26.950577 0.85888463 -2.6569905 6.261022 0.02433175 0.32126114 0.46749064
0.2864675 -3.2450209 47.98515 0.0 0.0 6e-45 1.2409235 -2.8779206
-16.428816 0.062141765 -0.38448474 -16.292686 1.7341961 -1.7098141 1.9839531 6.718945
-12.482338 39.953693 8.26589 18.098795 0.60104185 -0.5285225 -0.8319671 -18.809322
-0.11780451 -1.1160059 6.240545 0.31428728 -4.1480756 6.845845 2.0079513 0.07528127
1.4258561 -0.97174287 -0.33103815 0.93009293 0.0 0.0 0.0 0.0
0.0 0.0 0.0 0.0 0.0 0.013963482 0.8061588 1.0612265
2.054062 -0.64354265 13.091526 -20.198652 8.851079 -85.07213 0.0 0.0
0.0 0.0 0.0 0.0 -0.56980157 -0.13984472 -0.4428742 0.0
0.0 0.0 6e-45 6e-45 6e-45 0.14924721 -2.4220243 26.006624
1.1820431 -3.8116179 -20.085392 0.0 0.0 0.0 0.075770706 -0.4072217
-2.6455908 0.27313173 -2.6907032 1.9419073 -11.01821 -4.642904 -46.411232 -1.6421232
-2.923383 -22.531221 0.29754877 -0.11348723 1.2435728 0.0 0.0 0.0
-13.860105 15.4621 1.0031433 5.127737 -10.178488 24.499502 6.396497 10.082471
7.6347938 -1.7413476 -7.7523174 9.024686 -0.55397886 -3.8963358 10.504191 0.0
0.0 0.0 0.24577251 -1.1144495 8.32482 0.65993536 -0.64266884 0.1518661
5.9930367 -11.097141 44.811687 -0.73791 -2.2118385 -13.216437 0.9927894 -2.4101548
-14.860143 2.2809567 -5.9213495 21.22496 0.18808958 -4.5006785 41.745415 13.377013
15.301247 13.986918 0.1180709 2.4944458 -17.49476 -0.9319729 -1.6437286 -14.348148

exp_avg_sq f4 [64, 3]
00000000: 0017 a346 7db1 0647 5b0b 124a 8975 c741
00000010: 0287 1a43 406f 5345 cf31 de45 36d0 1346
00000020: 53d7 2746 0000 0000 0000 0000 0000 0000
00000030: 3a5a 1f41 005f 0f44 8f71 4147 53c1 0945
00000040: 25e8 1b45 d00c d046 9d30 1346 9e98 5c46
00000050: f449 3d49 5105 8d44 818b af44 8b29 6a46
00000060: 8051 4142 8cc6 d243 22d2 7a47 b0ba 5e45
00000070: ed24 7745 9f11 2847 fbc3 493f 75e6 ca3f
00000080: fdc7 8446 0000 0000 0000 0000 0000 0000
00000090: 0000 0000 0000 0000 0000 0000 4fc6 3246
000000a0: cb8d 8c46 f150 8c49 fbbc b244 fd60 ed44
000000b0: 6b12 a347 01c3 873f e135 f942 052b a443
000000c0: 7d0b 6243 037a 1845 7369 c348 0000 0000
000000d0: 0000 0000 4e68 a01b b8b5 1545 f46f 2345
000000e0: 472b d646 4eac c241 7cfd 5744 d32f 1347
000000f0: 4454 3844 37a4 5f44 be30 2147 167d 9e46
00000100: 93c6 fe46 981c 014a 33bd a447 f050 ce47
00000110: 8050 e648 b770 bf40 b22b 1543 bd22 8446
00000120: 5c5a d241 aebe 3e43 38fd b046 3c0d f444
00000130: cfc6 4345 b996 0448 579c c043 48a2 3942
00000140: a70e 3446 0ef5 0443 60c2 ea41 8d16 4a45
00000150: 0000 0000 0000 0000 0000 0000 0000 0000
00000160: 0000 0000 0000 0000 0000 0000 0000 0000
00000170: 0000 0000 3db7 0a41 494f 1643 0463 3345
00000180: 5494 9f43 b27c 1c44 1385 a147 9657 3c48
00000190: ad17 3748 d44b 8449 0000 0000 0000 0000
000001a0: 0000 0000 0000 0000 0000 0000 0000 0000
000001b0: 0305 4e42 7762 cb3f 895e 1043 0000 0000
000001c0: 0000 0000 0000 0000 fd3f df3d ee6b f13b
000001d0: eee4 183e 6ed9 6042 edb1 5a44 c1d8 0848
000001e0: 858f 5a45 4682 7945 2dc8 1d47 0000 0000
000001f0: 0000 0000 0000 0000 73d7 0742 f0bb 7144
00000200: 2aca 1147 cbc0 4544 a69a a844 8685 8847
00000210: 2f9a 8047 21e3 5847 f8dc 3748 110f f842
00000220: 7d37 ad43 dda7 f945 cfe6 b942 0de4 f642
00000230: 5ce0 cf43 0000 0000 0000 0000 0000 0000
00000240: ed82 b947 5e03 aa47 1a2d cb48 0cbe 5046
00000250: d1c1 a646 f23e a049 6c4e e144 41e5 c745
00000260: 29d0 1545 3277 8745 ae1c ff45 5060 0d49
00000270: 1ef0 6744 3323 1245 ebbd 2248 0000 0000
00000280: 0000 0000 0000 0000 17b4 cf41 38de 2343
00000290: 3a10 ae46 b0df c843 4523 1444 133e a446
000002a0: 8614 5846 21e8 d046 1a2e 0a4a 3037 b643
000002b0: 8469 dd43 31b2 1f45 6dbb a144 2b5d a844
000002c0: 27ff 6046 2004 7945 577e e945 7d85 0e49
000002d0: 620b 4643 54ef 4b45 1ebc fd48 0fb6 8245
000002e0: dd0d 2146 fb28 c945 d550 7643 cdc0 9c44
000002f0: b1ec 5848 4245 8243 ba5b a843 3e61 be45
20875.5 34481.49 2.3927908e+06 24.93239 154.52737 3382.9531 7110.226 9460.053
10741.831 0.0 0.0 0.0 9.959528 573.4844 49521.56 2204.0828
2494.509 26630.406 9420.153 14118.154 775327.25 1128.1661 1404.3595 14986.386
48.32959 421.55115 64210.133 3563.668 3954.3079 43025.62 0.7881467 1.585158
16995.994 0.0 0.0 0.0 0.0 0.0 0.0 11441.577
17990.896 1.1494701e+06 1429.9056 1899.0309 83492.836 1.0606385 124.60523 328.3361
226.04488 2439.6257 400203.6 0.0 0.0 2.6537185e-22 2395.3574 2614.997
27413.639 24.334133 863.9607 37679.824 737.31665 894.56586 41264.742 20286.543
32611.287 2.115366e+06 84346.4 105633.875 471684.0 5.982509 149.17068 16913.37
26.29412 190.74484 22654.61 1952.4136 3132.4255 135770.89 385.2214 46.408478
11523.663 132.95724 29.34491 3233.4094 0.0 0.0 0.0 0.0
0.0 0.0 0.0 0.0 0.0 8.669736 150.30971 2870.1885
319.1588 625.94836 82698.15 192862.34 187486.7 1.0837705e+06 0.0 0.0
0.0 0.0 0.0 0.0 51.504894 1.5889424 144.36928 0.0
0.0 0.0 0.10900877 0.0073676025 0.1493108 56.212334 874.7801 140131.02
3496.97 3992.142 40392.176 0.0 0.0 0.0 33.9604 966.9365
37322.164 791.0124 1348.8328 69899.05 65844.37 55523.13 188275.88 124.02943
346.4335 7988.983 92.9508 123.44541 415.7528 0.0 0.0 0.0
94981.85 87046.734 416104.8 13359.512 21344.908 1.3127342e+06 1802.4507 6396.6567
2397.01 4334.8994 8163.585 579077.0 927.75183 2338.2 166647.67 0.0
0.0 0.0 25.962934 163.86804 22280.113 401.74756 592.5511 21023.037
13829.131 26740.064 2.2639425e+06 364.43115 442.82434 2555.137 1293.857 1346.9115
14399.788 3984.2578 7471.7925 583767.8 198.04446 3262.958 519648.94 4182.7573
10307.466 6437.1226 246.31575 1254.025 222130.77 260.54108 336.7166 6092.1553
