models/dqn_agent_firm_1_episode_2000.pth (torch, 101224 bytes, 24 tensors)

fc1.weight f4 [64, 3]
000000 af 32 b8 be 9c f3 87 3d 77 53 ea 3d 76 4d 0b bf
       -0.3597617 0.06638262 0.11441701 -0.5441507
000010 64 82 09 bf fa 24 bc 3d eb 39 83 bd d0 21 e3 bd
       -0.53714585 0.0918674 -0.06407531 -0.110904336
000020 c1 1e d8 be 56 a5 11 bf fa f6 9f be 02 77 bb 3e
       -0.42210963 -0.5689291 -0.31243116 0.36614233
000030 1a bb 06 3f b6 81 ed be b5 5f 0f bf 48 0c 1a bf
       0.52629244 -0.46388024 -0.5600541 -0.6017499
000040 cc b4 80 3e 7b 30 cc bc b1 2b ab 3d c1 3c 1d bf
       0.25137937 -0.024925461 0.08357943 -0.6142083
000050 6e 48 63 bd 1a 06 83 be 1c 13 6f 3e 4e bc 24 3e
       -0.055488996 -0.25590593 0.23347133 0.16087458
000060 c7 98 91 be 9c b1 34 bf b7 d4 99 3e 79 0d c5 bd
       -0.28436872 -0.7058351 0.300451 -0.0962171
000070 98 c8 03 bf 46 b5 04 be 38 f4 5a 3e eb b1 18 3e
       -0.51477957 -0.12959775 0.21382225 0.1491162
000080 d9 1d b2 3c ae 49 e7 3e e3 f9 10 bf 1b fe af be
       0.021742748 0.451734 -0.56631297 -0.34373555
000090 6d 9a f3 be df 68 26 3d 1a e9 9d be c4 e4 9e be
       -0.47578755 0.040627357 -0.30841905 -0.3103391
0000a0 d6 bf 93 be 88 f4 07 3e ac f5 8a 3d e4 5b df be
       -0.28857297 0.13276875 0.067851394 -0.43624794
0000b0 41 a9 2c bd e2 94 cf be 02 be bf be 5b c9 1b 3e
       -0.0421536 -0.40543276 -0.37449652 0.1521353
0000c0 f2 db 0a 3e cf 22 56 3f 4c 0e 0e 3e ff 5d b9 be
       0.13560465 0.83646864 0.13872641 -0.36204526
0000d0 16 7f 2f bd 20 4b b7 3d a4 51 ca be fd 80 79 3b
       -0.042845808 0.08949876 -0.39515412 0.0038071268
0000e0 1e ec 9d 3d ad 11 b7 3e 6c 72 2a 3e c3 5a a6 3e
       0.077110514 0.35755673 0.16645211 0.3249112
0000f0 fe 18 92 be be 73 71 3e 53 b1 62 3e d6 40 00 bd
       -0.28534693 0.23579308 0.22137956 -0.031311832
000100 c4 f7 c7 3e 23 ef 39 be c1 6e 0e 3f dc 89 ee be
       0.39056218 -0.1815763 0.5563775 -0.46589553
000110 20 75 d4 be 07 79 e4 be ee 13 b8 3e a1 51 95 3d
       -0.4149561 -0.44623587 0.35952705 0.0729096
000120 9e 0f 3e 3c aa 58 a0 be 82 f4 cb be 76 ec 16 3f
       0.011600403 -0.31317645 -0.39834982 0.5895456
000130 23 ea e1 3e ba 8a b2 3c b7 e3 b0 bd 9e b7 54 bf
       0.44123945 0.021794666 -0.08637183 -0.8309268
000140 fe 43 22 3e 10 16 d4 be e6 24 0a bf 8b bf ee be
       0.1584625 -0.41423082 -0.5396255 -0.4663051
000150 10 9b 24 bc cf 3a 27 bd d9 cc 9e be 9d 29 a5 3e
       -0.010046735 -0.04082757 -0.3101566 0.3225831
000160 4f da af bb ab 98 ce be 11 d9 43 3e eb 13 68 be
       -0.0053666006 -0.4035085 0.19125773 -0.22663848
000170 e1 10 2d 3e 94 2d 84 be d7 98 63 be e4 8f dd 3d
       0.1690097 -0.25816023 -0.22226273 0.108184606
000180 24 2c 18 3e 87 19 41 bd 8b b4 27 3e 59 ca 0e be
       0.14860588 -0.047143485 0.16377465 -0.13944377
000190 3e 83 82 be 24 68 b7 3d bb 7e d9 be 48 ec 4c be
       -0.25490755 0.0895541 -0.424795 -0.20012009
0001a0 35 9f 85 3c f6 da 98 bd b0 21 69 be 76 bc 02 bf
       0.016311267 -0.074636385 -0.22766757 -0.5106882
0001b0 b8 ad 12 bf 82 70 2f bd 9e 08 bf be c4 c3 b4 be
       -0.57296324 -0.042831905 -0.37311262 -0.35305607
0001c0 75 59 b7 3e ed 4b 91 3d 8e 05 9d be d6 71 98 be
       0.35810438 0.0709456 -0.306683 -0.2977435
0001d0 3d 8c 53 3d 05 f9 06 bf e6 a0 89 bd ec fc 73 3e
       0.051647414 -0.52723724 -0.06720142 0.23826951
0001e0 6d f0 2c bc dd 46 d9 3d 34 3e a3 3c c4 21 1b 3d
       -0.010555369 0.10609219 0.019927122 0.037874
0001f0 ad 55 ba 3b 69 81 cb bd 55 fe 8e 3e 70 0b 46 3c
       0.005686483 -0.099367924 0.27928415 0.012087688
000200 5f d2 f0 be 6a b4 40 be de d1 bd 3e a0 56 04 3e
       -0.470355 -0.18818823 0.37074178 0.1292367
000210 3a 4e e2 3e d2 9e 4e 3e 55 29 b2 be f1 02 11 bf
       0.44200307 0.20177773 -0.3479716 -0.56645113
000220 6a 3e 9c be 2a bf ba 3e 19 89 36 3e 3e 7b f2 3e
       -0.30516368 0.36473972 0.17825736 0.4735965
000230 a9 e3 95 3e c7 af 0f 3f b6 c9 47 be cb ab 16 3d
       0.29275253 0.5612759 -0.1951054 0.03678493
000240 da 51 17 bf 3c bb cb 3c d7 18 6e bd d6 de 46 3f
       -0.5910927 0.024869554 -0.058129158 0.7768377
000250 45 89 e1 3d bf a7 b6 3e b3 97 89 3e 28 ee 0d be
       0.1101251 0.35674855 0.2687355 -0.1386038
000260 e7 82 53 3e 15 08 a9 ba 0e 44 69 3e 45 df d5 3e
       0.20655404 -0.0012896085 0.22779867 0.41771904
000270 4d 17 67 3e 9b c6 58 bc 2c c8 94 3b c6 ac 34 3e
       0.22567482 -0.013230945 0.004540464 0.17644033
000280 bc e3 ba bf 8f c9 4d 3d 36 53 17 be f4 0d 6c bd
       -1.4600749 0.05024105 -0.14777836 -0.057630494
000290 e8 3f ef be 35 9f b8 3e 0f 0e 71 3e c3 7b 93 bd
       -0.46728444 0.36058965 0.23540519 -0.0720134
0002a0 de a4 1b be 62 ce 6a be 9d cf fe 3d f6 7e a0 bd
       -0.1519961 -0.22930291 0.12441943 -0.07836716
0002b0 e2 6a e4 bd c4 7a 47 3d 1d c9 98 3d 1d 12 cd 3a
       -0.11153199 0.048701063 0.07460234 0.0015645657
0002c0 3e 69 5b bd da 9a 8f 3d 10 16 ac bd 76 5b b8 bd
       -0.053567164 0.070119575 -0.084026456 -0.0900182
0002d0 13 19 97 bc 4b 8c 01 be 8f 47 68 bd 6b 3c 43 be
       -0.018444574 -0.12651174 -0.05670887 -0.19066016
0002e0 6f ee 83 3e f2 93 3f bd 83 47 8e bd 66 95 a6 be
       0.25767848 -0.04677195 -0.069472335 -0.32535857
0002f0 91 0d 15 be 57 ac ff bd fc 28 1b 3e 4d f1 0d 3d
       -0.14555956 -0.12484043 0.15152353 0.03465395

fc1.bias f4 [64]
000000 8c 71 00 40 fe 8f 2a c0 08 67 41 3e 14 24 22 c0
       2.0069304 -2.6650386 0.1888696 -2.533452
000010 a6 96 c4 3d 08 a2 fa 3f 89 2b 3e bf d6 a4 a8 be
       0.095990464 1.9580698 -0.7428518 -0.3293826
000020 ca 45 29 40 86 ca f1 3e 0d 48 4e 40 10 d7 05 40
       2.6448846 0.47224826 3.2231476 2.0912514
000030 c3 7c 10 bf b8 bc 69 c0 f1 0e a6 be 8c f3 55 c0
       -0.5644037 -3.6521435 -0.32433274 -3.34299
000040 33 f1 4e c0 38 75 77 40 2b 47 6e 40 ca f9 15 40
       -3.2334716 3.8665295 3.7230937 2.343371
000050 20 a7 0f 3f 05 da 63 40 39 9f 22 3f e8 ff e4 bf
       0.5611439 3.5601819 0.63524204 -1.7890596
000060 f3 21 03 3f 67 07 66 40 30 71 d6 bd 4d f9 ea be
       0.5122368 3.5942018 -0.104708076 -0.45893326
000070 3f 9a cf 3c 8e e3 a2 3c 9b a9 53 40 d9 0c 61 c0
       0.025342105 0.019883897 3.307227 -3.5164092
000080 e3 49 d9 3e 45 b9 89 40 12 31 76 40 32 2d 4a 3e
       0.42439184 4.303866 3.846745 0.19743803
000090 84 60 05 3f a7 a9 6a 40 31 ca 76 c0 9b 49 1b 40
       0.52100396 3.6666048 -3.8560908 2.4263675
0000a0 54 1b 79 40 56 91 a4 bd 2f 42 12 bf 64 21 cf bf
       3.892293 -0.08035533 -0.5713224 -1.6182065
0000b0 c8 0f 78 40 f5 37 4e c0 93 23 e8 bf 9f 06 6c 40
       3.8759632 -3.2221653 -1.8135856 3.6879041
0000c0 c4 db 94 bd 27 8a fb bf b7 fb f5 3f d4 51 a2 bf
       -0.072684795 -1.9651536 1.9217442 -1.2681222
0000d0 d2 42 81 bf 21 63 81 bf 9f 87 14 3e a0 0c ac bf
       -1.0098517 -1.0108377 0.1450486 -1.3441353
0000e0 8a 53 54 40 27 53 76 40 c2 aa e7 be 9e 25 4c be
       3.3175988 3.8488252 -0.45247465 -0.19936225
0000f0 87 9f f0 3f f4 87 74 40 51 47 9c 3e 25 97 79 40
       1.8798684 3.820798 0.3052316 3.8998501

fc2.weight f4 [64, 64]
000000 2d f9 93 be 7b 5a 0c 3e 50 cc 66 bd c4 56 ac be
       -0.28901044 0.1370639 -0.05634719 -0.33659947
000010 5a 09 86 bd f5 b7 48 3d 7d 12 99 3d 26 72 e2 be
       -0.065447524 0.04900356 0.074742295 -0.44227713
000020 d6 5d f1 bc 04 5f d5 bd ab a6 6e 3d 53 4a b4 3e
       -0.02946369 -0.104185134 0.058264416 0.35212955
000030 82 b6 9a 3d b7 71 dc 3d d9 bc 28 3e 14 0e 6c 3d
       0.07554342 0.10763877 0.1647829 0.057630613
000040 e6 85 0c bf a3 83 fb 3e c9 55 7b 3d fb 1b 48 be
       -0.5489181 0.49123868 0.061361108 -0.19541924
000050 b6 89 0f bf eb e4 c8 3f b9 fd 02 be 6e 50 f5 be
       -0.56069505 1.569486 -0.127921 -0.47912925
000060 80 ff c7 3b 8d c6 ba bd 44 8b f2 bd 0a 56 ac bd
       0.006103456 -0.09119902 -0.11842969 -0.08414848
000070 68 f4 f9 bd 54 f0 df bd af df db bd b7 f6 25 bd
       -0.1220482 -0.10934511 -0.10736024 -0.04051849
000080 ab 4f 74 be e6 20 f4 3e 47 d5 5d 3f 98 3b f0 3c
       -0.23858516 0.4768135 0.8665356 0.029325292
000090 a8 fd e3 bd a9 80 1f 3e 5c 2e 25 3e 6c 24 51 bf
       -0.111323655 0.15576424 0.16130966 -0.816962
0000a0 f8 1c 4d 3e 0f b9 16 bd 2a 11 ec 3d d4 8c c8 be
       0.20030582 -0.03679758 0.11526711 -0.39169943
0000b0 72 e6 e7 3f 5e 5d 44 be a4 d6 db be 70 02 88 3c
       1.8117201 -0.19176242 -0.42937195 0.016602725
0000c0 ea 5b 34 bd 65 db 8f be dd 29 ec bd c2 a2 0c bf
       -0.04403297 -0.28097072 -0.11531422 -0.5493585
0000d0 94 04 92 be 07 cc d2 be 6e 11 8e 3d 1b b7 87 be
       -0.28519118 -0.41171286 0.06936918 -0.26506886
0000e0 64 89 3b 3e a4 72 ca 3e 1f 95 96 be ec 18 d4 bd
       0.18314129 0.3954059 -0.29410645 -0.10356316
0000f0 53 37 b3 bb 0e 5e bb 3e 8e 5e b1 3d 7c e8 ad 3e
       -0.0054692416 0.36595196 0.08660613 0.33966434
000100 b1 30 0e be a6 44 dd 3d 80 68 2a 3d 80 9a 41 bd
       -0.13885762 0.10804109 0.041603565 -0.047266483
000110 e8 76 90 3d bf 12 f4 bd b4 a2 0c bd 18 b4 a2 bd
       0.070539296 -0.11917638 -0.034334853 -0.079445064
000120 f4 cd f0 bd 1c 88 25 3d e8 e1 89 3d 59 16 ac bc
       -0.117580324 0.040413007 0.06732541 -0.02100675
000130 40 37 2a bc 80 b7 ce bd 63 8c fd bd 6e 29 97 3d
       -0.010389149 -0.100935936 -0.12380292 0.07380949
000140 2c 8c 2d 3d c6 95 86 3d 43 19 8b bc ce 64 53 3d
       0.042370006 0.06571536 -0.01697982 0.051609807
000150 6d 77 2c bd 4c 11 2f bd b2 08 3e bd 30 94 a1 3c
       -0.04210608 -0.042741105 -0.04639501 0.019723982
000160 58 3b d6 3d d3 83 a9 bd 43 ae 01 be f0 e6 7e bc
       0.10460538 -0.082770966 -0.12664132 -0.0155579895
000170 c0 9f 42 bb 68 26 a6 bd fb b4 61 3c 16 54 13 bd
       -0.002969727 -0.08112794 0.013776059 -0.035968862
000180 d7 26 c5 3d 5f 92 14 bc c1 ca fc 3c 48 db a6 bc
       0.09626549 -0.009068101 0.0308584 -0.020368233
000190 38 81 cc 3c 5e e3 a4 bd ec 78 e4 3d 7f 71 71 3d
       0.02496396 -0.08051179 0.111558765 0.05894613
0001a0 c1 92 92 bb d2 1f 0f be b8 fd 97 bd 92 da e6 bd
       -0.004473061 -0.13976982 -0.0742144 -0.11272158
0001b0 4d 8d c2 3d 00 4a 4b 3c c2 50 da bd 63 51 f0 bd
       0.09499607 0.01240778 -0.106599346 -0.11734273
0001c0 d0 9b 23 bc 1a ca 31 bd ed 58 c4 3d 21 9f 92 bd
       -0.009985879 -0.04340563 0.09587274 -0.07159258
0001d0 33 ee 4d 3d 2d c8 78 bd ca 91 b7 bd a8 f2 8a bd
       0.050275993 -0.060737778 -0.08963354 -0.06784564
0001e0 41 61 a7 bd c3 99 a7 bc ab c6 7b 3d 3a d9 c6 3d
       -0.081728466 -0.020459061 0.06146876 0.097094014
0001f0 fd e0 1d 3b 38 60 18 be 50 b7 26 3c 0f 06 bf 3c
       0.0024090402 -0.14880455 0.010175541 0.023318319
000200 68 4a 22 bb 4a d5 c3 bd d6 78 c5 3d cf 55 00 3d
       -0.0024763588 -0.09562166 0.09642188 0.031331833
000210 b0 a7 62 bc 50 5f 10 be 8d ea ab 3d 70 90 68 bd
       -0.013833925 -0.14098859 0.083943464 -0.05677837
000220 85 48 04 3b 02 7c 84 3d 3d 1b 81 bd 9a 70 8f 3d
       0.0020184827 0.06468965 -0.063040234 0.07003899
000230 28 dd ee bc ec ba be 3d 64 6c 75 bb 1d 70 e6 3b
       -0.02915819 0.09312996 -0.003744864 0.007032408
000240 52 df ab 3d 9b 5e ce 3d b0 d5 68 bd ff ac 34 bd
       0.08392204 0.10076638 -0.056844413 -0.044110294
000250 af f8 87 bd f8 a1 87 3d ef db cd 3d a9 0e 4d 3c
       -0.066392295 0.0662269 0.10051715 0.012515702
000260 8a ac df bd 2d 96 0c be 40 41 d5 3c 40 f7 58 bc
       -0.10921581 -0.13729163 0.02603209 -0.013242543
000270 9a 1c 8e bd 22 14 d9 3d 73 d1 60 3d 44 8e 32 bd
       -0.06939049 0.10599543 0.054887246 -0.043592706
000280 04 6b c3 3d c0 ff f3 bd 2e d9 16 be cc a1 d8 bd
       0.09541896 -0.11914015 -0.14731285 -0.10577735
000290 96 90 b9 bd 0e ef 88 3d 10 55 03 3c 60 41 37 3d
       -0.09060781 0.06686221 0.008015886 0.04474008
0002a0 df 2a b6 bd f1 2c 12 be 98 1e 50 bd e4 d6 d7 bd
       -0.08894896 -0.14274956 -0.050810426 -0.10539034
0002b0 12 5d ff 3c 19 44 0c bd 5d a8 87 3d aa f9 7c bd
       0.03117231 -0.03424463 0.066239096 -0.061761536
0002c0 0e 85 d7 3d 1b 18 c7 bd e5 06 07 be f6 93 5d 3b
       0.10523425 -0.09721395 -0.13186224 0.0033810115
0002d0 3e f8 ab 3d 37 25 a2 3d a0 07 21 3c e6 9e d1 bc
       0.08396958 0.079172544 0.009828478 -0.025588464
0002e0 2e e2 ab 3d 96 d0 93 3d 1b ac 0b bc ac e8 24 3d
       0.0839275 0.07217519 -0.00852492 0.040260956
0002f0 5f 8a 8c 3d 20 de eb bb 8c 55 a0 3d 88 2b 43 bc
       0.0686233 -0.00719811 0.07828817 -0.011912234
000300 cb 8a 49 bc ac aa a3 3e 78 73 97 bc 7c 65 4a 3e
       -0.012301157 0.3196615 -0.018487677 0.19765276
000310 1e 5b b0 3d cb f0 3d 3e 84 44 c8 3d d0 ba ae bd
       0.08611129 0.18548886 0.09778693 -0.085317254
000320 b7 d7 e2 3d 76 a2 dd bd 04 20 78 be 48 04 89 3e
       0.110763006 -0.108220026 -0.24230963 0.2676108
000330 a2 96 b4 3d a7 d7 ab 3e bf 5f 67 3e e4 47 17 3e
       0.088177934 0.33562967 0.22595118 0.14773518
000340 2e 96 06 bf a0 b6 81 3e 88 07 e5 3d b5 fe f6 bd
       -0.52572906 0.25334644 0.11183077 -0.120603
000350 22 91 8c be e8 09 ec 3f 67 04 85 be 84 db c8 bd
       -0.27454478 1.8440523 -0.2597992 -0.09807494
000360 ca bc e7 bd 4d f7 ee be 13 cc 8a 3e d2 6b af 3d
       -0.113153055 -0.4667305 0.2710882 0.08565487
000370 88 3a 99 bd 10 81 e5 bd f7 3b 9b bc 8b 95 53 3e
       -0.07481867 -0.11206257 -0.018949492 0.20662515
000380 d0 af 06 be 98 37 6f 3e 12 f6 e3 3e ce 50 d0 3d
       -0.13153005 0.23361051 0.44523674 0.10171662
000390 e8 14 a9 3d 75 ba 9b 3c 80 3a f5 3d b7 1b 8b bd
       0.08255941 0.019009808 0.119740486 -0.067923956
0003a0 2b 7b 60 bd b5 78 dc 3d 8a 58 a3 bd f8 33 9a bd
       -0.054804962 0.107652105 -0.07975872 -0.075294435
0003b0 0f c9 00 40 94 7a 0d 3e d8 11 95 be 51 19 dc 3a
       2.0122716 0.13816291 -0.29115176 0.0016792213
0003c0 01 d7 06 3d 8e 15 88 be 81 d7 97 bd 12 b3 48 be
       0.032919887 -0.26578945 -0.07414151 -0.1959956
0003d0 22 bc b3 be 70 43 97 3e e8 d9 e8 3d 4d a9 8b be
       -0.3510447 0.29543638 0.11369687 -0.27277604
0003e0 d2 20 1a 3d f3 75 f1 bb 73 49 0e be e6 5b ec bd
       0.037628956 -0.007368797 -0.13895206 -0.11540966
0003f0 37 18 00 be 89 e3 cb 3d 52 e8 a2 bd 5c d9 fb bd
       -0.12509237 0.09955508 -0.07954468 -0.122973174

fc2.bias f4 [64]
000000 14 a6 5d 3f ab 42 80 bc 4a 8f 92 bd 13 bc f4 3e
       0.8658154 -0.01565679 -0.071562365 0.4779974
000010 e9 8a 37 3f 3b 46 13 40 4f d1 6a bd 89 eb b7 3d
       0.71696335 2.3011615 -0.05732852 0.08980472
000020 18 69 0b 40 68 02 d7 bc 6b c8 14 40 61 96 1b 40
       2.1782894 -0.026246265 2.3247325 2.4310534
000030 a4 e3 aa 3f 4e a9 dd bd 7b df ba bd 98 32 4f 3a
       1.335072 -0.10823308 -0.09124657 0.00079039624
000040 e1 8e 03 40 f8 6d 3a be 90 41 b5 bd 4c 0c 19 40
       2.0555956 -0.18206012 -0.08850396 2.3913755
000050 98 45 a6 3d 78 ea 9b bd d4 ab 13 40 29 ba c6 3e
       0.08118743 -0.07613081 2.3073626 0.38813904
000060 50 aa 8f bd 55 40 38 bd bf 65 e1 3e 27 53 b1 3f
       -0.070149064 -0.044983227 0.4402294 1.3853501
000070 de 3e 24 bd 45 23 78 3f 44 be 17 40 a5 f4 5b 3d
       -0.040099017 0.9692882 2.370988 0.053700108
000080 3a 3d 09 40 b6 a6 b2 3f 3d 4d f5 3c ef ac 13 c0
       2.144362 1.3957126 0.029944057 -2.30743
000090 5b 51 03 be 68 9a a0 bd b8 42 be 3f 3c 7d 2e 3f
       -0.12824003 -0.07841951 1.4864111 0.6815984
0000a0 2a 62 c1 3f 07 56 db bc 9b 21 18 40 81 59 0c 40
       1.5108082 -0.02677442 2.377051 2.192963
0000b0 d2 91 7a 3f 83 05 4c 3d 88 28 ff 3f c8 df 6f 3f
       0.97878754 0.049809944 1.9934244 0.9370084
0000c0 b0 a2 8d 3d 37 75 dc bd f0 e4 d4 3f 3a 3c bc bf
       0.06915796 -0.107645445 1.6632366 -1.470588
0000d0 f0 cb 00 40 80 80 e1 bb f9 61 12 40 58 35 3d 3f
       2.0124474 -0.0068817735 2.2872298 0.7390952
0000e0 eb f6 c9 3f cd 2a f9 be df cc ca 3f b7 6e bb 3f
       1.5778478 -0.48665467 1.5843772 1.4643162
0000f0 8a 0c 2d 3f 3a c7 91 3d 27 a5 3e 3d f5 1f 79 3f
       0.6759726 0.071180776 0.04654422 0.9731439

fc3.weight f4 [20, 64]
000000 07 fb a5 be c2 7a db bd 11 9c 59 3b 51 df 03 be
       -0.3241808 -0.107167736 0.0033204595 -0.12878157
000010 09 7d 04 bf e0 bb 16 3f a0 80 fc bd 73 e4 b1 bd
       -0.5175329 0.58880424 -0.12329221 -0.08686151
000020 25 cf c8 3e f8 b5 6f bd 2d 69 e8 3e e6 b3 34 3f
       0.3922054 -0.05852315 0.45392743 0.70587003
000030 57 7d 05 3d 48 02 8e bc d0 76 87 3c 21 bc 84 bd
       0.032590237 -0.017335072 0.016536146 -0.06481195
000040 d1 9b 9f 3e 6c 8e 74 3b 73 70 f5 3b cd c5 0c 3f
       0.31173566 0.0037316335 0.0074902116 0.5498932
000050 f1 4c 09 bd 05 1e d2 3d e8 4c e6 3e ee 31 b1 3c
       -0.033520643 0.10259632 0.4498055 0.021630254
000060 5c 9f 8c 3d 98 05 a7 bd 40 2a fb bd bd 58 93 3d
       0.06866333 -0.08155364 -0.12263918 0.0719466
000070 0b f6 c1 3d 4d 2f 0e bf ec 9c 18 3f 1e d7 ca 3d
       0.09470757 -0.55540925 0.59614444 0.099043116
000080 03 46 d7 3e 3d 93 47 3e 30 66 16 3d 74 5f d8 be
       0.42045602 0.1948976 0.036718547 -0.42260325
000090 16 a0 be bd 40 7a 17 3b 4b 4f 05 3e 11 6e 18 3f
       -0.09307878 0.0023113638 0.13018529 0.5954295
0000a0 9a 18 9b be 98 b6 79 3d 13 68 36 bf 89 7a 16 3f
       -0.30292207 0.06096515 -0.71252555 0.58780724
0000b0 29 46 ea 3d 9c 57 ef bd 52 52 97 bf 75 21 a9 bb
       0.11439163 -0.11686632 -1.1821997 -0.005161459
0000c0 72 cb 85 bd 50 8f ed 3d 41 86 5f 3e 8a bf 74 be
       -0.06532945 0.115996 0.21828558 -0.23901191
0000d0 3d bb da 3e 14 68 79 bc 95 99 b0 bf 8e 44 e7 be
       0.42720976 -0.015222568 -1.379687 -0.4516949
0000e0 4f 94 90 3e 41 01 33 bc 8d f7 12 3e 93 17 b1 3d
       0.2823815 -0.010925592 0.14352246 0.086470746
0000f0 04 0e dd 3e c4 56 0b bd 84 4b 18 be c3 ac 49 3d
       0.43174756 -0.034018293 -0.14872557 0.049237024
000100 7a 9d 9e be d0 70 fd bd a6 d8 fe 3d 1e 89 11 be
       -0.3097952 -0.12375033 0.12443666 -0.14212462
000110 a1 67 b8 3d e6 37 cc 3e da 4d d4 3d 26 d3 e0 3d
       0.09004141 0.39886397 0.103664115 0.10977773
000120 b2 19 a9 3e 52 83 bd bd 83 1b db 3e 1a c0 25 3f
       0.33027416 -0.09253563 0.42794427 0.6474625
000130 4d 62 36 be b4 02 3c 3d 60 71 1f 3d fe 45 f1 3d
       -0.17810936 0.045901015 0.038926482 0.11780928
000140 fe 97 a7 3e 37 24 c1 bd 7e 2f 23 bd 19 02 f2 3e
       0.32733148 -0.094307356 -0.039840214 0.47267225
000150 10 25 54 3d 9e 91 ab 3d 58 30 02 3f 2b 66 aa 3e
       0.051793158 0.08377384 0.50855017 0.33281073
000160 86 58 d8 bd f6 90 ef bc ad c6 34 bd e6 ac 3c 3e
       -0.105637595 -0.029243927 -0.044134784 0.1842533
000170 5d 7b 28 bd d3 59 6a be 8b 7f dc 3e f0 dd 3b bc
       -0.041133273 -0.22885828 0.43066058 -0.011466488
000180 7f 42 95 3e 00 db ae 3e 98 b6 5c bd 2e b1 39 bb
       0.29152295 0.3415146 -0.053885072 -0.0028334367
000190 c8 34 72 3d 48 9b b9 3d 83 65 80 3e 68 90 b6 be
       0.059132367 0.09062821 0.25077447 -0.35657048
0001a0 8a dc 70 be e9 8f c3 bc d5 a9 8f bf 16 af fe 3e
       -0.23521629 -0.023872333 -1.1223704 0.49742955
0001b0 20 09 c4 3d f4 41 92 bd 0d eb 16 bf 80 33 98 be
       0.09572053 -0.07141486 -0.5895241 -0.2972679
0001c0 3a 36 df 3d c4 66 4a bd 12 61 50 3e 35 3c 8c 3d
       0.10899015 -0.04941441 0.2034953 0.06847421
0001d0 27 58 6c 3e 69 bf 8c 3c ed 58 60 bf b7 62 20 be
       0.23080502 0.017181115 -0.8763569 -0.15662657
0001e0 6c 75 63 3e 0f 99 2b 3d df 3e 8b 3e 0a 20 52 3e
       0.22212762 0.041894015 0.27196404 0.20520034
0001f0 55 4f a4 be 29 fc 0c be e8 c0 c9 3d 5f 81 93 3e
       -0.32091776 -0.13768066 0.09851247 0.2880964
000200 14 85 05 bf 1e 2c fd 3d 75 9a d6 bd 68 62 2d bb
       -0.52156186 0.1236193 -0.10478679 -0.002645636
000210 0e 7b c0 bd 4b d3 df 3e f8 34 f7 3c 08 a6 27 bd
       -0.09398471 0.4371589 0.030176625 -0.040929824
000220 b0 fa 64 3e f8 47 bc 3c c6 ff fc 3e 93 4a fb 3e
       0.22361255 0.022983536 0.4941389 0.49080333
000230 e2 e5 84 3e 46 45 81 3d ec c7 16 bd fe 9b b3 bc
       0.25956637 0.06312041 -0.036811754 -0.021924969
000240 4c 18 7a 3e 8e 3d 51 3e 01 b4 b8 bd a4 da d5 3e
       0.24423331 0.20433637 -0.09018708 0.41768372
000250 e2 99 b5 bd a8 ba b5 3d ac 30 0b 3f 7c 96 a2 3e
       -0.088672414 0.088734925 0.5437114 0.31755435
000260 22 cb f2 3d 96 c4 c2 3c 88 b3 57 3e a7 7c 0a 3d
       0.11855151 0.02377538 0.2106458 0.033810284
000270 03 c1 c9 bd 17 42 49 bd fa ad dc 3e a8 cf 78 bd
       -0.09851267 -0.049135294 0.43101484 -0.06074491
000280 32 71 b2 3e c9 fc 43 3e e4 50 aa bd e9 d6 05 be
       0.34851986 0.19139399 -0.0831621 -0.13070263
000290 2a 86 21 3d 08 dc c4 3c df 42 66 3e ef f8 1b be
       0.03943459 0.0240307 0.22486447 -0.1523168
0002a0 84 ef d9 be 8a a1 c5 bd ac f3 7f bf 83 a0 1a 3f
       -0.42565548 -0.09649952 -0.9998119 0.6040117
0002b0 67 a5 25 3e 4c 9b 0a bd 34 1d 0e bf ac d2 c3 3d
       0.16176377 -0.03383951 -0.5551331 0.09561667
0002c0 94 05 f4 bd 20 0d df bb e8 b9 88 3e 63 1e 04 bc
       -0.119151264 -0.0068069845 0.26704335 -0.008063885
0002d0 db 83 34 3e 68 fa 19 3d 5b 30 75 bf 28 97 2b 3e
       0.17628424 0.03759232 -0.9577691 0.1675688
0002e0 af e0 f7 3e b2 65 02 3e 32 fd 9c 3d e2 cc 93 3e
       0.48413607 0.12734106 0.07665481 0.2886725
0002f0 32 b1 f8 be 3e 16 91 bc a4 16 aa 3e c3 6b 91 3e
       -0.4857269 -0.017710801 0.33220398 0.28402528
000300 16 b9 34 be b0 cd 9e bc 95 f9 8f bd 2a e9 f1 be
       -0.1764873 -0.019385189 -0.07030026 -0.47248203
000310 33 24 c8 be 7f ee cf 3e 00 02 0c bb f1 f7 f7 3c
       -0.39090118 0.40611646 -0.0021363497 0.030269595
000320 49 23 ac 3e a2 96 a6 bd c8 cf 0b 3f bc a1 e2 3e
       0.3362067 -0.081342 0.54613924 0.4426402
000330 61 88 c8 3e 32 ec dd bd 40 c3 04 3c 79 56 ec bd
       0.3916655 -0.10836066 0.008103192 -0.11539931
000340 fd ea 9e 3e 11 d8 fb 3e ba 11 75 3d 46 dc f5 3e
       0.31038657 0.49188283 0.05983136 0.48019618
000350 85 de d6 bc 9a 8f d3 bc 1a e1 f1 3e 00 62 b0 3e
       -0.026229152 -0.02582531 0.4724205 0.34449768
000360 a8 4b 4a 3d ce 35 de bd 8d 11 d9 3d 90 0c f4 3d
       0.049388558 -0.10850106 0.10599051 0.119164586
000370 b9 7d 99 bc 25 57 3b be 82 95 ff 3e b8 7b 9a 3d
       -0.018736707 -0.18294962 0.49918753 0.07543129
000380 5f 36 dc 3e 98 64 f0 3d 38 8a de 3c 1c 67 d4 be
       0.43010232 0.11737937 0.027165517 -0.41484916
000390 e9 f4 22 be 78 63 d3 bc ff 82 ff 3c 61 db 5a 3c
       -0.15913738 -0.025804266 0.031190393 0.013357968
0003a0 c5 e5 0e bd 8e 8f fb bd 6c 2c 76 bf 9b d7 fc 3e
       -0.034887094 -0.1228324 -0.9616153 0.49383244
0003b0 69 20 12 3d 8a d2 e8 bd 03 81 24 bf 85 9d 50 be
       0.03567544 -0.11368282 -0.64259356 -0.20372589
0003c0 78 41 29 bd 60 9d 17 3c 37 54 33 3e 12 07 b7 be
       -0.0413222 0.00925383 0.17512594 -0.35747582
0003d0 ff 91 6a 3e b5 5d ad bd a5 07 6e bf 49 5d 19 be
       0.22907256 -0.08465139 -0.92980415 -0.14976992
0003e0 60 72 0e 3e 99 46 dc be 6c b3 91 3e bd 01 51 3d
       0.13910818 -0.43022612 0.284572 0.05102705
0003f0 66 7b 1c be 46 0f e9 bd 15 dc e0 bd 9d e4 a9 3e
       -0.15281448 -0.11379866 -0.10979477 0.3318223

fc3.bias f4 [20]
000000 5d 96 f7 3f 1f f4 21 3f 81 d0 15 3f 1c 17 10 3f
       1.9342762 0.63263124 0.58521277 0.5628526
000010 7e 86 e2 3e c0 2a fc 3e 74 68 fb 3e d5 38 1a 3f
       0.44243234 0.49251366 0.4910313 0.6024297
000020 30 c9 bf 3e ae 43 9a 3e a9 51 63 3e 09 44 9d 3d
       0.3745818 0.3012976 0.2219912 0.07678992
000030 67 f9 0f 3e 23 a1 4b bd 3f af 33 bd 9a ee f9 bd
       0.14059983 -0.04971422 -0.0438683 -0.12203713
000040 6f 23 2a be 1c 5b 51 be 90 d3 4f be 9a 85 26 be
       -0.1661508 -0.20444912 -0.20295548 -0.16261902

fc1.weight f4 [64, 3]
000000 2d 1d b3 be 8d 48 b8 3d b6 2d 02 3e d7 ba ef be
       -0.34983197 0.08998213 0.1271275 -0.46822235
000010 15 0f e8 be 0b 5a 00 3e eb 39 83 bd d0 21 e3 bd
       -0.45324007 0.12534349 -0.06407531 -0.110904336
000020 e3 1e d8 be cb f7 0d bf d2 d6 a6 be ff 33 be 3e
       -0.42211065 -0.5545623 -0.3258577 0.37149045
000030 1a bb 06 3f b6 81 ed be b5 5f 0f bf 32 df 1b bf
       0.52629244 -0.46388024 -0.5600541 -0.60887444
000040 6d 7b 82 3e d0 6a 00 bd fc 02 b6 3d ed 8a 1b bf
       0.2548479 -0.031351864 0.08887288 -0.6075886
000050 8c e6 4a bd 51 a4 88 be 59 af 71 3e 58 32 26 3e
       -0.049536273 -0.26687863 0.23602046 0.16230142
000060 6e c2 79 be 0a f4 31 bf ec 8c 9d 3e 79 0d c5 bd
       -0.24390575 -0.69513 0.30771577 -0.0962171
000070 c4 c8 03 bf 46 b5 04 be bd 5b 57 3e f5 52 19 3e
       -0.5147822 -0.12959775 0.21031089 0.14973052
000080 30 fd 76 3c 47 4e e2 3e 00 41 08 bf 81 ce b9 be
       0.015075013 0.44200346 -0.5322418 -0.36290362
000090 6d 9a f3 be df 68 26 3d 1a e9 9d be 6b ee 8e be
       -0.47578755 0.040627357 -0.30841905 -0.27916273
0000a0 08 3b 87 be 88 c1 08 3e 6e 3a 91 3d ab 6c de be
       -0.26412225 0.13355076 0.07091223 -0.43442282
0000b0 21 82 21 bd b9 b5 ca be 2c 53 b0 be 73 61 20 3e
       -0.03943074 -0.39591768 -0.34438455 0.15662174
0000c0 36 db 0c 3e d7 c4 57 3f 25 2b 17 3e 51 4e b9 be
       0.13755497 0.8428473 0.14762552 -0.36192563
0000d0 18 55 14 bd ac 22 b0 3d 5d 43 d1 be 6e ba 00 bc
       -0.036213964 0.08600363 -0.40871707 -0.007856948
0000e0 43 75 aa 3d 8e 4e b8 3e 9d ff 30 3e 20 60 a6 3e
       0.08323147 0.35997432 0.17285009 0.32495213
0000f0 ea fc 94 be 8c c0 74 3e 9d b0 6a 3e f0 30 1c bd
       -0.29099208 0.23901576 0.22918935 -0.038132608
000100 b8 8c c7 3e 50 3e 4b be 36 72 26 3f fd 01 df be
       0.38974547 -0.19847989 0.6501802 -0.43556204
000110 e5 23 aa be fe 40 00 bf f7 cf b8 3e 8a 6d 74 3d
       -0.3323051 -0.5009917 0.36096165 0.059674777
000120 9e 0f 3e 3c aa 58 a0 be 82 f4 cb be 26 9f 16 3f
       0.011600403 -0.31317645 -0.39834982 0.5883659
000130 05 bc e3 3e 4c 80 6b 3c bb fd f1 bd 38 23 49 bf
       0.44479385 0.01437385 -0.11815973 -0.78569365
000140 0a 2e 3a 3e 10 16 d4 be e6 24 0a bf ee bf ee be
       0.18181625 -0.41423082 -0.5396255 -0.46630806
000150 37 9b 24 bc 1a 3b 27 bd d9 cc 9e be 9d 29 a5 3e
       -0.010046772 -0.040827848 -0.3101566 0.3225831
000160 4f da af bb ac 98 ce be 8d 3d 49 3e c6 db 6d be
       -0.0053666006 -0.40350854 0.19652386 -0.23228368
000170 de 57 2c 3e 73 85 74 be 36 9c 45 be 1e cc e3 3d
       0.16830394 -0.23879032 -0.19297871 0.11122917
000180 2c 8b 18 3e 29 b7 4b bd f5 41 2d 3e 39 03 10 be
       0.1489684 -0.049735222 0.16919692 -0.1406373
000190 61 3b 87 be ab 6f b1 3d ea 0a a9 be 96 44 5c be
       -0.2641249 0.08663877 -0.3301614 -0.21510538
0001a0 74 ea aa 3c 5d db 98 bd 69 22 69 be 76 bc 02 bf
       0.02086375 -0.07463715 -0.22767033 -0.5106882
0001b0 b8 ad 12 bf b1 70 2f bd ee 08 bf be 0c 4e c0 be
       -0.57296324 -0.04283208 -0.373115 -0.37559545
0001c0 c1 1b b7 3e 78 6b 85 3d df 7e 3a be 26 1d 60 be
       0.35763362 0.06514639 -0.1821246 -0.21886119
0001d0 55 cb 8d 3d 1e dc 07 bf ab 26 88 bd db a1 7d 3e
       0.06923548 -0.5307025 -0.06648 0.24768774
0001e0 c8 de 87 bc 59 5f de 3d 9b d2 60 3c 2d 23 1e 3d
       -0.016585723 0.1085803 0.013722087 0.038607765
0001f0 80 36 ce 3b 84 bb ca bd 55 fe 8e 3e 70 0b 46 3c
       0.006293118 -0.09899047 0.27928415 0.012087688
000200 5f d2 f0 be 82 f2 45 be f4 89 bc 3e 6d fa 0d 3e
       -0.470355 -0.1933079 0.36824 0.13865061
000210 3d 62 df 3e 17 6a 4b 3e db 3f b4 be 43 90 0a bf
       0.43629637 0.19864689 -0.35204968 -0.54126376
000220 80 ab a7 be 74 07 be 3e 69 ce 33 3e 93 a9 f2 3e
       -0.32748032 0.3711506 0.17559208 0.47395
000230 b0 98 96 3e 70 5d 11 3f 4e 41 45 be e1 55 f7 3c
       0.29413366 0.567832 -0.19263193 0.030192317
000240 d4 50 17 bf df be cb 3c f5 17 6e bd ba a2 46 3f
       -0.5910771 0.024871288 -0.058128316 0.7759205
000250 00 bf e2 3d 11 4d b6 3e 6f d5 8c 3e d9 6f 16 be
       0.110715866 0.35605672 0.27506587 -0.14691104
000260 94 fa 56 3e 9e cc 99 bb ca 62 66 3e 04 08 d5 3e
       0.20994025 -0.0046935817 0.22498623 0.41607678
000270 16 41 6f 3e 13 48 76 3b 64 5a 07 3c 8f b2 82 3e
       0.23364672 0.003757958 0.008261297 0.25526854
000280 ef 69 a2 bf bb 03 45 3d 36 53 17 be f4 0d 6c bd
       -1.2688578 0.04809926 -0.14777836 -0.057630494
000290 e8 3f ef be b3 b9 b4 3e f8 07 72 3e 8b a8 92 bd
       -0.46728444 0.35297927 0.23635852 -0.07161053
0002a0 cf 93 17 be bb 0d 5f be 6a d9 03 3e 7d 2d ae bd
       -0.14802478 -0.21782582 0.12875906 -0.0850477
0002b0 8f 1f e5 bd 4c 8a 2d 3d d0 11 99 3d a4 e2 db 3a
       -0.1118766 0.04236822 0.074741006 0.0016775918
0002c0 3b ee 59 bd da 9a 8f 3d 10 16 ac bd 76 5b b8 bd
       -0.05320571 0.070119575 -0.084026456 -0.0900182
0002d0 83 9e 5a 3d 07 61 71 bd 2b b2 89 bc 2a 7b 49 be
       0.053373825 -0.058930423 -0.01680859 -0.1967589
0002e0 8c b3 8b 3e 4b 75 07 bd 83 47 8e bd 66 95 a6 be
       0.2728542 -0.033070844 -0.069472335 -0.32535857
0002f0 91 0d 15 be 6b ca 07 be dc 48 1d 3e e5 62 eb 3c
       -0.14555956 -0.1326081 0.15359825 0.02873368

fc1.bias f4 [64]
000000 63 20 03 40 1e 7e 26 c0 08 67 41 3e a5 2f 20 c0
       2.0488517 -2.6014476 0.1888696 -2.502908
000010 d2 96 c4 3d 91 cc fa 3f 3f af 3c bf 7b 7a a7 be
       0.09599079 1.9593679 -0.73704904 -0.32710633
000020 1c 13 2a 40 86 ca f1 3e 18 5d 4e 40 c2 b8 02 40
       2.6574163 0.47224826 3.224432 2.0425267
000030 c3 7c 10 bf 33 4d 68 c0 e2 a9 a4 be ec d6 53 c0
       -0.5644037 -3.6297119 -0.3216086 -3.3099928
000040 03 39 4e c0 63 b0 77 40 6e e7 6e 40 36 c2 16 40
       -3.2222297 3.8701408 3.7328753 2.3556037
000050 0f 8f 14 3f 9e 6b 62 40 32 ef 25 3f ff 35 eb bf
       0.5803079 3.5378184 0.6481811 -1.8375853
000060 f3 21 03 3f 1e 49 66 40 ad 51 b2 bd 4d f9 ea be
       0.5122368 3.5982127 -0.08706985 -0.45893326
000070 3f 9a cf 3c 8e e3 a2 3c 0f 4f 54 40 80 27 5f c0
       0.025342105 0.019883897 3.3173254 -3.486786
000080 41 9b e0 3e 43 b4 89 40 16 70 75 40 32 2d 4a 3e
       0.4386845 4.3032546 3.8349662 0.19743803
000090 84 60 05 3f 2e b0 6a 40 db 7f 74 c0 9f 83 1d 40
       0.52100396 3.6670032 -3.8203037 2.4611585
0000a0 02 35 79 40 cc e2 a2 bd 2f 42 12 bf 15 df ce bf
       3.8938603 -0.07953414 -0.5713224 -1.6161829
0000b0 c2 ce 77 40 75 b7 4c c0 48 45 e7 bf b4 26 6c 40
       3.8719945 -3.1986973 -1.8068018 3.6898623
0000c0 ea db 94 bd 8d 8b fa bf 4e 99 f7 3f 71 7d a1 bf
       -0.07268508 -1.9573838 1.934366 -1.2616407
0000d0 76 e0 7c bf a2 32 79 bf 9f 87 14 3e a0 a4 ad bf
       -0.9878 -0.97342885 0.1450486 -1.3565865
0000e0 0a 1b 55 40 9a 5b 76 40 ba 77 e7 be 9e 25 4c be
       3.3297753 3.849341 -0.45208532 -0.19936225
0000f0 04 ab f7 3f 21 93 74 40 51 47 9c 3e 18 b9 79 40
       1.9349065 3.82148 0.3052316 3.9019222

fc2.weight f4 [64, 64]
000000 34 f6 88 be 1a 5c 0c 3e bf cc 66 bd 2c a4 ce be
       -0.26750338 0.13707009 -0.056347605 -0.40359628
000010 5a 09 86 bd a3 e3 f9 3d ac f4 98 3d 95 d9 cb be
       -0.065447524 0.122016214 0.074685425 -0.3981444
000020 45 08 b8 3d 04 5f d5 bd e6 38 5b 3d 21 56 f9 3e
       0.08985952 -0.104185134 0.05352106 0.48698524
000030 82 b6 9a 3d 5e 70 dc 3d 5d 99 28 3e 84 0c 6c 3d
       0.07554342 0.1076362 0.16464753 0.057629123
000040 54 12 05 bf 73 b2 f9 3e 08 47 af 3d 9c ab 3f be
       -0.5198109 0.48768958 0.0855847 -0.18717808
000050 d6 10 07 bf 63 47 c9 3f 70 8c da bd d8 a0 c4 be
       -0.52760065 1.572491 -0.106713176 -0.38403964
000060 80 ff c7 3b 3e 14 b7 bd 8a 31 e0 bd 0a 56 ac bd
       0.006103456 -0.08939408 -0.10946949 -0.08414848
000070 68 f4 f9 bd 54 f0 df bd 10 ff 11 be 24 f3 25 bd
       -0.1220482 -0.10934511 -0.14257455 -0.04051508
000080 f3 1f 78 be 98 6d a5 3e cd 84 4a 3f 98 3b f0 3c
       -0.24230938 0.32310176 0.7910889 0.029325292
000090 fd fd e3 bd 7d cc 29 3e 9e 23 25 3e be be 35 bf
       -0.11132429 0.16581912 0.16126868 -0.70994174
0000a0 d2 3a 44 3e 2b ce 16 bd 2a 11 ec 3d 8d 25 b2 be
       0.19163063 -0.03681771 0.11526711 -0.34794274
0000b0 eb 94 e5 3f 18 7b 8d be c5 cc cd be 96 b3 4c bc
       1.7936071 -0.27632976 -0.4019529 -0.0124939885
0000c0 6c 5e 34 bd 03 a9 89 be 47 5a 04 be 0e 35 03 bf
       -0.04403536 -0.26886758 -0.12925063 -0.5125283
0000d0 e4 07 a0 be d0 b5 88 be 9c 11 8e 3d eb 7c 86 be
       -0.3125602 -0.26701212 0.069369525 -0.2626718
0000e0 70 92 b5 3d b3 76 b2 3e c7 83 96 be ec 18 d4 bd
       0.08865821 0.34856185 -0.29397413 -0.10356316
0000f0 ac 50 58 bd 6b a0 be 3e 8e 5e b1 3d 62 e4 ab 3e
       -0.05281131 0.37231764 0.08660613 0.3357268
000100 dc 30 0e be a6 44 dd 3d 80 68 2a 3d 80 9a 41 bd
       -0.13885826 0.10804109 0.041603565 -0.047266483
000110 e8 76 90 3d 3a 13 f4 bd b4 a2 0c bd ee b2 a2 bd
       0.070539296 -0.1191773 -0.034334853 -0.079442844
000120 60 cb f0 bd 1c 88 25 3d 48 e3 89 3d 4e 15 ac bc
       -0.11757541 0.040413007 0.067328036 -0.021006253
000130 40 37 2a bc 80 b7 ce bd 0a 8d fd bd c4 29 97 3d
       -0.010389149 -0.100935936 -0.12380417 0.07381013
000140 4f 8c 2d 3d c6 95 86 3d e2 17 8b bc d6 67 53 3d
       0.042370137 0.06571536 -0.016979162 0.051612698
000150 f6 76 2c bd 08 0f 2f bd 1d 07 3e bd 30 94 a1 3c
       -0.042105637 -0.042738944 -0.046393503 0.019723982
000160 58 3b d6 3d 24 81 a9 bd b2 ad 01 be f0 e6 7e bc
       0.10460538 -0.08276585 -0.12663916 -0.0155579895
000170 c0 9f 42 bb 68 26 a6 bd f2 b7 61 3c 61 51 13 bd
       -0.002969727 -0.08112794 0.013776766 -0.03596628
000180 42 2b c5 3d b2 91 14 bc a1 cd fc 3c 48 db a6 bc
       0.096273914 -0.00906794 0.03085977 -0.020368233
000190 38 81 cc 3c 88 e1 a4 bd ec 78 e4 3d 57 73 71 3d
       0.02496396 -0.08050829 0.111558765 0.058947887
0001a0 f8 91 92 bb 25 1f 0f be b8 fd 97 bd 92 da e6 bd
       -0.0044729672 -0.13976724 -0.0742144 -0.11272158
0001b0 48 8f c2 3d 00 4a 4b 3c 65 51 da bd 5f 4e f0 bd
       0.09499985 0.01240778 -0.10660056 -0.11733698
0001c0 d0 9b 23 bc 43 ca 31 bd 39 5c c4 3d b0 9d 92 bd
       -0.009985879 -0.043405782 0.095879026 -0.07158983
0001d0 61 f1 4d 3d 5e c6 78 bd ca 91 b7 bd d2 f0 8a bd
       0.050279025 -0.060736053 -0.08963354 -0.06784214
0001e0 42 5e a7 bd da 98 a7 bc e8 c7 7b 3d 3a d9 c6 3d
       -0.08172275 -0.020458627 0.061469942 0.097094014
0001f0 71 e4 1d 3b 5d 5e 18 be 50 b7 26 3c ed 08 bf 3c
       0.002409246 -0.14879747 0.010175541 0.023319686
000200 75 49 22 bb 82 d3 c3 bd 63 79 c5 3d d8 59 00 3d
       -0.0024763022 -0.09561826 0.09642293 0.03133568
000210 b0 a7 62 bc 76 5f 10 be 3d ee ab 3d f9 8d 68 bd
       -0.013833925 -0.14098915 0.0839505 -0.05677602
000220 ab 49 04 3b 02 7c 84 3d 41 19 81 bd 2d 71 8f 3d
       0.002018551 0.06468965 -0.06303645 0.070040084
000230 28 dd ee bc b4 be be 3d fc 6a 75 bb e6 72 e6 3b
       -0.02915819 0.093137175 -0.00374478 0.00703274
000240 85 e2 ab 3d aa 62 ce 3d 49 d4 68 bd 8d ac 34 bd
       0.083928145 0.100774124 -0.056843076 -0.04410987
000250 17 f7 87 bd f8 a1 87 3d d9 dd cd 3d b9 12 4d 3c
       -0.066389255 0.0662269 0.1005208 0.012516671
000260 8a ac df bd cb 92 0c be 67 44 d5 3c 40 f7 58 bc
       -0.10921581 -0.13727872 0.026033593 -0.013242543
000270 9a 1c 8e bd 22 14 d9 3d 61 d5 60 3d 93 8d 32 bd
       -0.06939049 0.10599543 0.054890994 -0.043592047
000280 f0 6d c3 3d b2 ff f3 bd bc d7 16 be cc a1 d8 bd
       0.09542453 -0.119140044 -0.14730734 -0.10577735
000290 96 90 b9 bd 17 f1 88 3d 7a 57 03 3c 9e 44 37 3d
       -0.09060781 0.06686609 0.0080164615 0.044743173
0002a0 5e 2b b6 bd 68 2c 12 be 98 1e 50 bd ab d4 d7 bd
       -0.088949904 -0.14274752 -0.050810426 -0.1053861
0002b0 cb 61 ff 3c c3 40 0c bd f6 a8 87 3d 9a f8 7c bd
       0.031174561 -0.03424145 0.066240236 -0.061760522
0002c0 0e 85 d7 3d 74 17 c7 bd e6 04 07 be 56 95 5d 3b
       0.10523425 -0.0972127 -0.13185462 0.0033810935
0002d0 f5 f9 ab 3d 4c 26 a2 3d a0 07 21 3c cd 9e d1 bc
       0.08397285 0.07917461 0.009828478 -0.025588417
0002e0 6d e6 ab 3d 48 d2 93 3d 52 ac 0b bc ac e8 24 3d
       0.083935596 0.07217842 -0.008524971 0.040260956
0002f0 fa 8a 8c 3d 20 de eb bb 8c 55 a0 3d 89 2b 43 bc
       0.06862445 -0.00719811 0.07828817 -0.011912235
000300 31 e3 3b bc 0e ea a5 3e 78 73 97 bc 41 27 50 3e
       -0.011467741 0.32405132 -0.018487677 0.20327474
000310 1e 5b b0 3d d9 88 18 3e 73 1e c8 3d 10 a9 c0 bd
       0.08611129 0.14895953 0.09771433 -0.09407246
000320 ed 63 f7 3d 76 a2 dd bd 9e 3d 89 be f5 63 a3 3e
       0.12079606 -0.108220026 -0.26804823 0.319122
000330 a2 96 b4 3d 5e ee ad 3e 64 3f 67 3e 17 ca 1b 3e
       0.088177934 0.33970922 0.22582775 0.1521381
000340 39 41 0d bf 3f 80 85 3e 9d f8 ec 3d 97 a9 02 be
       -0.55177647 0.26074407 0.11570857 -0.12760006
000350 b7 cf 8f be b8 4c e6 3f 47 2f 53 be b8 d5 f7 bd
       -0.2808816 1.7992163 -0.20623504 -0.121013105
000360 ca bc e7 bd e6 08 fd be 0b ad 8d 3e d2 6b af 3d
       -0.113153055 -0.4942085 0.27671084 0.08565487
000370 88 3a 99 bd 10 81 e5 bd 89 5c 00 bc 0a f9 57 3e
       -0.07481867 -0.11206257 -0.007834562 0.21091095
000380 16 43 f3 bd be 8a 87 3e 35 97 fa 3e ce 50 d0 3d
       -0.1187803 0.2647304 0.48943487 0.10171662
000390 e8 14 a9 3d 5c 3c de bb 40 25 fd 3d 2d f8 37 3c
       0.08255941 -0.0067820977 0.123606205 0.011228603
0003a0 60 1b a5 bd 08 39 dc 3d 8a 58 a3 bd 55 94 bf bd
       -0.08061862 0.10753065 -0.07975872 -0.09354464
0003b0 f1 9a fa 3f 81 24 13 3e b7 76 9b be 51 76 d8 bb
       1.9578534 0.14369394 -0.3036401 -0.0066059013
0003c0 06 d6 06 3d 36 3f 87 be 20 8a 81 bd 40 ce 42 be
       0.032918952 -0.26415414 -0.063251734 -0.1902399
0003d0 8f 48 b8 be 29 c9 98 3e e8 d9 e8 3d 13 6c a4 be
       -0.35992858 0.29840973 0.11369687 -0.32113704
0003e0 6c 1b cc 3d 97 fa 5e bc a0 38 0e be e6 5b ec bd
       0.09966168 -0.01360955 -0.13888788 -0.11540966
0003f0 82 f3 f1 bd 97 1a 8d 3d 52 e8 a2 bd 78 c2 17 be
       -0.118140236 0.06889837 -0.07954468 -0.14820278

fc2.bias f4 [64]
000000 23 bb 58 3f 69 42 80 bc 10 8e 92 bd 59 34 e9 3e
       0.8466055 -0.015656667 -0.071560025 0.4554775
000010 a0 14 32 3f 33 c5 12 40 1b d0 6a bd 97 ec b7 3d
       0.6956272 2.293286 -0.05732737 0.08980673
000020 f4 49 0b 40 68 02 d7 bc dc 72 14 40 15 ef 1a 40
       2.1763887 -0.026246265 2.3195105 2.4208424
000030 89 f5 ac 3f 4e a9 dd bd 82 de ba bd 2b 8d 4f 3a
       1.3512431 -0.10823308 -0.09124471 0.0007917459
000040 ef c6 03 40 04 1f 1c be e4 44 b5 bd b9 9c 18 40
       2.059017 -0.15246207 -0.088510305 2.3845656
000050 e8 48 a6 3d 87 ec 9b bd 87 75 13 40 96 36 dd 3e
       0.081193745 -0.076134734 2.3040483 0.43205708
000060 50 aa 8f bd a0 3e 38 bd 6e 45 ef 3e 80 6a b0 3f
       -0.070149064 -0.0449816 0.46732658 1.3782501
000070 77 3d 24 bd b8 ad 7f 3f 48 38 17 40 1c f8 5b 3d
       -0.04009768 0.9987445 2.3628101 0.053703412
000080 db 17 09 40 2c 35 b4 3f a2 4f f5 3c a1 c0 12 c0
       2.142081 1.4078727 0.029945198 -2.2930071
000090 2c 17 03 be dc 97 a0 bd df 20 c1 3f 3e c4 32 3f
       -0.12801808 -0.07841465 1.5088156 0.6983069
0000a0 cf 67 bf 3f 36 53 db bc a3 ef 17 40 04 f1 0b 40
       1.4953555 -0.026773077 2.3740013 2.1865854
0000b0 14 15 80 3f 18 09 4c 3d 87 a0 fe 3f ce f4 6e 3f
       1.0006433 0.04981336 1.9892739 0.9334229
0000c0 b0 a2 8d 3d 47 74 dc bd 4b d5 d5 3f e4 da ba bf
       0.06915796 -0.10764366 1.6705717 -1.459805
0000d0 7c b1 00 40 5b 7d e1 bb cb c9 12 40 2a 6a 38 3f
       2.0108328 -0.0068813986 2.2935665 0.72036994
0000e0 7b e2 cb 3f 80 7d 03 bf 50 5a cc 3f 22 3d bd 3f
       1.5928491 -0.5136337 1.5965061 1.4784281
0000f0 fc ca 32 3f 87 08 92 3d a6 81 45 bc ae 16 7d 3f
       0.6984098 0.07130533 -0.012054836 0.9886273

fc3.weight f4 [20, 64]
000000 31 b8 37 be c2 7a db bd cc 99 59 3b fe 7f 55 bd
       -0.17941357 -0.107167736 0.0033203242 -0.052124016
000010 6f 77 d1 be e7 52 18 3f a0 80 fc bd 9a e5 b1 bd
       -0.40911433 0.595015 -0.12329221 -0.08686371
000020 fb 6d cd 3e 07 b6 6f bd 96 eb ea 3e 50 89 36 3f
       0.4012297 -0.058523204 0.45882863 0.7130327
000030 f3 76 8e 3d 48 02 8e bc d0 76 87 3c dc be 84 bd
       0.069562815 -0.017335072 0.016536146 -0.06481716
000040 28 0d a4 3e ef 30 d0 bc a3 6e f5 3b fa 6f 0e 3f
       0.32041287 -0.025413958 0.0074899956 0.5563961
000050 f0 4a 09 bd ce 1b d2 3d df 97 e8 3e f3 17 4c 3c
       -0.03351873 0.102592096 0.45428368 0.012456882
000060 5c 9f 8c 3d 50 08 a7 bd 37 5c 06 be 29 20 ac 3d
       0.06866333 -0.08155882 -0.13121115 0.084045716
000070 08 f3 c1 3d b9 92 11 bf 0f 5d 1a 3f 67 d8 ca 3d
       0.09470183 -0.56864506 0.60298246 0.09904557
000080 04 34 db 3e 51 16 52 3e 73 66 16 3d f9 e6 e6 be
       0.42813122 0.20516326 0.036718797 -0.45098093
000090 24 b1 be bd 40 7a 17 3b 53 bc 33 3e c8 af 29 3f
       -0.09311131 0.0023113638 0.17552309 0.66283846
0000a0 11 11 b0 be 98 b6 79 3d 22 15 3f bf 6f bf 17 3f
       -0.3438802 0.06096515 -0.7464162 0.5927648
0000b0 68 e6 02 3e 46 58 ef bd a1 a8 95 bf c6 d0 66 bd
       0.12783206 -0.11686759 -1.1692086 -0.056351446
0000c0 72 cb 85 bd 50 8f ed 3d d4 a9 6d 3e 70 8c 8f be
       -0.06532945 0.115996 0.23209316 -0.28036833
0000d0 d2 76 e0 3e 6e 6a 79 bc c5 6a b3 bf ff 32 ba be
       0.43840653 -0.015223129 -1.4016958 -0.36367032
0000e0 e4 59 99 3e 28 a5 2c bd 32 32 22 3e b3 87 fd 3d
       0.29951394 -0.042149693 0.1583946 0.12379398
0000f0 a5 8a cb 3e 0c 4e 0a bd ac 1b 60 be 81 1a 47 3d
       0.39754215 -0.033765838 -0.21885556 0.04860926
000100 cb 27 e1 bd d0 70 fd bd 14 d9 fe 3d ca 27 55 bd
       -0.10993918 -0.12375033 0.12443748 -0.0520399
000110 0a 1f 3d 3e 9c 59 cc 3e 50 4e d4 3d 7a d1 e0 3d
       0.18468872 0.39912117 0.103664994 0.109774545
000120 9e 7d a9 3e 52 83 bd bd b5 b2 da 3e d0 55 26 3f
       0.3310365 -0.09253563 0.42714468 0.6497469
000130 88 ce 5c be b4 02 3c 3d 60 71 1f 3d 78 44 f1 3d
       -0.2156316 0.045901015 0.038926482 0.117806375
000140 51 cd a7 3e fb 6f aa 3b ee 2f 23 bd 3f 5e f2 3e
       0.3277383 0.0052013374 -0.03984063 0.4733753
000150 10 25 54 3d 7d 90 ab 3d cc 11 02 3f d7 bb ac 3e
       0.051793158 0.08377168 0.50808406 0.3373706
000160 86 58 d8 bd de 92 ef bc 51 5c e3 bc 36 a9 6e 3e
       -0.105637595 -0.029244836 -0.02775398 0.23306736
000170 52 7f 28 bd 6a fa 5a be fc ef dc 3e f0 dd 3b bc
       -0.041137047 -0.21384588 0.43151844 -0.011466488
000180 05 6b 95 3e e8 be af 3e af b6 5c bd 10 2c dd bc
       0.29183212 0.34325337 -0.05388516 -0.02699855
000190 ee 48 71 3d 48 9b b9 3d 66 ec 4a 3e 87 98 ae be
       0.05890744 0.09062821 0.19816741 -0.34100744
0001a0 09 fd 44 be 19 91 c3 bc 27 38 93 bf e2 19 ff 3e
       -0.1923715 -0.023872899 -1.1501511 0.49824435
0001b0 5b c4 ca 3d f4 41 92 bd 61 86 15 bf c4 2b a8 be
       0.09900733 -0.07141486 -0.5840817 -0.3284589
0001c0 3a 36 df 3d 1f 67 4a bd db 73 51 3e be 46 32 3d
       0.10899015 -0.04941475 0.20454352 0.043524496
0001d0 a1 6b 6f 3e c3 bd 8c 3c 20 b3 5f bf 44 85 4c 3d
       0.23380901 0.01718033 -0.873827 0.04993178
0001e0 41 73 5d 3e 2b a9 52 3d 72 d7 8a 3e 36 a7 25 3e
       0.21625997 0.051430862 0.27117497 0.16177067
0001f0 06 8b 7e be e4 a3 0c be df 74 c0 3d 48 95 91 3e
       -0.2485772 -0.13734394 0.093972914 0.28434205
000200 4a 6b bb be 1e 2c fd 3d 29 9c d6 bd 0e 55 a5 3d
       -0.36605293 0.1236193 -0.10479004 0.080728635
000210 f1 a5 3d 3d 93 90 e2 3e f8 34 f7 3c 79 a8 27 bd
       0.046300832 0.44250926 0.030176625 -0.040932152
000220 00 3b 68 3e f8 47 bc 3c 9d ec fd 3e 06 dd 00 3f
       0.22678757 0.022983536 0.49594584 0.50337255
000230 12 42 96 3e 46 45 81 3d 1c c8 16 bd 03 9f b3 bc
       0.29347283 0.06312041 -0.036811933 -0.021926409
000240 73 b6 7a 3e ef dd be 3e d0 b3 b8 bd d4 91 d8 3e
       0.24483661 0.37278697 -0.090186715 0.42298758
000250 e2 99 b5 bd 16 ba b5 3d f5 3b 0d 3f 53 82 b3 3e
       -0.088672414 0.08873384 0.5516961 0.35060367
000260 22 cb f2 3d 11 c2 c2 3c 3a b8 62 3e c5 83 e9 3d
       0.11855151 0.023774179 0.2214059 0.11402086
000270 0e c3 c9 bd c0 f8 c4 bc 0e 6d e2 3e a8 cf 78 bd
       -0.09851657 -0.024044394 0.44223827 -0.06074491
000280 7f 96 b5 3e 67 cb 4d 3e e4 50 aa bd 88 47 01 be
       0.35466382 0.20097123 -0.0831621 -0.12624943
000290 ca 9c 20 3d 08 dc c4 3c 79 d7 34 3e 29 2d ee bc
       0.039212026 0.0240307 0.17660321 -0.029074268
0002a0 51 e0 e2 be 73 a0 c5 bd b6 f6 81 bf 0c 6f 1d 3f
       -0.44311765 -0.09649744 -1.0153415 0.6149757
0002b0 80 7a 3d 3e 4c 9b 0a bd 39 85 14 bf 41 e9 8a 3e
       0.18503761 -0.03383951 -0.5801578 0.27131084
0002c0 94 05 f4 bd 20 0d df bb 87 15 8a 3e d2 09 67 bb
       -0.119151264 -0.0068069845 0.2696955 -0.0035253656
0002d0 f7 78 3c 3e 6d fc 19 3d 4a 90 80 bf a0 38 93 3e
       0.1840552 0.037594248 -1.0044034 0.2875414
0002e0 9f df e4 3e bb bf 4a 3e 6b 1e 8b 3d df 8b 47 3e
       0.4470186 0.19799702 0.06792911 0.1948695
0002f0 3a ff d6 be 3a 7e 91 bc e3 81 a7 3e 3e d4 76 3e
       -0.41991597 -0.017760385 0.32716283 0.24104401
000300 7a c5 20 be b0 cd 9e bc e6 f9 8f bd d6 91 e9 be
       -0.15700331 -0.019385189 -0.07030086 -0.45619076
000310 b1 85 d5 be ed 87 d0 3e 43 02 0c bb 3d fb f7 3c
       -0.4170356 0.40728703 -0.0021363653 0.030271167
000320 4d d9 ac 3e 09 97 a6 bd 7b f1 0c 3f f2 2e e2 3e
       0.33759537 -0.081342764 0.5505597 0.4417644
000330 a9 84 b9 3e 32 ec dd bd 40 c3 04 3c a3 5a ec bd
       0.36234024 -0.10836066 0.008103192 -0.11540725
000340 de 9b 9f 3e 5f 95 09 3f 23 11 75 3d e0 78 f6 3e
       0.31173605 0.5374355 0.059830796 0.48139095
000350 92 de d6 bc ce 92 d3 bc d7 8c f3 3e 30 a4 9c 3e
       -0.026229177 -0.025826838 0.4756839 0.30594015
000360 c7 4b 4a 3d 80 35 de bd 11 13 eb 3d d4 70 d9 3d
       0.049388673 -0.10850048 0.11478246 0.106172234
000370 86 7b 99 bc 98 a6 41 be 5f 08 ff 3e 56 7d 9a 3d
       -0.018735658 -0.18911207 0.49811074 0.07543437
000380 1d 2f dd 3e 1f b1 ee 3d 38 8a de 3c a9 f9 d0 be
       0.43200007 0.11654877 0.027165517 -0.40815476
000390 c2 a3 22 be ef 63 d3 bc 44 09 f0 3c 7c 4e 6f bc
       -0.15882781 -0.025804488 0.029301293 -0.0146061145
0003a0 48 e8 de bc 8e 8f fb bd 66 44 78 bf 7d 66 fd 3e
       -0.02721037 -0.1228324 -0.9697937 0.49492255
0003b0 41 9a e1 3c 8a d2 e8 bd a1 49 26 bf fc 09 97 be
       0.027539374 -0.11368282 -0.649561 -0.29499805
0003c0 78 41 29 bd 60 9d 17 3c 92 26 30 3e d4 9f b3 be
       -0.0413222 0.00925383 0.17202213 -0.35082877
0003d0 0c f4 67 3e 56 61 ad bd 0a 19 6f bf da a6 26 be
       0.2265169 -0.08465831 -0.9339758 -0.16274586
0003e0 53 6b 18 3e 2e 88 df be 0f d9 92 3e c1 05 33 3d
       0.14884691 -0.43658584 0.28681228 0.04370666
0003f0 b9 18 45 be 46 0f e9 bd d7 87 51 be 01 f6 b0 3e
       -0.19247712 -0.11379866 -0.20461975 0.34562686

fc3.bias f4 [20]
000000 a9 b2 f4 3f c5 d3 23 3f 34 b6 17 3f 0b fc 0f 3f
       1.9117023 0.6399501 0.59262395 0.5624396
000010 13 2f d8 3e dc c5 fb 3e 21 ee fb 3e c6 8c 18 3f
       0.42223415 0.49174392 0.49205115 0.59589803
000020 d5 6b b9 3e ea dd 9a 3e 6e 6e 62 3e 1a fe a6 3d
       0.36215082 0.30247432 0.22112438 0.08153935
000030 ba 01 14 3e 36 32 34 bd b9 95 32 bd 40 5b 10 be
       0.14453784 -0.043993197 -0.043599818 -0.14097309
000040 db 1c 12 be 16 b2 5a be 09 68 4a be 29 4c 2d be
       -0.1426882 -0.21356997 -0.19766249 -0.16923584
