models/dqn_agent_firm_1_episode_1000.pth (torch, 101224 bytes, 24 tensors)

fc1.weight f4 [64, 3]
000000 29 93 99 3d 80 da 1b be 3d 7a da ba 67 ec f5 be
       0.07498772 -0.1522007 -0.001666851 -0.48031923
000010 5e 50 25 3f 05 dd 23 be 8c d6 90 3e 1f 95 02 3e
       0.64575756 -0.16002281 0.28288686 0.12752198
000020 55 a9 bd be 0f 8a 89 be 5d b1 0b be 5e bb 98 be
       -0.37043253 -0.26863143 -0.13641877 -0.2983045
000030 9c 01 19 bf a1 80 77 be 6e fd 8c 3e 74 ef 2f 3f
       -0.5976808 -0.24170162 0.27537102 0.6872475
000040 09 1c 10 3f 56 81 65 3e d9 8f 1f 3f 55 1f ff bd
       0.5629278 0.22412619 0.6232887 -0.12457148
000050 bd 8a 0a bc f0 7e c6 bc 6f a5 cb 3e fd cf 1c 3e
       -0.008455929 -0.02423045 0.39774653 0.15313716
000060 fc 0b 27 bf 89 37 ab 3e ca d4 87 3d 33 99 c1 bd
       -0.6525266 0.33440807 0.06632383 -0.094530486
000070 3e e6 28 3f e9 3b a1 3e b0 52 87 bd 05 5e 45 bf
       0.6597632 0.3149102 -0.06607568 -0.7709659
000080 c9 75 ef 3d 46 dd f6 be 98 40 1e 3d 53 d6 b0 bd
       0.116923876 -0.48215693 0.03863582 -0.08634629
000090 74 92 0b bf 90 62 e3 be a7 19 7a be b6 30 35 3f
       -0.54520345 -0.44411135 -0.24423848 0.7077745
0000a0 a7 7e 65 be 77 36 5e 3b ba b1 e9 3e 15 45 19 be
       -0.22411595 0.0033906975 0.45643407 -0.14967759
0000b0 31 aa 88 3c ce 7f 0a bf 5e 77 f6 3d 22 a5 49 bd
       0.016682716 -0.54101264 0.12034486 -0.04922975
0000c0 a5 12 b0 be 94 8f 18 be 2d 56 0c 3e 95 35 b7 be
       -0.34389225 -0.1489852 0.13704748 -0.35783067
0000d0 d6 b1 77 be c5 44 39 bb fd 31 8e 3e 44 c6 84 3e
       -0.24188933 -0.002826975 0.27772513 0.25932515
0000e0 cc 06 d7 3e 0e af 11 bf a0 10 02 bf 1e d5 a1 3e
       0.41997373 -0.5690774 -0.5080662 0.31607908
0000f0 f5 ba 9c 3e 89 54 c1 be ad e9 50 3e 97 8f d8 3d
       0.30611387 -0.37759808 0.2040164 0.105742626
000100 f7 cb bb bd 52 a7 53 bc 43 2c d5 bd 07 9b 1e 3e
       -0.091697626 -0.01291831 -0.10408833 0.15488826
000110 b3 c1 e4 bd 28 90 2e bf 66 15 00 3f 6c f3 40 3e
       -0.11169758 -0.68188715 0.5003265 0.18842858
000120 e2 84 d7 be c6 f1 e6 be 9a c1 81 3e ed 8d 6c 3e
       -0.4209357 -0.45106333 0.2534302 0.23101015
000130 26 10 64 3e 7c 17 7f bc 24 83 ae 3d 82 57 14 bf
       0.22271785 -0.015569564 0.08521107 -0.57946026
000140 29 44 44 3e 15 78 80 3d 2d fb 41 be d7 5c 9a bc
       0.19166626 0.06272904 -0.18943472 -0.018843098
000150 92 14 a7 be d1 3f 80 be 65 b5 ae be f7 58 fd bd
       -0.3263288 -0.25048688 -0.34122768 -0.12370484
000160 4c 84 b5 be 76 26 13 bf 96 3c 2f be 94 47 0b bf
       -0.35452497 -0.5748056 -0.17112955 -0.54406095
000170 f7 29 94 bd aa 2e 4a bf f1 1e 8d 3e 9c a4 4a 3c
       -0.07234567 -0.78977454 0.2756267 0.0123683475
000180 8d 40 8d 3e 1b 0d 2d bf ec 1c 4c 3e de 21 8f 3d
       0.2758831 -0.6759812 0.19932908 0.069888815
000190 05 df 54 3d c7 c6 cf bd e6 70 25 bd 47 7b 2a be
       0.0519705 -0.10145336 -0.04039087 -0.16648589
0001a0 34 52 1e be fb 6b a2 be 31 52 bc be 47 31 c5 be
       -0.15461046 -0.31723008 -0.36781457 -0.38514158
0001b0 e8 1c 46 3e 09 fc c0 bd b5 5b 82 bc d9 40 1e be
       0.19346964 -0.09423072 -0.01591287 -0.15454425
0001c0 92 4b b3 be 49 78 d2 be 49 6d 99 3e a1 3d be 3c
       -0.35018593 -0.41107395 0.2996619 0.023222746
0001d0 5c d4 66 bc 66 49 dd be 5c 0f ea bd e4 ab 98 3d
       -0.014088716 -0.4322006 -0.11428711 0.074546605
0001e0 43 05 77 be 0e 2b 54 3f b0 73 00 3f 01 0e d0 3c
       -0.24123101 0.82878196 0.50176525 0.025397303
0001f0 34 3f 4d bc f5 91 60 be 21 49 c8 be cd 68 3d bf
       -0.012527276 -0.21930678 -0.39118293 -0.7398804
000200 4a b9 e9 3d 04 3a c3 3d d9 80 de 3e ed 99 c4 bc
       0.11412294 0.0953255 0.43457678 -0.023999179
000210 28 54 b6 3e 3f df 2f 3e f9 da 91 be 62 47 b4 3e
       0.3561108 0.17175005 -0.28487375 0.3521071
000220 e7 c0 11 3f 42 d3 d9 bc a5 b6 e0 3d 75 a0 ec 3e
       0.5693497 -0.026589993 0.10972337 0.4621617
000230 c3 3d 5d 3d df 26 d8 3d c4 69 1c bd 74 e4 34 be
       0.05401398 0.10554289 -0.038186803 -0.17665273
000240 a1 3e 5b 3e bc 84 5b 3e 9d 3c 48 be b8 59 8a bd
       0.2141061 0.21437353 -0.19554372 -0.06755394
000250 2e 16 85 3e d9 49 5a bc 49 14 5c 3e 62 61 7e bd
       0.25993484 -0.013323271 0.21492113 -0.06210459
000260 f3 05 bb be 81 7d 6d be 61 c9 cc 3e 70 cf 00 3c
       -0.36527976 -0.23192407 0.3999739 0.007861957
000270 e7 dd d4 be 88 a8 f8 3e 18 ee ae 3c 8e 23 fe be
       -0.41575548 0.4856608 0.021353766 -0.496365
000280 7c e3 08 be e2 5b 0f bf f2 71 36 be 55 47 c8 be
       -0.13368028 -0.5599958 -0.17816904 -0.39116922
000290 bc 3d 8f 3e 6c 73 b9 be 3b e5 b7 3b 25 0f 93 3e
       0.27976787 -0.36220872 0.005612043 0.28722492
0002a0 f4 7c 7b be 35 ed 81 3d 0d de 49 3d 57 57 26 3f
       -0.24559385 0.06344072 0.04928403 0.6497702
0002b0 7e 39 f1 3e 39 ec b8 bd 85 55 4e 3e a6 79 0d 3f
       0.47114176 -0.09029431 0.2014981 0.55263746
0002c0 49 28 f9 3c 5d e9 96 bd 90 19 b7 3e e0 bf 76 bc
       0.030414717 -0.07368729 0.3576169 -0.015060395
0002d0 cb 66 54 be 38 d7 2e be f8 dd 99 3d f9 3d b3 bc
       -0.20742337 -0.17074287 0.0751304 -0.021880137
0002e0 2c ed be 3e ea c0 09 bf 7d db 82 3d 15 62 9c be
       0.37290323 -0.5380999 0.0638952 -0.3054358
0002f0 6a 6f 77 3e e4 4e 74 3f 7f dc 0c 3f 06 35 60 bd
       0.24163595 0.9543288 0.5502395 -0.054738067

fc1.bias f4 [64]
000000 b5 69 58 40 9c 15 0f 40 b5 77 46 40 90 97 e3 be
       3.3814518 2.235694 3.1010563 -0.4445157
000010 df 21 2c c0 dd e9 d8 bf 34 0a 4e 40 7e 56 8d bf
       -2.6895673 -1.694637 3.2193727 -1.104202
000020 86 04 4e 40 ff 3d 29 c0 56 64 d3 bd 0d 24 fe be
       3.219026 -2.644409 -0.10321872 -0.4963688
000030 df 8a f0 3e 2d b6 83 40 64 f8 16 40 7d 54 21 3f
       0.4698095 4.1159883 2.3589106 0.63019544
000040 d7 9f 8d 40 96 33 d7 be 26 39 32 c0 76 1b 22 c0
       4.4257617 -0.42031544 -2.784738 -2.532926
000050 53 54 0f 40 e7 c2 5e 40 0d 65 67 40 4c 4a 0a c0
       2.2395217 3.480646 3.6155427 -2.1607847
000060 6a 3b fe 3f b8 94 23 40 f1 bf de bf a5 b0 96 3f
       1.9861882 2.555952 -1.7402326 1.1772658
000070 58 8a 9d 3e 97 06 50 be 5d c4 a4 3e bb b2 b6 3f
       0.3076961 -0.20315014 0.32181063 1.4273294
000080 f3 9f 59 40 6b d7 71 40 ab 15 32 3e 9e 63 00 bf
       3.4003875 3.778773 0.17391078 -0.50152004
000090 7b 07 b2 3d 6b e6 f1 be 78 fa 3d bf 3e 50 30 40
       0.08692833 -0.47246107 -0.7421031 2.7548976
0000a0 ed 96 32 c0 aa 32 81 bb bd 80 fe be 87 45 3d 40
       -2.7904618 -0.003942807 -0.49707595 2.9573686
0000b0 c4 60 54 40 9a 22 55 40 d7 14 9b bf 54 9b cd 3d
       3.318406 3.330237 -1.2115735 0.10039392
0000c0 4b e4 55 40 64 9f 78 40 3d ac 2a 40 50 5e 55 40
       3.342059 3.8847284 2.6667626 3.3338814
0000d0 66 b3 52 40 90 66 a4 be 10 86 1a 40 7f 37 b3 3f
       3.2921996 -0.321095 2.4144325 1.4001311
0000e0 b4 70 6a 40 02 ed a3 3f 04 47 ec bf 2b b9 70 40
       3.6631289 1.2806704 -1.8459172 3.7613018
0000f0 5a 15 83 40 ce b4 24 40 78 3a 65 c0 94 12 a8 3f
       4.0963564 2.5735354 -3.5816936 1.313067

fc2.weight f4 [64, 64]
000000 61 b3 94 3d ba a5 5d 3d a8 23 90 bd ec 9f 8a bd
       0.07260776 0.054113127 -0.07038051 -0.06768784
000010 50 1e e4 3d 42 07 1a bd da 6c b1 3b ce f9 5d bd
       0.11138594 -0.037604578 0.0054145874 -0.05419331
000020 29 9f b2 bb 08 f4 9c 3c e0 84 dd 3d 98 24 13 3d
       -0.0054511023 0.019159332 0.108163595 0.03592357
000030 dc 45 f1 bd 02 98 1c be e8 51 8f bc e9 e8 75 3c
       -0.11780903 -0.15292361 -0.01749511 0.015009143
000040 2f f4 22 bd 92 a7 e7 bd 3e b8 84 bd 68 7c 8c bd
       -0.039783653 -0.113112584 -0.06480454 -0.06859666
000050 66 4c ba bd ce b1 5c bd 6c 14 0d be 05 51 1f bd
       -0.09096603 -0.053880505 -0.13777322 -0.038895626
000060 00 53 ea bc 98 51 a3 3c 1e 9b dd bd c2 ff de bd
       -0.02860403 0.019936368 -0.10820602 -0.10888626
000070 d8 b8 df bc 20 bd 85 3b f0 43 e5 bd 28 e1 d2 3b
       -0.02730982 0.0040813833 -0.11194599 0.006435532
000080 d8 8a 1a 3d 55 ae 3b 3d 58 8d 39 3d 20 12 45 bc
       0.037730068 0.045820553 0.04530081 -0.012028247
000090 a0 18 bd 3d d4 66 a6 bd 4a 75 5f bd 48 08 02 bd
       0.092332125 -0.08125082 -0.054555215 -0.03174618
0000a0 6a 06 0e be 48 67 df 3d 12 ef b9 bd 6e 34 1b be
       -0.13869634 0.10908371 -0.09078802 -0.15156719
0000b0 37 ab ca bd 25 d8 71 bd 8f b3 1d be 4c 40 29 3d
       -0.09895938 -0.059044022 -0.15400527 0.041321084
0000c0 89 1d ab 3d 3d 00 12 be 8c 82 f5 bd ec 1d 82 3d
       0.08355243 -0.14257903 -0.119877905 0.063533634
0000d0 74 81 0a be d0 d7 66 3c 78 30 f7 3c f1 72 20 be
       -0.13525945 0.01408954 0.030174479 -0.15668847
0000e0 49 6e 19 be 5a 8b d4 3c cf a7 18 bd 67 b5 a3 3d
       -0.14983477 0.025945354 -0.03726941 0.07993584
0000f0 68 73 e8 bc 73 54 9f 3d e8 4e c0 3c 2f 25 b9 3d
       -0.028375342 0.07779779 0.023475125 0.09040295
000100 5d e4 93 3f 69 c7 00 3f c2 ed 17 3f 76 a6 81 bd
       1.1554066 0.50304276 0.59347165 -0.06330578
000110 f3 d6 7b bf 44 9c 9f be 6d e5 19 3f 6b a7 8c be
       -0.9837486 -0.3117391 0.601157 -0.2747148
000120 1a 47 c1 3e 67 6c 25 bf 07 e4 db be 06 1e 9d 3d
       0.3774956 -0.64618534 -0.4294741 0.07671742
000130 c0 f2 78 bb 7b 24 64 3f 03 32 b9 3e 75 08 f7 3d
       -0.0037986487 0.89118165 0.36170968 0.1206216
000140 3b a6 c0 3f 52 11 f6 bd 15 2b 09 bf 1d 66 78 bf
       1.505073 -0.12015022 -0.5358136 -0.9703081
000150 c1 0c 00 3e 30 5e 60 3f 3f ba dc 3f b0 10 ae be
       0.12504865 0.8764372 1.7244338 -0.33997107
000160 cc f4 01 3e 8c e5 b1 3e 51 3f 3a be 46 69 67 3e
       0.12691039 0.34745443 -0.18188216 0.22598752
000170 3c 8a 78 bd a8 18 45 3d a6 57 c7 bd 25 ba 08 3e
       -0.060678706 0.048119217 -0.097335145 0.13352259
000180 75 18 dc 3e 37 b9 0f 40 fe 46 a4 bd 90 20 2c bd
       0.4298741 2.2456796 -0.08021353 -0.04202324
000190 9f 99 98 bb 70 58 ff 3d e6 c4 9a bd 40 32 40 3f
       -0.004656985 0.1246804 -0.07557087 0.75076675
0001a0 6d 6f 33 bf c8 1f db 3c 39 33 90 bf 8f 7b d7 3e
       -0.700919 0.026748553 -1.1265632 0.42086455
0001b0 1d f0 b9 3f bc 08 20 3f 66 6e da bd d2 1f 93 3d
       1.4526402 0.6251333 -0.10665588 0.071838036
0001c0 98 75 b3 3f b4 32 47 3f 87 4d c1 3f 99 a3 48 3f
       1.4020262 0.7781174 1.5101784 0.7837463
0001d0 7d 01 b2 3e 5c 29 31 bd f5 3e 32 3e a2 63 9a 3c
       0.3476676 -0.043252334 0.17406829 0.018846337
0001e0 36 f6 ad 3f ab fe b3 3d a0 85 a9 be 44 1d 63 3f
       1.3590763 0.087888084 -0.3310976 0.8871653
0001f0 19 e9 a6 3f f9 b9 22 3f 54 c2 fe be 2b 55 2b 3e
       1.3039886 0.6356502 -0.49757636 0.16731708
000200 af 01 0b 3f 03 b1 bc bb 5f 49 36 3f b4 28 6d bd
       0.54299444 -0.005758406 0.71205705 -0.057900146
000210 6c 24 a5 3d 26 56 1d be 75 bb 90 3e 30 45 70 bd
       0.080635875 -0.15364894 0.28268018 -0.058659732
000220 1a 28 06 3e 24 46 e8 3b 73 c2 62 3d 40 87 3e 3d
       0.13101235 0.0070884395 0.055361222 0.046515703
000230 a6 1b f0 bd 16 61 b1 3e 48 65 0a bd 55 b6 83 bd
       -0.117240235 0.34644383 -0.033787996 -0.064312615
000240 2f 54 ed 3e 7c b0 c5 3d d4 92 85 bd d1 b0 43 3a
       0.4635329 0.09652802 -0.06522146 0.00074650074
000250 09 51 e6 bc 82 9b f0 3e 0b ab a3 be 87 5a 05 be
       -0.028114812 0.46993643 -0.31966433 -0.13022815
000260 ac 71 64 3e 58 c0 07 be 86 04 90 3d 2f 2e 91 be
       0.22308987 -0.13256967 0.07032113 -0.28355548
000270 50 56 db bd b8 d3 c4 bc 02 2a b2 bd 7b d8 ff bc
       -0.10709822 -0.024026737 -0.086994186 -0.031231156
000280 f6 49 49 3d 73 38 1a bf 00 0d 51 bb 30 ea 7d 3d
       0.0491428 -0.60242385 -0.0031898618 0.061990917
000290 64 c0 a9 3b b6 20 d1 bd 24 76 8d bd 80 14 9d 3e
       0.0051804055 -0.10211317 -0.06907299 0.30679703
0002a0 cc 14 82 bd 00 68 52 39 2b a7 50 bc 6c cf 85 3d
       -0.06351623 0.00020065904 -0.012735168 0.06533703
0002b0 d1 ee 8b 3e 67 a2 b1 be 7c 25 33 be 3c a3 9a 3d
       0.2733064 -0.34694216 -0.17494768 0.07550666
0002c0 d5 5e 57 be e7 7b b4 3e f8 09 ed 3e 04 3d 91 3e
       -0.2103227 0.3525078 0.46296668 0.28366864
0002d0 10 93 35 3e 0c b9 4c bd 73 a6 30 3e 6d 7b bb bc
       0.17731881 -0.049981162 0.17250995 -0.022886002
0002e0 e1 b6 33 3f bd 53 0c bf 73 8e e1 bd 20 46 c0 3e
       0.70200926 -0.54815274 -0.11013498 0.375535
0002f0 86 40 db 3e 9b 91 42 3f c0 c8 d7 bd 1a da 71 bf
       0.42822665 0.76003426 -0.10536337 -0.9447342
000300 ec 0e c8 bd c3 9f 6d bd 02 00 07 bc fa 62 86 3d
       -0.09768471 -0.05801369 -0.008239748 0.06561847
000310 e4 b3 0b 3d 51 a7 ce bc 90 ac e2 bd 0b c6 41 bd
       0.034107104 -0.025226267 -0.1106807 -0.04730801
000320 76 1a 16 bc 21 92 d8 bd d2 89 ca bd 64 5c ce bd
       -0.009161582 -0.10574747 -0.098895684 -0.10076216
000330 e0 7c 74 3c c6 92 79 3d c4 ce a3 bd 7f f5 01 be
       0.014922351 0.06093099 -0.07998422 -0.12691306
000340 21 a2 33 3d 18 fa 18 bd 2c ad ab bd bc 95 62 3d
       0.04385579 -0.037347883 -0.08382639 0.05531858
000350 18 b8 06 be 4f 90 c4 bc 6e ec a1 bd 02 da bd 3d
       -0.13156164 -0.023994593 -0.079064235 0.09270097
000360 60 ed f1 3c e2 c6 a6 3d 40 73 9f bc 59 a2 7a bd
       0.029532135 0.08143403 -0.019464135 -0.061189983
000370 3c 07 c4 3d 70 20 f7 3c cc 3a df bd f1 fc 17 bd
       0.09571692 0.030166835 -0.108998865 -0.037106458
000380 2c 8f d3 bd 29 d2 56 bd 44 7f 8d bd e8 d5 1b 3d
       -0.10330042 -0.052446518 -0.069090396 0.038045794
000390 ff df f8 bd 54 2c 78 3d 84 c3 39 3c da 88 d9 bd
       -0.12152099 0.06058915 0.011338118 -0.106218055
0003a0 d5 bf 4c bd 40 28 6f bc da c9 ad bd f7 7c 94 3d
       -0.049987633 -0.014596999 -0.08485766 0.07250398
0003b0 8d ca 4a 3d b5 b2 15 be 53 51 1c be 80 0d 0a 3b
       0.049509574 -0.14618953 -0.15265398 0.0021065176
0003c0 4a 60 34 ba 77 bf d4 3b ce ca 77 3d 91 12 0b be
       -0.0006880803 0.006492551 0.060496144 -0.13581301
0003d0 3d c1 8e bd d0 3b 39 3c 70 09 da bd 5c ec fe bc
       -0.06970451 0.011305764 -0.10646331 -0.031118564
0003e0 56 e6 3a 3d c1 ce 75 3d cb 10 cd 3c 84 1b 7e bc
       0.04562982 0.06001163 0.025032422 -0.01550949
0003f0 42 ef 03 be 95 2d 00 be 40 9d 06 bb 4a 67 1a 3c
       -0.12884238 -0.12517388 -0.0020540506 0.00942404

fc2.bias f4 [64]
000000 dd 70 df 3c 4c a5 15 40 8d a6 db 3f ce 9d 91 bc
       0.027275497 2.338214 1.7160202 -0.017775442
000010 b7 d4 10 3f af 7a 99 bd eb 9f 5e bf a3 6f e6 3f
       0.5657458 -0.07494103 -0.86962765 1.8002819
000020 19 7f cc bd cd cd 11 40 30 f8 55 3e 6e 3f ed 3f
       -0.099851795 2.278186 0.20895457 1.8534982
000030 e1 4d b1 bf c6 a3 12 40 bb e6 4e 3d 9e 1d c0 3c
       -1.3851892 2.291246 0.05051301 0.023451623
000040 f1 4c 05 40 92 2f d2 bd 34 96 08 bd 83 7d 02 40
       2.0828211 -0.102629796 -0.03334637 2.0389106
000050 06 c4 cb 3d 00 7a d0 ba a3 90 84 3d d3 a6 66 3d
       0.09949498 -0.00159055 0.064729 0.05631144
000060 7b a0 3f bf 4c 58 e0 3f a1 a5 ef 3f 28 2d 08 40
       -0.7485425 1.7526946 1.8722421 2.127756
000070 41 57 06 be 7e 68 08 40 d0 ed e3 bd be 66 0a bf
       -0.13119222 2.1313777 -0.111293435 -0.5406302
000080 31 8b f3 3f ff 58 8b 3d c3 41 30 3f d9 86 82 3f
       1.9026853 0.06804084 0.68850344 1.0197402
000090 f5 0e 00 40 e6 68 2c be 42 fa f5 3f 85 55 07 c0
       2.000913 -0.1683689 1.9216998 -2.1145947
0000a0 98 f4 40 3f 6e f2 5e 3f 79 95 c7 3f 68 89 7b 3f
       0.7537322 0.8708867 1.559249 0.9825654
0000b0 25 7d 8a 3f 85 51 d9 3c 81 96 0e 40 ed ab b3 3f
       1.0819441 0.02652813 2.227936 1.4036843
0000c0 79 46 de 3f 24 2c 4c bd 20 df fc 3f 0a 6e f6 3f
       1.7365257 -0.049846783 1.9755592 1.9252331
0000d0 5a a2 1e bb 88 a9 f9 bc 5b cc 14 be 40 e4 fe bd
       -0.0024205656 -0.030476347 -0.1453108 -0.12445879
0000e0 61 7c 8b 3f f4 73 1a 40 16 e3 2f bd a3 3b b3 bd
       1.0897332 2.4133272 -0.042941175 -0.08751609
0000f0 ad 5d ce 3a c8 9e c1 3f d4 31 9c bd f3 ec 0c 40
       0.001574447 1.5126581 -0.076266915 2.2019622

fc3.weight f4 [20, 64]
000000 40 8d 39 bc 8f d0 ba bf 22 f5 b7 3e 7e e5 f1 3d
       -0.0113251805 -1.4594897 0.3592921 0.1181135
000010 50 10 8a 3e 90 b2 9f bd 03 40 a5 be d9 43 d8 3e
       0.2696557 -0.0779773 -0.322754 0.42239264
000020 bc 4d 13 3d d2 1a fc 3e f2 9b 2f bd b3 1c d1 3e
       0.035962805 0.49239212 -0.04287333 0.40842208
000030 77 a7 04 bf c7 b4 2a 3f b4 ae da bd c2 bb 1e bd
       -0.5181803 0.66682094 -0.10677853 -0.03875328
000040 7f ae af 3e 04 a2 5c bd 5a 62 a9 bd c1 e8 1d 3f
       0.34312817 -0.053865448 -0.08270712 0.6168328
000050 4a 49 af 3d a2 0d d1 3d a7 34 57 3d b8 a4 67 3d
       0.08558901 0.102076784 0.052540448 0.056553572
000060 0b d5 bf be 89 55 9d 3e 22 b9 b3 3e d7 dd 39 3f
       -0.37467226 0.3072932 0.35102183 0.72604126
000070 e7 b5 e3 bb c9 2c 17 3f d6 6f 1e 3d 8d 9d 51 be
       -0.0069491747 0.5905271 0.038680874 -0.20470257
000080 a7 5b 96 3e 15 e2 b8 3d a7 4d 1c bc 79 54 68 3e
       0.293668 0.09027497 -0.009539998 0.22688474
000090 e1 da 0e 3f 21 e8 bd bd c3 8f a4 3e 0e 9b 38 bf
       0.5580273 -0.09272791 0.3214093 -0.72111595
0000a0 c9 c6 83 3c 06 91 9c 3f 88 c3 b9 3e 02 a3 b6 3d
       0.016086 1.2231758 0.3628199 0.0891781
0000b0 05 f7 ad 3e b6 35 d8 bc 4a 36 97 bf 30 d8 57 3e
       0.33977523 -0.026392799 -1.1813443 0.21078563
0000c0 eb f1 2e 3f 10 63 f1 3d 1c ae a4 3e 3a 06 93 bf
       0.6833789 0.11786473 0.32164085 -1.1486275
0000d0 cc 9e 68 bd fa 35 ad bd 2a ac a7 3d ca c4 8a bd
       -0.056792066 -0.08457561 0.081871346 -0.06775816
0000e0 91 da ef 3c 5f 88 f9 3e f8 59 5a bd 94 28 14 bd
       0.029279025 0.48736855 -0.053308457 -0.03617151
0000f0 43 eb f1 bd 74 bb b5 3e cf 36 06 bd 15 a6 df 3e
       -0.11812451 0.35494578 -0.032767113 0.43681398
000100 7e a9 fb 3d 85 bb 3d bf 2e a6 0c 3e 04 38 51 bd
       0.122881874 -0.7411426 0.13735268 -0.05107881
000110 45 64 95 3c 1e 0b b3 bd 0c 80 30 3d 83 ca a6 3e
       0.018236289 -0.08742355 0.043090865 0.3257638
000120 15 90 8a bc bd af ba 3e 3f 97 02 bd c7 d6 af 3e
       -0.016914407 0.36462203 -0.03188252 0.3434355
000130 32 2d 9f bd d5 27 e1 3e b6 e8 22 3c 96 5e af 3d
       -0.07772292 0.43975702 0.009943178 0.08562963
000140 68 39 8a 3e 68 c7 8c bd 58 1f b3 3d 3a dc fc 3e
       0.26996922 -0.06873971 0.08746213 0.4938677
000150 42 64 94 bd ce e2 a9 bd 94 5b fa bd d4 27 ab 3d
       -0.07245685 -0.08295213 -0.122244984 0.08357206
000160 12 25 93 bb e6 21 46 3e a5 c5 11 3e 5a 69 b7 3e
       -0.004490503 0.19348869 0.14235552 0.35822564
000170 8c 0b b7 3b 6a d1 f0 3e 57 36 8f 3d 15 76 48 bd
       0.0055860933 0.4703477 0.069927864 -0.048940737
000180 19 8b 38 3e 20 62 d2 bc 83 4e 31 3d 5c 04 ab 3e
       0.18021812 -0.025681555 0.043287765 0.33401763
000190 9e e8 94 3e b4 5e d2 3d ba 12 7d 3e fe b2 54 be
       0.29083723 0.102719694 0.24714175 -0.20771405
0001a0 74 f6 c4 bc 26 42 cf bd 27 e5 ef 3e 81 ad e8 3c
       -0.0240433 -0.10120039 0.46854517 0.028403046
0001b0 3b a5 16 3f ce dc ff 3b d8 33 5f bf 98 93 32 3c
       0.5884587 0.0078083044 -0.8718848 0.010899447
0001c0 a7 f5 aa 3e fc a6 9e bd c8 75 85 3e 8a a5 2b bf
       0.33390543 -0.077466935 0.26066422 -0.6704947
0001d0 6e 11 a4 3d e0 29 e2 bd 68 4c de bd 4c 17 8a 3d
       0.08011137 -0.11043143 -0.10854417 0.06742725
0001e0 1d 05 d0 3d e2 91 17 3f e6 ff a3 3d 6f 94 d9 bd
       0.10157225 0.59206975 0.08007793 -0.106240146
0001f0 c7 a9 35 3d 2a 75 44 bb d1 63 b3 bd eb 41 b4 3e
       0.044351365 -0.0029977062 -0.08759273 0.3520654
000200 90 f8 f5 bd 6b e0 4b bf 1c 29 c1 3d 00 f2 c4 bc
       -0.120103 -0.7963931 0.09431669 -0.024041176
000210 13 81 8c 3e c0 bc 8d bb 51 2c 90 bd 2a f2 c1 3e
       0.27442226 -0.0043254793 -0.07039703 0.3788007
000220 e8 a6 92 bd 5d 64 bd 3e 00 2a 0b 3e ff 96 00 3f
       -0.07160741 0.36990634 0.1359024 0.502304
000230 ad 0a 4d be 47 f7 11 3f fc d5 73 3d 40 de 03 3a
       -0.20023604 0.5701794 0.059530243 0.0005030371
000240 39 56 84 3e 40 b3 76 3b a4 c9 19 bd 9c 14 f2 3e
       0.25847033 0.0037643462 -0.037545815 0.4728135
000250 64 53 13 3d 12 8d e8 3d f8 52 70 3d ce fa fe 3d
       0.0359682 0.11355032 0.058672875 0.12450181
000260 94 b6 df bc bb 69 08 3e 70 fa 6b 3e 38 9b 05 3f
       -0.02730874 0.13321583 0.23044753 0.5218997
000270 75 a8 02 3e 35 68 04 3f 97 b6 81 bd 51 60 c8 ba
       0.12759574 0.5172151 -0.063336544 -0.0015287494
000280 67 bb 47 3e ee ad 89 3d 28 2d e0 bc 48 55 df 3e
       0.19505082 0.067226276 -0.027365282 0.43619752
000290 91 64 a3 3e a1 8d e8 3d cf bd c3 3d 69 cd 2b be
       0.31912664 0.113551386 0.095576875 -0.16777577
0002a0 62 eb e9 bd 10 d7 96 be b9 04 db 3e 8b 6e ca bd
       -0.11421849 -0.29460955 0.4277704 -0.09884366
0002b0 c9 9d db 3e ce e9 99 bd ad 2d 65 bf 65 17 54 3e
       0.42893818 -0.07515298 -0.8952282 0.2071205
0002c0 bd 27 8a 3e ba 63 fc bd a7 6a 68 3e e5 51 17 bf
       0.26983443 -0.12323709 0.22696935 -0.59109336
0002d0 f8 5c 56 3d 00 e5 bf bb 44 b4 3e bd f8 18 66 bd
       0.052334756 -0.0058561563 -0.046558633 -0.056176156
0002e0 18 f6 48 3e 10 d9 ef 3e 28 38 4c bd 8d 84 16 3c
       0.19625127 0.46845293 -0.049858242 0.009186876
0002f0 df 79 ba 3c 08 63 16 be 88 43 b0 3d e5 7a a2 3e
       0.02276319 -0.14686215 0.086066306 0.31734386
000300 20 e6 52 bd 09 02 13 bf 29 13 70 3d ac 12 e5 bd
       -0.051488996 -0.5742498 0.058612023 -0.11185202
000310 7a a2 c2 bd c8 1d 43 3d 5f 6c b0 be 71 0c 9d 3e
       -0.09503646 0.047635823 -0.3445768 0.30673555
000320 42 4a 8c 3d d5 cc be 3e e2 30 18 3d 49 11 4d 3e
       0.06850101 0.3726565 0.037155993 0.20026125
000330 7e ce 41 be b5 db 0d 3f da 1b 9c bd f6 8d 0a 3d
       -0.18926427 0.5541337 -0.076225 0.03382679
000340 bd e1 2b 3e cd 80 57 3d c8 a5 7c 3d 7a f6 c0 3e
       0.16785331 0.05261307 0.06168154 0.37688047
000350 e8 c6 94 3d 00 95 78 3a b1 f2 aa 3d b8 d9 71 3d
       0.07264501 0.0009482652 0.08347071 0.059045523
000360 5c 4e 8e be b0 a8 2a 3e 26 62 82 3e 4f 8d c3 3e
       -0.27794158 0.16665912 0.25465506 0.38193747
000370 88 1d df 3d bc ec c5 3e e6 8d 21 bd 78 e9 21 be
       0.108943045 0.38657176 -0.039441966 -0.15811718
000380 00 e7 84 3e 31 63 10 be 76 6a 35 be 9e 93 be 3e
       0.2595749 -0.14100339 -0.17716393 0.37221998
000390 da f8 2d 3e dd 04 54 39 fd fb 4e 3e 41 5d bf be
       0.1698946 0.00020219707 0.20213313 -0.37375835
0003a0 7a bc ca bd ae 56 32 be 03 e6 ad 3e 53 77 80 3e
       -0.0989923 -0.17415878 0.33964548 0.25091037
0003b0 cc 73 ac 3e 8d b5 f7 3c be 01 29 bf 11 52 7c 3e
       0.33682096 0.030237937 -0.66018283 0.24640681
0003c0 11 b6 05 3f b0 08 46 3c cc 16 a3 3e 2f 0b 52 bf
       0.52230936 0.012087032 0.3185333 -0.82048315
0003d0 06 20 cb 3d c8 b8 39 3d e0 66 85 3c f0 9e b3 3d
       0.09918217 0.045342237 0.016284406 0.08770549
0003e0 d9 be 92 3e 66 32 cf 3e a9 98 37 bd 3f 5f c4 bd
       0.2866123 0.40468138 -0.044823322 -0.09588479
0003f0 e0 aa cf 3d 6b e3 8a bd ed 06 d8 3d 05 83 af 3e
       0.10140014 -0.06781658 0.10548196 0.34279647

fc3.bias f4 [20]
000000 b4 3d df 3f da 2d 6f 3f ca 10 64 3f f9 dd 27 3f
       1.7440705 0.9342934 0.8908812 0.6557308
000010 c8 1b 1e 3f f2 83 e2 3e a0 70 55 3e 07 7b a9 3e
       0.6176114 0.4424129 0.20843744 0.33101675
000020 54 32 ce 3e 73 35 64 3e d9 75 1e 3e a5 0d 8f bd
       0.40272772 0.22286014 0.15474643 -0.06985024
000030 5e a3 78 3e 9c fb b7 bd df d6 63 be d8 f8 0e be
       0.2428107 -0.089835376 -0.22249936 -0.13962114
000040 2a fe 05 be 39 99 f3 be 8a 3a b9 be 49 28 b5 be
       -0.13085237 -0.47577837 -0.36177474 -0.35382298

fc1.weight f4 [64, 3]
000000 25 b6 6d 3d 72 da 16 be 98 42 c9 bb eb 9f 01 bf
       0.058035035 -0.14731768 -0.006141972 -0.5063464
000010 ea 21 26 3f b1 1c 0a be 91 c1 88 3e 44 d7 0f 3e
       0.648955 -0.13487507 0.2671018 0.14046961
000020 64 cf cd be 0f 8a 89 be 5d b1 0b be 5e bb 98 be
       -0.4019729 -0.26863143 -0.13641877 -0.2983045
000030 ea 92 0f bf c8 8b 77 be 35 9a 8f 3e e5 8a 33 3f
       -0.5608355 -0.24174416 0.28047338 0.7013381
000040 ee 39 12 3f f0 03 7d 3e 01 da 1c 3f a1 30 f7 bd
       0.57119644 0.24708533 0.6127015 -0.12069822
000050 bb 8f 57 bc e6 53 4e bc e5 9a d5 3e 29 b0 57 3e
       -0.013156827 -0.012593245 0.41719738 0.21063294
000060 1c d8 36 bf e8 0c b3 3e 60 e0 8f 3d 2b e2 aa bd
       -0.71423507 0.34970784 0.07025218 -0.08343919
000070 68 75 28 3f c1 78 a9 3e 3c f2 92 bd 66 e8 44 bf
       0.6580415 0.3309994 -0.07175109 -0.7691711
000080 f6 20 1e 3e 15 de f6 be 98 40 1e 3d 53 d6 b0 bd
       0.15442261 -0.4821631 0.03863582 -0.08634629
000090 74 92 0b bf 90 62 e3 be 38 1a 7a be 89 1d 33 3f
       -0.54520345 -0.44411135 -0.24424064 0.6996694
0000a0 61 8d 5f be 5f 0f ff b9 98 f8 e6 3e b8 e0 15 be
       -0.21831276 -0.00048648842 0.45111537 -0.14636505
0000b0 09 0f 60 3c ec 79 04 bf 6c c0 e1 3d 6e 85 06 bc
       0.01367546 -0.5174854 0.1102303 -0.008210523
0000c0 80 ae b1 be 98 90 0a be 52 4c 0e 3e 95 35 b7 be
       -0.34703445 -0.1353172 0.13896301 -0.35783067
0000d0 d6 b1 77 be e2 32 38 bb 79 89 99 3e 3b 51 84 3e
       -0.24188933 -0.00281065 0.29987696 0.25843224
0000e0 91 b1 de 3e 8b cb 02 bf ef 15 02 bf f3 cd a6 3e
       0.43494847 -0.5109183 -0.5081472 0.32579002
0000f0 14 eb a1 3e c1 29 b7 be 42 e7 5e 3e c6 46 bb 3d
       0.31624663 -0.35774043 0.21767905 0.09144358
000100 27 f1 b4 bd 26 86 87 bc 54 a7 e9 bd 90 9e 2a 3e
       -0.08835059 -0.01654346 -0.114088684 0.1666205
000110 d9 12 fa bd a3 ca 1d bf 82 0f 03 3f 47 6e 50 3e
       -0.12210626 -0.61637324 0.5119554 0.20354567
000120 a6 23 c7 be 4c 10 db be 46 97 8b 3e e6 20 61 3e
       -0.38894385 -0.4278587 0.2726385 0.21985206
000130 01 27 6b 3e 8c 52 9b bc ac 27 49 3e 03 af 0f bf
       0.22964098 -0.01896026 0.1964404 -0.5612642
000140 6b cd 69 3e 0f 66 49 3d f4 d9 1f be 0e 91 92 ba
       0.22832267 0.049169596 -0.15610486 -0.0011182146
000150 92 14 a7 be d1 3f 80 be 65 b5 ae be f7 58 fd bd
       -0.3263288 -0.25048688 -0.34122768 -0.12370484
000160 4c 84 b5 be 76 26 13 bf 96 3c 2f be 94 47 0b bf
       -0.35452497 -0.5748056 -0.17112955 -0.54406095
000170 f7 29 94 bd cc d0 56 bf eb 56 9b 3e 7c 0f eb 3c
       -0.07234567 -0.8391235 0.3033975 0.028693907
000180 ca 10 92 3e dc b1 26 bf d4 79 55 3e 4c 74 61 3d
       0.28528434 -0.6511514 0.20847255 0.05504255
000190 6c d5 57 3d 53 e1 ea bd e6 70 25 bd 47 7b 2a be
       0.05269377 -0.114687584 -0.04039087 -0.16648589
0001a0 34 52 1e be fb 6b a2 be 31 52 bc be 47 31 c5 be
       -0.15461046 -0.31723008 -0.36781457 -0.38514158
0001b0 e5 74 80 3e e9 91 3f bd 85 b6 1b 3c d9 40 1e be
       0.25089183 -0.04677001 0.009503965 -0.15454425
0001c0 92 4b b3 be 49 78 d2 be ff 86 a9 3e f1 b2 3b 3d
       -0.35018593 -0.41107395 0.33110806 0.04582495
0001d0 1d 33 5f 3c 85 84 04 bf eb 33 e4 bd d9 e7 9a 3d
       0.013623026 -0.5176471 -0.11142715 0.07563753
0001e0 c7 55 6d be 59 18 54 3f f7 36 05 3f 01 0e d0 3c
       -0.23177253 0.8284965 0.52036995 0.025397303
0001f0 34 3f 4d bc f5 91 60 be 05 08 d3 be 0c 54 39 bf
       -0.012527276 -0.21930678 -0.41217056 -0.7239387
000200 ca cd 1a 3e 83 d4 b5 3d 55 db e3 3e 57 ad c9 bc
       0.15117565 0.08878424 0.44503275 -0.024618788
000210 9a af bd 3e 9f 38 29 3e f5 bf 9a be 2f 5f a6 3e
       0.37048036 0.16525505 -0.30224577 0.32494494
000220 13 a0 14 3f e5 28 0c bd ae 18 27 3e 8a 1f f7 3e
       0.58056754 -0.034218688 0.16318008 0.4826625
000230 3c 8b a8 3d df 26 d8 3d c4 69 1c bd 74 e4 34 be
       0.08229682 0.10554289 -0.038186803 -0.17665273
000240 7f 51 45 3e 68 48 62 3e 1c 7b 5a be cd e8 a4 bd
       0.1926937 0.22097933 -0.21336025 -0.08052216
000250 d6 c9 88 3e a1 ef 84 bc e4 12 6a 3e 4f e2 a8 bd
       0.2671649 -0.016227545 0.22858769 -0.0824629
000260 b5 b0 c0 be 67 4a 60 be b1 74 d1 3e 8b 8a e8 3b
       -0.37634817 -0.21903382 0.4090934 0.0070965937
000270 45 ca f4 be 9d 96 fb 3e 3d 30 c5 3c 8e 23 fe be
       -0.4781057 0.49138346 0.024070853 -0.496365
000280 7c e3 08 be e2 5b 0f bf 6c 1d 40 be 1c e4 c0 be
       -0.13368028 -0.5599958 -0.18761224 -0.37674034
000290 ea b4 98 3e 29 44 b3 be a3 67 24 3d 14 32 a4 3e
       0.29825526 -0.3501294 0.0401379 0.32069457
0002a0 95 cb 8b be 46 55 90 3d dd 96 3f 3d c9 e3 25 3f
       -0.27303758 0.070475146 0.046774734 0.648007
0002b0 0f 5f ec 3e df 34 df bd 16 75 66 3e a0 d3 0e 3f
       0.46166274 -0.10898756 0.22505602 0.55791664
0002c0 15 c8 2a 3d 91 79 af bd bd eb bb 3e e8 db 8f bc
       0.04169472 -0.08568109 0.36703292 -0.017560914
0002d0 0b 27 77 be 31 42 24 be 4a e1 99 3d 6c 9e 54 bd
       -0.24135987 -0.16040875 0.075136736 -0.051908895
0002e0 a1 0c c0 3e f7 f8 0f bf 9f 9d c3 3d 48 e2 9c be
       0.37509635 -0.56239265 0.09551548 -0.3064139
0002f0 62 3d 80 3e aa f6 6e 3f 76 c0 02 3f 74 60 ac bd
       0.2504683 0.9334513 0.5107492 -0.084168345

fc1.bias f4 [64]
000000 af e6 50 40 bd e2 08 40 cc 51 40 40 90 97 e3 be
       3.2640798 2.138839 3.0049925 -0.4445157
000010 62 36 23 c0 03 d9 c5 bf e4 ee 46 40 3f dd 79 bf
       -2.5501943 -1.5456852 3.1083307 -0.9760322
000020 8b 5e 46 40 ef 66 1f c0 6d 0f a6 bd 0d 24 fe be
       3.0995204 -2.4906576 -0.08108411 -0.4963688
000030 df 8a f0 3e 7a 0b 80 40 57 50 10 40 09 e2 23 3f
       0.4698095 4.001401 2.2549036 0.6401678
000040 d9 37 89 40 9a 30 d7 be db ca 27 c0 f8 6a 19 c0
       4.2880673 -0.42029268 -2.6217563 -2.3971539
000050 e5 91 0a 40 1e 59 57 40 db f0 62 40 b0 3e 00 c0
       2.1651547 3.3648143 3.5459507 -2.0038261
000060 f6 52 f3 3f ee d3 1c 40 49 05 c7 bf e6 4f 8e 3f
       1.9009693 2.4504352 -1.5548488 1.1118133
000070 99 8a 9d 3e 97 06 50 be 5d c4 a4 3e 39 ce ac 3f
       0.30769804 -0.20315014 0.32181063 1.3500434
000080 2c a0 52 40 84 a1 6c 40 ab 15 32 3e 9e 63 00 bf
       3.291026 3.6973581 0.17391078 -0.50152004
000090 61 52 35 3e 6b e6 f1 be 7e d4 26 bf 27 a4 27 40
       0.17707206 -0.47246107 -0.6516799 2.619394
0000a0 c6 a8 28 c0 aa 32 81 bb 30 c5 dc be 09 7d 36 40
       -2.635301 -0.003942807 -0.43119192 2.8513815
0000b0 9a 26 4e 40 7e 77 4c 40 44 6d 85 bf 72 9b cd 3d
       3.221106 3.1947932 -1.042397 0.100394145
0000c0 aa ab 50 40 bb 9e 71 40 2d d8 25 40 d8 a1 4e 40
       3.2604775 3.7753131 2.5913193 3.2286282
0000d0 ee 3b 4b 40 90 66 a4 be 90 d1 13 40 94 2f b1 3f
       3.1755328 -0.321095 2.3096657 1.3842645
0000e0 87 f5 62 40 e1 96 a5 3f 5b 82 d9 bf af 56 69 40
       3.5462358 1.293667 -1.6992906 3.6459157
0000f0 9e a0 7d 40 7e f1 1f 40 51 81 5b c0 58 7b a8 3f
       3.9629283 2.4991145 -3.4297678 1.3162642

fc2.weight f4 [64, 64]
000000 70 68 a3 3d 79 11 7b 3d f8 6e 81 bd ec 9f 8a bd
       0.07978904 0.06129596 -0.06319994 -0.06768784
000010 50 1e e4 3d f8 39 f9 bc 48 62 4e 3c 69 8e 40 bd
       0.11138594 -0.03042315 0.012596674 -0.047010813
000020 4e df e2 3a 27 ca d7 3c e0 84 dd 3d 98 24 13 3d
       0.0017308982 0.026341511 0.108163595 0.03592357
000030 dc 45 f1 bd 17 3f 15 be ed 51 8f bc bf ca b5 3c
       -0.11780903 -0.14574848 -0.01749512 0.022191403
000040 c9 89 05 bd 92 a7 e7 bd b9 06 6c bd 68 7c 8c bd
       -0.032602105 -0.113112584 -0.0576236 -0.06859666
000050 66 4c ba bd 56 46 3f bd 9e ba 05 be 9a e6 01 bd
       -0.09096603 -0.046697937 -0.1305947 -0.03171406
000060 1a 53 ea bc b1 28 de 3c 1e 9b dd bd c2 ff de bd
       -0.028604079 0.027119013 -0.10820602 -0.10888626
000070 d8 b8 df bc 20 bd 85 3b f0 43 e5 bd f5 1c 5f 3c
       -0.02730982 0.0040813833 -0.11194599 0.013617744
000080 d8 8a 1a 3d 0f 1a 59 3d 58 8d 39 3d 20 12 45 bc
       0.037730068 0.053003367 0.04530081 -0.012028247
000090 d4 18 bd 3d d4 66 a6 bd 36 0c 42 bd 48 08 02 bd
       0.09233251 -0.08125082 -0.047374927 -0.03174618
0000a0 bf ac 06 be 48 67 df 3d 12 ef b9 bd 7d db 13 be
       -0.13151835 0.10908371 -0.09078802 -0.14439197
0000b0 fc f5 bb bd 3c 6f 54 bd e6 58 16 be 4c 40 29 3d
       -0.09177777 -0.051863894 -0.1468235 0.041321084
0000c0 cc d2 b9 3d 49 a5 0a be 7e ce e6 bd bd d2 90 3d
       0.090734094 -0.13539614 -0.11269854 0.07071445
0000d0 c5 26 03 be 77 d8 66 3c 78 30 f7 3c 11 18 19 be
       -0.12807758 0.014089695 0.030174479 -0.14950587
0000e0 38 13 12 be e8 b1 07 3d e2 7a f6 bc e8 6b b2 3d
       -0.14265144 0.03312865 -0.030087892 0.08711988
0000f0 90 9e ad bc d1 0a ae 3d e8 4e c0 3c 21 dc c7 3d
       -0.021193773 0.08498157 0.023475125 0.09758783
000100 36 00 8a 3f 0d 0c f7 3e d4 48 2f 3f 76 a6 81 bd
       1.0781314 0.48251382 0.684705 -0.06330578
000110 b5 ec 6d bf 6d 18 9e be 55 3f 12 3f 06 8d 8d be
       -0.9293931 -0.3087801 0.57127887 -0.27646655
000120 47 e5 b1 3e 65 f6 22 bf 94 95 b6 be 06 1e 9d 3d
       0.34745237 -0.6365722 -0.35660994 0.07671742
000130 c0 f2 78 bb 49 30 5c 3f ba f9 a9 3e 93 4f a0 3d
       -0.0037986487 0.8601118 0.3319834 0.078276776
000140 df 88 ba 3f 38 09 f6 bd ab a4 06 bf 4d 5b 69 bf
       1.457302 -0.12013477 -0.52595013 -0.9115494
000150 c6 73 d9 3d 9b 7f 4e 3f 54 68 df 3f d1 f4 a6 be
       0.10617785 0.8066346 1.7453713 -0.32608655
000160 2e 5f 07 3e ee f9 a0 3e 02 81 1a be 49 40 52 3e
       0.13219902 0.3144068 -0.15088275 0.20532335
000170 3c 8a 78 bd a8 18 45 3d a6 57 c7 bd 21 8a d3 3d
       -0.060678706 0.048119217 -0.097335145 0.103290804
000180 ec 85 cf 3e da 93 0c 40 fe 46 a4 bd 06 21 2c bd
       0.40531862 2.1965241 -0.08021353 -0.04202368
000190 52 b2 0d bd 70 58 ff 3d 86 40 b4 bd 8b 51 3a 3f
       -0.034593888 0.1246804 -0.08801369 0.72780675
0001a0 1d b4 31 bf 6d 20 db 3c fd ef 8a bf a8 75 c7 3e
       -0.69415456 0.02674886 -1.0854489 0.38956952
0001b0 e4 b1 be 3f fe 3e 1a 3f 38 be d0 bd d2 1f 93 3d
       1.4898038 0.6025237 -0.10192531 0.071838036
0001c0 73 d2 b3 3f eb 9f 3a 3f 85 d0 c5 3f 42 bc 3e 3f
       1.4048599 0.72900265 1.545426 0.7450601
0001d0 89 15 a3 3e 5c 29 31 bd 74 85 23 3e c8 bb a0 3b
       0.31852368 -0.043252334 0.15968877 0.004905198
0001e0 ff 25 a6 3f cc de 98 3d 52 23 a5 be d4 4b 58 3f
       1.2980345 0.0746437 -0.3225351 0.84490705
0001f0 a1 3a 9e 3f c2 a9 2c 3f b9 ab dc be 66 e5 24 3e
       1.2361642 0.6744653 -0.43099764 0.16103134
000200 79 a6 f3 3e 1e de 45 ba a4 db 2b 3f b4 28 6d bd
       0.47587946 -0.00075480517 0.6713202 -0.057900146
000210 9f 30 ac 3d 83 97 0e be ab 6f 8d 3e c2 a0 57 bd
       0.08407711 -0.13924985 0.27624258 -0.052643545
000220 58 86 02 3e dc b0 98 3c c3 76 6d 3d 40 87 3e 3d
       0.1274656 0.01863902 0.057974588 0.046515703
000230 a6 1b f0 bd 96 69 a5 3e 43 01 ce bc 86 e2 83 bd
       -0.117240235 0.32307118 -0.025147086 -0.0643969
000240 bb 83 e5 3e ca b9 c5 3d cd bc 60 bd ca ac 05 3a
       0.44827065 0.09654577 -0.054867554 0.0005099295
000250 b3 70 d6 bc 4d 3f cd 3e 14 03 80 be 8e a9 f8 bd
       -0.026176786 0.40087357 -0.25002348 -0.12141715
000260 17 88 61 3e ed 0c ed bd ed 0c 8f 3d ee 31 4b be
       0.2202457 -0.11574731 0.06984887 -0.19843265
000270 50 56 db bd b8 d3 c4 bc 02 2a b2 bd 2b 4e 60 bb
       -0.10709822 -0.024026737 -0.086994186 -0.003422628
000280 89 6c 2c 3d d8 09 d5 be 00 0d 51 bb cb ea 7d 3d
       0.042095695 -0.41609073 -0.0031898618 0.061991494
000290 9b fd 40 3d b6 20 d1 bd c0 13 ea bc 2a 03 95 3e
       0.047116857 -0.10211317 -0.02857387 0.29103976
0002a0 d4 f1 5a bd 00 68 52 39 4c bd 0a bc 35 28 9d 3d
       -0.05345328 0.00020065904 -0.008467983 0.076736845
0002b0 66 12 8f 3e 4f d4 a6 be 77 09 28 be 3c a3 9a 3d
       0.27943724 -0.32583854 -0.1640986 0.07550666
0002c0 f9 35 fd bd a3 35 ac 3e 1d 79 de 3e 87 22 90 3e
       -0.1236381 0.33634672 0.43451777 0.28151342
0002d0 76 7c 34 3e 0c b9 4c bd ba ac 2f 3e 33 b0 98 bc
       0.17625603 -0.049981162 0.17155734 -0.018638706
0002e0 45 ee 2e 3f 46 a7 cb be 19 8d b0 bd 88 a6 bc 3e
       0.6833232 -0.39776057 -0.08620662 0.36845803
0002f0 8e 24 cf 3e 84 1b 3c 3f 49 b5 be bd 68 78 55 bf
       0.40457577 0.73479486 -0.09311921 -0.8338685
000300 21 ef c0 bd 04 60 5f bd 70 fb 9b bb fa 62 86 3d
       -0.0942061 -0.054534927 -0.0047601983 0.06561847
000310 22 b4 0b 3d fd 25 b2 bc c9 8b db bd 6e 85 33 bd
       0.034107335 -0.02174663 -0.10720021 -0.04382842
000320 1c 30 ba bb c3 71 d1 bd 47 8a ca bd 64 5c ce bd
       -0.0056820046 -0.102267765 -0.098896556 -0.10076216
000330 e0 7c 74 3c 19 ea 83 3d 06 ae 9c bd 96 cb fc bd
       0.014922351 0.06441135 -0.0765038 -0.123435184
000340 bc e1 41 3d 18 fa 18 bd 61 8d a4 bd bc 95 62 3d
       0.047334418 -0.037347883 -0.080347784 0.05531858
000350 81 28 03 be 9d 0f a8 bc 2c cd 9a bd 7c fa c4 3d
       -0.1280842 -0.020515257 -0.07558665 0.096180886
000360 60 ed f1 3c 1d e8 ad 3d 40 73 9f bc 62 78 6c bd
       0.029532135 0.08491538 -0.019464135 -0.057731993
000370 3c 07 c4 3d 7d 20 f7 3c 39 3b df bd 10 bd 09 bd
       0.09571692 0.030166859 -0.10899968 -0.03362757
000380 2c 8f d3 bd bb 93 48 bd 44 7f 8d bd e8 d5 1b 3d
       -0.10330042 -0.04896901 -0.069090396 0.038045794
000390 82 bf f1 bd 54 2c 78 3d 29 c6 72 3c da 88 d9 bd
       -0.11804105 0.06058915 0.014817753 -0.106218055
0003a0 55 7e 3e bd 40 28 6f bc da c9 ad bd a4 9c 9b 3d
       -0.0465072 -0.014596999 -0.08485766 0.07598236
0003b0 7d 0b 59 3d 3e 24 12 be 1f c0 18 be 80 0d 0a 3b
       0.05298947 -0.14271638 -0.14917038 0.0021065176
0003c0 5e f3 36 3b b7 62 23 3c 39 07 83 3d 53 82 07 be
       0.0027916054 0.009972266 0.06397862 -0.13233308
0003d0 0a a2 87 bd d0 3b 39 3c 70 09 da bd ee 6c e2 bc
       -0.066227034 0.011305764 -0.10646331 -0.027639832
0003e0 4a 28 49 3d 6d 09 82 3d 00 94 e9 3c e6 18 45 bc
       0.04911069 0.06349454 0.028512955 -0.012029862
0003f0 7c 5f 00 be 21 3d f9 bd 40 9d 06 bb 3d 69 53 3c
       -0.12536424 -0.121698625 -0.0020540506 0.012903509

fc2.bias f4 [64]
000000 70 24 0d 3d 53 25 12 40 56 c9 d1 3f ac 39 6a bc
       0.034458578 2.283528 1.6389568 -0.014295977
000010 36 25 03 3f d3 5d 99 bd e8 ef 3f bf 17 91 db 3f
       0.51228654 -0.07488599 -0.7497544 1.7153653
000020 c2 b2 cb bd 77 2f 0c 40 4f 66 6b 3e 97 1d e3 3f
       -0.09946205 2.190397 0.22988246 1.7743405
000030 5b ac a1 bf 2b da 0c 40 4b 11 4f 3d 87 e9 c0 3c
       -1.2630724 2.200816 0.0505536 0.023548855
000040 b9 17 00 40 21 cf b5 bd 34 96 08 bd 86 84 f9 3f
       2.001448 -0.08877397 -0.03334637 1.9493568
000050 06 c4 cb 3d 00 7a d0 ba 38 3c 86 3d d9 d2 66 3d
       0.09949498 -0.00159055 0.065544546 0.056353424
000060 37 f1 20 bf 0a 27 d6 3f 3a 46 e5 3f f0 5c 02 40
       -0.62868065 1.6730664 1.7912056 2.0369225
000070 5d 41 06 be 21 38 03 40 5c e6 e3 bd bc 9a d7 be
       -0.13110872 2.0503008 -0.11127922 -0.4211024
000080 83 24 ea 3f c7 68 8b 3d d8 40 2b 3f 41 f6 76 3f
       1.8292392 0.06807094 0.6689582 0.96469504
000090 b1 9c f4 3f 9b a2 2b be e9 d7 eb 3f bb 59 fe bf
       1.9110318 -0.16761248 1.8425266 -1.9871134
0000a0 4c e1 2c 3f fe 1a 52 3f 2c 42 bd 3f 9a 39 68 3f
       0.67531276 0.82072437 1.4785819 0.90712893
0000b0 1f 41 82 3f 44 b8 5e 3c 15 1c 0b 40 c7 f5 a6 3f
       1.0176123 0.013593737 2.173589 1.3043755
0000c0 98 c8 d2 3f d8 b1 4b bd 19 c6 f2 3f 59 87 f0 3f
       1.6467466 -0.049730152 1.8966705 1.8791305
0000d0 1a fe 13 bb 88 a9 f9 bc 7d 59 0f be cc e4 fe bd
       -0.0022581876 -0.030476347 -0.13998981 -0.12445983
0000e0 9a 55 83 3f a4 ec 14 40 9a 42 2f bd c3 27 8c bd
       1.0260499 2.3269434 -0.042788126 -0.068435214
0000f0 37 45 d0 3a fa 42 b6 3f ed 11 9c bd 5a 7d 07 40
       0.0015889768 1.423919 -0.076206066 2.1170259

fc3.weight f4 [20, 64]
000000 40 8d 39 bc 57 3d ac bf 0f ad a9 3e 7e e5 f1 3d
       -0.0113251805 -1.345622 0.33139846 0.1181135
000010 80 29 77 3e 90 b2 9f bd dd c1 86 be 2d 0b c6 3e
       0.24136925 -0.0779773 -0.2631978 0.386804
000020 ca 45 10 3d 4f 7e ed 3e 16 d8 10 bd 74 6f c6 3e
       0.035222806 0.46385428 -0.035362326 0.38756907
000030 b8 e5 df be ed 7a 22 3f a9 bf da bd 52 e4 1e bd
       -0.4372995 0.6346882 -0.106810875 -0.038791962
000040 59 79 a6 3e 04 a2 5c bd 5a 62 a9 bd ea 96 14 3f
       0.32514456 -0.053865448 -0.08270712 0.58042777
000050 a0 49 af 3d 45 0e d1 3d 2d 6e 5a 3d b8 a4 67 3d
       0.08558965 0.102078 0.053327728 0.056553572
000060 cf 22 99 be f8 5e 97 3e e5 9b a4 3e 2e ab 2e 3f
       -0.2990937 0.29564643 0.32150188 0.6822995
000070 da 7f e4 bb d4 a3 08 3f b5 2c 1e 3d a7 b0 23 be
       -0.006973249 0.5337498 0.038616855 -0.15985356
000080 6f f5 87 3e f1 ff b8 3d 05 81 d4 bb 29 f3 42 3e
       0.26554438 0.09033192 -0.006485107 0.1903807
000090 b3 d2 06 3f 2c 1a be bd 9e 81 94 3e ff 6a 1f bf
       0.5266525 -0.09282336 0.2900514 -0.6227264
0000a0 d0 ec 01 3d 66 f2 7d 3f 68 01 b1 3e ef 43 b2 3d
       0.031719983 0.99197996 0.34571385 0.087043636
0000b0 cc c4 a0 3e 19 ec ff bc 7f 9c 89 bf 2d 1f 49 3e
       0.31400144 -0.03124051 -1.0750884 0.19640799
0000c0 d4 f1 27 3f b8 63 f1 3d f8 c0 95 3e 50 01 8b bf
       0.65603375 0.11786598 0.29248786 -1.0859776
0000d0 cc 9e 68 bd 5f 36 ad bd 62 ac a7 3d ca c4 8a bd
       -0.056792066 -0.08457636 0.08187176 -0.06775816
0000e0 49 24 04 3d f4 27 eb 3e 80 fb 5a bd 20 47 62 bd
       0.032261167 0.4592892 -0.053462505 -0.05524361
0000f0 75 e4 f1 bd b2 cc a4 3e 44 63 06 bd 20 31 d3 3e
       -0.11811153 0.3218742 -0.03280951 0.41248417
000100 7e a9 fb 3d cc e0 3a bf 20 cc 13 3e 04 38 51 bd
       0.122881874 -0.7299926 0.14433336 -0.05107881
000110 bd 03 c2 3d 1e 0b b3 bd 08 fb f9 3c 30 b5 9b 3e
       0.09473369 -0.08742355 0.030515209 0.30411673
000120 8d 72 8b bc 2d dd b1 3e a9 8e 27 bd d9 b2 a7 3e
       -0.017022396 0.34739056 -0.040907536 0.32753637
000130 76 2b c2 bd 60 2e cf 3e f5 68 22 3c 36 49 af 3d
       -0.09480946 0.4046507 0.009912719 0.08558886
000140 cb 28 81 3e 68 c7 8c bd 58 1f b3 3d 86 36 f1 3e
       0.25226435 -0.06873971 0.08746213 0.4711191
000150 42 64 94 bd ce e2 a9 bd 94 5b fa bd d4 27 ab 3d
       -0.07245685 -0.08295213 -0.122244984 0.08357206
000160 0d d8 9a bc 92 d5 3a 3e 47 b5 07 3e 54 19 ab 3e
       -0.01890185 0.18245533 0.13252746 0.3341776
000170 43 3b b6 3b 66 29 e2 3e 7c 3a 8f 3d 32 78 80 bd
       0.0055612638 0.4417221 0.06993577 -0.062729254
000180 25 ad 26 3e 20 62 d2 bc 78 27 f9 3c c7 95 9c 3e
       0.16276987 -0.025681555 0.030414328 0.3058302
000190 b3 2b 96 3e 10 51 d2 3d 77 64 77 3e 69 bc 68 be
       0.29330215 0.10269368 0.24159418 -0.22728123
0001a0 06 3c f4 bc 52 5d f1 bd c4 bc de 3e 05 e8 1b 3d
       -0.029813778 -0.117853776 0.43503392 0.038063068
0001b0 49 b2 18 3f d5 d6 7c bb 64 a0 58 bf 58 0b eb 3b
       0.5964704 -0.0038580198 -0.84619737 0.007172983
0001c0 57 02 ab 3e fc a6 9e bd c9 72 80 3e cf 2d 1f bf
       0.33400223 -0.077466935 0.25087574 -0.62179273
0001d0 6e 11 a4 3d e0 29 e2 bd f0 4c de bd 4c 17 8a 3d
       0.08011137 -0.11043143 -0.108545184 0.06742725
0001e0 6f 4d cf 3d f2 84 0d 3f e6 ff a3 3d 9f 9b d9 bd
       0.10122191 0.55280983 0.08007793 -0.106253855
0001f0 39 9c 35 3d fb 1e 7f 3c df 75 b3 bd 7c 50 a4 3e
       0.04433844 0.015571351 -0.087627165 0.32092655
000200 90 f8 f5 bd c6 78 44 bf 57 01 67 3d 00 f2 c4 bc
       -0.120103 -0.76746786 0.056397762 -0.024041176
000210 c8 db b4 3d c0 bc 8d bb b0 bd 8f bd 72 22 b6 3e
       0.088309824 -0.0043254793 -0.07018602 0.35573155
000220 f2 ba 93 bd aa 72 b6 3e c6 33 0a 3e 2c c5 e0 3e
       -0.07213391 0.35634357 0.13496312 0.4390043
000230 10 ea 52 be b3 85 08 3f 2a b8 73 3d 86 3d da 39
       -0.205971 0.5332901 0.059501804 0.0004162604
000240 da b5 6e 3e 40 b3 76 3b a6 c9 19 bd 53 41 e6 3e
       0.23311558 0.0037643462 -0.037545823 0.44971713
000250 64 53 13 3d 12 8d e8 3d f8 52 70 3d ce fa fe 3d
       0.0359682 0.11355032 0.058672875 0.12450181
000260 59 05 d6 bc 8f fd 9f 3d e6 9c 61 3e b4 87 00 3f
       -0.026125597 0.07812034 0.22032508 0.50207067
000270 39 a4 02 3e 61 42 fd 3e bf d1 81 bd 2c 07 9b bb
       0.12757958 0.49464706 -0.06338834 -0.0047310796
000280 fb a5 33 3e ee ad 89 3d a3 05 66 bd 43 54 d8 3e
       0.17543785 0.067226276 -0.05615772 0.42251787
000290 69 c6 9a 3e 61 83 e8 3d f4 6b b7 3d 9e 88 37 be
       0.302295 0.113531835 0.08956137 -0.17923209
0002a0 e0 2e 0d be a1 0a 85 be d2 dc c8 3e f4 8e e2 bd
       -0.13787413 -0.25984672 0.39230973 -0.110624224
0002b0 e6 32 d8 3e f0 45 bf bd 4d ec 5d bf 42 c7 25 3e
       0.42226332 -0.093395114 -0.8668869 0.16189292
0002c0 3d 1f 8e 3e 29 64 fc bd e0 fb 5d 3e 6c a6 14 bf
       0.27758208 -0.123237915 0.21678114 -0.5806644
0002d0 a9 5d 56 3d 00 e5 bf bb 44 b4 3e bd 0f 19 66 bd
       0.052335415 -0.0058561563 -0.046558633 -0.05617624
0002e0 3d e3 34 3e 3e f4 de 3e 28 38 4c bd ac 53 16 3c
       0.1766481 0.43545717 -0.049858242 0.009175222
0002f0 ad 61 ba 3c d1 74 15 be 8a 30 b0 3d a8 48 91 3e
       0.022751654 -0.14595343 0.08603008 0.28375745
000300 20 e6 52 bd 4a 60 13 bf 0f 6b 14 3d 56 13 e5 bd
       -0.051488996 -0.575688 0.03623491 -0.11185329
000310 9a d6 7b bd 4d 55 43 3d 6e a2 84 be 00 44 92 3e
       -0.061483957 0.04768877 -0.25905174 0.28567505
000320 69 87 8d 3d 2f 10 b3 3e 0a dc a1 3d 08 4f 4f 3e
       0.06910593 0.34973285 0.07903297 0.20244992
000330 b1 e5 34 be 3d 79 09 3f cf 29 9c bd 98 5f 0a 3d
       -0.17665745 0.5370062 -0.07625162 0.03378257
000340 9a 95 20 3e 78 12 88 3d 92 a6 7c 3d 4c 1d b7 3e
       0.15682068 0.06644148 0.06168229 0.3576454
000350 e8 c6 94 3d 00 95 78 3a 45 3a ab 3d b8 d9 71 3d
       0.07264501 0.0009482652 0.083607234 0.059045523
000360 43 1f 89 be b5 13 37 3e e8 b2 6f 3e 09 09 bb 3e
       -0.26781663 0.17878611 0.23408091 0.3653033
000370 f0 12 df 3d c8 b8 ba 3e bd ad 21 bd 34 7b b6 bd
       0.10892284 0.36469102 -0.03947233 -0.08910218
000380 6f b5 82 3e 66 54 10 be a6 b9 3e be af 4d b0 3e
       0.25529048 -0.14094695 -0.18625507 0.34434268
000390 f0 c9 2d 3e 5b af 43 39 43 73 3d 3e bd cc b8 be
       0.16971564 0.00018661974 0.18501 -0.36093703
0003a0 f1 a3 bf bd 10 0a 22 be af 13 a4 3e 40 ce 35 3e
       -0.09357441 -0.15824151 0.32046267 0.1775446
0003b0 30 22 ba 3e 6c 25 f1 3c 0b b5 22 bf e5 5e 0b 3e
       0.36354208 0.02943679 -0.635575 0.13610418
0003c0 5e 98 01 3f b0 08 46 3c 91 cb 9b 3e 12 d1 40 bf
       0.5062312 0.012087032 0.30428746 -0.75319016
0003d0 06 20 cb 3d c8 b8 39 3d e0 66 85 3c 04 9f b3 3d
       0.09918217 0.045342237 0.016284406 0.08770564
0003e0 31 3d 5b 3e a9 8e c5 3e be 39 38 bd 36 64 c4 bd
       0.21410061 0.38585404 -0.044976942 -0.09589426
0003f0 7e a6 cf 3d 0f 5e 93 bd 58 04 d8 3d 49 67 a5 3e
       0.10139178 -0.07195675 0.105477035 0.32305363

fc3.bias f4 [20]
000000 ea 87 d3 3f cc af 68 3f 55 43 5f 3f 6e 12 24 3f
       1.6525853 0.90893245 0.87212116 0.6409062
000010 85 5d 18 3f ab dd dd 3e 83 05 4e 3e 05 27 a5 3e
       0.595177 0.43333182 0.2011929 0.32256332
000020 5a 8d bf 3e ba 15 52 3e d0 8d 14 3e b6 af 98 bd
       0.3741253 0.205161 0.14507222 -0.07455389
000030 06 e9 6c 3e b7 77 c6 bd 4f 5d 64 be 7e cc 18 be
       0.23135766 -0.096908025 -0.2230122 -0.14921758
000040 4d 3f 1a be c2 05 f7 be 26 1a bd be a6 7e c5 be
       -0.1506321 -0.4824658 -0.36934012 -0.38573188
