models/dqn_agent_firm_1_episode_500.pth (torch, 101190 bytes, 24 tensors)

fc1.weight f4 [64, 3]
0	0x3d1947a6	0.037421845
1	0xbe048ba4	-0.12943894
2	0xbb250885	-0.002518208
3	0xbe99a1e9	-0.3000634
4	0x3f1f6eb5	0.622783
5	0xbdf67043	-0.12033131
6	0x3e4b71dc	0.19867653
7	0x3e143a32	0.14475325
8	0xbf17e4da	-0.59333575
9	0xbe898a0f	-0.26863143
10	0xbe0bb15d	-0.13641877
11	0xbe98bb5e	-0.2983045
12	0xbf2402db	-0.6406686
13	0xbe826848	-0.25470185
14	0x3e8f9658	0.2804439
15	0x3f3cb5bc	0.73714805
16	0x3f159e50	0.5844469
17	0x3e96f285	0.29481903
18	0x3f1b066a	0.6055666
19	0xbdd5933a	-0.10428472
20	0xbc4e89f7	-0.012606136
21	0x3c0bceec	0.008533221
22	0x3eee911f	0.46595094
23	0x3ea7cfd2	0.32775742
24	0xbf25fbe6	-0.6483749
25	0x3ec23562	0.37931353
26	0x3dc79b47	0.09746414
27	0xbd7bfeb9	-0.06152222
28	0x3f2841e8	0.65725565
29	0x3eb91c71	0.36154512
30	0xbe229ef9	-0.15880956
31	0xbf3a0183	-0.72658557
32	0x3eaaa58d	0.3332943
33	0xbef6dd46	-0.48215693
34	0x3d1e4098	0.03863582
35	0xbdb0d653	-0.08634629
36	0xbf0b9274	-0.54520345
37	0xbee36290	-0.44411135
38	0xbe7a19a7	-0.24423848
39	0x3f32a93a	0.6978947
40	0xbe4eff50	-0.20214581
41	0x39a3aebd	0.00031219973
42	0x3ee1dd34	0.44114077
43	0xbe040745	-0.12893398
44	0x3be1b294	0.0068877432
45	0xbec4adbd	-0.38413802
46	0x3e804efb	0.25060257
47	0x3dff07f3	0.12452688
48	0xbeb5fd52	-0.3554483
49	0xbdecf3ea	-0.115699604
50	0x3e13fa7d	0.14451022
51	0xbeb73595	-0.35783067
52	0xbe77b1d6	-0.24188933
53	0xbb3944c5	-0.002826975
54	0x3eac8049	0.33691624
55	0x3e848191	0.258801
56	0x3eed227c	0.46315372
57	0xbea5f52c	-0.32413614
58	0xbefea0fc	-0.49732196
59	0x3ebcabe6	0.36849898
60	0x3eaa8260	0.33302593
61	0xbea1c234	-0.31593478
62	0x3e7f91fe	0.24958035
63	0x3d92701a	0.07150288
64	0xbda68ed2	-0.081327096
65	0xbc700bf9	-0.014651292
66	0xbe5477fd	-0.20748897
67	0x3e85c2a8	0.26125073
68	0xbdd3c7a8	-0.10340816
69	0xbf1f3eed	-0.6220539
70	0x3f064bb7	0.5245928
71	0x3e65a084	0.22424513
72	0xbec77c57	-0.3896205
73	0xbec8b92f	-0.39203784
74	0x3e9f84e1	0.31156066
75	0x3e561695	0.20907052
76	0x3e7f3b3c	0.2492494
77	0xbcc84f4a	-0.02445187
78	0x3eaa468b	0.33256945
79	0xbf119572	-0.5686866
80	0x3e96d079	0.29455927
81	0xbd099557	-0.033589687
82	0xbda9b4de	-0.08286451
83	0x3d1ca2e7	0.038241293
84	0xbea71492	-0.3263288
85	0xbe803fd1	-0.25048688
86	0xbeaeb565	-0.34122768
87	0xbdfd58f7	-0.12370484
88	0xbeb5844c	-0.35452497
89	0xbf132676	-0.5748056
90	0xbe2f3c96	-0.17112955
91	0xbf0b4794	-0.54406095
92	0xbd9429f7	-0.07234567
93	0xbf513c2d	-0.81732446
94	0x3eb92a85	0.36165252
95	0x3d6a003f	0.05712914
96	0x3e9c725d	0.30556002
97	0xbf16a8c4	-0.58851266
98	0x3e704a42	0.23465827
99	0x3bb166a5	0.0054138475
100	0x3db248d9	0.08705301
101	0xbe400783	-0.18752865
102	0xbd2570e6	-0.04039087
103	0xbe2a7b47	-0.16648589
104	0xbe1e5234	-0.15461046
105	0xbea26bfb	-0.31723008
106	0xbebc5231	-0.36781457
107	0xbec53147	-0.38514158
108	0x3eaab268	0.33339238
109	0x3c3bf338	0.011471562
110	0x3c847ea7	0.016173674
111	0xbe1e40d9	-0.15454425
112	0xbeb34b92	-0.35018593
113	0xbed27849	-0.41107395
114	0x3ec27dc3	0.37986574
115	0x3da6c259	0.081425376
116	0x3d3c1bdd	0.04592501
117	0xbf1b961b	-0.6077592
118	0xbe0362ff	-0.12830733
119	0x3d93dcae	0.07219826
120	0xbe543ac8	-0.20725548
121	0x3f55ee6e	0.8356694
122	0x3f0e8ddb	0.55685204
123	0x3cd00e01	0.025397303
124	0xbc4d3f34	-0.012527276
125	0xbe6091f5	-0.21930678
126	0xbedd6523	-0.43241224
127	0xbf3acf49	-0.7297254
128	0x3e6a00b0	0.22851825
129	0x3da319be	0.07963894
130	0x3ef04e58	0.46934772
131	0xbd0b87bd	-0.034064997
132	0x3ec65cab	0.38742575
133	0x3e215749	0.15755953
134	0xbeb617db	-0.35565075
135	0x3ea3ba34	0.31978
136	0x3f2090f4	0.6272118
137	0xbda82abb	-0.08211275
138	0x3e821676	0.2540776
139	0x3f053aff	0.52043146
140	0x3e0cc53a	0.13747111
141	0x3dd826df	0.10554289
142	0xbd1c69c4	-0.038186803
143	0xbe34e474	-0.17665273
144	0x3e0ea59f	0.13930367
145	0x3e7a536e	0.24445888
146	0xbe876c64	-0.26449883
147	0xbdd09c6e	-0.101860866
148	0x3e90d578	0.28287864
149	0xbca04b56	-0.019567173
150	0x3e7221af	0.23645662
151	0xbe1217a0	-0.14266825
152	0xbeef8f4c	-0.46789014
153	0xbe5654f7	-0.20930849
154	0x3edac207	0.42726156
155	0x3bf25d3e	0.0073963692
156	0xbef01f06	-0.4689867
157	0x3f01ade8	0.50655985
158	0x3d5b91b4	0.05360575
159	0xbefe238e	-0.496365
160	0xbe08e37c	-0.13368028
161	0xbf0f5be2	-0.5599958
162	0xbe3b0f1e	-0.18267485
163	0xbeb3c742	-0.3511296
164	0x3eacbcd4	0.33737814
165	0xbeabcc96	-0.33554524
166	0x3dc12626	0.09431104
167	0x3ec614ba	0.38687688
168	0xbe90f9e5	-0.28315654
169	0x3da482b9	0.08032746
170	0x3d455593	0.048177313
171	0x3f1bab6f	0.6080846
172	0x3ee1e4cb	0.44119868
173	0xbe501604	-0.20320898
174	0x3e81ee92	0.25377327
175	0x3f114a67	0.56754154
176	0x3d879a0e	0.066211805
177	0xbdd39c52	-0.1033255
178	0x3ec5a84d	0.38604966
179	0xbc8d709d	-0.017265612
180	0xbe8e92e4	-0.27846444
181	0xbe0ee683	-0.1395512
182	0x3da3dc25	0.080009736
183	0xbe0ed5c5	-0.13948734
184	0x3eada995	0.33918443
185	0xbf411dce	-0.75436103
186	0x3dd649c9	0.10463292
187	0xbeac08d1	-0.33600476
188	0x3e861101	0.26184848
189	0x3f6f8f8f	0.9357843
190	0x3ebd8acd	0.3701996
191	0xbe199049	-0.14996447

fc1.bias f4 [64]
0	0x40403064	3.0029535
1	0x3ff5bae0	1.9197655
2	0x402d0705	2.7035534
3	0xbee39790	-0.4445157
4	0xc00cd422	-2.2004476
5	0xbf95eec2	-1.1713488
6	0x40368b8e	2.8522677
7	0xbf1fb7cd	-0.6238983
8	0x403534e8	2.8313541
9	0xc006cbe9	-2.1061957
10	0x3e4db757	0.2008947
11	0xbefe240d	-0.4963688
12	0x3ef08adf	0.4698095
13	0x406f6492	3.7405133
14	0x3fffddac	1.9989524
15	0x3f3d3820	0.73913765
16	0x407daf7f	3.9638364
17	0xbed73396	-0.42031544
18	0xc00ed821	-2.2319415
19	0xbff56436	-1.9171207
20	0x3ffd8860	1.9807243
21	0x40465512	3.0989423
22	0x40580bd7	3.3757226
23	0xbfd19b1b	-1.637546
24	0x3fd5a5a0	1.669117
25	0x400c7837	2.1948373
26	0xbf9192c8	-1.1372919
27	0x3f7543a6	0.9580635
28	0x3e9d8a58	0.3076961
29	0xbe500697	-0.20315014
30	0x3ea4c45d	0.32181063
31	0x3f99ae84	1.2006383
32	0x4040fe84	3.0155344
33	0x405f3188	3.4873981
34	0x3e3215ab	0.17391078
35	0xbf00639e	-0.50152004
36	0x3eac3128	0.33631253
37	0xbef1e66b	-0.47246107
38	0xbedccf77	-0.43127033
39	0x40136857	2.3032434
40	0xc00fb8d8	-2.245657
41	0xbb8132aa	-0.003942807
42	0xbe0606c0	-0.13088512
43	0x4025a484	2.5881662
44	0x4040e23e	3.0138087
45	0x4031cb51	2.7780344
46	0xbf23e1ab	-0.64016217
47	0x3dcd9b54	0.10039392
48	0x40455ecb	3.0839107
49	0x4061b68d	3.526767
50	0x401725d9	2.361685
51	0x403edb63	2.9821403
52	0x403b2b33	2.9245117
53	0xbea46690	-0.321095
54	0x4003b0f2	2.057675
55	0x3faa2c50	1.3294773
56	0x4052c53d	3.2932885
57	0x3fab7b46	1.3396995
58	0xbfa9500b	-1.3227552
59	0x40584426	3.3791595
60	0x4069e797	3.6547601
61	0x400f70da	2.241263
62	0xc045cdf5	-3.0906956
63	0x3f987486	1.191056

fc2.weight f4 [64, 64]
0	0x3dd5c18a	0.10437305
1	0x3dafe148	0.08587891
2	0xbd1e2a84	-0.038614765
3	0xbd8a9fec	-0.06768784
4	0x3de41e50	0.11138594
5	0xbbbf5360	-0.0058387965
6	0x3d184a40	0.037180185
7	0xbcb7b9f8	-0.022427544
8	0x3cd791e8	0.02631469
9	0x3d5096e0	0.050925136
10	0x3ddd84e0	0.108163595
11	0x3d132498	0.03592357
12	0xbdf145dc	-0.11780903
13	0xbdf821f6	-0.121158525
14	0xbc8f51e8	-0.01749511
15	0x3d3f96fc	0.04677485
16	0xbc035e30	-0.0080180615
17	0xbde7a792	-0.113112584
18	0xbd0753b4	-0.03303881
19	0xbd8c7c68	-0.06859666
20	0xbdba4c66	-0.09096603
21	0xbcb52a38	-0.022114858
22	0xbdd91a6c	-0.10600743
23	0xbbe9a180	-0.007129848
24	0xbcea5300	-0.02860403
25	0x3d53c5a0	0.05170214
26	0xbddd9b1e	-0.10820602
27	0xbddeffc2	-0.10888626
28	0xbcdfb8d8	-0.02730982
29	0x3b85bd20	0.0040813833
30	0xbde543f0	-0.11194599
31	0x3d1c78fc	0.038201317
32	0x3d1a8ad8	0.037730068
33	0x3d9ee592	0.07758631
34	0x3d398d58	0.04530081
35	0xbc451220	-0.012028247
36	0x3dbd18a0	0.092332125
37	0xbda666d4	-0.08125082
38	0xbcbab1e0	-0.022789896
39	0xbd020848	-0.03174618
40	0xbddafe66	-0.10693054
41	0x3ddf6748	0.10908371
42	0xbdb9ef12	-0.09078802
43	0xbdf55a6c	-0.11980137
44	0xbd899cd2	-0.06719364
45	0xbcdf7698	-0.02727823
46	0xbdfa58ac	-0.12223944
47	0x3d29404c	0.041321084
48	0x3dec2bf0	0.11531818
49	0xbde2f20a	-0.110813215
50	0xbdb47454	-0.0881125
51	0x3dc32c54	0.09529939
52	0xbdd3f47a	-0.103493646
53	0x3c66d7d0	0.01408954
54	0x3cf73078	0.030174479
55	0xbdffd784	-0.12492278
56	0xbdf1ce24	-0.11806896
57	0x3d6c6288	0.057711154
58	0xbbb457c0	-0.0055036247
59	0x3de4c3ce	0.11170159
60	0x3b5e2b00	0.0033900142
61	0x3de062da	0.109563544
62	0x3cc04ee8	0.023475125
63	0x3dfa3396	0.122168705
64	0x3f5995c0	0.84994125
65	0x3ed181e6	0.40919417
66	0x3f6573c7	0.8962979
67	0xbd81a676	-0.06330578
68	0xbf3dba14	-0.7411206
69	0xbe9a895b	-0.3018292
70	0x3ef0ca04	0.47029126
71	0xbe882a40	-0.26594734
72	0x3e85b4e1	0.26114562
73	0xbf19b21f	-0.60037416
74	0xbe36bccb	-0.17845456
75	0x3d9d1e06	0.07671742
76	0xbb78f2c0	-0.0037986487
77	0x3f41deed	0.7573078
78	0x3e6afed1	0.22948767
79	0x3d03e05e	0.032196395
80	0x3fab5ec7	1.3388299
81	0xbdf61152	-0.12015022
82	0xbefbab23	-0.49154004
83	0xbf37f3e6	-0.71856534
84	0x3d5ae83e	0.05344414
85	0x3f19869d	0.5997103
86	0x3fdb67b0	1.7141018
87	0xbe97b32a	-0.2962888
88	0x3e271c95	0.16319497
89	0x3e5f5ee1	0.21813537
90	0xbe05db45	-0.13071926
91	0x3dc24608	0.09486014
92	0xbd788a3c	-0.060678706
93	0x3d4518a8	0.048119217
94	0xbdc757a6	-0.097335145
95	0x3c4122d4	0.011788089
96	0x3ea887dd	0.32916155
97	0x4001f67a	2.0306687
98	0xbda446fe	-0.08021353
99	0xbd2c2090	-0.04202324
100	0xbdeddaf0	-0.11614025
101	0x3dff5870	0.1246804
102	0xbdee6e69	-0.11642153
103	0x3f160c58	0.58612585
104	0xbf29eb67	-0.6637482
105	0x3cdb1fc8	0.026748553
106	0xbf5dadc8	-0.86593294
107	0x3e9bcb28	0.30428433
108	0x3fc6204b	1.5478605
109	0x3f096d0e	0.5368203
110	0xbdac0f8f	-0.08401405
111	0x3d931fd2	0.071838036
112	0x3fb1eb12	1.3899863
113	0x3f1975bb	0.5994527
114	0x3fc1404d	1.5097748
115	0x3f269e91	0.65085703
116	0x3e88900f	0.26672408
117	0xbd31295c	-0.043252334
118	0x3e103285	0.14081772
119	0xbc64623c	-0.0139394365
120	0x3f938259	1.1524154
121	0x3cff3020	0.031150877
122	0xbe954ca4	-0.29160035
123	0x3f3c82f8	0.7363734
124	0x3f84af8e	1.0366075
125	0x3f48959a	0.78353274
126	0xbe3498d2	-0.17636421
127	0x3df94d70	0.12172973
128	0x3ea06a89	0.3133128
129	0x3d74bfd2	0.059753247
130	0x3f1e954f	0.61946577
131	0xbd6d28b4	-0.057900146
132	0x3da65312	0.08121313
133	0xbe111ed2	-0.14171913
134	0x3e431007	0.19049083
135	0xbd84ce8b	-0.064847074
136	0x3dd6a933	0.10481491
137	0x3c8d01b8	0.017212734
138	0x3d5622e8	0.052279383
139	0x3d3e8740	0.046515703
140	0xbdf01ba6	-0.117240235
141	0x3e63869b	0.22219317
142	0xbd63feee	-0.05566304
143	0xbd5d599a	-0.05404053
144	0x3ecd18ba	0.40057927
145	0x3dc5b07c	0.09652802
146	0xbd6df77b	-0.058097344
147	0xbc10cada	-0.008837426
148	0xbd35516e	-0.04426711
149	0x3e542845	0.20718487
150	0xbb3edad9	-0.0029122143
151	0xbdf70477	-0.120613985
152	0x3e4ee942	0.20206168
153	0xbe0543b6	-0.13014111
154	0x3d73de13	0.05953796
155	0xbdc4e737	-0.09614413
156	0xbddb5650	-0.10709822
157	0xbcc4d3b8	-0.024026737
158	0xbdb22a02	-0.086994186
159	0x3cddc488	0.027071252
160	0x3c3ef440	0.011654913
161	0x39921094	0.00027859642
162	0xbb510d00	-0.0031898618
163	0x3d7dea30	0.061990917
164	0x3d5970ec	0.053086206
165	0xbdd120b6	-0.10211317
166	0xbd2e06c2	-0.042486914
167	0x3e826371	0.25466493
168	0xbd68b4d1	-0.056813065
169	0x39526800	0.00020065904
170	0xbba9a482	-0.0051770816
171	0x3d77811e	0.06042587
172	0x3e8dcbb2	0.2769447
173	0xbeabd4aa	-0.33560687
174	0xbe30dea7	-0.17272435
175	0x3d9aa33c	0.07550666
176	0x3d122972	0.035684057
177	0x3e8be259	0.27321127
178	0x3ec7b78d	0.39007226
179	0x3e7ff062	0.24994043
180	0x3e19acab	0.15007274
181	0xbd4cb90c	-0.049981162
182	0x3e1b94a2	0.15193418
183	0xbcedc6dd	-0.02902549
184	0x3f2144e0	0.6299572
185	0xbe042be9	-0.12907375
186	0xbd9ed43d	-0.07755325
187	0x3ea54035	0.3227555
188	0x3eae0653	0.339892
189	0x3f328a79	0.6974254
190	0xbd9fbf33	-0.0780014
191	0xbf277ba7	-0.65423054
192	0xbd8700f0	-0.06591976
193	0xbcd70690	-0.026248246
194	0x3cc0b8c8	0.02352561
195	0x3d8662fa	0.06561847
196	0x3d0bb3e4	0.034107104
197	0x3bd647c0	0.006539315
198	0xbda19e5a	-0.07891531
199	0xbc7ea690	-0.015542641
200	0x3cb92b70	0.02260372
201	0xbd9783e8	-0.07398206
202	0xbdca89d2	-0.098895684
203	0xbdce5c64	-0.10076216
204	0x3c747ce0	0.014922351
205	0x3dbdd79e	0.09269641
206	0xbd45815c	-0.04821907
207	0xbdc2ddf6	-0.09514992
208	0x3d9adf14	0.0756208
209	0xbd18fa18	-0.037347883
210	0xbd553e20	-0.0520612
211	0x3d6295bc	0.05531858
212	0xbdcc6282	-0.099797264
213	0x3bfea060	0.007770583
214	0xbd41bc74	-0.047298864
215	0x3dfee7d0	0.124465585
216	0x3cf1ed60	0.029532135
217	0x3de7d522	0.11319949
218	0xbc9f7340	-0.019464135
219	0xbcf28178	-0.029602751
220	0x3dc4073c	0.09571692
221	0x3cf72070	0.030166835
222	0xbddf3acc	-0.108998865
223	0xbbaf1260	-0.0053427666
224	0xbdd38f2c	-0.10330042
225	0xbca96ba0	-0.020681202
226	0xbd8d7f44	-0.069090396
227	0x3d1bd5e8	0.038045794
228	0xbdb7d284	-0.089756995
229	0x3d782c54	0.06058915
230	0x3d308c6c	0.043102667
231	0xbdd988da	-0.106218055
232	0xbc954688	-0.018222108
233	0xbc6f2840	-0.014596999
234	0xbdadc9da	-0.08485766
235	0x3dd58b44	0.104269534
236	0x3da67384	0.081275016
237	0xbdea5710	-0.11442387
238	0xbdf7945c	-0.12088844
239	0x3b0a0d80	0.0021065176
240	0x3cfe9600	0.031077385
241	0x3d1cb47c	0.03825806
242	0x3dbcf2ca	0.09225996
243	0xbdd516d4	-0.10404745
244	0xbd1b65f4	-0.037939027
245	0x3c393bd0	0.011305764
246	0xbdda0970	-0.10646331
247	0x3a296e00	0.00064632297
248	0x3d9e814c	0.07739505
249	0x3dbbf5ae	0.09177719
250	0x3d68a4e0	0.056797862
251	0x3c852b70	0.016256064
252	0xbdc6d0b6	-0.09707777
253	0xbdbf4d10	-0.093408704
254	0xbb069d40	-0.0020540506
255	0x3d28b67c	0.041189656

fc2.bias f4 [64]
0	0x3d71d4fc	0.05904101
1	0x40087175	2.1319249
2	0x3fbaeea6	1.460408
3	0x3c653080	0.013988614
4	0x3ee57465	0.44815364
5	0xbd997aaf	-0.07494103
6	0xbeeba936	-0.46027535
7	0x3fc107ab	1.5080465
8	0xbdcc7f19	-0.099851795
9	0x3ffeedc1	1.9916307
10	0x3e83e020	0.2575693
11	0x3fcc1030	1.594244
12	0xbf7c11b3	-0.98464507
13	0x3fffa5b2	1.9972441
14	0x3d4ee6bb	0.05051301
15	0x3cc01d9e	0.023451623
16	0x3fe907bc	1.8205485
17	0xbd912151	-0.07086433
18	0xbd089634	-0.03334637
19	0x3fdda7ba	1.7316811
20	0x3dcbc406	0.09949498
21	0xbad07a00	-0.00159055
22	0x3d8490a3	0.064729
23	0x3d66a6d3	0.05631144
24	0xbea16a25	-0.31526294
25	0x3fc11293	1.5083793
26	0x3fcddfdb	1.608394
27	0x3fe9bee0	1.8261375
28	0xbe065741	-0.13119222
29	0x3fed665c	1.8546863
30	0xbde3edd0	-0.111293435
31	0xbe474236	-0.19458851
32	0x3fd4f11c	1.6636081
33	0x3d8b58ff	0.06804084
34	0x3f2dff78	0.6796794
35	0x3f4ac023	0.7919943
36	0x3fda9971	1.7078077
37	0xbe2c68e6	-0.1683689
38	0x3fd3ee9a	1.655719
39	0xbfdb4df5	-1.7133166
40	0x3f08be07	0.5341496
41	0x3f1812be	0.594036
42	0x3fa37742	1.277077
43	0x3f5040c0	0.813488
44	0x3f4a1013	0.7893078
45	0x3c8fdc74	0.017561175
46	0x4001bc87	2.0271318
47	0x3f904254	1.1270242
48	0x3fb91088	1.445817
49	0xbd4c2c24	-0.049846783
50	0x3fdadaab	1.7097982
51	0x3fe14181	1.7598115
52	0xbb1ea25a	-0.0024205656
53	0xbcf9a988	-0.030476347
54	0xbde88a66	-0.113545224
55	0xbdfee440	-0.12445879
56	0x3f609050	0.87720203
57	0x400767eb	2.1157176
58	0xbd2fe316	-0.042941175
59	0xbd645a7c	-0.055750355
60	0x3ace5dad	0.001574447
61	0x3fa0fc77	1.2577046
62	0xbd9c31d4	-0.076266915
63	0x3ff64507	1.9239815

fc3.weight f4 [20, 64]
0	0xbc398d40	-0.0113251805
1	0xbf846b10	-1.0345173
2	0x3e8bceff	0.27306363
3	0x3df1e57e	0.1181135
4	0x3dc0664d	0.09394512
5	0xbd9fb290	-0.0779773
6	0xbe1718b3	-0.14755516
7	0x3e9660c8	0.29370713
8	0x3d134dbc	0.035962805
9	0x3ecb98c7	0.39764997
10	0xbc56ef0a	-0.013118515
11	0x3eab4419	0.33450392
12	0xbe8a90a3	-0.27063474
13	0x3f0fa596	0.5611204
14	0xbddaaeb4	-0.10677853
15	0xbd1ebbc2	-0.03875328
16	0x3e8f37de	0.2797231
17	0xbd5ca204	-0.053865448
18	0xbda9625a	-0.08270712
19	0x3efb08f7	0.49030277
20	0x3daf494a	0.08558901
21	0x3dd10da2	0.102076784
22	0x3d5734a7	0.052540448
23	0x3d67a4b8	0.056553572
24	0xbe1c6a9c	-0.15275043
25	0x3e87fb46	0.26558894
26	0x3e813153	0.25232944
27	0x3f133f75	0.575187
28	0xbbe3b5e7	-0.0069491747
29	0x3ed71669	0.42009285
30	0x3d1e6fd6	0.038680874
31	0xbdbf0419	-0.093269534
32	0x3e4c43a8	0.19947684
33	0x3db8e215	0.09027497
34	0x3b7695d1	0.0037625919
35	0x3e0235d2	0.12715843
36	0x3ee50c75	0.44736066
37	0xbdbde821	-0.09272791
38	0x3e54fb21	0.20798923
39	0xbed1f915	-0.41010347
40	0x3d81f7ef	0.06346118
41	0x3eaad445	0.33365074
42	0x3e9c6b0c	0.3055042
43	0x3db5c839	0.0887608
44	0x3e6b0219	0.22950019
45	0xbd0a04ce	-0.03369599
46	0xbf49f0db	-0.7888314
47	0x3e370a2c	0.17874974
48	0x3f168352	0.5879413
49	0x3df16310	0.11786473
50	0x3e6336cd	0.22188874
51	0xbf60cb6d	-0.87810403
52	0xbd689ecc	-0.056792066
53	0xbdad35fa	-0.08457561
54	0x3da7ac2a	0.081871346
55	0xbd8ac4ca	-0.06775816
56	0x3d0f0777	0.03491923
57	0x3ec7ce77	0.39024708
58	0xbd5a59f8	-0.053308457
59	0xbd8b1a0c	-0.067920774
60	0xbdf1eb43	-0.11812451
61	0x3e7bb4b8	0.24580657
62	0xbd0636cf	-0.032767113
63	0x3eb71828	0.35760617
64	0x3dfba97e	0.122881874
65	0xbf34ceeb	-0.7062823
66	0x3e33a672	0.17543963
67	0xbd513804	-0.05107881
68	0x3b968f90	0.0045947507
69	0xbdb30b1e	-0.08742355
70	0x39991614	0.00029198884
71	0x3e83d5de	0.25749105
72	0xbc8a9015	-0.016914407
73	0x3e92b71b	0.28655323
74	0xbd948e16	-0.07253663
75	0x3ea2cb64	0.317958
76	0xbe0b995c	-0.1363272
77	0x3eab2527	0.33426782
78	0x3c22e8b6	0.009943178
79	0x3daf5e96	0.08562963
80	0x3e698957	0.22806297
81	0xbd8cc768	-0.06873971
82	0x3db31f58	0.08746213
83	0x3ec8cfa8	0.3922093
84	0xbd946442	-0.07245685
85	0xbda9e2ce	-0.08295213
86	0xbdfa5b94	-0.122244984
87	0x3dab27d4	0.08357206
88	0xbd535805	-0.051597614
89	0x3e28705a	0.16449109
90	0x3dddf74f	0.10838186
91	0x3e72c271	0.23706986
92	0x3bb70b8c	0.0055860933
93	0x3ea790e7	0.3272774
94	0x3d8f3657	0.069927864
95	0xbdd93026	-0.10604887
96	0x3e06d35a	0.13166562
97	0xbcd26220	-0.025681555
98	0xbcd31ba3	-0.025770014
99	0x3e0d48cb	0.137973
100	0x3e9fe4af	0.3122916
101	0x3dd25eb4	0.102719694
102	0x3e6dc040	0.23217869
103	0xbe8dbc84	-0.27682889
104	0xbd3cd477	-0.04610106
105	0xbe1df318	-0.15424764
106	0x3ebf8c66	0.37411803
107	0x3dddb0cc	0.10824737
108	0x3f156d90	0.58370304
109	0xbd22a805	-0.039711017
110	0xbf3da9a7	-0.74086994
111	0x3c0cc76f	0.008592471
112	0x3ea39e2e	0.3195662
113	0xbd9ea6fc	-0.077466935
114	0x3e645f24	0.22301918
115	0xbedc261b	-0.42997822
116	0x3da4116e	0.08011137
117	0xbde229e0	-0.11043143
118	0xbdde4c68	-0.10854417
119	0x3d8a174c	0.06742725
120	0x3dd9606c	0.10614094
121	0x3ee36814	0.44415343
122	0x3da3ffe6	0.08007793
123	0xbdd9946f	-0.106240146
124	0x3d35a9c7	0.044351365
125	0x3d8061ce	0.06268655
126	0xbdb363d1	-0.08759273
127	0x3e8158f3	0.25263175
128	0xbdf5f890	-0.120103
129	0xbf221be4	-0.6332381
130	0x3d8fcdb2	0.07021655
131	0xbcc4f200	-0.024041176
132	0x3cbdb788	0.023158804
133	0xbb8dbcc0	-0.0043254793
134	0xbe03b925	-0.12863596
135	0x3e8a26e7	0.26982805
136	0xbd92a6e8	-0.07160741
137	0x3e8ad8a8	0.2711842
138	0x3d969581	0.07352734
139	0x3eaa5210	0.33265734
140	0xbe824d37	-0.25449535
141	0x3edf8c4c	0.43661726
142	0x3d73d5fc	0.059530243
143	0x3a03de40	0.0005030371
144	0x3e38f4e0	0.18062162
145	0x3b76b340	0.0037643462
146	0xbd19c9a4	-0.037545815
147	0x3eb4097a	0.3516348
148	0x3d135364	0.0359682
149	0x3de88d12	0.11355032
150	0x3d7052f8	0.058672875
151	0x3dfeface	0.12450181
152	0xbd6b972c	-0.057517216
153	0x3d2a47df	0.041572448
154	0x3e3d5886	0.184908
155	0x3ed25c87	0.41086218
156	0x3e02a875	0.12759574
157	0x3ed3e173	0.41382942
158	0xbd81b697	-0.063336544
159	0xbd3e845f	-0.046512958
160	0x3e1b36e6	0.15157661
161	0x3d89adee	0.067226276
162	0xbd519ffb	-0.05117796
163	0x3ebc642a	0.3679517
164	0x3e9fabaa	0.31185657
165	0x3de88da1	0.113551386
166	0x3d22c474	0.039738134
167	0xbe70525a	-0.23468915
168	0xbe23274e	-0.15932962
169	0xbd98b1e3	-0.07455804
170	0x3e908a64	0.28230584
171	0xbd6eaa39	-0.058267806
172	0x3b4b5a3e	0.003102913
173	0xbe021e12	-0.12706783
174	0xbf3748f1	-0.71595675
175	0x3c7b41e1	0.015335531
176	0x3e41b09a	0.18915024
177	0xbdfc63ba	-0.12323709
178	0x3e1ba237	0.15198599
179	0xbee62fe7	-0.44958422
180	0x3d565cf8	0.052334756
181	0xbbbfe500	-0.0058561563
182	0xbd3eb444	-0.046558633
183	0xbd6618f8	-0.056176156
184	0x3dcdb9c7	0.100452
185	0x3eae6e0e	0.3406834
186	0xbd4c3828	-0.049858242
187	0x3c16848d	0.009186876
188	0x3cba79df	0.02276319
189	0xbd90dc8a	-0.070733145
190	0x3db04388	0.086066306
191	0x3e3eeb7e	0.1864452
192	0xbd52e620	-0.051488996
193	0xbf188bdd	-0.59588414
194	0xbccf8aa2	-0.02533466
195	0xbde512ac	-0.11185202
196	0x3d57ee73	0.052717637
197	0x3d431dc8	0.047635823
198	0xbe63e45a	-0.22255078
199	0x3e6ece3c	0.2332086
200	0x3d8c4a42	0.06850101
201	0x3e9a2a4e	0.301104
202	0xbc21d2a8	-0.0098768845
203	0x3e16b583	0.14717679
204	0xbe096550	-0.13417554
205	0x3ef1bc25	0.47213855
206	0xbd9c1bda	-0.076225
207	0x3d0a8df6	0.03382679
208	0x3dd76720	0.105177164
209	0x3dacce30	0.08437765
210	0x3d7ca5c8	0.06168154
211	0x3ea03993	0.31293926
212	0x3d94c6e8	0.07264501
213	0x3a789500	0.0009482652
214	0x3daaf2b1	0.08347071
215	0x3d71d9b8	0.059045523
216	0xbe703f1f	-0.23461579
217	0x3e21037b	0.15723984
218	0x3e34f1ed	0.17670412
219	0x3ea075a1	0.31339744
220	0x3ddf1d88	0.108943045
221	0x3e978995	0.29597154
222	0xbd218de6	-0.039441966
223	0xbdec36ef	-0.11533915
224	0x3e5db0b9	0.21649446
225	0xbe106331	-0.14100339
226	0xbe344cdf	-0.17607449
227	0x3e943cea	0.28952724
228	0x3e125700	0.14291
229	0x395404dd	0.00020219707
230	0x3e09f028	0.13470519
231	0xbea617c7	-0.32440016
232	0xbe08d498	-0.13362348
233	0xbe01fe39	-0.12694634
234	0x3e85d50a	0.26139098
235	0x3dfd0662	0.12354733
236	0x3ec06a03	0.3758088
237	0xbd823409	-0.06357581
238	0xbf1b1fc3	-0.6059534
239	0xbd2397ee	-0.039939813
240	0x3ef70bdc	0.48251235
241	0x3c4608b0	0.012087032
242	0x3e8b9073	0.27258644
243	0xbf20db1b	-0.6283433
244	0x3dcb2006	0.09918217
245	0x3d39b8c8	0.045342237
246	0x3c8566e0	0.016284406
247	0x3db39ef0	0.08770549
248	0x3e0126b9	0.12612428
249	0x3eadca6d	0.339435
250	0xbd3798a9	-0.044823322
251	0xbdc45f3f	-0.09588479
252	0x3dcfaae0	0.10140014
253	0xbdc26680	-0.094922066
254	0x3dd806ed	0.10548196
255	0x3e8870b8	0.26648498

fc3.bias f4 [20]
0	0x3fbac746	1.4592063
1	0x3f56bac6	0.83878744
2	0x3f5c49bf	0.8605003
3	0x3f1d1e81	0.6137467
4	0x3f0cfe99	0.55075985
5	0x3ec32989	0.38117626
6	0x3e276d36	0.16350254
7	0x3e983d2d	0.29734173
8	0x3e9c15e9	0.30485466
9	0x3e3678f7	0.17819582
10	0x3dcac778	0.09901327
11	0xbde85e4a	-0.11346109
12	0x3e37695d	0.17911287
13	0xbdd38baf	-0.10329377
14	0xbe68bd50	-0.22728467
15	0xbe46c992	-0.1941283
16	0xbe579fb3	-0.21057014
17	0xbf0dcafe	-0.55387866
18	0xbedf8561	-0.43656448
19	0xbeee82a8	-0.46584058

fc1.weight f4 [64, 3]
0	0x3d92ccf9	0.07168002
1	0xbde92afa	-0.1138515
2	0xbad50520	-0.0016252138
3	0xbeaa363b	-0.332445
4	0x3f251d17	0.6449751
5	0xbe128048	-0.14306748
6	0x3e6ba544	0.23012263
7	0x3dac0761	0.08399845
8	0xbf149bda	-0.5805031
9	0xbe898a0f	-0.26863143
10	0xbe0bb15d	-0.13641877
11	0xbe98bb5e	-0.2983045
12	0xbf2cd4f7	-0.6751246
13	0xbe684d6d	-0.22685786
14	0x3e94159f	0.28922746
15	0x3f33f4ef	0.70295614
16	0x3f184302	0.59477246
17	0x3ea630cb	0.324591
18	0x3f1fa3f3	0.6235954
19	0xbdd6c771	-0.10487259
20	0xbce7858a	-0.028261919
21	0xbababa9e	-0.001424629
22	0x3efb4e63	0.49083242
23	0x3ecdeea2	0.40221125
24	0xbf2b002c	-0.6679714
25	0x3eceff64	0.40429223
26	0x3dd5df85	0.104430236
27	0xbde3fb85	-0.11131958
28	0x3f1fde39	0.6244846
29	0x3ebf030b	0.3730701
30	0xbd3c90d8	-0.04603657
31	0xbf31d7bf	-0.6946983
32	0x3ed649e3	0.41853246
33	0xbef6de15	-0.4821631
34	0x3d1e4098	0.03863582
35	0xbdb0d653	-0.08634629
36	0xbf0b9274	-0.54520345
37	0xbee36290	-0.44411135
38	0xbe7a1a38	-0.24424064
39	0x3f3859fc	0.72012305
40	0xbe4f1c77	-0.20225702
41	0xbd00cd75	-0.03144594
42	0x3ee89c4c	0.45431745
43	0xbe051f29	-0.13000168
44	0x3c55844f	0.013032033
45	0xbee58c3f	-0.44833562
46	0x3e92fd75	0.28708997
47	0x3e469acc	0.19394988
48	0xbeab514f	-0.3346047
49	0xbdc1ac5e	-0.094567046
50	0x3e1ac304	0.15113455
51	0xbeb73595	-0.35783067
52	0xbe77b1d6	-0.24188933
53	0xbb20c0a3	-0.0024528883
54	0x3e9cb42b	0.30606207
55	0x3e6d171f	0.23153351
56	0x3ef1f244	0.47255147
57	0xbeaffee3	-0.3437415
58	0xbef8e02d	-0.48608533
59	0x3ec51bd8	0.38497806
60	0x3ebf31f9	0.37342814
61	0xbe980e4c	-0.29698408
62	0x3e900234	0.2812668
63	0x3dda19ac	0.10649428
64	0xbd8df282	-0.0693102
65	0xbc77c4ad	-0.015122575
66	0xbe3f29cd	-0.1866829
67	0x3e7dd641	0.24788763
68	0xbe5dc8bf	-0.2165861
69	0xbf22e0df	-0.63624376
70	0x3f0672b2	0.5251876
71	0x3e7538b0	0.23947406
72	0xbeb54f10	-0.35411882
73	0xbece08fa	-0.40241224
74	0x3ea839a5	0.3285648
75	0x3e6399fb	0.22226708
76	0x3e880e4d	0.2657341
77	0xbd16135c	-0.036639556
78	0x3eb06f30	0.3445983
79	0xbf0aae5e	-0.54172313
80	0x3ea80152	0.32813507
81	0x3ca28cbf	0.019842504
82	0x3bb1406b	0.0054092905
83	0x3e120935	0.14261325
84	0xbea71492	-0.3263288
85	0xbe803fd1	-0.25048688
86	0xbeaeb565	-0.34122768
87	0xbdfd58f7	-0.12370484
88	0xbeb5844c	-0.35452497
89	0xbf132676	-0.5748056
90	0xbe2f3c96	-0.17112955
91	0xbf0b4794	-0.54406095
92	0xbd9429f7	-0.07234567
93	0xbf3bc3f6	-0.7334589
94	0x3ed5ff01	0.41796115
95	0x3d650dae	0.05592125
96	0x3eb62997	0.35578606
97	0xbf187181	-0.59548193
98	0x3e809258	0.2511165
99	0xbd3b3077	-0.045700517
100	0x3e18de06	0.14928445
101	0xbe5db48b	-0.21650903
102	0xbd2570e6	-0.04039087
103	0xbe2a7b47	-0.16648589
104	0xbe1e5234	-0.15461046
105	0xbea26bfb	-0.31723008
106	0xbebc5231	-0.36781457
107	0xbec53147	-0.38514158
108	0x3eb1bdb6	0.3471505
109	0x3d8beccf	0.06832277
110	0x3de64c92	0.112450734
111	0xbe1e40d9	-0.15454425
112	0xbeb34b92	-0.35018593
113	0xbed27849	-0.41107395
114	0x3ebdb554	0.37052405
115	0x3dd03fc9	0.10168416
116	0x3de76f54	0.11300531
117	0xbf0265dd	-0.5093668
118	0xbda18e25	-0.0788844
119	0x3db39ecc	0.087705225
120	0xbe769b3a	-0.24082652
121	0x3f4efdd2	0.8085605
122	0x3f128661	0.57236296
123	0x3cd00e01	0.025397303
124	0xbc4d3f34	-0.012527276
125	0xbe6091f5	-0.21930678
126	0xbeb52828	-0.353822
127	0xbf26550c	-0.6497352
128	0x3e897094	0.26843703
129	0x3dcbd2e8	0.099523365
130	0x3efc5cf7	0.49289677
131	0xbcbe9bc7	-0.02326764
132	0x3eb9941b	0.36245808
133	0x3e36b2dd	0.17841668
134	0xbed6068f	-0.4180188
135	0x3e866944	0.26252186
136	0x3f1ef2a4	0.6208899
137	0xbe2fbea9	-0.17162575
138	0x3e84ddf5	0.2595059
139	0x3f0c155a	0.5472008
140	0x3e2e8d0e	0.17045996
141	0x3dd826df	0.10554289
142	0xbd1c69c4	-0.038186803
143	0xbe34e474	-0.17665273
144	0x3dd17a80	0.10228443
145	0x3e9265ca	0.28593284
146	0xbea86c0c	-0.32894933
147	0xbdca4633	-0.09876671
148	0x3e98dc9c	0.29855812
149	0xbce2e080	-0.02769494
150	0x3e8f8894	0.28033888
151	0xbe1dfd61	-0.15428688
152	0xbeeb885e	-0.46002477
153	0xbe4cb39e	-0.19990394
154	0x3ede6228	0.43434262
155	0xbc8f4bf7	-0.017492278
156	0xbefbc1e7	-0.49171373
157	0x3f04a5b2	0.5181533
158	0x3d525f1e	0.051360242
159	0xbefe238e	-0.496365
160	0xbe08e37c	-0.13368028
161	0xbf0f5be2	-0.5599958
162	0xbdbb7378	-0.09152883
163	0xbea9dbfe	-0.33175653
164	0x3eba2cb3	0.36362228
165	0xbe992826	-0.29913443
166	0x3e026167	0.12732469
167	0x3eda2a95	0.42610613
168	0xbe789bb9	-0.24278153
169	0x3dbf10f1	0.09329403
170	0x3d0d0102	0.03442479
171	0x3f182cad	0.5944317
172	0x3edd0302	0.43166357
173	0xbe364fb0	-0.17803836
174	0x3e5c776c	0.21529931
175	0x3f11d910	0.56971836
176	0x3dad0a7b	0.084492646
177	0xbdab3a24	-0.08360699
178	0x3ed0059c	0.4062928
179	0xbd207ffa	-0.039184548
180	0xbe5f2642	-0.21791938
181	0xbe00548e	-0.12532255
182	0x3db7f9c7	0.08983188
183	0xbe260c00	-0.16215515
184	0x3eaaff03	0.33397684
185	0xbf41f5f7	-0.7576594
186	0x3d7c83bd	0.061649073
187	0xbeb8370e	-0.35979503
188	0x3e834059	0.2563503
189	0x3f560c5e	0.8361262
190	0x3eb145f2	0.34623677
191	0xbe31871d	-0.17336698

fc1.bias f4 [64]
0	0x4027d02a	2.6220803
1	0x3fdd1330	1.727148
2	0x401c1b6c	2.4391737
3	0xbee39790	-0.4445157
4	0xbfe4cf55	-1.7875773
5	0xbf62759b	-0.884607
6	0x40202812	2.5024457
7	0xbebe1de7	-0.3713219
8	0x401dfd6b	2.4685924
9	0xbfe03c6c	-1.7518439
10	0x3ea1e0ca	0.31616813
11	0xbefe240d	-0.4963688
12	0x3ef08adf	0.4698095
13	0x40572c1b	3.362067
14	0x3fd45ee1	1.6591455
15	0x3f4347d7	0.76281494
16	0x4060adf7	3.510618
17	0xbed70191	-0.41993383
18	0xbfe8197a	-1.8132775
19	0xbfbf378a	-1.4938824
20	0x3fe0b07d	1.755386
21	0x402e48f2	2.7232022
22	0x4043c556	3.0589194
23	0xbf9ef461	-1.2418329
24	0x3fb77619	1.4332916
25	0x3feb49db	1.8381914
26	0xbf4c50b2	-0.7981063
27	0x3f625684	0.8841326
28	0x3e9d8a99	0.30769804
29	0xbe500697	-0.20315014
30	0x3ea4c45d	0.32181063
31	0x3f839ec8	1.0282831
32	0x40295e27	2.6463716
33	0x404b14a7	3.1731355
34	0x3e3215ab	0.17391078
35	0xbf00639e	-0.50152004
36	0x3ec632b5	0.3871056
37	0xbef1e66b	-0.47246107
38	0xbe44a2e5	-0.19202764
39	0x3ffbc0fb	1.9668268
40	0xbff10cd8	-1.8832045
41	0xbb8132aa	-0.003942807
42	0x3d1fca30	0.03901118
43	0x400eb9a7	2.2300813
44	0x402db94a	2.7144341
45	0x401914da	2.3918977
46	0xbeb5e9f6	-0.3553006
47	0x3dcd9b72	0.100394145
48	0x4030fdc5	2.7654889
49	0x404a5341	3.1613314
50	0x40081a91	2.1266215
51	0x4027fcc0	2.6248016
52	0x40236ccc	2.5535154
53	0xbea46690	-0.321095
54	0x3fe9fdbb	1.8280557
55	0x3f9e3c90	1.2362232
56	0x403a91d4	2.9151506
57	0x3f9ba7bd	1.2160565
58	0xbf83a2c3	-1.0284046
59	0x403fff53	2.9999588
60	0x404f4192	3.238377
61	0x4001004a	2.0156426
62	0xc02c44b9	-2.6916945
63	0x3f69d04b	0.91333455

fc2.weight f4 [64, 64]
0	0x3dd5c18a	0.10437305
1	0x3dafe148	0.08587891
2	0xbd1e2ac2	-0.038614996
3	0xbd8a9fec	-0.06768784
4	0x3de41e50	0.11138594
5	0xbbbf5360	-0.0058387965
6	0x3d184a40	0.037180185
7	0xbcb7b9f8	-0.022427544
8	0x3cd79242	0.026314858
9	0x3d5096e0	0.050925136
10	0x3ddd84e0	0.108163595
11	0x3d132498	0.03592357
12	0xbdf145dc	-0.11780903
13	0xbdf8224e	-0.12115918
14	0xbc8f51ed	-0.01749512
15	0x3d3f96fc	0.04677485
16	0xbc035e30	-0.0080180615
17	0xbde7a792	-0.113112584
18	0xbd0753b4	-0.03303881
19	0xbd8c7c68	-0.06859666
20	0xbdba4c66	-0.09096603
21	0xbcb52a38	-0.022114858
22	0xbdd91a6c	-0.10600743
23	0xbbe9a180	-0.007129848
24	0xbcea531a	-0.028604079
25	0x3d53c5a0	0.05170214
26	0xbddd9b1e	-0.10820602
27	0xbddeffc2	-0.10888626
28	0xbcdfb8d8	-0.02730982
29	0x3b85bd20	0.0040813833
30	0xbde543f0	-0.11194599
31	0x3d1c7929	0.038201485
32	0x3d1a8ad8	0.037730068
33	0x3d9ee592	0.07758631
34	0x3d398d58	0.04530081
35	0xbc451220	-0.012028247
36	0x3dbd18d4	0.09233251
37	0xbda666d4	-0.08125082
38	0xbcbab1e0	-0.022789896
39	0xbd020848	-0.03174618
40	0xbddafe66	-0.10693054
41	0x3ddf6748	0.10908371
42	0xbdb9ef12	-0.09078802
43	0xbdf55a6c	-0.11980137
44	0xbd899cf9	-0.06719393
45	0xbcdf7698	-0.02727823
46	0xbdfa58b8	-0.12223953
47	0x3d29404c	0.041321084
48	0x3dec2bf0	0.11531818
49	0xbde2f20a	-0.110813215
50	0xbdb47454	-0.0881125
51	0x3dc32c54	0.09529939
52	0xbdd3f47a	-0.103493646
53	0x3c66d877	0.014089695
54	0x3cf73078	0.030174479
55	0xbdffd784	-0.12492278
56	0xbdf1ce24	-0.11806896
57	0x3d6c6288	0.057711154
58	0xbbb457c0	-0.0055036247
59	0x3de4c3ce	0.11170159
60	0x3b5e2b00	0.0033900142
61	0x3de062da	0.109563544
62	0x3cc04ee8	0.023475125
63	0x3dfa3396	0.122168705
64	0x3f331c48	0.6996503
65	0x3ead160a	0.33805877
66	0x3f5d0617	0.8633742
67	0xbd81a676	-0.06330578
68	0xbf0a93c6	-0.54131734
69	0xbe99d79e	-0.30047315
70	0x3ec6534e	0.3873543
71	0xbe868df2	-0.2628017
72	0x3e1fa066	0.15588531
73	0xbf0a5fb9	-0.5405231
74	0xbe23b623	-0.15987448
75	0x3d9d1e06	0.07671742
76	0xbb78f2c0	-0.0037986487
77	0x3f276b61	0.6539822
78	0x3e268c86	0.16264543
79	0xbc8991df	-0.01679319
80	0x3f9295c2	1.1451952
81	0xbdf56328	-0.11981803
82	0xbeea6b60	-0.45785046
83	0xbf03de43	-0.5151102
84	0x3c051e9f	0.008124976
85	0x3eec9bf2	0.46212727
86	0x3fc602f2	1.5469649
87	0xbe8a909f	-0.27063462
88	0x3e0343bf	0.12818812
89	0x3e13393d	0.14377303
90	0xbdf2dbde	-0.118583426
91	0x3d5ad40d	0.053424884
92	0xbd788a3c	-0.060678706
93	0x3d4518a8	0.048119217
94	0xbdc757a6	-0.097335145
95	0xbd57cc44	-0.052685037
96	0x3e80bbaf	0.2514319
97	0x3feb1af4	1.83676
98	0xbda446fe	-0.08021353
99	0xbd2c2106	-0.04202368
100	0xbe1179f6	-0.1420668
101	0x3dff5870	0.1246804
102	0xbe03b7d4	-0.12863094
103	0x3ed04751	0.4067941
104	0xbf1dbb1f	-0.6161365
105	0x3cdb206d	0.02674886
106	0xbf293ba9	-0.6610666
107	0x3e72a6dc	0.23696464
108	0x3fb9c924	1.4514508
109	0x3eea6521	0.4578028
110	0xbdaf6915	-0.08564965
111	0x3d931fd2	0.071838036
112	0x3fa39cb3	1.2782196
113	0x3ef4f93b	0.47846398
114	0x3fb8b10f	1.4429034
115	0x3f0d172c	0.5511348
116	0x3e3de41a	0.18544045
117	0xbd31295c	-0.043252334
118	0x3dae0bf6	0.08498375
119	0xbd2dd979	-0.042443726
120	0x3f7a75a0	0.9783573
121	0xbc148e2b	-0.009067099
122	0xbe8cb6ba	-0.2748316
123	0x3f20b597	0.62777084
124	0x3f5850ec	0.84498477
125	0x3f50d772	0.81578743
126	0xbd463582	-0.048390873
127	0x3db045af	0.08607041
128	0x3e675ef8	0.22594821
129	0x3e2d4e8d	0.16924496
130	0x3efe9092	0.49719673
131	0xbd6d28b4	-0.057900146
132	0x3dba7cf3	0.091058634
133	0xbe01bd5d	-0.12669893
134	0x3e3a55c0	0.18196774
135	0xbd7d1afa	-0.061793305
136	0x3dae2777	0.08503621
137	0x3cdc67a1	0.026904883
138	0x3d722fd8	0.05912766
139	0x3d3e8740	0.046515703
140	0xbdf01ba6	-0.117240235
141	0x3e471529	0.19441666
142	0xbd2247c5	-0.039619226
143	0xbd6927bb	-0.056922656
144	0x3eb679a4	0.3563968
145	0x3dc65f72	0.096861735
146	0xbd3e322b	-0.046434563
147	0xbbcd1d5f	-0.006259605
148	0xbd2503ea	-0.040286936
149	0x3df4deea	0.1195658
150	0x3e07db1c	0.13267177
151	0xbdeb3e73	-0.114865206
152	0x3e43b8d1	0.1911347
153	0xbdf68387	-0.120368056
154	0x3d954b5b	0.072897635
155	0xbdbc7a72	-0.09203042
156	0xbddb5650	-0.10709822
157	0xbcc4d3b8	-0.024026737
158	0xbdb22a02	-0.086994186
159	0x3cd3eb28	0.025868967
160	0x3c52bc1e	0.012862233
161	0x3e199d05	0.15001304
162	0xbb510d00	-0.0031898618
163	0x3d7deacb	0.061991494
164	0x3d7e9f9b	0.06216393
165	0xbdd120b6	-0.10211317
166	0xbd1d6eae	-0.03843563
167	0x3e5f9de9	0.21837582
168	0xbd498efd	-0.04920863
169	0x39526800	0.00020065904
170	0xbb25c774	-0.0025295885
171	0x3d4cdc2e	0.050014667
172	0x3e8aca25	0.2710735
173	0xbe707ecc	-0.23485869
174	0xbe2a3890	-0.1662314
175	0x3d9aa33c	0.07550666
176	0x3dfdc316	0.12390725
177	0x3e56cb7d	0.20976062
178	0x3ea771fd	0.32704154
179	0x3e5d7081	0.21624948
180	0x3e02261c	0.1270985
181	0xbd4cb90c	-0.049981162
182	0x3e16fc9c	0.147448
183	0xbcf921dd	-0.030411655
184	0x3f0b1438	0.54327726
185	0xbd4e1f9e	-0.05032312
186	0xbd7effed	-0.06225579
187	0x3e8fbf21	0.28075507
188	0x3e9346fe	0.287651
189	0x3f00f5c2	0.50374997
190	0xbd29aee2	-0.041426547
191	0xbf124fa4	-0.5715277
192	0xbd8700fe	-0.06591986
193	0xbcd70690	-0.026248246
194	0x3cc0b8c8	0.02352561
195	0x3d8662fa	0.06561847
196	0x3d0bb422	0.034107335
197	0x3bd647c0	0.006539315
198	0xbda19e5a	-0.07891531
199	0xbc7ea690	-0.015542641
200	0x3cb92b70	0.02260372
201	0xbd9783e8	-0.07398206
202	0xbdca8a47	-0.098896556
203	0xbdce5c64	-0.10076216
204	0x3c747ce0	0.014922351
205	0x3dbdd83d	0.0926976
206	0xbd45815c	-0.04821907
207	0xbdc2ddf6	-0.09514992
208	0x3d9adf14	0.0756208
209	0xbd18fa18	-0.037347883
210	0xbd553e20	-0.0520612
211	0x3d6295bc	0.05531858
212	0xbdcc62f1	-0.09979809
213	0x3bfea060	0.007770583
214	0xbd41bc74	-0.047298864
215	0x3dfee7d0	0.124465585
216	0x3cf1ed60	0.029532135
217	0x3de7d522	0.11319949
218	0xbc9f7340	-0.019464135
219	0xbcf28178	-0.029602751
220	0x3dc4073c	0.09571692
221	0x3cf7207d	0.030166859
222	0xbddf3b39	-0.10899968
223	0xbbaf12f0	-0.0053428337
224	0xbdd38f2c	-0.10330042
225	0xbca96ba0	-0.020681202
226	0xbd8d7f44	-0.069090396
227	0x3d1bd5e8	0.038045794
228	0xbdb7d284	-0.089756995
229	0x3d782c54	0.06058915
230	0x3d308c6c	0.043102667
231	0xbdd988da	-0.106218055
232	0xbc954688	-0.018222108
233	0xbc6f2840	-0.014596999
234	0xbdadc9da	-0.08485766
235	0x3dd58b44	0.104269534
236	0x3da673e1	0.08127571
237	0xbdea5710	-0.11442387
238	0xbdf7945c	-0.12088844
239	0x3b0a0d80	0.0021065176
240	0x3cfe96ab	0.031077703
241	0x3d1cb47c	0.03825806
242	0x3dbcf2ca	0.09225996
243	0xbdd516d4	-0.10404745
244	0xbd1b65f4	-0.037939027
245	0x3c393bd0	0.011305764
246	0xbdda0970	-0.10646331
247	0x3a296e00	0.00064632297
248	0x3d9e814c	0.07739505
249	0x3dbbf5ae	0.09177719
250	0x3d68a569	0.056798372
251	0x3c852b70	0.016256064
252	0xbdc6d124	-0.09707859
253	0xbdbf4d10	-0.093408704
254	0xbb069d40	-0.0020540506
255	0x3d28b67c	0.041189656

fc2.bias f4 [64]
0	0x3d71d501	0.059041027
1	0x3ff3ed39	1.905677
2	0x3fa45934	1.2839723
3	0x3c653080	0.013988614
4	0x3ef64dca	0.48106223
5	0xbd970201	-0.07373429
6	0xbe8d7e26	-0.27635306
7	0x3fa2754b	1.2692045
8	0xbdba345c	-0.09092018
9	0x3fde4933	1.7366089
10	0x3ea80965	0.32819667
11	0x3fb0f5ba	1.382499
12	0xbf3c5f34	-0.7358277
13	0x3fdf0acd	1.7425171
14	0x3d52cacb	0.05146293
15	0x3cd261ad	0.025681341
16	0x3fce0708	1.6095896
17	0xbd8fb478	-0.070168436
18	0xbd089634	-0.03334637
19	0x3fbd0891	1.4768239
20	0x3dcbc406	0.09949498
21	0xbad07a00	-0.00159055
22	0x3daa86b6	0.08326475
23	0x3d6a800b	0.057251018
24	0xbde08ca1	-0.10964323
25	0x3fac83d4	1.3477731
26	0x3fb1ce07	1.3891
27	0x3fc9feb4	1.5780854
28	0xbe0467fa	-0.12930289
29	0x3fcc97ac	1.5983787
30	0xbde30caa	-0.110864
31	0xbd2b312c	-0.04179494
32	0x3fbdc915	1.482699
33	0x3d8ccdcf	0.068751924
34	0x3f299296	0.662393
35	0x3f118405	0.5684207
36	0x3fbe68dc	1.487575
37	0xbe1ab844	-0.15109354
38	0x3fb86aef	1.4407634
39	0xbfb62350	-1.4229527
40	0x3f048de2	0.51778996
41	0x3f0d5067	0.5520081
42	0x3f86be34	1.0526795
43	0x3f324e76	0.6965097
44	0x3f15e932	0.5855895
45	0x3d6c2a27	0.057657387
46	0x3fe95451	1.8228856
47	0x3f7f4bf1	0.9972525
48	0x3f9bd87e	1.2175443
49	0xbd411ba1	-0.04714549
50	0x3fbf10a9	1.4926959
51	0x3fc8b094	1.5678887
52	0x3aa7e5ec	0.0012809611
53	0xbcf9a988	-0.030476347
54	0xbde88a66	-0.113545224
55	0xbdfee4cc	-0.12445983
56	0x3f6530f9	0.8952785
57	0x3fedbd91	1.8573476
58	0xbd218688	-0.03943494
59	0xbd63ab93	-0.055583548
60	0x3af9d9b7	0.0019062076
61	0x3f8bc0b2	1.0918181
62	0xbd996fee	-0.07492052
63	0x3fd6cdb0	1.6781521

fc3.weight f4 [20, 64]
0	0xbc398d40	-0.0113251805
1	0xbf4ed3df	-0.8079204
2	0x3e64f976	0.22360787
3	0x3df1e57e	0.1181135
4	0x3d0766a0	0.033056855
5	0xbd9fb290	-0.0779773
6	0xbdfdf294	-0.12399784
7	0x3e49bc2f	0.19700693
8	0x3c9c2d94	0.019064702
9	0x3eaccc0f	0.33749434
10	0xbcb24f83	-0.02176643
11	0x3e84e222	0.25953776
12	0xbe524e97	-0.20537792
13	0x3ee88942	0.4541722
14	0xbddbfc32	-0.10741462
15	0xbd22377a	-0.039603688
16	0x3e6f77a1	0.23385479
17	0xbd5ca204	-0.053865448
18	0xbda9625a	-0.08270712
19	0x3ec84435	0.39114538
20	0x3daf49a0	0.08558965
21	0x3dd10e45	0.102078
22	0x3d904736	0.070448324
23	0x3d67a4b8	0.056553572
24	0xbe00067e	-0.12502477
25	0x3e7441e4	0.2385326
26	0x3e4cf4fd	0.2001533
27	0x3efb2a22	0.49055582
28	0xbbf5b513	-0.0074983924
29	0x3ea8544b	0.3287681
30	0x3d1885fe	0.03723716
31	0xbdb4e26d	-0.0883225
32	0x3e2026f5	0.15639861
33	0x3dbb51e1	0.091464765
34	0x3d1757df	0.036949035
35	0x3dcce0cd	0.10003815
36	0x3eb342ed	0.35011998
37	0xbdc23824	-0.09483364
38	0x3e22bd1b	0.1589245
39	0xbea2c2e9	-0.3178933
40	0x3d947a65	0.072499074
41	0x3e624c18	0.2209934
42	0x3e76ccdc	0.24101585
43	0x3d843d35	0.06456987
44	0x3e3349b2	0.17508581
45	0xbc87a994	-0.016560353
46	0xbf1bca54	-0.60855603
47	0x3e1abc59	0.15110911
48	0x3f08b7c9	0.53405434
49	0x3df163b8	0.11786598
50	0x3e305b24	0.17222267
51	0xbf2c7f45	-0.673817
52	0xbd689ecc	-0.056792066
53	0xbdad365f	-0.08457636
54	0x3da7ac62	0.08187176
55	0xbd8ac4ca	-0.06775816
56	0x3c1bf48c	0.009518754
57	0x3e9bfae6	0.30464858
58	0xbd68a1fb	-0.0567951
59	0xbd8b7f85	-0.06811432
60	0xbdf15f9b	-0.117858134
61	0x3e58fc0a	0.21189895
62	0xbd0a15be	-0.03371214
63	0x3e97a376	0.29616898
64	0x3dfba97e	0.122881874
65	0xbf232f8e	-0.6374444
66	0x3e1d2710	0.15346932
67	0xbd513804	-0.05107881
68	0x3d23f6be	0.040030234
69	0xbdb30b1e	-0.08742355
70	0xbaa6708d	-0.0012698338
71	0x3e62606e	0.22107098
72	0xbc9ea388	-0.019365087
73	0x3e8174c5	0.252844
74	0xbd8c7095	-0.06857411
75	0x3e9d0f33	0.3067566
76	0xbe0dab7f	-0.13834952
77	0x3ea37d4c	0.3193153
78	0x3c179faa	0.0092543755
79	0x3dad6bd4	0.08467832
80	0x3e5e55cc	0.21712416
81	0xbd8cc768	-0.06873971
82	0x3db31f58	0.08746213
83	0x3eaee40e	0.34158367
84	0xbd946442	-0.07245685
85	0xbda9e2ce	-0.08295213
86	0xbdfa5b94	-0.122244984
87	0x3dab27d4	0.08357206
88	0xbd58befc	-0.052916512
89	0x3e3090ef	0.17242788
90	0x3db12623	0.08649852
91	0x3e443ede	0.19164607
92	0x3ba4767e	0.005019008
93	0x3e96fb7d	0.29488745
94	0x3d8f5e49	0.07000405
95	0xbdcf63e4	-0.101264745
96	0x3df841f9	0.12121958
97	0xbcd26220	-0.025681555
98	0xbd5b5c5f	-0.05355489
99	0x3dd97cfb	0.10619541
100	0x3e8707d8	0.26373172
101	0x3dd1096c	0.10206875
102	0x3e54c923	0.20779853
103	0xbe87e6b9	-0.26543215
104	0xbd47c81d	-0.048774827
105	0xbdff2e66	-0.12460022
106	0x3eba2529	0.36356476
107	0x3dfaf1ca	0.12253149
108	0x3f030ef0	0.5119467
109	0xbd68ba24	-0.056818143
110	0xbf290060	-0.660162
111	0xbc68a878	-0.014200322
112	0x3e830e63	0.25596914
113	0xbd9ea6fc	-0.077466935
114	0x3e55e301	0.20887376
115	0xbebcccd6	-0.36875027
116	0x3da4116e	0.08011137
117	0xbde229e0	-0.11043143
118	0xbdde4cf0	-0.108545184
119	0x3d8a174c	0.06742725
120	0x3df035ae	0.117289886
121	0x3ed754a2	0.42056757
122	0x3da3ffe6	0.08007793
123	0xbdda3fac	-0.10656676
124	0x3d3492b7	0.04408523
125	0x3d3a8193	0.045533728
126	0xbdb51b66	-0.088431165
127	0x3e78b348	0.2428714
128	0xbdf5f890	-0.120103
129	0xbf132309	-0.57475334
130	0x3dd758d2	0.10514988
131	0xbcc4f200	-0.024041176
132	0x3ce9beb6	0.02853332
133	0xbb8dbcc0	-0.0043254793
134	0xbdd0a6a3	-0.101880334
135	0x3e601936	0.21884617
136	0xbdab2f56	-0.08358638
137	0x3e7d7299	0.24750747
138	0x3dc89515	0.0979406
139	0x3e987fb3	0.29784927
140	0xbe4b5ee7	-0.19860421
141	0x3ebd98f8	0.37030768
142	0x3d711ff6	0.05886837
143	0xbac1556f	-0.0014750193
144	0x3e2c32b3	0.16816215
145	0x3b76b340	0.0037643462
146	0xbd19c9a6	-0.037545823
147	0x3e92e92f	0.2869353
148	0x3d135364	0.0359682
149	0x3de88d12	0.11355032
150	0x3d7052f8	0.058672875
151	0x3dfeface	0.12450181
152	0xbccfcc7a	-0.025366057
153	0x3d2a29b3	0.041543674
154	0x3e33bdcd	0.17552872
155	0x3eb5fbee	0.3554377
156	0x3e022ff1	0.127136
157	0x3eb55e69	0.35423592
158	0xbd840e39	-0.06448025
159	0xbc20cef5	-0.009814967
160	0x3e1322db	0.14368765
161	0x3d89adee	0.067226276
162	0xbbb7729e	-0.00559838
163	0x3ea86570	0.3288989
164	0x3ea629c3	0.32453737
165	0x3de773ca	0.11301382
166	0x3d019b0b	0.031642
167	0xbe37c36c	-0.17945641
168	0xbdefaadc	-0.11702511
169	0xbd31561f	-0.043295022
170	0x3e63a179	0.22229566
171	0xbd269d46	-0.04067733
172	0x3cd7a24d	0.026322508
173	0xbdcdadca	-0.10042913
174	0xbf27498c	-0.653466
175	0x3d6e22fb	0.05813883
176	0x3e5abd74	0.21361333
177	0xbdfc6429	-0.123237915
178	0x3e0d1361	0.13776924
179	0xbec7ac8c	-0.3899883
180	0x3d565da9	0.052335415
181	0xbbbfe500	-0.0058561563
182	0xbd3eb444	-0.046558633
183	0xbd66190f	-0.05617624
184	0x3de920fe	0.11383246
185	0x3e8dc966	0.27692717
186	0xbd4c3828	-0.049858242
187	0x3c123c22	0.00892547
188	0x3cb83bbd	0.022489423
189	0xbd3aa5de	-0.04556834
190	0x3dae6611	0.08515561
191	0x3e18f61c	0.14937633
192	0xbd52e620	-0.051488996
193	0xbf09b4d7	-0.53791565
194	0x3c6e82c6	0.014557546
195	0xbde51356	-0.11185329
196	0x3c53a07c	0.01291668
197	0x3d480d62	0.048840888
198	0xbe4c1b23	-0.19932227
199	0x3e2e9c3b	0.17051785
200	0x3da881f8	0.082279146
201	0x3e7e32ce	0.24824068
202	0xbca4f4ef	-0.020136325
203	0x3e03233f	0.12806414
204	0xbdecb435	-0.11557809
205	0x3ec7e917	0.3904502
206	0xbd9d3731	-0.076765426
207	0x3d067d8f	0.032834586
208	0x3daf8a2a	0.085712746
209	0x3dacce30	0.08437765
210	0x3d7ca692	0.06168229
211	0x3e667208	0.22504437
212	0x3d94c6e8	0.07264501
213	0x3a789500	0.0009482652
214	0x3db15b10	0.08659947
215	0x3d71d9b8	0.059045523
216	0xbe4953dd	-0.19660898
217	0x3e1602fe	0.14649579
218	0x3e16bf07	0.14721309
219	0x3e6c438c	0.23072642
220	0x3dde2537	0.10846942
221	0x3e5bc78a	0.21462837
222	0xbd2437e4	-0.040092364
223	0xbde06b3d	-0.10957954
224	0x3e4cc9fc	0.19998926
225	0xbe0ee456	-0.13954291
226	0xbe0f1c45	-0.13975628
227	0x3e5c3e29	0.21508087
228	0x3e314a40	0.1731348
229	0xb920681a	-0.0001529757
230	0x3de2f4ae	0.11081825
231	0xbe957495	-0.29190508
232	0xbe06cacc	-0.13163298
233	0xbdd3f24e	-0.1034895
234	0x3e4c902d	0.19976874
235	0x3e1b3fad	0.15161009
236	0x3ea0bc31	0.3139358
237	0xbda7f0e4	-0.08200243
238	0xbf045337	-0.51689476
239	0xbcd3c3ec	-0.025850259
240	0x3ee3ed6a	0.4451707
241	0x3c4608b0	0.012087032
242	0x3e72847d	0.23683353
243	0xbf00d561	-0.5032559
244	0x3dcb2006	0.09918217
245	0x3d39b8c8	0.045342237
246	0x3c8566e0	0.016284406
247	0x3db39f04	0.08770564
248	0x3df810fb	0.12112614
249	0x3e850990	0.25983858
250	0xbd45f195	-0.048326094
251	0xbdc4e925	-0.09614781
252	0x3dcf1dd0	0.10113108
253	0xbd72eeed	-0.05930989
254	0x3dd79ac0	0.10527563
255	0x3e5b2a02	0.21402743

fc3.bias f4 [20]
0	0x3fa31afc	1.274261
1	0x3f41b0e3	0.7566053
2	0x3f4b6825	0.79455787
3	0x3f0bce5a	0.5461174
4	0x3efc07c4	0.49224675
5	0x3ea8245c	0.3284024
6	0x3dda9a06	0.10673909
7	0x3e7fc4db	0.24977438
8	0x3e80d008	0.25158715
9	0x3df46fee	0.119354114
10	0x3d4f8d6a	0.050671972
11	0xbe0886fb	-0.13332741
12	0x3dcfe796	0.101515934
13	0xbe257cb5	-0.16160853
14	0xbe7c0d36	-0.24614415
15	0xbe895f8d	-0.26830712
16	0xbe811aad	-0.25215665
17	0xbf12abe5	-0.5729354
18	0xbef812b0	-0.48451757
19	0xbefcc12a	-0.49366122

exp_avg f4 [64, 3]
0	0xc12141f9	-10.078607
1	0x4200025b	32.0023
2	0x4306cf2d	134.80928
3	0x3f477bf0	0.7792349
4	0x4064863f	3.5706937
5	0x40f91747	7.7840915
6	0x40328299	2.789221
7	0x40d02bed	6.505362
8	0x40689a65	3.6344235
9	0x00000000	0.0
10	0x00000000	0.0
11	0x00000000	0.0
12	0xbfb86652	-1.4406226
13	0xc0a654be	-5.1978445
14	0xc1d37fe3	-26.437445
15	0xc0836d48	-4.10709
16	0xc0d1fa6c	-6.561819
17	0xc195c5d7	-18.721601
18	0xc0e30827	-7.094745
19	0x4164a772	14.29088
20	0x4282916a	65.28401
21	0xc06449c9	-3.5670035
22	0xc0280d0e	-2.6257968
23	0xc0d63130	-6.6935043
24	0x3f76083b	0.9610631
25	0x4108a231	8.5395975
26	0x41fe1ac8	31.763077
27	0xc0c7641f	-6.230972
28	0xc12ddf91	-10.867082
29	0xc201c5c0	-32.443115
30	0xbf3b7187	-0.73220104
31	0x3fda9d45	1.7079245
32	0x40d98acd	6.7981935
33	0x00000000	0.0
34	0x00000000	0.0
35	0x00000000	0.0
36	0x00000000	0.0
37	0x00000000	0.0
38	0x00000000	0.0
39	0xc0b42c57	-5.6304126
40	0x41b56964	22.67646
41	0x42bb0285	93.50492
42	0xc066882b	-3.602061
43	0x3fc0e86c	1.507093
44	0x41063b32	8.389452
45	0xbdbf1a3a	-0.09331174
46	0x3fe73fb0	1.8066311
47	0x40efa4a0	7.488846
48	0x411170bf	9.090026
49	0x41e52edd	28.647882
50	0x42c523ad	98.56968
51	0x00000000	0.0
52	0x00000000	0.0
53	0x00000004	6e-45
54	0xc08f4e23	-4.478288
55	0xc105dc01	-8.366212
56	0xc1d81f56	-27.0153
57	0xbf914678	-1.134963
58	0xbf349f33	-0.7055542
59	0xc1362a3c	-11.385311
60	0xc019cf01	-2.4032595
61	0x4007231c	2.111518
62	0x412aa54d	10.665357
63	0xc11f6473	-9.962024
64	0x41debdc5	27.84266
65	0x42e7ae25	115.840126
66	0x4118de2e	9.554243
67	0xc1c498a7	-24.574537
68	0xc2c030a7	-96.095024
69	0xbfdaacf1	-1.7084028
70	0xc0d84105	-6.757937
71	0xc1b82cfe	-23.021969
72	0x3f561368	0.8362336
73	0x40b2a12f	5.5821757
74	0x419ca828	19.582108
75	0xc0843749	-4.1317487
76	0x40c188b1	6.047936
77	0x427f18fe	63.774406
78	0xbf84777c	-1.0348964
79	0xbfcc0faf	-1.5942286
80	0xc0bb071f	-5.8446193
81	0xbf2fd021	-0.68676955
82	0x3ed2bdad	0.41160336
83	0x409ec53b	4.961576
84	0x00000000	0.0
85	0x00000000	0.0
86	0x00000000	0.0
87	0x00000000	0.0
88	0x00000000	0.0
89	0x00000000	0.0
90	0x00000000	0.0
91	0x00000000	0.0
92	0x00000000	0.0
93	0xbf19292a	-0.59828436
94	0x401bbd65	2.4334347
95	0x40f23d2c	7.5699673
96	0x3ef2c57a	0.47416288
97	0x40e01c23	7.0034347
98	0x41c55e35	24.671
99	0x4280c0c0	64.376465
100	0x42832639	65.57465
101	0x42d7bbc9	107.86677
102	0x00000000	0.0
103	0x00000000	0.0
104	0x00000000	0.0
105	0x00000000	0.0
106	0x00000000	0.0
107	0x00000000	0.0
108	0xc005c919	-2.090399
109	0xbf998ead	-1.1996666
110	0xc03265aa	-2.787455
111	0x00000000	0.0
112	0x00000000	0.0
113	0x00000000	0.0
114	0xc01dd29b	-2.4659793
115	0xc0216448	-2.5217457
116	0xc0bbebd7	-5.872539
117	0x3f3f7cf3	0.7480003
118	0x4167f71b	14.4978285
119	0x423ee2b6	47.721397
120	0xc0ca224b	-6.316686
121	0xc112a918	-9.166283
122	0xc1da5b3d	-27.29455
123	0x00000000	0.0
124	0x00000000	0.0
125	0x00000000	0.0
126	0xbf8e962d	-1.113958
127	0xc0051f4a	-2.0800347
128	0xc18f6999	-17.926561
129	0xc0170d64	-2.3601923
130	0x40aa2a9b	5.317701
131	0x42438e97	48.889248
132	0x42191790	38.27301
133	0x41d79cab	26.951498
134	0x4211ef06	36.48342
135	0x3fcee67f	1.6164092
136	0x3e69e890	0.22842622
137	0xc08d6862	-4.418992
138	0xbf09a0a5	-0.5376075
139	0xc051e0ef	-3.2793539
140	0xc12127ec	-10.072247
141	0x00000000	0.0
142	0x00000000	0.0
143	0x00000000	0.0
144	0x421da0d7	39.40707
145	0x422b447e	42.816887
146	0x42839814	65.79703
147	0xc10b7862	-8.71689
148	0x41d20ef0	26.257294
149	0x42de4b35	111.14689
150	0xc0359dd6	-2.8377585
151	0x3fd83dcb	1.6893858
152	0xc0230126	-2.546945
153	0xc037e12e	-2.8731189
154	0x41abd7d3	21.480383
155	0x42bcb371	94.35047
156	0x3faa1d82	1.3290255
157	0x4137426e	11.453718
158	0x42469d0e	49.653374
159	0x00000000	0.0
160	0x00000000	0.0
161	0x00000000	0.0
162	0x3f86c949	1.0530177
163	0x40c3b2b8	6.1155663
164	0x41b64df3	22.788061
165	0xc01ae47f	-2.4201963
166	0x3fd140e2	1.6347926
167	0x40e89bfc	7.269041
168	0x410a4c4c	8.643627
169	0x424740a3	49.81312
170	0x434eaa0d	206.66426
171	0xc09be72b	-4.8719687
172	0xc034b212	-2.8233685
173	0xbfbfa162	-1.4971125
174	0xc05b3179	-3.4248946
175	0xc0effc8b	-7.499578
176	0xc1b4c62f	-22.59677
177	0xc04accbe	-3.1687465
178	0x41a56115	20.672403
179	0x42abdbc4	85.92923
180	0x4082baa0	4.0852814
181	0x41d16a38	26.176865
182	0x42bfc58a	95.88582
183	0x3f4e9b33	0.80705565
184	0x40557008	3.3349628
185	0x3fcd545e	1.6041372
186	0x3f5c56a9	0.8606973
187	0xc1baa786	-23.331799
188	0xc286503f	-67.15673
189	0xbfb9a32e	-1.4502923
190	0xc009e9a1	-2.1548846
191	0xc029779f	-2.647926
