models/dqn_agent_firm_1_final.pth (torch, 437746 bytes, 32 tensors)

fc1.weight f4 [128, 3]
0.8107538 0.009598578 -0.07250232 0.4605959 0.29608694 -0.020315086 -0.28518978 0.11828522
0.027084371 -0.38581276 0.172633 0.032058984 -0.37615994 -0.5649413 -0.046727844 -0.25653327
-0.43849713 -0.21460634 0.5428776 0.34914538 -0.024597071 0.4243358 0.31337798 -0.020514235
0.019428922 -0.08453201 0.02402509 -0.41422582 0.15010625 0.16252066 0.4211948 -0.4505269
0.12330717 0.25114667 -0.16660276 -0.003169944 0.08347413 0.04337331 -0.15376936 0.30794442
-0.018808872 -0.019962639 -0.06922215 -0.10981517 -0.034232553 -0.01885962 -0.41686216 0.122465596
0.26670113 0.85968715 -0.116790816 -0.67636883 -0.4425747 0.0037500267 0.7165106 0.38253832
-0.016043099 -0.72319305 -0.28510326 0.1928857 0.48382512 -0.13101707 -0.033006754 -0.37300357
-0.09219951 0.36383492 0.74137604 0.3831404 -0.28138068 -0.09400884 -0.04510186 -0.0024030139
-0.41255865 -0.1638603 0.207484 -0.4570809 -1.1874659 0.04338514 -0.08102838 0.3254661
-0.014283496 -0.5407884 -0.2797725 -0.4925484 -0.043350015 -0.75239015 0.05411489 -0.23941076
0.26764327 0.06613721 0.6979331 0.4095381 -0.1015622 -1.393261 0.025093302 0.04775396
-0.47205415 -0.5645365 0.16940503 -0.25649935 0.19760044 0.023956953 -0.014064838 -0.46146914
-0.18967913 -0.4291414 -0.016511448 -0.294259 -0.28654423 0.1409421 -0.065333776 -0.0750355
0.27644885 0.090643235 -0.36291343 -0.4444703 -0.37804663 0.47634387 -0.5375215 -0.13730302
0.005876101 0.81604695 -0.030294202 -0.15350051 -0.12420106 0.014762064 -0.94258124 -0.21244903
0.051051438 -0.15819556 -0.18812242 0.052175026 -0.35741627 0.5899189 -0.083405755 -0.07201778
-0.24883865 -0.48228785 -0.4546114 -0.1441717 -0.1083814 0.07577524 -1.8965154 0.030215062
-0.17513423 -0.5377341 -0.28111658 0.64149857 -0.79874426 -0.11090494 -0.3587446 0.00335077
-0.09049557 0.09957011 -0.3576121 0.028844409 -0.01649954 -0.36862403 -0.5687101 0.3074615
0.08755602 -0.021050368 -0.42499995 -0.47452956 -0.4851437 0.48322156 -0.14634714 -0.066985466
0.22952354 0.16357245 0.048004013 0.19017674 -0.26865855 -0.48951223 0.62358755 -1.0711544
0.042782445 0.1627214 -0.28159708 0.01583212 0.23288758 0.29147205 -0.48585448 0.48297876
-1.0135747 -0.06934165 -0.5633186 -0.46507397 -0.50205094 0.054362774 -0.41554686 0.04177479
0.886043 0.30410555 -0.23918425 0.3792996 -0.06832868 0.15302414 0.09272019 -0.38477644
-0.026073433 0.37276214 -0.10564912 0.048224345 -0.019707022 1.1552216 -0.017916016 0.2657423
0.0086508095 -0.019665703 -0.4842055 -0.4778426 -0.37370512 -0.1906653 -0.27749896 0.024281323
-0.10464114 -0.5205729 -0.39179936 -0.4642356 -0.45483232 -0.5746564 -0.16867012 -0.057609696
-0.08946542 0.025428481 -0.09802873 -0.5104604 -0.49537274 0.061097767 0.05194703 0.5073353
-0.35523188 -0.08995205 -0.0030040024 0.40779325 -0.01734898 0.058667593 -0.07417333 -0.054934558
-0.43607762 -0.39449063 -0.38250414 0.021060238 -0.14439633 -0.11468681 0.5877851 -0.70883805
-0.23055875 -0.05936001 -0.33533373 -0.23738794 0.75115716 -0.20422207 0.019594725 1.018798
00000000: 908d 4f3f 5b43 1d3c 197c 94bd 3ad3 eb3e
00000010: b598 973e d36b a6bc 6504 92be 853f f23d
00000020: 0be0 dd3c 4089 c5be b5c6 303e 4850 033d
00000030: 0998 c0be fe9f 10bf b265 3fbd 5458 83be
00000040: b282 e0be c4c1 5bbe 07fa 0a3f 2fc3 b23e
00000050: cc7f c9bc 8b42 d93e 1473 a03e 780d a8bc
00000060: 6729 9f3c 1e1f adbd 44d0 c43c 6815 d4be
00000070: 74b5 193e d16b 263e d8a6 d73e 76ab e6be
00000080: 7888 fc3d 4c96 803e ea99 2abe d6be 4fbb
00000090: 7cf4 aa3d 36a8 313d b775 1dbe e4aa 9d3e
000000a0: 1015 9abc b088 a3bc 58c4 8dbd c7e6 e0bd
000000b0: 6f37 0cbd 7d7f 9abc f56e d5be 3ecf fa3d
000000c0: 0d8d 883e 7514 5c3f 0630 efbd 8226 2dbf
000000d0: 2799 e2be 02c3 753b 3d6d 373f 10dc c33e
000000e0: d16c 83bc 2e23 39bf 0ef9 91be d483 453e
000000f0: edb7 f73e 5729 06be 1732 07bd 53fa bebe
00000100: 19d3 bcbd 9248 ba3e d2ca 3d3f fa2a c43e
00000110: 2111 90be b587 c0bd babc 38bd e27b 1dbb
00000120: e33a d3be ffca 27be b076 543e 8206 eabe
00000130: e2fe 97bf 9eb4 313d 35f2 a5bd 7ea3 a63e
00000140: 5305 6abc 1c71 0abf 573e 8fbe 4e2f fcbe
00000150: c98f 31bd a49c 40bf 93a7 5d3d 1828 75be
00000160: 8a08 893e f272 873d beab 323f faae d13e
00000170: d8ff cfbd 6056 b2bf 7890 cd3c a899 433d
00000180: 15b1 f1be 7785 10bf 8378 2d3e e253 83be
00000190: c557 4a3e 5f41 c43c 3570 66bc af45 ecbe
000001a0: 3f3b 42be 6cb8 dbbe 0443 87bc 1ea9 96be
000001b0: edb5 92be 2053 103e b7cd 85bd 36ac 99bd
000001c0: b48a 8d3e 29a3 b93d cacf b9be 9c91 e3be
000001d0: 548f c1be 58e3 f33e 029b 09bf 2a99 0cbe
000001e0: 4f8c c03b 74e8 503f 8c2b f8bc 3d2f 1dbe
000001f0: 205d febd 96dc 713c 014d 71bf 3d8c 59be
00000200: 501b 513d 04fe 21be 2aa3 40be 7bb5 553d
00000210: 44ff b6be ed04 173f a3d0 aabd 0f7e 93bd
00000220: 8fcf 7ebe 6fee f6be d3c2 e8be bfa1 13be
00000230: 11f7 ddbd 0d30 9b3d 04c1 f2bf 9485 f73c
00000240: 6356 33be f1a8 09bf 83ee 8fbe 4039 243f
00000250: 817a 4cbf 2122 e3bd 5fad b7be 9898 5b3b
00000260: be55 b9bd 6aeb cb3d ef18 b7be 1c4b ec3c
00000270: 0b2a 87bc 4abc bcbe fc96 11bf 986b 9d3e
00000280: 9250 b33d d271 acbc 9899 d9be 8af5 f2be
00000290: c164 f8be d168 f73e 06dc 15be ad2f 89bd
000002a0: 3808 6b3e 897f 273e db9f 443d b1bd 423e
000002b0: 9d8d 89be 59a1 fabe 6fa3 1f3f 961b 89bf
000002c0: a53c 2f3d 70a0 263e 7e2d 90be 5db2 813c
000002d0: 157a 6e3e d33b 953e ebc1 f8be fe48 f73e
000002e0: d1bc 81bf ff02 8ebd a635 10bf 2d1e eebe
000002f0: 6986 00bf 80ab 5e3d 8fc2 d4be 0b1c 2b3d
00000300: b7d3 623f b9b3 9b3e b7ec 74be 8f33 c23e
00000310: e8ef 8bbd 5cb2 1c3e 15e4 bd3d 6b01 c5be
00000320: f497 d5bc aeda be3e 915e d8bd e486 453d
00000330: 9f70 a1bc 4dde 933f 9cc4 92bc 600f 883e
00000340: 20bc 0d3c f819 a1bc c9e9 f7be c9a7 f4be
00000350: 4756 bfbe c43d 43be 5814 8ebe a0e9 c63c
00000360: 184e d6bd 4444 05bf ed99 c8be 4ab0 edbe
00000370: c8df e8be af1c 13bf dcb7 2cbe 25f8 6bbd
00000380: a539 b7bd 644f d03c 49c3 c8bd 88ad 02bf
00000390: 7fa1 fdbe a741 7a3d 69c6 543d bae0 013f
000003a0: f4e0 b5be c838 b8bd ccde 44bb 47ca d03e
000003b0: 731f 8ebc 6e4d 703d 30e8 97bd 0f03 61bd
000003c0: 9145 dfbe adfa c9be 95d7 c3be 8586 ac3c
000003d0: a2dc 13be ebe0 eabd 1679 163f 6976 35bf
000003e0: 9817 6cbe 7b23 73bd ddb0 abbe d315 73be
000003f0: d64b 403f 971f 51be 1e85 a03c f967 823f

fc1.bias f4 [128]
-0.31821585 1.7576436 2.7556114 2.4823775 -0.15144484 -0.37277612 2.6536973 1.7960418
-1.5092574 -2.2143352 -2.0008907 2.9878035 1.4116011 1.9197059 1.3872762 -2.2241693
-0.64776266 -0.4166238 0.758287 -1.8494096 0.5753105 -2.1344614 -0.015535934 2.8438668
-1.7897484 -0.9547976 1.3953512 -0.47635818 0.05769857 -2.0199559 1.2636074 -0.7761418
-2.2148583 2.9833272 -0.25656575 0.5742325 1.1739517 -1.6302701 -0.23494732 0.9257533
0.696869 2.7278688 -0.8902025 -1.5733224 -0.14551714 -0.4785157 0.1736436 0.73693854
-0.45193654 -0.35924065 0.23826547 2.6619973 0.4816468 2.397929 0.5010582 -0.14779058
-2.109842 0.28786856 -0.7956759 2.5201619 1.1065649 -0.42322326 -0.5109813 1.939474
1.209787 -2.3666296 -0.06499231 -2.3175178 -0.78464067 2.1190093 -0.10060494 1.9433717
-0.48609182 -0.21426821 1.7088746 0.3927875 2.750953 1.484136 2.6867921 1.367611
-0.22460753 1.1414024 0.45831564 0.31292835 -1.9648649 -0.97956264 -0.28499594 -1.4896567
2.185892 2.561893 -0.23283885 -2.418691 -0.30040264 -2.929217 -0.47656608 0.016631272
-0.17357677 -0.3097634 1.386326 2.6993957 -1.0577084 -0.027063087 -0.5087387 0.12902695
1.5753284 -2.4644372 -0.41266572 -1.7841831 1.1671469 0.19960262 2.776362 1.3188738
1.2090259 -0.068177015 -0.42086017 -0.37846372 2.352616 -2.1077583 -1.6904517 2.4703727
1.075555 -1.4015473 1.5615722 2.1347802 -0.07439797 -2.365661 1.8037348 1.5389637
00000000: 30ed a2be 77fa e03f f05b 3040 46df 1e40
00000010: 5b14 1bbe 83dc bebe 2dd6 2940 b3e4 e53f
00000020: 592f c1bf abb7 0dc0 980e 00c0 2c38 3f40
00000030: 58af b43f ecb8 f53f 4492 b13f ca58 0ec0
00000040: c6d3 25bf b74f d5be 191f 423f 74b9 ecbf
00000050: 8d47 133f 049b 08c0 6e8a 7ebc ea01 3640
00000060: 7a16 e5bf 9e6d 74bf de9a b23f 38e5 f3be
00000070: 5655 6c3d f546 01c0 e3bd a13f 3bb1 46bf
00000080: 3dc0 0dc0 d5ee 3e40 965c 83be e700 133f
00000090: 0d44 963f b1ac d0bf 0896 70be 2bfe 6c3f
000000a0: 0266 323f 6795 2e40 50e4 63bf a162 c9bf
000000b0: 7202 15be 0300 f5be a1cf 313e 01a8 3c3f
000000c0: 3a64 e7be 64ee b7be ddfb 733e 2a5e 2a40
000000d0: 699a f63e ab77 1940 5a45 003f 6a56 17be
000000e0: a707 07c0 8263 933e 6ab1 4bbf 554a 2140
000000f0: eba3 8d3f b8b0 d8be accf 02bf af40 f83f
00000100: 4dda 9a3f dc76 17c0 b01a 85bd 3652 14c0
00000110: 36de 48bf d99d 0740 f609 cebd 67c0 f83f
00000120: 07e1 f8be 2069 5bbe 67bc da3f 711b c93e
00000130: 9d0f 3040 2bf8 bd3f 67f4 2b40 e10d af3f
00000140: 84ff 65be 7919 923f 59a8 ea3e 2538 a03e
00000150: b180 fbbf 9ec4 7abf fdea 91be 12ad bebf
00000160: a8e5 0b40 0ef6 2340 4f6d 6ebe d5cb 1ac0
00000170: 60ce 99be 4b78 3bc0 7800 f4be 4e3e 883c
00000180: 1cbe 31be 4f99 9ebe 2173 b13f e6c2 2c40
00000190: fd62 87bf 68b3 ddbc b33c 02bf a41f 043e
000001a0: 5ca4 c93f 57b9 1dc0 ec48 d3be 1d60 e4bf
000001b0: 1265 953f a164 4c3e eaaf 3140 dbd0 a83f
000001c0: 5cc1 9a3f 64a0 8bbd fc7a d7be ffc5 c1be
000001d0: 4391 1640 83e5 06c0 b960 d8bf 961a 1e40
000001e0: c9ab 893f e765 b3bf 99e1 c73f 3da0 0840
000001f0: f75d 98bd fd66 17c0 c8e0 e63f c3fc c43f

fc2.weight f4 [128, 128]
0.07524623 -0.08091307 -0.060867667 0.0054939366 0.012400793 -0.00513965 -0.008072554 -0.013363912
0.0490147 -0.04362462 -0.05677921 -0.0046515474 0.009713215 0.07481175 0.08723785 0.05733205
-0.016770188 -0.08677118 0.019648807 0.013487634 0.008624667 -0.038765237 -0.040417217 0.0868618
-0.08303238 0.01384917 0.032795664 -0.031926323 0.020543365 0.084081925 -0.029577963 -0.029594367
0.029131353 -0.020550307 0.025470879 0.06619866 -0.055936884 0.047390904 0.0522446 0.07699808
0.065580845 0.025040528 0.0082236715 -0.0010210917 -0.054499518 0.015872356 -0.071183614 0.0021103348
-0.027017625 0.053219024 -0.014623649 0.06307814 -0.019420413 -0.072018996 -0.079367034 0.07045317
0.05049811 -0.060746 -0.08414739 -0.018201401 -0.07485461 -0.07769077 -0.065254785 -0.014784714
-0.021354206 -0.04936933 -0.07492489 0.024431907 -0.07584356 -0.032470774 -0.08100799 0.074992806
0.03181935 0.004391059 -0.056466807 -0.00072594784 -0.061017435 -0.021709694 -0.087568305 0.046759885
-0.03165047 -0.061533608 -0.07794125 -0.018183563 0.04463304 0.005567978 -0.018748814 -0.071436144
0.0428167 0.052794438 0.043758806 -0.01722038 -0.019410826 0.031042524 -0.00818849 0.022538828
-0.08138285 -0.026684307 -0.034302592 -0.05958907 -0.05708131 -0.07479513 0.06674394 -0.08331454
0.08735795 0.024502471 0.028368896 -0.016398685 -0.07409948 0.07307192 0.012543028 -0.0845297
-0.059197925 0.08430633 0.05779062 -0.014390631 -0.02659363 0.040406656 0.07437684 -0.037721153
-0.08023416 0.019874746 -0.06583246 0.043467592 0.059054814 -0.053086095 -0.05848849 0.033634122
-0.31941074 -0.08970452 0.32616755 0.22366714 -0.024982544 0.005816497 0.059389852 -0.06591688
-0.17879394 -0.40797564 -0.031602077 0.61122197 0.42616987 0.2358129 0.6010447 -0.8513736
-0.13801439 -0.031064328 0.03534413 -0.35823554 0.017191522 -0.15484051 -0.55067444 0.49309972
-0.08889918 -0.39023 0.05100573 -0.068637826 -1.1559626 -0.4502309 0.12272006 0.057965294
-0.89469767 0.80860287 0.06266208 -0.059335377 -0.15839106 -0.18107532 0.0013898872 -0.4916034
-0.08649274 0.8212776 -0.16211718 -1.0796822 -0.07755004 -0.04088628 0.067426525 0.012349785
-0.028521309 -0.12406341 0.059225015 0.48568627 -0.0026331348 0.20112269 0.08376325 -0.08281868
-0.30499566 -0.059606634 -0.13297912 0.28359997 0.2512461 -0.6939665 0.036462303 0.31656358
-0.5218059 -0.15481357 -0.042217452 -0.095384225 -0.60580295 0.20998695 -0.056501757 0.18767722
-0.032262463 -0.08614841 0.5667193 -0.0630887 0.39319944 0.3148314 0.20733428 -0.13362107
-0.04260021 0.3046856 -0.7566467 -0.045339968 -0.6812762 -0.109449856 -0.22231089 0.06619401
0.119293705 0.34761596 0.0070425593 -0.96168846 -0.1284818 -1.8762507 0.00438745 -0.02471605
-0.020535644 0.077307045 -0.0416663 0.5804814 -0.40723848 -0.0564421 0.058230147 -1.1073666
0.45531616 -0.72601223 -0.08751095 -0.6753534 0.043111637 -0.08032086 0.34442088 -0.0129692685
-0.020429336 -0.029704094 0.02714198 -0.06476778 0.116739675 -0.22150481 -0.12342564 0.1987985
-0.082271606 -0.44597155 -0.1596026 0.117381915 -0.059690695 -0.20793474 0.5033306 0.44676074
00000000: b21a 9a3d c0b5 a5bd 6050 79bd 7b06 b43b
00000010: b22c 4b3c 826a a8bb bf42 04bc 4ff4 5abc
00000020: a3c3 483d bbaf 32bd 5191 68bd 026c 98bb
00000030: 2d24 1f3c e736 993d c2a9 b23d 03d5 6a3d
00000040: a261 89bc 17b5 b1bd 89f6 a03c 3dfb 5c3c
00000050: 7a4e 0d3c 4cc8 1ebd 868c 25bd 99e4 b13d
00000060: e10c aabd a1e7 623c bf54 063d 2dc5 02bd
00000070: 8f4a a83c 2533 ac3d 7c4d f2bc e36f f2bc
00000080: e0a4 ee3c 1e59 a8bc 4ea8 d03c 2a93 873d
00000090: 131e 65bd f71c 423d 6ffe 553d 2bb1 9d3d
000000a0: 404f 863d cb21 cd3c 94bc 063c 27d6 85ba
000000b0: e33a 5fbd be06 823c b7c8 91bd 8b4d 0a3b
000000c0: 1154 ddbc 31fc 593d 0898 6fbc 1d2f 813d
000000d0: 8f17 9fbc b27e 93bd 2f8b a2bd c049 903d
000000e0: 1bd7 4e3d ccd0 78bd 7855 acbd 1b1b 95bc
000000f0: 604d 99bd 571c 9fbd 4da4 85bd 963b 72bc
00000100: 04ef aebc 7f37 4abd 3972 99bd 6c25 c83c
00000110: de53 9bbd 1300 05bd 84e7 a5bd d495 993d
00000120: 0255 023d dfe2 8f3b bd49 67bd 894d 3eba
00000130: 6bed 79bd 87d8 b1bc 0357 b3bd 4b87 3f3d
00000140: eca3 01bd aa0a 7cbd a99f 9fbd b2f5 94bc
00000150: 22d1 363d 9673 b63b 1d97 99bc 1d4d 92bd
00000160: 9060 2f3d fb3e 583d 6f3c 333d c111 8dbc
00000170: 7403 9fbc e44c fe3c 0429 06bc 59a3 b83c
00000180: 0dac a6bd 0c99 dabc e080 0cbd ab13 74bd
00000190: 17ce 69bd 302e 99bd 0cb1 883d d0a0 aabd
000001a0: bae8 b23d 68b9 c83c e365 e83c 8956 86bc
000001b0: 78c1 97bd bba6 953d 4681 4d3c e81d adbd
000001c0: 8679 72bd cca8 ac3d dbb5 6c3d aec6 6bbc
000001d0: e2da d9bc 7381 253d e252 983d 7f81 1abd
000001e0: cf51 a4bd 5dd0 a23c 2bd3 86bd 130b 323d
000001f0: 76e3 713d ce70 59bd a091 6fbd efc3 093d
00000200: ce89 a3be 01b7 b7bd 6fff a63e 0009 653e
00000210: 31a8 ccbc 5098 be3b c642 733d 6eff 86bd
00000220: c215 37be 2fe2 d0be 2e71 01bd 0b79 1c3f
00000230: f032 da3e f078 713e 11de 193f 9ff3 59bf
00000240: a553 0dbe 9e7a febc 02c5 103d a66a b7be
00000250: 3cd5 8c3c 838e 1ebe 00f9 0cbf 9177 fc3e
00000260: c610 b6bd 3acc c7be 62eb 503d fd91 8cbd
00000270: 95f6 93bf aa84 e6be a854 fb3d 046d 6d3d
00000280: e80a 65bf 9900 4f3f fa54 803d a709 73bd
00000290: 4431 22be cf6b 39be e02c b63a 71b3 fbbe
000002a0: 1b23 b1bd 403f 523f 0c02 26be 0733 8abf
000002b0: 8ed2 9ebd 5f78 27bd eb16 8a3d c156 4a3c
000002c0: 85a5 e9bc f514 febd ee95 723d dfab f83e
000002d0: ac90 2cbb 1bf3 4d3e 118c ab3d d79c a9bd
000002e0: 6428 9cbe 1626 74bd ae2b 08be 0434 913e
000002f0: 54a3 803e caa7 31bf 7f59 153d 9f14 a23e
00000300: 1295 05bf 7387 1ebe 35ec 2cbd ce58 c3bd
00000310: e715 1bbf d206 573e 636e 67bd 752e 403e
00000320: a525 04bd 946e b0bd 8414 113f a634 81bd
00000330: 7051 c93e 9531 a13e 704f 543e f6d3 08be
00000340: 8f7d 2ebd c0ff 9b3e 99b3 41bf 67b6 39bd
00000350: 1e68 2ebf 3f27 e0bd 77a5 63be ba90 873d
00000360: 4250 f43d b8fa b13e 45c5 e63b 3731 76bf
00000370: bc90 03be fc28 f0bf 99c4 8f3b 5079 cabc
00000380: 5e3a a8bc 2853 9e3d 48aa 2abd 6e9a 143f
00000390: 9081 d0be d52f 67bd bc82 6e3d 30be 8dbf
000003a0: 331f e93e f0db 39bf f138 b3bd f6e3 2cbf
000003b0: d495 303d 437f a4bd ef57 b03e 0e7d 54bc
000003c0: 6c5b a7bc 0056 f3bc dc58 de3c f8a4 84bd
000003d0: 3615 ef3d 28d2 62be 95c6 fcbd d591 4b3e
000003e0: 047e a8bd 6256 e4be dd6e 23be ee65 f03d
000003f0: 3b7e 74bd d8ec 54be 46da 003f d3bd e43e

fc2.bias f4 [128]
0.04052079 0.92467564 -0.07628264 0.067683496 -0.00053115963 2.230481 0.032379635 -0.046665188
-0.2787639 1.283547 -0.015260343 2.1450632 -0.078045055 2.0429199 0.4787265 1.6804707
-0.0116468705 0.008793359 0.03650725 -0.37862176 0.06524427 2.052386 1.8744891 -0.04314692
-1.1929104 1.8560505 -0.19828898 0.011785714 -0.039502557 2.0260768 0.036563657 -0.024317924
1.9235731 -0.43142796 -0.10228365 -0.7348033 -1.5322608 2.0894291 -0.46736866 2.0458515
-0.06496262 0.007024309 1.8453013 0.7606797 -0.050188027 1.9227552 -0.57815254 1.9145291
-0.78067666 -0.07925414 0.74722683 1.3476931 -0.5891229 0.6019079 0.8264935 -0.0019189038
0.7800485 1.4451034 -0.02754406 1.4170243 1.9358947 1.977008 1.8035415 0.078023314
1.718121 0.07183839 1.9199259 -0.016490031 0.07027417 1.3088671 2.0050228 -1.0634658
-0.061159186 -1.2740613 1.9836632 1.9879882 -0.7290665 -0.41796488 -0.050431456 0.7844534
0.0033096245 -0.45653328 -0.030051978 -0.085980766 -0.081609614 0.33444294 0.52009386 -0.30522874
2.011368 -0.016677096 -0.38531655 1.3112186 0.69996697 1.8519003 2.0359683 2.208081
-0.04061262 -0.044798717 0.37603354 1.5697101 -0.42554036 1.521635 -0.011711826 0.017848812
1.0608315 1.770622 0.98262715 -0.06308535 0.029084425 -1.1640351 1.184416 0.22152825
0.027610322 -0.4033652 1.5614955 -0.8468529 -0.09249412 0.8303557 -0.82641447 0.048183717
-1.2210581 0.61552715 0.104646906 -0.056719817 -0.052549183 0.04698307 -0.054857247 0.45222196
00000000: 21f9 253d 8bb7 6c3f 133a 9cbd a59d 8a3d
00000010: 853d 0bba 33c0 0e40 82a0 043d ff23 3fbd
00000020: 24ba 8ebe 454b a43f 8506 7abc b748 0940
00000030: 16d6 9fbd 33bf 0240 a41b f53e aa19 d73f
00000040: 84d2 3ebc 0512 103c a088 153d b6da c1be
00000050: ca9e 853d 4b5a 0340 42ef ef3f d3ba 30bd
00000060: 4ab1 98bf 1093 ed3f 440c 4bbe de18 413c
00000070: 6fcd 21bd 3eab 0140 c6c3 153d 6236 c7bc
00000080: a537 f63f 20e4 dcbe 177a d1bd 121c 3cbf
00000090: 1f21 c4bf 35b9 0540 f24a efbe 3bef 0240
000000a0: 1f0b 85bd 2d2c e63b d532 ec3f e8bb 423f
000000b0: f691 4dbd d81c f63f ce01 14bf 4a0f f53f
000000c0: 6dda 47bf ff4f a2bd 424a 3f3f 3581 ac3f
000000d0: c2d0 16bf a316 1a3f 1495 533f ba83 fbba
000000e0: 42b1 473f 26f9 b83f 15a4 e1bc 0d61 b53f
000000f0: 66cb f73f 990e fd3f 73da e63f b0ca 9f3d
00000100: 64eb db3f 0120 933d 22c0 f53f 1a16 87bc
00000110: e7eb 8f3d f588 a73f 4b52 0040 a61f 88bf
00000120: 0e82 7abd 7114 a3bf ade8 fd3f 6676 fe3f
00000130: 1aa4 3abf 7eff d5be 3791 4ebd f0d1 483f
00000140: 49e6 583b bbbe e9be 912f f6bc af16 b0bd
00000150: f122 a7bd 1b3c ab3e df24 053f f146 9cbe
00000160: 41ba 0040 689e 88bc 3648 c5be 03d6 a73f
00000170: 0931 333f 120b ed3f 4e4d 0240 3351 0d40
00000180: 6b59 26bd dc7e 37bd 7887 c03e 43ec c83f
00000190: 6de0 d9be f0c4 c23f f5e2 3fbc ac37 923c
000001a0: 54c9 873f bea3 e23f 748d 7b3f e432 81bd
000001b0: 7642 ee3c 1aff 94bf f29a 973f 4dd8 623e
000001c0: 0b2f e23c e285 cebe 16df c73f 5acb 58bf
000001d0: 8f6d bdbd 3192 543f e68f 53bf 4a5c 453d
000001e0: a24b 9cbf 3093 1d3f 1e51 d63d 0a53 68bd
000001f0: d03d 57bd 5271 403d feb1 60bd a389 e73e

fc3.weight f4 [64, 128]
-0.014000224 0.043181643 0.055267297 -0.084537886 0.079655804 -0.032759648 0.057389494 -0.07188462
-0.030295683 0.02507213 -0.07281751 0.023394004 -0.07528969 0.055473797 0.035924055 -0.012570552
-0.06785688 -0.08268408 0.08382359 0.053258553 0.059401043 -0.07613423 -0.030649481 -0.08666431
0.06465505 -0.032786913 -0.021590983 -0.0032577405 -0.07579286 -0.05968008 -0.04390077 0.07951207
0.027777571 0.030025408 -0.017633693 -0.0011560806 -0.08612792 -0.07913296 0.056067348 0.0108053
0.021319574 -0.07516844 -0.050274834 0.031125218 -0.08499152 0.03695828 -0.083683126 0.017078716
-0.046423007 -0.042175338 -0.038808048 -0.053268738 0.044241935 0.059133783 -0.0871294 -0.028964462
0.061917286 0.03352687 0.026462162 -0.07427808 -0.022286944 0.029828293 0.05063851 0.069557995
0.06481356 0.009914347 0.043042015 -0.09130452 0.0075329156 -0.024318576 9.750181e-05 -0.08918277
-0.014223708 -0.08353142 -0.07857094 0.018661948 -0.03739313 -0.065803654 -0.058843028 -0.07594411
-0.0043049175 -0.064942375 -0.051609036 0.051729787 0.018621879 -0.07780066 0.038642593 0.057676833
-0.09234879 0.0097055 -0.015358791 -0.0528568 -0.023178307 -0.032286156 -0.01892386 -0.025988646
0.0033125735 0.052619852 0.040350016 -0.07589327 -0.086442545 -0.07284644 -0.010215985 -0.04820564
-0.05946134 0.080512114 -0.07735276 -0.026473025 0.06287742 0.019103868 0.024077969 -0.05609767
-0.004599412 0.030310167 -0.033553395 -0.06647355 -0.056099962 0.07809732 0.04975308 0.054521415
-0.042004853 -0.0069523114 0.041553635 -0.037340224 -0.019291308 -0.08071875 -0.062042467 -0.06262065
-0.01614593 -0.07236161 0.05632196 -0.0020598217 0.063143745 -0.076390885 0.02222653 -3.2737564e-05
0.029969271 0.014579585 0.043300837 -0.08233487 -0.050309587 0.018124256 -0.053535912 0.048431464
-0.08233172 -0.014485977 -0.07237137 0.023498118 0.03521209 -0.14105573 0.06258482 -0.08637436
-0.013592796 -0.0442046 -0.0345768 -0.072574764 -0.01679947 -0.07933769 -0.023134079 0.039563958
-0.014519981 0.0019561013 0.04442598 -0.0146548785 0.037874505 0.030088184 -0.0742187 -0.08457036
-0.06336424 0.049868826 -0.069096714 0.017641991 0.06146809 -0.03647413 -0.052965794 0.067185216
-0.09002828 0.06555095 -0.09687847 -0.0211431 0.03084411 0.03943815 0.07456379 0.04095364
-0.09635629 0.060129944 0.03460385 -0.020542005 -0.10152641 0.022742134 -0.047552116 0.02092219
-0.09941459 0.037644386 -0.1269634 -0.06944191 0.08454301 0.030928727 -0.120391406 -0.027231654
0.086573355 0.032906543 -0.07347094 -0.107044786 -0.043565463 0.022447923 0.029361011 0.031909887
0.0074727032 -0.109326154 -0.06692514 -0.08088923 -0.040204752 0.02769297 -0.0005445465 -0.028045889
-0.013480559 -0.08547327 -0.05469636 -0.0016041042 -0.038026102 -0.08280816 -0.1344622 -0.0526691
0.028460871 0.07650606 0.037640914 -0.0744995 -0.06940919 -0.10761127 -0.0011993623 -0.066936664
-0.014384264 -0.12082521 -0.06683568 0.0023401615 -0.07164803 0.058728594 0.016284881 -0.11307516
-0.048339337 -0.030967357 -0.0035451727 0.05243378 0.018200852 0.06894966 -0.011800955 0.046128746
-0.084090345 -0.0768995 0.004403874 -0.08308176 0.064952105 -0.083838485 0.074307054 -0.081861235
00000000: 3261 65bc 3cdf 303d f65f 623d 3322 adbd
00000010: 9522 a33d fb2e 06bd 3f11 6b3d 3e38 93bd
00000020: a72e f8bc 1164 cd3c 5921 95bd c8a4 bf3c
00000030: 7b31 9abd 7e38 633d 1a25 133d b7f4 4dbc
00000040: 8cf8 8abd 4556 a9bd b4ab ab3d a425 5a3d
00000050: 824e 733d 43ec 9bbd 9f14 fbbc 0f7d b1bd
00000060: de69 843d 924b 06bd 93df b0bc d17f 55bb
00000070: 4939 9bbd 1973 74bd 4bd1 33bd 39d7 a23d
00000080: ca8d e33c d8f7 f53c 8974 90bc a187 97ba
00000090: d663 b0bd 7610 a2bd e0a6 653d b708 313c
000000a0: 63a6 ae3c e9f1 99bd fcec 4dbd 50fa fe3c
000000b0: 0910 aebd 9161 173d 0f62 abbd aae8 8b3c
000000c0: 0d26 3ebd 0cc0 2cbd 30f5 1ebd 5230 5abd
000000d0: 0837 353d 4436 723d e670 b2bd e146 edbc
000000e0: fb9c 7d3d 7953 093d 2dc7 d83c 1b1f 98bd
000000f0: 1c93 b6bc 775a f43c 546a 4f3d 6c74 8e3d
00000100: f9bc 843d c96f 223c d34c 303d ddfd babd
00000110: add6 f63b c037 c7bc e379 cc38 75a5 b6bd
00000120: 8e0a 69bc 8512 abbd cde9 a0bd f1e0 983c
00000130: 8a29 19bd 11c4 86bd 6305 71bd 9688 9bbd
00000140: 4410 8dbb 8200 85bd ff63 53bd 9de2 533d
00000150: e98c 983c f455 9fbd b247 1e3d 8b3e 6c3d
00000160: 5d21 bdbd d103 1f3c 70a3 7bbc 5f80 58bd
00000170: 6fe0 bdbc 7d3e 04bd 3606 9bbc 24e6 d4bc
00000180: c317 593b ea87 573d 0f46 253d ee6d 9bbd
00000190: ca08 b1bd 8430 95bd f260 27bc 4773 45bd
000001a0: bc8d 73bd 89e3 a43d 206b 9ebd f5dd d8bc
000001b0: e0c5 803d b77f 9c3c 293f c53c acc6 65bd
000001c0: aab6 96bb 074d f83c 496f 09bd 4923 88bd
000001d0: 13c9 65bd 7df1 9f3d e3c9 4b3d d951 5f3d
000001e0: 480d 2cbd 37d0 e3bb 2534 2a3d 10f2 18bd
000001f0: ce08 9ebc df4f a5bd 3e20 7ebd 413f 80bd
00000200: 7844 84bc 5332 94bd dbb1 663d 13fe 06bb
00000210: 8251 813d d372 9cbd 6914 b63c b14f 09b8
00000220: 1e82 f53c 36df 6e3c 385c 313d 2f9f a8bd
00000230: 6d11 4ebd 5279 943c 7948 5bbd 1260 463d
00000240: 889d a8bd 9756 6dbc 7137 94bd 207f c03c
00000250: 8d3a 103d ea70 10be 782c 803d 0ae5 b0bd
00000260: 52b4 5ebc e20f 35bd 67a0 0dbd 14a2 94bd
00000270: 0b9f 89bc cc7b a2bd ae83 bdbc d10d 223d
00000280: 37e5 6dbc ef31 003b 04f8 353d 041b 70bc
00000290: 4c22 1b3d 7f7b f63c f9ff 97bd 3a33 adbd
000002a0: 1cc5 81bd 4143 4c3d 9482 8dbd f085 903c
000002b0: f7c5 7b3d e665 15bd a9f2 58bd 6798 893d
000002c0: bf60 b8bd 943f 863d 3868 c6bd 4b34 adbc
000002d0: c9ac fc3c e689 213d e6b4 983d 01bf 273d
000002e0: 7256 c5bd d14a 763d c4bc 0d3d b547 a8bc
000002f0: 14ed cfbd b64d ba3c 02c6 42bd 0365 ab3c
00000300: e099 cbbd 0031 1a3d b202 02be 8f37 8ebd
00000310: e324 ad3d 3e5e fd3c c58f f6bd eb14 dfbc
00000320: 5f4d b13d 03c9 063d ef77 96bd 4c3a dbbd
00000330: b371 32bd b5e4 b73c 8186 f03c f1b3 023d
00000340: 94dd f43b 64e6 dfbd 0c10 89bd 41a9 a5bd
00000350: bdad 24bd 5edc e23c e6bf 0eba 7ec0 e5bc
00000360: 90dd 5cbc 9c0c afbd 4a09 60bd ce40 d2ba
00000370: 42c1 1bbd 5397 a9bd 75b0 09be 8ebb 57bd
00000380: c626 e93c 36af 9c3d 5c2d 1a3d 3293 98bd
00000390: 6826 8ebd 4c63 dcbd ec33 9dba 1716 89bd
000003a0: faab 6bbc 3573 f7bd 25e1 88bd 655d 193b
000003b0: 34bc 92bd 658d 703d df67 853c f393 e7bd
000003c0: 78ff 45bd 41af fdbc 2156 68bb cec4 563d
000003d0: f419 953c 7b35 8d3d cb58 41bc 7ff1 3c3d
000003e0: 8f37 acbd 7c7d 9dbd 5f4e 903b c526 aabd
000003f0: 9c05 853d 83b3 abbd 4c2e 983d dda6 a7bd

fc3.bias f4 [64]
0.07092288 -0.051352985 0.29493928 1.1501306 0.89453644 -0.050590612 0.87204903 -0.0047752485
0.008892889 1.1725016 0.8393215 0.43241683 1.1210091 -0.7751386 0.9350738 0.09149246
-0.07794465 -0.07699511 -0.12012143 0.08459115 -0.050330553 -0.059087653 0.040091336 -0.77759725
-0.12142821 -0.30914423 -0.07362493 0.82945263 0.032947518 1.4652945 -0.06101372 1.1563742
0.015185295 0.10284635 0.06926095 -0.8708168 1.0621513 0.12334332 -0.04566733 -0.09589021
-0.3651967 -0.48870322 0.35344115 -0.7388048 -0.097484276 -0.069594204 0.05929219 -0.02875831
1.4904166 -0.055661872 -0.083320305 0.96232474 1.219545 0.52756405 1.4601278 0.4868677
-0.070305936 0.28394887 1.2441987 1.4970409 -0.033966936 0.010556434 -0.08884291 1.1968372
00000000: 0440 913d 8257 52bd 4802 973e 7b37 933f
00000010: 5700 653f 1a38 4fbd 9b3e 5f3f b079 9cbb
00000020: 7bb3 113c 8814 963f c6dd 563f bd65 dd3e
00000030: 3a7d 8f3f 7c6f 46bf ff60 6f3f 6660 bb3d
00000040: 72a1 9fbd 9daf 9dbd 3902 f6bd 203e ad3d
00000050: 6927 4ebd e505 72bd d036 243d 9d10 47bf
00000060: 5aaf f8bd 2748 9ebe abc8 96bd 0257 543f
00000070: faf3 063d c58e bb3f 86e9 79bd 1204 943f
00000080: becb 783c 1ba1 d23d afd8 8d3d daed 5ebf
00000090: 93f4 873f 6c9b fc3d ab0d 3bbd 1662 c4bd
000000a0: 10fb babe 4f37 fabe 3df6 b43e 5022 3dbf
000000b0: d6a5 c7bd 6887 8ebd 5edc 723d 8c96 ebbc
000000c0: f9c5 be3f b4fd 63bd d6a3 aabd ea5a 763f
000000d0: 0d1a 9c3f 700e 073f 78e5 ba3f b946 f93e
000000e0: 8ffc 8fbd bf61 913e e741 9f3f 099f bf3f
000000f0: ea20 0bbd e5f4 2c3c 46f3 b5bd f631 993f

fc4.weight f4 [20, 64]
0.083756566 -0.056693602 -0.9459358 0.13337879 0.41009736 -0.28772616 0.45451337 -6.815791e-05
0.11402334 0.030495511 0.18282641 -0.033137668 0.54592925 -0.77236414 0.39874482 -0.15510228
-0.007244317 0.014362738 -0.46158025 0.07806568 0.046266302 0.11434046 0.05546857 -0.23211734
-0.00657658 0.03948744 -0.044171404 -0.029653085 0.050537463 0.28983912 0.3698058 0.26466742
0.22344096 0.10053802 -0.017123364 -0.5874069 0.417821 0.07602635 -0.0727399 -0.09724274
-0.25492978 -0.35806203 -0.15358634 -0.41121814 0.03661411 -0.014644623 0.009074704 0.018225031
0.29336262 0.05049282 -0.03700805 0.19652411 0.39792857 0.15775238 0.36588472 0.0061531835
0.02373364 0.23314394 0.17178126 0.32663512 0.015342515 0.012708059 0.048977517 0.12776038
-0.025798753 0.014430904 -0.34597397 0.20923267 0.4648995 -0.6788755 0.37302268 -0.022993267
-0.055089455 -0.035364583 0.028178973 -0.107865974 0.4713639 -0.34385794 0.5233541 -0.07172889
-0.046282515 -0.12437698 -0.6778048 0.016372554 0.10440783 0.03131728 -0.094400905 -0.21139206
-0.11194015 -0.108185604 0.06858604 0.11801766 0.011851236 0.21461278 0.2696469 -0.18465613
-0.16130258 0.051318407 -0.62314826 -0.26032314 0.46221408 0.06702252 0.122228116 -0.057556488
-0.629774 -0.6264414 -0.59009045 -0.36471236 -0.07801965 0.05500315 -0.08323846 0.095960006
0.24120082 0.0068163113 -0.058013782 0.27973717 0.41981405 0.20858653 0.46395022 0.022410112
-0.07110402 -0.032826778 0.46998957 0.28536645 -0.00494121 0.051982373 0.051019326 0.006634731
-0.0062486934 0.04796088 -0.4615752 0.18412861 0.55017495 -0.23995101 0.43660825 0.121804446
-0.13515429 0.0017840685 -0.07742143 -0.07108219 0.5192412 -0.22026604 0.17178439 0.0058470317
0.09225316 0.076794356 -0.63539124 -0.07649807 -0.10209262 -0.09266257 -0.084430486 0.0047437996
0.20529312 0.023046372 -0.107185334 -0.073068015 0.08723847 0.20974363 0.35606846 -0.018641924
0.17912385 -0.028646693 -0.39963824 -0.37172952 0.44042224 0.0672111 0.09600894 0.12424545
-0.44183633 -0.45844182 -0.38753206 -0.13642842 0.10535722 0.09269947 0.117079385 -0.12432626
0.21811718 0.10220962 -0.033658836 0.15005109 0.49098337 -0.34037012 0.36749044 -0.025395198
-0.04643247 0.38190967 0.3165978 0.3329652 -0.039954573 0.027121361 0.15524255 0.0461687
-0.057945073 -0.02103073 -0.66242176 0.16787215 0.41168946 -0.3933441 0.26526144 0.07728422
0.0360484 -0.07331218 -0.31333837 -0.038387876 0.38165712 -0.33287114 0.43985105 0.028901445
0.0586157 0.06058909 -0.5022467 -0.09767763 -0.05157286 -0.0193706 -0.11648893 0.0054952158
-0.44177657 0.059290353 0.05009909 -0.23284185 -0.11552921 0.27482003 0.04721673 -0.016363712
0.41557956 0.058943808 -0.5133597 -0.28401953 0.3625203 0.05114973 0.11580013 -0.07333504
-0.1108852 -0.123199254 -0.088988535 -0.14864767 -0.066667676 -0.03149569 -0.020971024 -0.08385396
0.24587113 0.084628925 -0.0851855 0.173078 0.48388794 -0.15155514 0.5469469 0.20260432
0.015163854 -0.18778288 0.25916886 0.20644994 0.046990126 0.009392977 -0.43195635 0.08610575
00000000: 9088 ab3d 8d37 68bd d928 72bf 7394 083e
00000010: 48f8 d13e d850 93be fab5 e83e 00f0 8eb8
00000020: 1285 e93d b9d1 f93c d936 3b3e 5dbb 07bd
00000030: 05c2 0b3f a8b9 45bf 4828 cc3e 22d3 1ebe
00000040: bc61 edbb b051 6b3c 3f54 ecbe e6e0 9f3d
00000050: bc81 3d3d 552b ea3d 0333 633d 2bb0 6dbe
00000060: 5a80 d7bb 95bd 213d 13ed 34bd 07eb f2bc
00000070: 5f00 4f3d cb65 943e 3057 bd3e 7d82 873e
00000080: b5cd 643e e1e6 cd3d 4c46 8cbc 4c60 16bf
00000090: a2ec d53e b4b3 9b3d a8f8 94bd 3427 c7bd
000000a0: 2886 82be e853 b7be bd45 1dbe 2f8b d2be
000000b0: adf8 153d 00f0 6fbc 11ae 143c a94c 953c
000000c0: a033 963e 8fd1 4e3d c195 17bd 9e3d 493e
000000d0: 4bbd cb3e d789 213e 3e55 bb3e a5a0 c93b
000000e0: 0d6d c23c 49bd 6e3e 6de7 2f3e b83c a73e
000000f0: 2c5f 7b3c 7635 503c a69c 483d 9ed3 023e
00000100: e857 d3bc 996f 6c3c 8023 b1be 1741 563e
00000110: 4f07 ee3e c9ca 2dbf d4fc be3e 605c bcbc
00000120: 7ba5 61bd 74da 10bd 97d7 e63c d6e8 dcbd
00000130: 9c56 f13e 260e b0be 89fa 053f 99e6 92bd
00000140: bc92 3dbd 5cb9 febd 9e84 2dbf bc1f 863c
00000150: c6d3 d53d 8c46 003d 4355 c1bd 2977 58be
00000160: e140 e5bd 6a90 ddbd d676 8c3d 3eb3 f13d
00000170: b02b 423c 74c3 5b3e 290f 8a3e 7f16 3dbe
00000180: 812c 25be 4033 523d a586 1fbf 1349 85be
00000190: 53a7 ec3e 1a43 893d bc52 fa3d 5ac0 6bbd
000001a0: de38 21bf 775e 20bf 2b10 17bf 94bb babe
000001b0: c4c8 9fbd fc4a 613d ed78 aabd ae86 c43d
000001c0: 59fd 763e 5d5b df3b dc9f 6dbd b639 8f3e
000001d0: def1 d63e b597 553e e28a ed3e 6995 b73c
000001e0: fc9e 91bd 5f75 06bd 79a2 f03e 8d1b 923e
000001f0: e0e9 a1bb 78eb 543d a4f9 503d 2868 d93b
00000200: d7c1 ccbb a172 443d 9653 ecbe 368c 3c3e
00000210: 44d8 0c3f b8b5 75be 1e8b df3e 9c74 f93d
00000220: e365 0abe 68d7 e93a 208f 9ebd 8a93 91bd
00000230: feec 043f 6c8d 61be 3fe8 2f3e 7598 bf3b
00000240: 3aef bc3d 5c46 9d3d 00a9 22bf 05ab 9cbd
00000250: f015 d1bd e0c5 bdbd e4e9 acbd e071 9b3b
00000260: 5c38 523e bfcb bc3c fc83 dbbd afa4 95bd
00000270: 15aa b23d 09c7 563e 9b4e b63e f3b6 98bc
00000280: 3e6c 373e 78ac eabc 629d ccbe 5553 bebe
00000290: 067f e13e f9a5 893d 56a0 c43d 6674 fe3d
000002a0: 5f38 e2be e3b8 eabe 9a6a c6be e4b3 0bbe
000002b0: 87c5 d73d 38d9 bd3d 51c7 ef3d c49e febd
000002c0: 1c5a 5f3e 4753 d13d d9dd 09bd fea6 193e
000002d0: 2c62 fb3e fe44 aebe b527 bc3e 9709 d0bc
000002e0: f92f 3ebd aa89 c33e 1b19 a23e 6a7a aa3e
000002f0: 68a7 23bd 9e2d de3c e7f7 1e3e 641b 3d3d
00000300: d057 6dbd a348 acbc 7994 29bf ade6 2b3e
00000310: f6c8 d23e 6664 c9be 59d0 873e 3047 9e3d
00000320: 7da7 133d b224 96bd e36d a0be 9b3c 1dbd
00000330: 9068 c33e 166e aabe 2834 e13e b9c2 ec3c
00000340: 0417 703d 442c 783d 3d93 00bf 360b c8bd
00000350: 103e 53bd 18af 9ebc c091 eebd 3611 b43b
00000360: 8a30 e2be 71da 723d b434 4d3d 186e 6ebe
00000370: 949a ecbd 36b5 8c3e 5466 413d 310d 86bc
00000380: d8c6 d43e 106f 713d 8b6b 03bf 026b 91be
00000390: 439c b93e 6182 513d 9e28 ed3d ae30 96bd
000003a0: c817 e3bd e44f fcbd 9f3f b6bd 1837 18be
000003b0: 1089 88bd a001 01bd 6dcb abbc a0bb abbd
000003c0: a4c5 7b3e ee51 ad3d bc75 aebd 5c3b 313e
000003d0: 29c0 f73e 4531 1bbe b604 0c3f 8277 4f3e
000003e0: d071 783c 284a 40be c8b1 843e 9d67 533e
000003f0: b878 403d 00e5 193c 6229 ddbe 3658 b03d

fc4.bias f4 [20]
1.1431595 0.40549934 0.03671518 0.14194019 -0.017854746 0.22500321 -0.16232923 0.0073165977
0.15339337 -0.07506114 -0.3794173 -0.047594853 -0.25056326 -0.2931341 -0.20997395 -0.44228014
-0.58736026 -0.43702292 -0.035805363 -0.1686399
00000000: 0d53 923f 9c9d cf3e a862 163d c558 113e
00000010: 1e44 92bc 3e67 663e a239 26be 12c0 ef3b
00000020: 2713 1d3e a8b9 99bd fc42 c2be d2f2 42bd
00000030: d449 80be ac15 96be 6903 57be 8b72 e2be
00000040: 3e5d 16bf 78c1 dfbe a5a8 12bd f0af 2cbe

fc1.weight f4 [128, 3]
0.81278175 0.016405642 -0.07004847 0.4607682 0.29730996 -0.02235077 -0.28008595 0.1215027
0.028104445 -0.38754773 0.17723167 0.03201614 -0.37615994 -0.5649413 -0.046727844 -0.25653327
-0.43850213 -0.21460634 0.54298365 0.35007012 -0.024918225 0.42444187 0.31448644 -0.021873098
0.0026187538 -0.09193036 0.02229174 -0.41931424 0.1492075 0.1648939 0.4173811 -0.4506188
0.12638833 0.24999335 -0.16718912 -0.0038800165 0.085074365 0.0326207 -0.15386675 0.30764022
-0.019474791 -0.020481212 -0.05911119 -0.111949004 -0.041639827 -0.018478781 -0.4157904 0.124649286
0.27104124 0.8637499 -0.11094204 -0.67637247 -0.4425553 0.003750135 0.7270519 0.39289895
-0.011506357 -0.71971816 -0.27683097 0.19981275 0.48181486 -0.124675915 -0.042753957 -0.37575626
-0.09200661 0.36712137 0.73745376 0.3928793 -0.27780902 -0.09424392 -0.044444647 -0.0027534736
-0.42004472 -0.1578744 0.21543789 -0.42423475 -1.1536208 0.05256405 -0.061439358 0.3333237
-0.013966745 -0.5407884 -0.2797729 -0.4925484 -0.039084516 -0.74525476 0.056781564 -0.23437844
0.2724305 0.07069084 0.6955307 0.4185456 -0.0953904 -1.3303572 0.026203755 0.047131736
-0.471453 -0.561187 0.1729932 -0.25702658 0.19834365 0.023396365 -0.014064838 -0.46146914
-0.18967913 -0.42914408 -0.016511632 -0.294259 -0.2823997 0.13896129 -0.068089545 -0.07484802
0.28308517 0.0975653 -0.36291343 -0.4444703 -0.37804663 0.47241846 -0.5367599 -0.13803282
-0.0018655864 0.81145257 -0.034192763 -0.15503573 -0.12064305 0.012073742 -0.8820503 -0.24059214
0.056461014 -0.16318549 -0.18913485 0.057019517 -0.3561063 0.58279413 -0.0874043 -0.07201778
-0.24883865 -0.48228785 -0.4546114 -0.1441717 -0.1083814 0.10155551 -1.8558534 0.027434578
-0.17513423 -0.5377341 -0.28111658 0.64368093 -0.7858822 -0.112158135 -0.3587446 0.00335077
-0.09049557 0.09880006 -0.35829094 0.028610818 -0.01649954 -0.36862403 -0.5687101 0.30703568
0.08858038 -0.020785669 -0.4250015 -0.4745336 -0.4851437 0.48059404 -0.14864995 -0.0663039
0.22894512 0.16635959 0.05054972 0.19017853 -0.26865855 -0.48951223 0.60909337 -1.073878
0.040160116 0.16428207 -0.28075424 0.015856728 0.21258236 0.28835526 -0.49579754 0.49941668
-0.9946783 -0.053968795 -0.5633186 -0.46507397 -0.50205094 0.05324648 -0.4394038 0.035605907
0.8956358 0.2923917 -0.23257042 0.37729874 -0.06729822 0.15547849 0.09855789 -0.37170392
-0.02903462 0.37207356 -0.10567469 0.048929762 -0.03000514 1.1509478 -0.018377732 0.2685178
0.011066193 -0.018599467 -0.4842055 -0.4778426 -0.37370512 -0.18790126 -0.26953438 0.02914326
-0.10464114 -0.5205729 -0.3918013 -0.4642356 -0.454834 -0.5746564 -0.16809641 -0.055515897
-0.07848322 0.025428481 -0.09802873 -0.5104604 -0.49305645 0.06376403 0.052360144 0.5064824
-0.35689119 -0.087501384 -0.0029874046 0.40875024 -0.017858574 0.05762179 -0.07672899 -0.049856555
-0.43607762 -0.39449063 -0.38250414 0.0040670102 -0.13315845 -0.10493208 0.5906317 -0.72450596
-0.2211252 -0.05936001 -0.33533373 -0.23738794 0.74620306 -0.19843477 0.018500442 0.9997821
00000000: 7712 503f 2065 863c 9275 8fbd cfe9 eb3e
00000010: 0339 983e f618 b7bc 6d67 8fbe 68d6 f83d
00000020: 4b3b e63c a86c c6be 387c 353e 5b23 033d
00000030: 0998 c0be fe9f 10bf b265 3fbd 5458 83be
00000040: 5a83 e0be c4c1 5bbe fa00 0b3f 643c b33e
00000050: 4e21 ccbc 7250 d93e 5e04 a13e 362f b3bc
00000060: 669f 2b3b fc45 bcbd 2b9d b63c 5bb0 d6be
00000070: dac9 183e f2d9 283e fab2 d53e 82b7 e6be
00000080: f16b 013e 42fe 7f3e a033 2bbe e047 7ebb
00000090: 783b ae3d 489d 053d 3f8f 1dbe 0583 9d3e
000000a0: 9989 9fbc 37c8 a7bc 931e 72bd 8545 e5bd
000000b0: 868e 2abd d060 97bc 7be2 d4be 2048 ff3d
000000c0: ebc5 8a3e b71e 5d3f 9535 e3bd bf26 2dbf
000000d0: 9c96 e2be d3c4 753b 1320 3a3f 0d2a c93e
000000e0: 2985 3cbc 733f 38bf cabc 8dbe b79b 4c3e
000000f0: 70b0 f63e 1656 ffbd c61e 2fbd 2063 c0be
00000100: f66d bcbd 55f7 bb3e c5c9 3c3f 7a27 c93e
00000110: fc3c 8ebe f502 c1bd 970b 36bd 9f73 34bb
00000120: 1a10 d7be d4a9 21be c09b 5c3e 4c35 d9be
00000130: d9a9 93bf 674d 573d d6a7 7bbd 67a9 aa3e
00000140: c6d4 64bc 1c71 0abf 653e 8fbe 4e2f fcbe
00000150: 1617 20bd 04c9 3ebf c993 683d e700 70be
00000160: 037c 8b3e 5cc6 903d 4d0e 323f 9c4b d63e
00000170: 0b5c c3bd 2549 aabf 42a9 d63c 350d 413d
00000180: 4a62 f1be f4a9 0fbf 2125 313e fd98 83be
00000190: 991a 4b3e bca9 bf3c 3570 66bc af45 ecbe
000001a0: 3f3b 42be c6b8 dbbe 6743 87bc 1ea9 96be
000001b0: b296 90be de4b 0e3e 8872 8bbd eb49 99bd
000001c0: 8af0 903e 51d0 c73d cacf b9be 9c91 e3be
000001d0: 548f c1be d5e0 f13e 1969 09bf 7a58 0dbe
000001e0: b186 f4ba 5bbb 4f3f b60d 0cbd b0c1 1ebe
000001f0: b413 f7bd f2d0 453c 0cce 61bf c95d 76be
00000200: aa43 673d 191a 27be 91ac 41be 4c8d 693d
00000210: 9153 b6be ff31 153f 0701 b3bd 0f7e 93bd
00000220: 8fcf 7ebe 6fee f6be d3c2 e8be bfa1 13be
00000230: 11f7 ddbd 56fc cf3d 9b8c edbf 7bbe e03c
00000240: 6356 33be f1a8 09bf 83ee 8fbe 46c8 243f
00000250: 932f 49bf 2ab3 e5bd 5fad b7be 9898 5b3b
00000260: be55 b9bd b057 ca3d e971 b7be 3c61 ea3c
00000270: 0b2a 87bc 4abc bcbe fc96 11bf c833 9d3e
00000280: a169 b53d b546 aabc cc99 d9be 11f6 f2be
00000290: c164 f8be 6c10 f63e b137 18be 57ca 87bd
000002a0: 9770 6a3e 2b5a 2a3e 390d 4f3d 29be 423e
000002b0: 9d8d 89be 59a1 fabe 8bed 1b3f d674 89bf
000002c0: ef7e 243d 8f39 283e 05bf 8fbe f8e5 813c
000002d0: 31af 593e 4da3 933e 2dd9 fdbe 8bb3 ff3e
000002e0: 3da3 7ebf 620e 5dbd a635 10bf 2d1e eebe
000002f0: 6986 00bf fb18 5a3d 89f9 e0be 80d7 113d
00000300: 6348 653f 5db4 953e f126 6ebe 4d2d c13e
00000310: a6d3 89bd c135 1f3e b8d8 c93d fa4f bebe
00000320: 03da edbc 6d80 be3e f96b d8bd 936a 483d
00000330: 57cd f5bc 4252 933f e68c 96bc 2a7b 893e
00000340: fa4e 353c e95d 98bc c9e9 f7be c9a7 f4be
00000350: 4756 bfbe 3069 40be 6900 8abe d9bd ee3c
00000360: 184e d6bd 4444 05bf 2e9a c8be 4ab0 edbe
00000370: 01e0 e8be af1c 13bf 7721 2cbe a364 63bd
00000380: cfbb a0bd 644f d03c 49c3 c8bd 88ad 02bf
00000390: e571 fcbe b796 823d 9777 563d d5a8 013f
000003a0: 71ba b6be ed33 b3bd 55c8 43bb b647 d13e
000003b0: 254c 92bc d304 6c3d 1724 9dbd 6336 4cbd
000003c0: 9145 dfbe adfa c9be 95d7 c3be 8e44 853b
000003d0: b05a 08be a1e6 d6bd a433 173f 3979 39bf
000003e0: a56e 62be 7b23 73bd ddb0 abbe d315 73be
000003f0: 2a07 3f3f 7c32 4bbe 3d8e 973c b8f1 7f3f

fc1.bias f4 [128]
-0.31409636 1.7498226 2.7503886 2.4762301 -0.15144484 -0.37277612 2.646898 1.7889332
-1.5032467 -2.2086656 -1.9903005 2.9803352 1.4044664 1.9110476 1.3806711 -2.2119927
-0.6446838 -0.41662693 0.7666474 -1.8329111 0.57546526 -2.1243808 -0.023057107 2.8362665
-1.7733562 -0.942358 1.390125 -0.47635818 0.060989626 -2.005871 1.2686051 -0.771749
-2.2015483 2.975937 -0.25656575 0.5742325 1.161324 -1.6179053 -0.23494732 0.9201025
0.6983463 2.7218137 -0.87883615 -1.5616324 -0.14821362 -0.4785157 0.1736436 0.73333055
-0.45193654 -0.3569762 0.23826547 2.6533108 0.4816468 2.3913326 0.5010582 -0.14448343
-2.1018958 0.28786856 -0.7933513 2.5128016 1.0989609 -0.40724674 -0.5109813 1.9255179
1.1817968 -2.356655 -0.060030624 -2.3071744 -0.7790036 2.1129608 -0.10060494 1.9406053
-0.48609704 -0.21426821 1.7145989 0.3927875 2.745115 1.4900535 2.679814 1.3585922
-0.22460753 1.151777 0.46196237 0.31292835 -1.960834 -0.97744703 -0.2933802 -1.4818974
2.180311 2.5556693 -0.2328411 -2.4150748 -0.29416034 -2.9181654 -0.50013703 0.016631272
-0.17449853 -0.3097634 1.3770546 2.6922247 -1.0604287 -0.027063087 -0.5087387 0.12785909
1.5703214 -2.4483333 -0.41266572 -1.7684366 1.15625 0.19961107 2.7691891 1.3187747
1.1956481 -0.061601426 -0.42086017 -0.37846372 2.34919 -2.0973582 -1.6814073 2.4630907
1.069786 -1.3967541 1.5529498 2.1291008 -0.07439873 -2.366418 1.7968861 1.5337827
00000000: 3dd1 a0be 30fa df3f 5e06 3040 8e7a 1e40
00000010: 5b14 1bbe 83dc bebe c766 2940 c3fb e43f
00000020: 636a c0bf c75a 0dc0 2bc2 febf d0bd 3e40
00000030: 8ec5 b33f 359d f43f d5b9 b03f 4a91 0dc0
00000040: ff09 25bf 2050 d5be 0143 443f d59c eabf
00000050: b151 133f dbf5 07c0 42e2 bcbc 6485 3540
00000060: 56fd e2bf 603e 71bf 9eef b13f 38e5 f3be
00000070: 42d0 793d 3160 00c0 a761 a23f 5891 45bf
00000080: 2be6 0cc0 c075 3e40 965c 83be e700 133f
00000090: 44a6 943f 8517 cfbf 0896 70be d68b 6b3f
000000a0: d3c6 323f 3232 2e40 68fb 60bf 92e3 c7bf
000000b0: 50c5 17be 0300 f5be a1cf 313e 8dbb 3b3f
000000c0: 3a64 e7be 96c5 b6be ddfb 733e d8cf 2940
000000d0: 699a f63e 980b 1940 5a45 003f 77f3 13be
000000e0: 7685 06c0 8263 933e 1219 4bbf bed1 2040
000000f0: c0aa 8c3f a582 d0be accf 02bf 5f77 f63f
00000100: 1e45 973f 6fd3 16c0 ace2 75bd bfa8 13c0
00000110: c86c 47bf c03a 0740 f609 cebd c165 f83f
00000120: b6e1 f8be 2069 5bbe fa77 db3f 711b c93e
00000130: f7af 2f40 13ba be3f 1382 2b40 59e6 ad3f
00000140: 84ff 65be 6e6d 933f 5586 ec3e 2538 a03e
00000150: 9cfc fabf f839 7abf ee35 96be d0ae bdbf
00000160: 378a 0b40 1690 2340 e66d 6ebe 9690 1ac0
00000170: 2f9c 96be 39c3 3ac0 fb08 00bf 4e3e 883c
00000180: beaf 32be 4f99 9ebe 5343 b03f 694d 2c40
00000190: 21bc 87bf 68b3 ddbc b33c 02bf 7eed 023e
000001a0: 4b00 c93f 7eb1 1cc0 ec48 d3be 215c e2bf
000001b0: 0000 943f d866 4c3e 653a 3140 9ccd a83f
000001c0: ff0a 993f c751 7cbd fc7a d7be ffc5 c1be
000001d0: 2159 1640 1e3b 06c0 5b38 d7bf 47a3 1d40
000001e0: bfee 883f d7c8 b2bf 0fc7 c63f 3043 0840
000001f0: 5d5e 98bd 6473 17c0 5d00 e63f fe52 c43f

fc2.weight f4 [128, 128]
0.07524623 -0.08091307 -0.060867667 0.0054939366 0.012400793 -0.00513965 -0.008072554 -0.013363912
0.0490147 -0.04362462 -0.056779746 -0.0046515474 0.009713215 0.07481175 0.08723785 0.05733205
-0.016770188 -0.08677118 0.019648807 0.013487634 0.008624667 -0.038765237 -0.040417217 0.0868618
-0.08303238 0.01384917 0.032796018 -0.031926323 0.020543365 0.084081925 -0.029578255 -0.029594367
0.029131353 -0.020550307 0.02547107 0.06619866 -0.055936884 0.047390904 0.0522446 0.07699902
0.065580845 0.025040794 0.0082236715 -0.0010210917 -0.05449984 0.015872356 -0.071183614 0.0021103348
-0.027017625 0.053219024 -0.014623649 0.06307814 -0.019420413 -0.072018996 -0.079367034 0.07045317
0.05049811 -0.060746 -0.08414739 -0.018201401 -0.07485461 -0.07769077 -0.065254785 -0.014784714
-0.021354206 -0.04936933 -0.07492489 0.024431907 -0.07584417 -0.032470774 -0.08100799 0.074992806
0.03181935 0.004391059 -0.056466818 -0.00072594784 -0.061017435 -0.021709694 -0.087568305 0.046759885
-0.03165047 -0.061533608 -0.07794125 -0.018183563 0.04463304 0.005567978 -0.018748814 -0.071436144
0.042817175 0.052794438 0.043758806 -0.01722038 -0.019410826 0.031042524 -0.00818849 0.022538828
-0.08138285 -0.026684307 -0.034302592 -0.05958907 -0.0570815 -0.07479513 0.06674394 -0.08331454
0.08735795 0.024502482 0.028368896 -0.016398685 -0.07409948 0.073072515 0.012543028 -0.0845297
-0.059197925 0.08430633 0.05779062 -0.014390631 -0.02659363 0.040406883 0.07437684 -0.037721153
-0.08023416 0.019874746 -0.06583246 0.043467592 0.059054814 -0.053086095 -0.05848849 0.03363422
-0.31989473 -0.091473244 0.32233793 0.2190619 -0.024982544 0.005816497 0.05759408 -0.06779592
-0.17879273 -0.4198919 -0.029758064 0.60965127 0.42498952 0.23453405 0.6004303 -0.851841
-0.13862374 -0.031064665 0.03453557 -0.3633662 0.018139469 -0.15886468 -0.54821146 0.48962379
-0.09277517 -0.39372924 0.047423232 -0.068637826 -1.1995996 -0.46941915 0.12214358 0.05044753
-0.9146134 0.80461186 0.06266208 -0.059335377 -0.15567909 -0.18408191 0.0013898872 -0.49775603
-0.08929072 0.81774426 -0.18078381 -1.0768454 -0.07993932 -0.04088628 0.067426525 -0.0040607876
-0.028521309 -0.12701131 0.059225015 0.4858533 -0.0026331348 0.19932218 0.08376423 -0.088232875
-0.30610684 -0.05960728 -0.12761715 0.28296342 0.24738859 -0.7021629 0.036462303 0.31709796
-0.5211752 -0.15243156 -0.03824034 -0.097056665 -0.6091354 0.20851831 -0.056501757 0.19574685
-0.032262463 -0.08614845 0.583809 -0.0630887 0.38836664 0.30931875 0.2042465 -0.13694589
-0.04260021 0.31165582 -0.7558305 -0.045339968 -0.6794037 -0.10754711 -0.22170557 0.070974045
0.11641789 0.34364784 0.0070425593 -0.9616437 -0.13288464 -1.8537091 0.011186698 -0.02471605
-0.022018636 0.077307045 -0.039230425 0.5780139 -0.40853065 -0.0564421 0.058230147 -1.1452825
0.45636922 -0.762171 -0.08751193 -0.6866318 0.04522294 -0.08031457 0.34486803 -0.014622743
-0.021775903 -0.0353675 0.02714198 -0.06476778 0.11574635 -0.22431467 -0.12641096 0.19371793
-0.057498563 -0.44957134 -0.16078955 0.115975216 -0.059690695 -0.20792603 0.5036663 0.44714743
00000000: b21a 9a3d c0b5 a5bd 6050 79bd 7b06 b43b
00000010: b22c 4b3c 826a a8bb bf42 04bc 4ff4 5abc
00000020: a3c3 483d bbaf 32bd e191 68bd 026c 98bb
00000030: 2d24 1f3c e736 993d c2a9 b23d 03d5 6a3d
00000040: a261 89bc 17b5 b1bd 89f6 a03c 3dfb 5c3c
00000050: 7a4e 0d3c 4cc8 1ebd 868c 25bd 99e4 b13d
00000060: e10c aabd a1e7 623c 1e55 063d 2dc5 02bd
00000070: 8f4a a83c 2533 ac3d 194e f2bc e36f f2bc
00000080: e0a4 ee3c 1e59 a8bc b5a8 d03c 2a93 873d
00000090: 131e 65bd f71c 423d 6ffe 553d aab1 9d3d
000000a0: 404f 863d 5a22 cd3c 94bc 063c 27d6 85ba
000000b0: 393b 5fbd be06 823c b7c8 91bd 8b4d 0a3b
000000c0: 1154 ddbc 31fc 593d 0898 6fbc 1d2f 813d
000000d0: 8f17 9fbc b27e 93bd 2f8b a2bd c049 903d
000000e0: 1bd7 4e3d ccd0 78bd 7855 acbd 1b1b 95bc
000000f0: 604d 99bd 571c 9fbd 4da4 85bd 963b 72bc
00000100: 04ef aebc 7f37 4abd 3972 99bd 6c25 c83c
00000110: 3054 9bbd 1300 05bd 84e7 a5bd d495 993d
00000120: 0255 023d dfe2 8f3b c049 67bd 894d 3eba
00000130: 6bed 79bd 87d8 b1bc 0357 b3bd 4b87 3f3d
00000140: eca3 01bd aa0a 7cbd a99f 9fbd b2f5 94bc
00000150: 22d1 363d 9673 b63b 1d97 99bc 1d4d 92bd
00000160: 1061 2f3d fb3e 583d 6f3c 333d c111 8dbc
00000170: 7403 9fbc e44c fe3c 0429 06bc 59a3 b83c
00000180: 0dac a6bd 0c99 dabc e080 0cbd ab13 74bd
00000190: 4ace 69bd 302e 99bd 0cb1 883d d0a0 aabd
000001a0: bae8 b23d 6eb9 c83c e365 e83c 8956 86bc
000001b0: 78c1 97bd 0ba7 953d 4681 4d3c e81d adbd
000001c0: 8679 72bd cca8 ac3d dbb5 6c3d aec6 6bbc
000001d0: e2da d9bc b081 253d e252 983d 7f81 1abd
000001e0: cf51 a4bd 5dd0 a23c 2bd3 86bd 130b 323d
000001f0: 76e3 713d ce70 59bd a091 6fbd 09c4 093d
00000200: 3ec9 a3be 5356 bbbd 7a09 a53e c351 603e
00000210: 31a8 ccbc 5098 be3b c5e7 6b3d 96d8 8abd
00000220: 7115 37be 12fc d6be 2fc7 f3bc 1b12 1c3f
00000230: 3a98 d93e b229 703e cdb5 193f 4012 5abf
00000240: 62f3 0dbe 537b febc 2b75 0d3d 220b babe
00000250: 3999 943c 6cad 22be 9657 0cbf f8af fa3e
00000260: e900 bebd e196 c9be dd3e 423d fd91 8cbd
00000270: 7b8c 99bf b557 f0be 6a26 fa3d 12a2 4e3d
00000280: 1b24 6abf 0bfb 4d3f fa54 803d a709 73bd
00000290: 576a 1fbe f87f 3cbe e02c b63a e1d9 febe
000002a0: 0ede b6bd b057 513f 641f 39be 12d6 89bf
000002b0: 3ab7 a3bd 5f78 27bd eb16 8a3d 5b10 85bb
000002c0: 85a5 e9bc 410f 02be ee95 723d c4c1 f83e
000002d0: ac90 2cbb 1d1b 4c3e 958c ab3d 70b3 b4bd
000002e0: 09ba 9cbe c326 74bd 12ae 02be 95e0 903e
000002f0: 6f53 7d3e f3c0 33bf 7f59 153d aa5a a23e
00000300: bd6b 05bf 0517 1cbe e7a1 1cbd a5c5 c6bd
00000310: 4cf0 1bbf d385 553e 636e 67bd dd71 483e
00000320: a525 04bd 996e b0bd 8274 153f a634 81bd
00000330: fed7 c63e 075f 9e3e ff25 513e 8b3b 0cbe
00000340: 8f7d 2ebd 5a91 9f3e 1c7e 41bf 67b6 39bd
00000350: 67ed 2dbf a941 dcbd c906 63be d75a 913d
00000360: 816c ee3d 9cf2 af3e 45c5 e63b 482e 76bf
00000370: e912 08be 5746 edbf 6a48 373c 5079 cabc
00000380: 6d60 b4bc 2853 9e3d 15b0 20bd b8f8 133f
00000390: ee2a d1be d52f 67bd bc82 6e3d 9e98 92bf
000003a0: 3aa9 e93e a31d 43bf 7439 b3bd 1ac7 2fbf
000003b0: b13b 393d f77b a4bd 8b92 b03e 3b94 6fbc
000003c0: 6163 b2bc 83dd 10bd dc58 de3c f8a4 84bd
000003d0: 6c0c ed3d bfb2 65be e071 01be fe5d 463e
000003e0: 9d83 6bbd 372e e6be 04a6 24be 6a84 ed3d
000003f0: 3b7e 74bd 90ea 54be 46f0 003f 82f0 e43e
