models/dqn_agent_firm_1_episode_1000.pth (torch, 101224 bytes, 24 tensors)

fc1.weight f4 [64, 3]
00000000: ab3f a5be 74e5 323e 0800 4b3e 9cc6 82be
00000010: 7a4b a7be 7d04 513e eb39 83bd d021 e3bd
00000020: c11e d8be bf86 0fbf 703b a2be 3fca cc3e
00000030: 1abb 063f b681 edbe b55f 0fbf b304 40bf
00000040: beb7 143e 2de3 c03c e35c e83d d8cf c6be
00000050: fa26 973b bffe bbbe 2b7d 863e 7a02 4d3e
00000060: 0bd3 fbbd 3369 2abf f7dd b13e 790d c5bd
00000070: 98c8 03bf 46b5 04be da47 6b3e e27f 2b3e
00000080: f3d5 26bc a65a 033f f605 f1be 3029 b1be
00000090: 6d9a f3be df68 263d 1ae9 9dbe 8e5f 15bd
000000a0: d922 4bbe 6571 233e 49d5 683d da11 b7be
000000b0: cb4c ac3d 1a4e 58be fc31 82be e231 4c3e
000000c0: e456 f93d a751 5b3f df7a 3b3e 35fb 7bbe
000000d0: 37f0 08bc 18fa 923d b6d0 bebe 6609 0dbd
000000e0: e9da dd3d 8d3b c73e a3d9 6a3e a195 b13e
000000f0: efbc 9bbe 0ab5 8d3e 1d2b 9f3e 8f54 253c
00000100: b924 d23e b086 8cbe 8e41 6c3f 7198 3abe
00000110: 92c4 43be dedc b0be 8c01 003f 3eb2 c23d
00000120: 9e0f 3e3c aa58 a0be 82f4 cbbe 9edb 1c3f
00000130: f21d f23e 63ae 4fbc 5aee c0bd 6083 32bf
00000140: 5030 6f3e 1016 d4be e624 0abf 8bbf eebe
00000150: 109b 24bc cf3a 27bd d9cc 9ebe 9d29 a53e
00000160: 4fda afbb ab98 cebe 3060 8d3e e7df 6dbe
00000170: 9fe7 313e c7a4 90bd 2d14 0abe d0a9 083e
00000180: 9710 293e dfab 75bc 4362 6e3e 0da7 43bd
00000190: 0421 81be 3200 a33d 8b3d 11be 1c8f 6bbe
000001a0: fb5f 6c3c f6da 98bd b021 69be 76bc 02bf
000001b0: b8ad 12bf 8270 2fbd 9e08 bfbe baae cbbe
000001c0: c653 bf3e 1117 3c3d c840 3a3e 039e 01be
000001d0: f6e0 df3d b62e 07bf e32b d7bd 8f8d 973e
000001e0: b4ad 7ebb bbe8 053e cd5c 1cbc ba08 f23d
000001f0: 8f16 ac3d 5858 6abd 55fe 8e3e 700b 463c
00000200: 5fd2 f0be 40a3 92be 1aa6 bb3e 19da 2e3e
00000210: 4a43 e53e e587 3e3e 1f68 c4be 1f42 0ebf
00000220: a03e 81be c41e d33e 601f 243e 94df f93e
00000230: 40a2 b33e 3c53 1b3f c665 2abe 7c98 ef3b
00000240: da51 17bf 3cbb cb3c d718 6ebd 9858 443f
00000250: af64 fc3d 1a1c d03e e317 ab3e f362 0bbe
00000260: 161c 7b3e 7019 d6bc 7ab9 663e 372c ec3e
00000270: fa1b 823e 4f54 113d 8a52 393d 3816 823e
00000280: 5193 3fbf bed4 8a3d 3653 17be f40d 6cbd
00000290: e83f efbe 72b1 be3e 44c0 763e c1ad 87bc
000002a0: 0f04 1fbe d438 66be a29d 133e ce25 a0bd
000002b0: f4d1 c8bd 2a0c a03c 8b98 ca3d 3dae 733c
000002c0: b5f9 e539 da9a 8f3d 1016 acbd 765b b8bd
000002d0: a4f9 b03e ba3a 043e 7c8b 8d3c 886d 66be
000002e0: 40f2 b53e 0d77 fdbc 8347 8ebd 6695 a6be
000002f0: 910d 15be bef3 ecbd 0da1 2e3e d8d6 d33b
-0.32275137 0.17470342 0.1982423 -0.25542152 -0.32674772 0.20411868 -0.06407531 -0.110904336
-0.42210963 -0.5606498 -0.31685972 0.39998052 0.52629244 -0.46388024 -0.5600541 -0.7500717
0.14523217 0.023545826 0.11345842 -0.38830447 0.0046128007 -0.36717793 0.2626737 0.20020476
-0.122961126 -0.6656677 0.34739658 -0.0962171 -0.51477957 -0.12959775 0.22976628 0.16748002
-0.010182845 0.51310194 -0.4707486 -0.34601736 -0.47578755 0.040627357 -0.30841905 -0.03646808
-0.19837512 0.15961225 0.05684403 -0.35755807 0.084130846 -0.21123543 -0.2542876 0.19940904
0.12174776 0.85671467 0.1830859 -0.24607547 -0.008358053 0.07176608 -0.3726861 -0.03443279
0.108327694 0.3891262 0.22934584 0.3468447 -0.30417582 0.27677184 0.3108758 0.010090961
0.41043642 -0.27446508 0.9228753 -0.18222214 -0.19117954 -0.34543508 0.5000236 0.09506653
0.011600403 -0.31317645 -0.39834982 0.6127261 0.4728847 -0.012675854 -0.09420462 -0.6973171
0.23358274 -0.41423082 -0.5396255 -0.4663051 -0.010046735 -0.04082757 -0.3101566 0.3225831
-0.0053666006 -0.4035085 0.27612448 -0.23229943 0.17373513 -0.07062679 -0.13484259 0.13346028
0.16510235 -0.014994591 0.23279671 -0.047766734 -0.252205 0.07959022 -0.14183633 -0.2300381
0.01442718 -0.074636385 -0.22766757 -0.5106882 -0.57296324 -0.042831905 -0.37311262 -0.39781743
0.37368602 0.045920435 0.18188775 -0.12657933 0.1093158 -0.5280565 -0.105064176 0.29600188
-0.003886086 0.13077061 -0.00954361 0.11818071 0.0840274 -0.057213157 0.27928415 0.012087688
-0.470355 -0.28640175 0.36650163 0.17075385 0.447779 0.18606527 -0.38360688 -0.5556964
-0.25243092 0.4123441 0.16027594 0.4880339 0.35084724 0.6067388 -0.16640386 0.0073118787
-0.5910927 0.024869554 -0.058129158 0.76697683 0.12323891 0.4064644 0.33416662 -0.13611965
0.24522433 -0.026135176 0.22531691 0.46127483 0.2541197 0.035480794 0.04524473 0.25407577
-0.7483416 0.067788586 -0.14777836 -0.057630494 -0.46728444 0.37244755 0.24096781 -0.016562345
-0.15528892 -0.22482616 0.14415601 -0.07819711 -0.098056704 0.01953705 0.098923765 0.014873085
0.0004386433 0.070119575 -0.084026456 -0.0900182 0.3456546 0.12913027 0.017278425 -0.2250272
0.35536385 -0.030940557 -0.069472335 -0.32535857 -0.14555956 -0.11569928 0.17053623 0.0064648204

fc1.bias f4 [64]
00000000: d3cc 0140 2914 10c0 0867 413e 33f1 14c0
00000010: a696 c43d bd04 de3f ee99 25bf cea6 8bbe
00000020: 17c3 1f40 86ca f13e 78a5 4340 dca5 e63f
00000030: c37c 10bf a527 55c0 900b 8abe 7494 3ec0
00000040: 7c86 3ec0 90e8 6b40 7dfd 6340 e019 1640
00000050: f417 313f f70a 5b40 5dcd 763f 8a0a ccbf
00000060: f321 033f b8e8 5c40 cbb0 843d 4df9 eabe
00000070: 3f9a cf3c 8ee3 a23c 13fb 4b40 0843 4cc0
00000080: 8599 063f b782 8340 5d18 6840 322d 4a3e
00000090: 8460 053f 0c77 5f40 adde 5fc0 dcda 1640
000000a0: 543c 6e40 e40a ff3a 2f42 12bf 80bb c3bf
000000b0: 8e54 7040 fd10 3bc0 73a7 d6bf c85b 6140
000000c0: c4db 94bd 414c ebbf 3b59 f73f 71ee 93bf
000000d0: 60d2 5abf dc26 58bf 9f87 143e fbd7 97bf
000000e0: 24ef 4940 7aeb 6a40 06cc cabe 9e25 4cbe
000000f0: c585 fb3f 6d38 6840 5147 9c3e 0bcc 6e40
2.0281265 -2.2512305 0.1888696 -2.3272216 0.095990464 1.7345196 -0.64688003 -0.272757
2.4962823 0.47224826 3.0569744 1.8019366 -0.5644037 -3.3305447 -0.26961946 -2.9778109
-2.9769583 3.6860695 3.5623467 2.3453293 0.69177175 3.4225442 0.9640711 -1.5940716
0.5122368 3.451704 0.06479033 -0.45893326 0.025342105 0.019883897 3.1871994 -3.1915913
0.52578 4.1097064 3.626487 0.19743803 0.52100396 3.491641 -3.497966 2.357108
3.7224321 0.0019458202 -0.5713224 -1.5291595 3.7551608 -2.922912 -1.6769851 3.521227
-0.072684795 -1.8382646 1.9324106 -1.1557142 -0.85477257 -0.84434295 0.1450486 -1.1862787
3.155221 3.6706223 -0.39608783 -0.19936225 1.9650198 3.628444 0.3052316 3.7312038

fc2.weight f4 [64, 64]
00000000: 93f1 7ebe 7b5a 0c3e 50cc 66bd feb9 abbe
00000010: 5a09 86bd 1b73 223e d094 7d3d 33bd aabe
00000020: dd6c 183e 045f d5bd b417 533d 56c8 423f
00000030: 82b6 9a3d b771 dc3d b44f 1a3e 140e 6c3d
00000040: 40b4 ddbe 94fa db3e ee80 d13d dde4 f4bd
00000050: e706 eabe 97ae c43f 6550 d8bd 3b27 94be
00000060: 80ff c73b 169f 87bd 0c8b 17bf 0a56 acbd
00000070: 68f4 f9bd 54f0 dfbd af37 0abe b7f6 25bd
00000080: cff2 27be 64f6 903d e3ac e53e 983b f03c
00000090: a8fd e3bd ddb6 143e 4651 253e 00cb f2be
000000a0: c776 1e3e 8845 16bd 2a11 ec3d d24a 88be
000000b0: 93fc dd3f e6f2 04be 33d8 98be 6277 84bc
000000c0: ea5b 34bd 318a 13be f31f 8dbd 2111 b9be
000000d0: 9729 a5be 0bbb 3c3e 6e11 8e3d dce1 63be
000000e0: 1aa7 cb3d 5882 4c3e c14b 93be ec18 d4bd
000000f0: 71b5 8cbd 667f b83e 8e5e b13d 59a6 983e
00000100: b130 0ebe a644 dd3d 8068 2a3d 809a 41bd
00000110: e876 903d bf12 f4bd b4a2 0cbd 18b4 a2bd
00000120: f4cd f0bd 1c88 253d e8e1 893d 5916 acbc
00000130: 4037 2abc 80b7 cebd 638c fdbd 6e29 973d
00000140: 2c8c 2d3d c695 863d 4319 8bbc ce64 533d
00000150: 6d77 2cbd 4c11 2fbd b208 3ebd 3094 a13c
00000160: 583b d63d d383 a9bd 43ae 01be f0e6 7ebc
00000170: c09f 42bb 6826 a6bd fbb4 613c 1654 13bd
00000180: d726 c53d 5f92 14bc c1ca fc3c 48db a6bc
00000190: 3881 cc3c 5ee3 a4bd ec78 e43d 7f71 713d
000001a0: c192 92bb d21f 0fbe b8fd 97bd 92da e6bd
000001b0: 4d8d c23d 004a 4b3c c250 dabd 6351 f0bd
000001c0: d09b 23bc 1aca 31bd ed58 c43d 219f 92bd
000001d0: 33ee 4d3d 2dc8 78bd ca91 b7bd a8f2 8abd
000001e0: 4161 a7bd c399 a7bc abc6 7b3d 3ad9 c63d
000001f0: fde0 1d3b 3860 18be 50b7 263c 0f06 bf3c
00000200: 684a 22bb 4ad5 c3bd d678 c53d cf55 003d
00000210: b0a7 62bc 505f 10be 8dea ab3d 7090 68bd
00000220: 8548 043b 027c 843d 3d1b 81bd 9a70 8f3d
00000230: 28dd eebc ecba be3d 646c 75bb 1d70 e63b
00000240: 52df ab3d 9b5e ce3d b0d5 68bd ffac 34bd
00000250: aff8 87bd f8a1 873d efdb cd3d a90e 4d3c
00000260: 8aac dfbd 2d96 0cbe 4041 d53c 40f7 58bc
00000270: 9a1c 8ebd 2214 d93d 73d1 603d 448e 32bd
00000280: 046b c33d c0ff f3bd 2ed9 16be cca1 d8bd
00000290: 9690 b9bd 0eef 883d 1055 033c 6041 373d
000002a0: df2a b6bd f12c 12be 981e 50bd e4d6 d7bd
000002b0: 125d ff3c 1944 0cbd 5da8 873d aaf9 7cbd
000002c0: 0e85 d73d 1b18 c7bd e506 07be f693 5d3b
000002d0: 3ef8 ab3d 3725 a23d a007 213c e69e d1bc
000002e0: 2ee2 ab3d 96d0 933d 1bac 0bbc ace8 243d
000002f0: 5f8a 8c3d 20de ebbb 8c55 a03d 882b 43bc
00000300: 66ac ee3c 4dfb 8d3e 7873 97bc 01fb 4d3e
00000310: 1e5b b03d 4c29 cf3d 617c 9e3d 79f1 89bc
00000320: 0d48 da3d 76a2 ddbd 5f68 6ebe 0300 fb3e
00000330: a296 b43d 3d97 8d3e 24f6 523e 3659 ce3d
00000340: 3ad0 dabe 5ceb 8a3e 1374 f53d 629e cfbc
00000350: e6ac 5bbe 0c48 d73f ad45 78be 90da 90bd
00000360: cabc e7bd 470f dfbe 089f 673e d26b af3d
00000370: 883a 99bd 1081 e5bd 4a36 703d 146e 183e
00000380: 706e f3bc 8799 853e 8cef cd3e ce50 d03d
00000390: e814 a93d bcc8 d03c 9e29 4d3d 3000 9a3d
000003a0: f37a 8ebd 8fc2 843d 8a58 a3bd 9e12 c63b
000003b0: 3451 e73f 5851 113e 7098 3bbe 055d 583d
000003c0: 01d7 063d 6e38 00be 34db d13c 288a b3bd
000003d0: c68d 7abe 5e9c ab3d e8d9 e83d 6f0b a2be
000003e0: 48f9 173e 3240 0dbd 4279 45be e65b ecbd
000003f0: 9a9c 97bd fe2c a03d 52e8 a2bd 8188 07be
-0.24896841 0.1370639 -0.05634719 -0.33540338 -0.065447524 0.15864222 0.061909497 -0.33347473
0.14885278 -0.104185134 0.051536277 0.7608694 0.07554342 0.10763877 0.15069467 0.057630613
-0.43301582 0.42964613 0.102296695 -0.11957715 -0.4570839 1.536578 -0.10562209 -0.2893618
0.006103456 -0.0662214 -0.59196544 -0.08414848 -0.1220482 -0.10934511 -0.13497804 -0.04051849
-0.16401218 0.07078245 0.44858465 0.029325292 -0.111323655 0.14522882 0.16144285 -0.47420502
0.15474997 -0.036687404 0.11526711 -0.26619583 1.7342705 -0.12983283 -0.29852447 -0.016170207
-0.04403297 -0.14408185 -0.068908595 -0.3614588 -0.32258293 0.18430726 0.06936918 -0.22254127
0.099439815 0.19971597 -0.28768733 -0.10356316 -0.06870545 0.36034697 0.08660613 0.29814413
-0.13885762 0.10804109 0.041603565 -0.047266483 0.070539296 -0.11917638 -0.034334853 -0.079445064
-0.117580324 0.040413007 0.06732541 -0.02100675 -0.010389149 -0.100935936 -0.12380292 0.07380949
0.042370006 0.06571536 -0.01697982 0.051609807 -0.04210608 -0.042741105 -0.04639501 0.019723982
0.10460538 -0.082770966 -0.12664132 -0.0155579895 -0.002969727 -0.08112794 0.013776059 -0.035968862
0.09626549 -0.009068101 0.0308584 -0.020368233 0.02496396 -0.08051179 0.111558765 0.05894613
-0.004473061 -0.13976982 -0.0742144 -0.11272158 0.09499607 0.01240778 -0.106599346 -0.11734273
-0.009985879 -0.04340563 0.09587274 -0.07159258 0.050275993 -0.060737778 -0.08963354 -0.06784564
-0.081728466 -0.020459061 0.06146876 0.097094014 0.0024090402 -0.14880455 0.010175541 0.023318319
-0.0024763588 -0.09562166 0.09642188 0.031331833 -0.013833925 -0.14098859 0.083943464 -0.05677837
0.0020184827 0.06468965 -0.063040234 0.07003899 -0.02915819 0.09312996 -0.003744864 0.007032408
0.08392204 0.10076638 -0.056844413 -0.044110294 -0.066392295 0.0662269 0.10051715 0.012515702
-0.10921581 -0.13729163 0.02603209 -0.013242543 -0.06939049 0.10599543 0.054887246 -0.043592706
0.09541896 -0.11914015 -0.14731285 -0.10577735 -0.09060781 0.06686221 0.008015886 0.04474008
-0.08894896 -0.14274956 -0.050810426 -0.10539034 0.03117231 -0.03424463 0.066239096 -0.061761536
0.10523425 -0.09721395 -0.13186224 0.0033810115 0.08396958 0.079172544 0.009828478 -0.025588464
0.0839275 0.07217519 -0.00852492 0.040260956 0.0686233 -0.00719811 0.07828817 -0.011912234
0.02913494 0.2773079 -0.018487677 0.20115282 0.08611129 0.10115299 0.07738567 -0.016838776
0.10658274 -0.108220026 -0.23282002 0.49023446 0.088177934 0.27654448 0.20601708 0.100756094
-0.4273699 0.2713269 0.1198503 -0.025344077 -0.21452674 1.6818862 -0.24245329 -0.070729375
-0.113153055 -0.43566343 0.2261926 0.08565487 -0.07481867 -0.11206257 0.058645524 0.14885741
-0.029715747 0.26093695 0.40221822 0.10171662 0.08255941 0.025486343 0.050088517 0.07519567
-0.069570445 0.064824216 -0.07975872 0.0060447 1.8071656 0.14191186 -0.18319869 0.052823085
0.032919887 -0.12521526 0.02561722 -0.087665856 -0.24468145 0.08379434 0.11369687 -0.31649348
0.14841187 -0.03448505 -0.19284537 -0.11540966 -0.07402916 0.078210816 -0.07954468 -0.13235666

fc2.bias f4 [64]
00000000: 59e1 483f ab42 80bc 4a8f 92bd 8d4b fa3e
00000010: 7fd1 103f c9fc 0840 4fd1 6abd 89eb b73d
00000020: a484 0340 6802 d7bc 5128 0c40 6577 1040
00000030: 1f0f ac3f 4ea9 ddbd 7bdf babd 9832 4f3a
00000040: 9795 fa3f a22e f7bd 9041 b5bd 0033 0f40
00000050: 9845 a63d 78ea 9bbd 2e68 0b40 09ed 3e3f
00000060: 50aa 8fbd 5540 38bd 4f4a 2c3f 0ecb a63f
00000070: de3e 24bd b844 8f3f 8b4f 0d40 a5f4 5b3d
00000080: 3e0f 0140 ddd0 ab3f 3d4d f53c 5c01 03c0
00000090: 91d5 babd 689a a0bd 5c6c bd3f e82f 123f
000000a0: 2d4d ae3f 0756 dbbc e7c9 1240 4ab6 0240
000000b0: c160 7d3f 8305 4c3d f308 ff3f adb2 513f
000000c0: b0a2 8d3d 3775 dcbd 081f cc3f da13 9dbf
000000d0: 1188 f03f 8080 e1bb 95a7 1040 8875 213f
000000e0: 08ef be3f 48fb a6be bb56 c83f fb1a b93f
000000f0: 376f 233f 2afa bf3d f8ea f4bd 58bf 863f
0.78468853 -0.01565679 -0.071562365 0.48885766 0.56569666 2.1404288 -0.05732852 0.08980472
2.0549707 -0.026246265 2.1899607 2.2572873 1.3442115 -0.10823308 -0.09124657 0.00079039624
1.9576901 -0.120694414 -0.08850396 2.2374878 0.08118743 -0.07613081 2.1782336 0.74580437
-0.070149064 -0.044983227 0.67300886 1.3030717 -0.040099017 1.1192846 2.20798 0.053700108
2.0165553 1.3423115 0.029944057 -2.046958 -0.09122766 -0.07841951 1.4798694 0.5710435
1.3617302 -0.02677442 2.2935731 2.042376 0.9897576 0.049809944 1.9924606 0.8191326
0.06915796 -0.107645445 1.594697 -1.2271683 1.8791524 -0.0068817735 2.2602284 0.63069963
1.4916697 -0.32613587 1.5651468 1.4461359 0.63841575 0.09373887 -0.11958879 1.0527143

fc3.weight f4 [20, 64]
00000000: b13f ad3e c27a dbbd 119c 593b 6a4d dfbd
00000010: f13c a9bd 84e1 1b3f a080 fcbd 73e4 b1bd
00000020: 8da5 d83e f8b5 6fbd 8a9e f03e d3b9 393f
00000030: 17f2 2f3e 4802 8ebc d076 873c 21bc 84bd
00000040: 8a19 b03e 3a06 0dbe 7370 f53b 68c7 113f
00000050: f14c 09bd 051e d23d 38be ee3e 1c6d eb3c
00000060: 5c9f 8c3d 9805 a7bd b737 2bbe fd93 2c3e
00000070: 0bf6 c13d 8f2b 2fbf a93e 1e3f 1ed7 ca3d
00000080: c589 e43e 3ed8 783e 3066 163d 2212 05bf
00000090: c697 c8bd 407a 173b b50a 8f3e 29c8 433f
000000a0: b0d7 59be 98b6 793d 5e77 81bf 27ae 1a3f
000000b0: 985b 333e 9c57 efbd cfb0 9dbf 7dc5 20ba
000000c0: 72cb 85bd 508f ed3d d81d 8e3e fbf0 e1be
000000d0: 7dc1 f03e 1468 79bc 7c2b bdbf 0280 d0bb
000000e0: 3755 c03e bc01 11be 27a2 563e ca8d 843e
000000f0: 0b9c fc3e 20fc 563c 71da 55bd bc3a 873d
00000100: 1344 69bd d070 fdbd a6d8 fe3d adfa 4dbe
00000110: fe27 f3bb 2ab2 be3e da4d d43d 26d3 e03d
00000120: 355c 9f3e 5283 bdbd 9c55 cf3e de12 203f
00000130: a25b 82bd b402 3c3d 6071 1f3d fe45 f13d
00000140: 1aa6 9b3e 503a 8c3e 7e2f 23bd a70f e93e
00000150: 1025 543d 9e91 ab3d 1724 f83e ba4c 2f3e
00000160: 8658 d8bd f690 efbc 687f 4d3d eccb 193e
00000170: 5d7b 28bd 2cab 16be 54f4 ca3e f0dd 3bbc
00000180: e6b5 893e 5624 a03e 98b6 5cbd 812e 79be
00000190: 3b75 b13c 489b b93d 8157 503e d5c9 19be
000001a0: b8a9 a0be e98f c3bc 2500 8dbf 160b ef3e
000001b0: 07f8 ad3c f441 92bd d014 0abf f342 f2bd
000001c0: 3a36 df3d c466 4abd fbff 2e3e 9c9c 33be
000001d0: 47ad 4f3e 69bf 8c3c 553f 4ebf 7f38 53bd
000001e0: dedd 693e 59e6 05be 9e97 893e 6633 2a3e
000001f0: 46a7 47be acfd 96bd 9b47 123e 7f9d 8a3e
00000200: 50dd a0be 1e2c fd3d 759a d6bd 3ffb 66bd
00000210: 10ae 15be 22d5 cb3e f834 f73c 08a6 27bd
00000220: 344f 403e f847 bc3c 23d7 e63e 1770 f33e
00000230: dc61 6a3e 4645 813d ecc7 16bd fe9b b3bc
00000240: d0ed 4b3e bd9a 113e 01b4 b8bd cc91 c03e
00000250: e299 b5bd a8ba b53d e523 043f 2177 5b3e
00000260: 22cb f23d 96c4 c23c 6daf a63e a774 cf3d
00000270: 03c1 c9bd 35f0 913d 06c5 d13e a8cf 78bd
00000280: 30e0 a33e f7f1 293e e450 aabd ef13 24be
00000290: ccf4 0b3b 08dc c43c 49c5 173e 9b75 43be
000002a0: 704a 8dbe 8aa1 c5bd df2d 6dbf 4709 133f
000002b0: 7947 2e3e 4c9b 0abd 7bc8 00bf 611c 513e
000002c0: 9405 f4bd 200d dfbb 7e91 533e 2fc6 49bd
000002d0: aaef 163e 68fa 193d 16ef 77bf 1051 5abc
000002e0: 6a36 a23e 5f6c df3c 712c cf3c a25f 8e3d
000002f0: 4258 a1be 6872 ddbc 420c 703d 8b22 8f3d
00000300: 371e d6bd b0cd 9ebc 95f9 8fbd d71f cbbe
00000310: f711 02be 87b6 c83e 0002 0cbb f1f7 f73c
00000320: 7e62 a93e a296 a6bd 3707 0c3f e4bc d83e
00000330: 5a95 b33e 32ec ddbd 40c3 043c 7956 ecbd
00000340: c938 9c3e 5dae d73d ba11 753d 988e eb3e
00000350: 85de d6bc 9a8f d3bc 4800 eb3e 837c 853e
00000360: a84b 4a3d ce35 debd f14b f53d 92de 76bd
00000370: b97d 99bc da3f 6abe 4f9a f73e b87b 9a3d
00000380: 77c2 d83e 1725 c93d 388a de3c 15fe 36be
00000390: f929 d9bd 7863 d3bc 3f12 d8bc b688 b8bb
000003a0: 003d 7bbd 8e8f fbbd b57c 7bbf 8f06 f43e
000003b0: ba82 b93c 8ad2 e8bd 0366 23bf 6627 a03d
000003c0: 7841 29bd 609d 173c 7b1e 1d3e 3779 ecbd
000003d0: 10c3 613e b55d adbd 5f06 72bf 6557 0dbe
000003e0: 29ca e03d 7039 30be 4828 903e e390 bc3c
000003f0: ba1d 45be 460f e9bd 812b e93d 5c92 ad3e
0.33837655 -0.107167736 0.0033204595 -0.109034374 -0.08263577 0.60890985 -0.12329221 -0.08686151
0.42313805 -0.05852315 0.46995956 0.7254917 0.17182194 -0.017335072 0.016536146 -0.06481195
0.34394485 -0.13771906 0.0074902116 0.56944895 -0.033520643 0.10259632 0.466295 0.02873855
0.06866333 -0.08155364 -0.16720472 0.16853328 0.09470757 -0.6842584 0.6181436 0.099043116
0.4463636 0.2430124 0.036718547 -0.51980793 -0.097945735 0.0023113638 0.27937856 0.76477295
-0.21273685 0.06096515 -1.0114553 0.60421985 0.17515409 -0.11686632 -1.2319583 -0.00061329437
-0.06532945 0.115996 0.27757144 -0.44129166 0.4702262 -0.015222568 -1.4778895 -0.006362916
0.37565014 -0.14160818 0.20960294 0.25889426 0.493378 0.013121635 -0.052210275 0.066029996
-0.056949686 -0.12375033 0.12443666 -0.20115156 -0.007420539 0.37245303 0.103664115 0.10977773
0.31125036 -0.09253563 0.40495002 0.6252879 -0.06365134 0.045901015 0.038926482 0.11780928
0.30400163 0.2738824 -0.039840214 0.45519754 0.051793158 0.08377384 0.48465034 0.17119113
-0.105637595 -0.029243927 0.050170332 0.15019196 -0.041133273 -0.14713734 0.39639533 -0.011466488
0.2689659 0.31277722 -0.053885072 -0.24334146 0.021662345 0.09062821 0.2034588 -0.15018399
-0.31379485 -0.023872333 -1.1015669 0.46688145 0.021236433 -0.07141486 -0.5393801 -0.11829176
0.10899015 -0.04941441 0.17089836 -0.1754021 0.20280944 0.017181115 -0.80565387 -0.05156755
0.22838542 -0.13076152 0.26873487 0.1662117 -0.19497404 -0.07372603 0.14285128 0.27073285
-0.31418848 0.1236193 -0.10478679 -0.05639195 -0.14617181 0.39811045 0.030176625 -0.040929824
0.18780214 0.022983536 0.4508601 0.47546455 0.22888893 0.06312041 -0.036811754 -0.021924969
0.19914937 0.14219184 -0.09018708 0.37611234 -0.088672414 0.088734925 0.5161727 0.21432163
0.11855151 0.02377538 0.32555714 0.101296715 -0.09851267 0.07125894 0.4097063 -0.06074491
0.3200698 0.16596209 -0.0831621 -0.16023229 0.0021355627 0.0240307 0.14821352 -0.19087832
-0.27595854 -0.09649952 -0.9264812 0.5743603 0.17019452 -0.03383951 -0.5030591 0.20420982
-0.119151264 -0.0068069845 0.2066097 -0.04926127 0.14739862 0.03759232 -0.9684919 -0.013324991
0.3168214 0.027273355 0.025289746 0.06951834 -0.31512648 -0.027032092 0.05860544 0.069890104
-0.10454982 -0.019385189 -0.07030026 -0.3967273 -0.12702166 0.39201757 -0.0021363497 0.030269595
0.33082956 -0.081342 0.5469851 0.42331612 0.35074884 -0.10836066 0.008103192 -0.11539931
0.30512074 0.10531304 0.05983136 0.46007228 -0.026229152 -0.02582531 0.45898652 0.26071557
0.049388558 -0.10850106 0.11977375 -0.060270853 -0.018736707 -0.2287592 0.48359916 0.07543129
0.42335865 0.098215275 0.027165517 -0.17870362 -0.10603709 -0.025804266 -0.026375888 -0.0056315316
-0.06133747 -0.1228324 -0.9823716 0.47661254 0.022645343 -0.11368282 -0.6382753 0.07820015
-0.0413222 0.00925383 0.15343659 -0.115465574 0.22047067 -0.08465139 -0.9454097 -0.1380287
0.10976059 -0.1720941 0.28155732 0.023018306 -0.19249621 -0.11379866 0.11385251 0.33900726

fc3.bias f4 [20]
00000000: 603e d83f f4a1 213f 3e89 163f 1a15 143f
00000010: 60d6 d33e 3ce4 eb3e 1529 ee3e fb63 0d3f
00000020: d5db b43e bc7f 8c3e 3643 4d3e 8685 603d
00000030: 870b 043e e261 85bd 9395 6dbd 2a80 14be
00000040: bbbf c6bd 4ad2 61be ab4d 44be 2e25 7bbe
1.6894035 0.63137746 0.58803165 0.578447 0.41374493 0.46072567 0.46515718 0.55230683
0.3532397 0.27441204 0.2004517 0.054814838 0.12895022 -0.0651281 -0.058003973 -0.14502016
-0.097045384 -0.22052875 -0.19170253 -0.24525902

fc1.weight f4 [64, 3]
00000000: 6ec6 a0be 9f55 413e 1760 5d3e b3e2 62be
00000010: 71a2 9ebe edc3 5f3e eb39 83bd d021 e3bd
00000020: e31e d8be fd7e 0dbf beda 9bbe 025a d33e
00000030: 1abb 063f b681 edbe b55f 0fbf 37f0 4abf
00000040: 84b1 003e 636b 6f3d 9e22 fd3d ef97 b4be
00000050: a353 d13c c622 cebe dcc4 893e f9a1 673e
00000060: 90f1 efbd 9484 2abf c72d b73e 790d c5bd
00000070: c4c8 03bf 46b5 04be 6a05 733e c901 2c3e
00000080: c086 5dbc a24a 063f 111a e0be e01e b5be
00000090: 6d9a f3be df68 263d 1ae9 9dbe 2e28 cd3c
000000a0: 1dc6 41be 764e 2b3e e3b2 ad3d 5006 bfbe
000000b0: 3f00 b83d 8731 25be 7133 7dbe ed43 543e
000000c0: 3ae0 c93d d6d9 5b3f 7bef 413e 4108 65be
000000d0: 1d88 0bbc eb7e 8f3d 927c a9be ccb7 eabc
000000e0: 7ab4 ef3d 3b48 cb3e 282c 763e 6e43 b73e
000000f0: a683 9ebe bc23 943e 559f ac3e a2a1 8dbc
00000100: 014d d83e aa66 a0be 23c5 703f 5a9f 59be
00000110: 7ac4 1ebe fc7d b1be ace9 033f d652 e63d
00000120: 9e0f 3e3c aa58 a0be 82f4 cbbe aa12 1e3f
00000130: ae8b f33e e8a0 8abc 19e5 01be 4863 29bf
00000140: 3db8 7f3e 1016 d4be e624 0abf eebf eebe
00000150: 379b 24bc 1a3b 27bd d9cc 9ebe 9d29 a53e
00000160: 4fda afbb ac98 cebe 769e 973e af20 73be
00000170: 21d0 353e 1e5c e5bc d2de 01be 44ca 0f3e
00000180: ba7c 2c3e 090f 2ebb 9f56 823e f389 efbc
00000190: 9c75 81be 3e21 a33d a38e eabd 050f 5bbe
000001a0: 4ac9 6a3c 5ddb 98bd 6922 69be 76bc 02bf
000001b0: b8ad 12bf b170 2fbd ee08 bfbe ba0e c5be
000001c0: f5cc bf3e 9bec 373d 087b 5c3e b198 12be
000001d0: 3968 de3d 5c20 02bf 0461 cfbd a7d9 9f3e
000001e0: 4f7c 573b eb94 073e 459e 42bc e9d8 443e
000001f0: 936f bc3d fa46 21bd 55fe 8e3e 700b 463c
00000200: 5fd2 f0be 8732 a2be a6a7 c33e 27c2 383e
00000210: 63a8 ea3e effc 2e3e a621 d2be 55c0 10bf
00000220: b542 67be 8614 d83e f488 1e3e df6e fc3e
00000230: bd59 be3e ced8 1e3f b917 29be 1cf1 983b
00000240: 754f 17bf 9120 cc3c 12e8 6dbd 547f 433f
00000250: 3199 053e 16a4 de3e 6834 b13e ebff 16be
00000260: 2e30 833e ada8 03bd 6aef 6a3e 048a fa3e
00000270: 4336 813e 9e95 203d 6303 a93d 7adf 823e
00000280: cf44 2cbf 0d78 003e 3653 17be f40d 6cbd
00000290: e83f efbe dc4d be3e de09 793e b50a 1c3c
000002a0: 02f9 1fbe 8054 5fbe c0ec 173e b9d9 95bd
000002b0: 9df4 c8bd 9f2e 8c3c b356 d63d eef3 723c
000002c0: 789d 1d3d da9a 8f3d 1016 acbd 765b b8bd
000002d0: 362b c03e d639 163e b724 d73c 1575 44be
000002e0: 1ca9 bc3e 839f 3fbd 8347 8ebd 6695 a6be
000002f0: 910d 15be 2259 dbbd a433 2e3e 6bf9 6f3b
-0.3140139 0.18880318 0.21618687 -0.22156791 -0.30983308 0.21852084 -0.06407531 -0.110904336
-0.42211065 -0.55271894 -0.30440325 0.41279608 0.52629244 -0.46388024 -0.5600541 -0.7927279
0.12567717 0.05845202 0.12360118 -0.35272166 0.025552576 -0.40260905 0.26908004 0.22620381
-0.11715996 -0.6660855 0.35777113 -0.0962171 -0.5147822 -0.12959775 0.23732534 0.16797556
-0.013520896 0.5245763 -0.43769887 -0.35375118 -0.47578755 0.040627357 -0.30841905 0.025043573
-0.1892323 0.16729149 0.084813856 -0.37309504 0.08984422 -0.16132174 -0.24726655 0.20729037
0.09857221 0.85879266 0.18939011 -0.2236643 -0.008516339 0.070066296 -0.33102852 -0.028652094
0.11704345 0.39703545 0.24040282 0.35793632 -0.30959815 0.28933513 0.3371531 -0.017288987
0.4224625 -0.31328326 0.94050807 -0.21252194 -0.15504637 -0.3466643 0.5152843 0.112462685
0.011600403 -0.31317645 -0.39834982 0.6174723 0.47567505 -0.01692243 -0.1268505 -0.66167116
0.24972625 -0.41423082 -0.5396255 -0.46630806 -0.010046772 -0.040827848 -0.3101566 0.3225831
-0.0053666006 -0.40350854 0.29613084 -0.23742937 0.17755176 -0.027998026 -0.12682655 0.14042002
0.16844454 -0.0026559255 0.25456712 -0.029240584 -0.2528504 0.07965325 -0.11452987 -0.21392448
0.014330218 -0.07463715 -0.22767033 -0.5106882 -0.57296324 -0.04283208 -0.373115 -0.38487798
0.37461057 0.04490338 0.21531308 -0.1431606 0.10859723 -0.50830626 -0.10125926 0.31220743
0.003288049 0.13240401 -0.011878555 0.1922337 0.092009686 -0.03937433 0.27928415 0.012087688
-0.470355 -0.31679174 0.38213843 0.18042813 0.45831594 0.17088674 -0.41041297 -0.56543475
-0.2258404 0.42203158 0.15481931 0.49303338 0.3717784 0.6204957 -0.16512956 0.0046674144
-0.59105617 0.024917873 -0.058082648 0.7636616 0.13046719 0.43484563 0.34610295 -0.14746062
0.25622696 -0.032143284 0.22942892 0.48933423 0.2523671 0.039205186 0.08252599 0.25561124
-0.67292494 0.12545796 -0.14777836 -0.057630494 -0.46728444 0.37168777 0.2432017 0.009524037
-0.15622333 -0.21809578 0.14836407 -0.07316918 -0.09812281 0.017112074 0.10465755 0.014828665
0.038480252 0.070119575 -0.084026456 -0.0900182 0.37532967 0.146705 0.026262624 -0.19185288
0.3684777 -0.04678298 -0.069472335 -0.32535857 -0.14555956 -0.1071036 0.17011887 0.003661717

fc1.bias f4 [64]
00000000: 6ca5 f83f 4f22 06c0 0867 413e 2d61 0fc0
00000010: d296 c43d ddbe cf3f 3721 1cbf 47d7 69be
00000020: d952 1940 86ca f13e 8a1f 3c40 debc e03f
00000030: c37c 10bf 7aa3 4bc0 be07 8bbe 35fa 34c0
00000040: cbe7 35c0 adb1 6340 e2fe 5b40 9b95 1240
00000050: ffe7 323f 9ec3 5440 665e 823f f62b b9bf
00000060: f321 033f 99c2 5540 dd58 cb3c 4df9 eabe
00000070: 3f9a cf3c 8ee3 a23c 43bc 4440 d8e9 42c0
00000080: 4f39 073f 8c7f 7e40 511a 6040 322d 4a3e
00000090: 8460 053f f4ec 5740 5436 57c0 6607 1040
000000a0: fd9c 6640 7fa0 883d 2f42 12bf f955 b5bf
000000b0: 9df6 6940 7530 33c0 8d1c cbbf 18d2 5940
000000c0: f2c4 94bd 3bec e0bf 1ede ee3f cb53 8bbf
000000d0: d77e 4cbf 9ea5 4dbf 9f87 143e 063d 8bbf
000000e0: 67f0 4140 e15c 6340 3773 b0be 9e25 4cbe
000000f0: 7347 f13f a38c 6040 5147 9c3e 813d 6740
1.9425483 -2.095844 0.1888696 -2.2403061 0.09599079 1.6230122 -0.6098818 -0.22836028
2.3956816 0.47224826 2.939425 1.7557638 -0.5644037 -3.1818528 -0.27154344 -2.8277714
-2.8422725 3.5577195 3.4374318 2.2903812 0.6988525 3.3244395 1.0185058 -1.4466541
0.5122368 3.3400023 0.024822647 -0.45893326 0.025342105 0.019883897 3.0739906 -3.0455227
0.5282182 3.9765348 3.5016062 0.19743803 0.52100396 3.3738375 -3.362691 2.2504516
3.6033318 0.06671237 -0.5713224 -1.4166862 3.655677 -2.7998326 -1.5868088 3.403448
-0.07264127 -1.7572092 1.8661535 -1.0884947 -0.7988104 -0.80330837 0.1450486 -1.0877998
3.030298 3.5525439 -0.34462902 -0.19936225 1.884993 3.5085838 0.3052316 3.613129

fc2.weight f4 [64, 64]
00000000: ed3f 5ebe 589d 0d3e bfcc 66bd a688 bcbe
00000010: 5a09 86bd f7c1 9d3d 3722 863d 2a91 8fbe
00000020: 3446 313e 045f d5bd 47fa 9e3d 2533 5c3f
00000030: 82b6 9a3d 6986 d83d 5d4e 043e 7a87 6b3d
00000040: 85de c0be 0c97 d63e d39f b03d 84f5 84bd
00000050: 69c6 cdbe 759b c13f c898 9ebd 5742 84be
00000060: 80ff c73b 6472 04bd 6e5e 0ebf 0a56 acbd
00000070: 68f4 f9bd 54f0 dfbd 5a55 b5bd cb60 1abd
00000080: f51d c1bd 7740 ae3d eb74 db3e 983b f03c
00000090: fdfd e3bd b23f 153e ddab 103e 80a6 dcbe
000000a0: a710 283e 8ed1 d5bc 2a11 ec3d 510e 5dbe
000000b0: 8f91 db3f 7b2a 0cbe 3345 6cbe 65e7 af3c
000000c0: 4f8e 34bd c06d 8ebd 6cb9 23bc 65d2 8cbe
000000d0: e9a4 85be 4f04 373e 9c11 8e3d 75c0 34be
000000e0: 2987 113e 1ca8 393e 1efe 82be ec18 d4bd
000000f0: aaf8 03bd a42f ba3e 8e5e b13d fa8f 9a3e
00000100: 3f24 0ebe a644 dd3d 8068 2a3d 809a 41bd
00000110: e876 903d 62fe f3bd b4a2 0cbd a6a9 a2bd
00000120: 85bd f0bd 1c88 253d 9d0d 8a3d 3541 abbc
00000130: 4037 2abc 80b7 cebd 7e86 fdbd c429 973d
00000140: 4f8c 2d3d c695 863d 9cbd 8abc 419e 533d
00000150: 643f 2cbd ffb9 2ebd ffa7 3dbd 3094 a13c
00000160: 583b d63d 895a a9bd d5aa 01be f0e6 7ebc
00000170: c09f 42bb 6826 a6bd 059d 623c fb43 13bd
00000180: 5b46 c53d 99b7 13bc 0756 fd3c 48db a6bc
00000190: 3881 cc3c c0b2 a4bd ec78 e43d 02a8 713d
000001a0: 9b19 90bb 9012 0fbe b8fd 97bd 92da e6bd
000001b0: d7b8 c23d 004a 4b3c 9d39 dabd 0230 f0bd
000001c0: d09b 23bc e297 31bd 7d74 c43d b386 92bd
000001d0: b31c 4e3d d396 78bd ca91 b7bd 57cf 8abd
000001e0: 8a56 a7bd d4ec a6bc 0aff 7b3d 3ad9 c63d
000001f0: eb45 213b 964a 18be 50b7 263c e3b4 bf3c
00000200: 744e 1fbb 4bc2 c3bd 6379 c53d b788 003d
00000210: b0a7 62bc bf55 10be 3b0e ac3d 8b60 68bd
00000220: e573 073b 027c 843d dcec 80bd cdd2 8f3d
00000230: 28dd eebc b0d6 be3d 0e1f 72bb cb12 e83b
00000240: 5ff9 ab3d 7176 ce3d 4ba8 68bd bc7c 34bd
00000250: 02e1 87bd f8a1 873d d602 ce3d 1fcc 4d3c
00000260: 8aac dfbd d77f 0cbe d9a4 d53c 40f7 58bc
00000270: 9a1c 8ebd 2214 d93d 5506 613d 7c5d 32bd
00000280: d584 c33d b0e7 f3bd b3cd 16be cca1 d8bd
00000290: 9690 b9bd 4a01 893d 73bf 043c f171 373d
000002a0: 9e15 b6bd a921 12be 981e 50bd 07bf d7bd
000002b0: 1d00 003d 1913 0cbd 63bf 873d a5c0 7cbd
000002c0: 0e85 d73d dbff c6bd 44fa 06be 97a3 603b
000002d0: 9210 ac3d 923d a23d a007 213c 6b39 d1bc
000002e0: 58fd ab3d 7106 943d d2e7 0abc ace8 243d
000002f0: dfa1 8c3d 20de ebbb 8c55 a03d 96d5 3ebc
00000300: ad9c 753c 9c69 793e 7873 97bc 2769 333e
00000310: 1e5b b03d 3f38 623d 6b2d 9b3d 28d6 ecbc
00000320: feb5 a43d 76a2 ddbd abd9 66be 7b37 0c3f
00000330: a296 b43d cbb4 783e 036c 273e a7d4 863d
00000340: 9f44 d0be 3814 723e 2b1c b53d be24 26bc
00000350: 4224 62be d88a cd3f 97b1 31be f033 9cbd
00000360: cabc e7bd 7722 d4be 398b 3d3e d26b af3d
00000370: 883a 99bd 1081 e5bd 7545 8f3d fbba e93d
00000380: fb27 8cbc ebc6 6f3e 2c5d a43e ce50 d03d
00000390: e814 a93d 2328 c8bb c367 c13c effb 823d
000003a0: 8c8c b0bd 8b1b 383d 8a58 a3bd ecf8 a539
000003b0: af74 dd3f c27a ef3d 33b5 2bbe c9a1 bb3d
000003c0: 23a6 063d 406a bfbd 53af 293d c8c2 a1bd
000003d0: d8db 49be 552f 103d e8d9 e83d 3a74 8ebe
000003e0: 4e40 ff3d fc03 9bbd 3aae 19be e65b ecbd
000003f0: dba1 4fbd 1187 6b3d 52e8 a2bd 99b3 20be
-0.21704073 0.13829553 -0.056347605 -0.36823004 -0.065447524 0.077030115 0.06549495 -0.2804044
0.17311937 -0.104185134 0.0776258 0.8601554 0.07554342 0.10572512 0.12920518 0.057502247
-0.3766977 0.41912115 0.08624234 -0.06492141 -0.40190437 1.5125567 -0.077439845 -0.25831863
0.006103456 -0.032335654 -0.5561284 -0.08414848 -0.1220482 -0.10934511 -0.0885417 -0.037689965
-0.09429542 0.085083894 0.4286264 0.029325292 -0.11132429 0.14575079 0.1412806 -0.4309578
0.16412602 -0.0261009 0.11526711 -0.21587493 1.7153796 -0.1368808 -0.23073272 0.021472642
-0.04408103 -0.06954527 -0.0099929385 -0.27504268 -0.2610238 0.17872737 0.069369525 -0.17651542
0.14211716 0.18130535 -0.255845 -0.10356316 -0.032219566 0.36364472 0.08660613 0.3018797
-0.13881014 0.10804109 0.041603565 -0.047266483 0.070539296 -0.11913754 -0.034334853 -0.07942514
-0.11754898 0.040413007 0.06740878 -0.020905117 -0.010389149 -0.100935936 -0.12379168 0.07381013
0.042370137 0.06571536 -0.016936116 0.051664595 -0.04205264 -0.04265785 -0.04630279 0.019723982
0.10460538 -0.08269221 -0.12662823 -0.0155579895 -0.002969727 -0.08112794 0.013831382 -0.035953503
0.0963256 -0.009015941 0.03092481 -0.020368233 0.02496396 -0.08041906 0.111558765 0.058998115
-0.0043975837 -0.13971925 -0.0742144 -0.11272158 0.09507912 0.01240778 -0.1065552 -0.11727907
-0.009985879 -0.043357737 0.09592531 -0.07154598 0.05032034 -0.060690712 -0.08963354 -0.06777828
-0.08170803 -0.0203766 0.06152252 0.097094014 0.0024608325 -0.14872202 0.010175541 0.023401683
-0.0024308236 -0.09558543 0.09642293 0.03138038 -0.013833925 -0.1409521 0.08401152 -0.056732696
0.0020668444 0.06468965 -0.06295177 0.07022629 -0.02915819 0.09318292 -0.003694478 0.0070823184
0.08397173 0.10081185 -0.05680112 -0.04406427 -0.06634714 0.0662269 0.10059135 0.012560873
-0.10921581 -0.13720642 0.026079582 -0.013242543 -0.06939049 0.10599543 0.05493768 -0.043546185
0.0954682 -0.11909425 -0.14726906 -0.10577735 -0.09060781 0.06689699 0.008102286 0.044786397
-0.08890842 -0.14270653 -0.050810426 -0.105344824 0.031250108 -0.0341979 0.06628301 -0.061707158
0.10523425 -0.09716769 -0.13181406 0.0034277195 0.08401598 0.079219 0.009828478 -0.025540074
0.08397931 0.07227791 -0.008478122 0.040260956 0.06866812 -0.00719811 0.07828817 -0.011647603
0.014990968 0.24356693 -0.018487677 0.17520581 0.08611129 0.05522942 0.07577022 -0.028910711
0.08042525 -0.108220026 -0.22543971 0.54772156 0.088177934 0.24287717 0.16349797 0.06583529
-0.40677354 0.23640525 0.08843263 -0.010140596 -0.22084144 1.6057997 -0.17352901 -0.07627094
-0.113153055 -0.41432545 0.1851014 0.08565487 -0.07481867 -0.11206257 0.0699567 0.11412617
-0.017108908 0.23415725 0.32102334 0.10171662 0.08255941 -0.0061083003 0.023609048 0.06395709
-0.08620557 0.044948142 -0.07975872 0.00031656714 1.7301234 0.11693336 -0.16768341 0.091617174
0.032873284 -0.093464375 0.041426968 -0.0789848 -0.1971277 0.03520139 0.11369687 -0.2782305
0.12463437 -0.07569119 -0.15007868 -0.11540966 -0.050691467 0.057501856 -0.07954468 -0.15693511

fc2.bias f4 [64]
00000000: a852 493f 79b4 7fbc bf76 92bd 018f f03e
00000010: acbd 063f 8957 0340 e3a4 6abd ebfe b73d
00000020: 744d fc3f 6802 d7bc 5eba 0640 4ece 0a40
00000030: c884 a33f 4ea9 ddbd 07b5 babd 3473 c23a
00000040: b376 f03f 6dca 2bbd 299c b5bd a78a 0940
00000050: 267b a63d 9207 9cbd f2fc 0540 0b39 3d3f
00000060: 50aa 8fbd 8606 38bd e9b0 2f3f 433f 9f3f
00000070: 1516 24bd 318c 8c3f e89c 0740 cc79 613d
00000080: 1847 f73f 154b a33f d47f f53c 8def f8bf
00000090: 447a babd 6692 a0bd 9c16 b53f 691b 073f
000000a0: be5d a43f 272a dbbc b499 0f40 7e34 fa3f
000000b0: 94c1 6d3f d34a 4c3d 84b8 f93f f424 4e3f
000000c0: b0a2 8d3d 054b dcbd 3fb8 c23f ca53 8ebf
000000d0: c8f1 e53f a3dc ddbb 8025 0d40 1796 233f
000000e0: 5cd0 b43f 53fc 64be 8e98 bf3f fbab b03f
000000f0: 05fe 173f 5eff bf3d b9f1 c3bd 5514 833f
0.7864175 -0.015606993 -0.07151555 0.46984103 0.52633166 2.0522177 -0.057286154 0.089841686
1.9711137 -0.026246265 2.105125 2.1688418 1.2774897 -0.10823308 -0.091165595 0.0014835359
1.8786224 -0.041941095 -0.08867676 2.1490877 0.081289575 -0.076186314 2.0935636 0.73915166
-0.070149064 -0.044928096 0.6862932 1.2441181 -0.04006012 1.0980283 2.1189518 0.055047795
1.9318571 1.2757288 0.02996818 -1.9448105 -0.091053516 -0.07840423 1.4147525 0.527762
1.2841108 -0.026753498 2.2437563 1.9547269 0.928735 0.049876045 1.9509435 0.80525136
0.06915796 -0.10756496 1.5212477 -1.111932 1.7964411 -0.0067706867 2.2054138 0.63900894
1.4126086 -0.22361879 1.4968431 1.3802484 0.5937198 0.09374879 -0.09567589 1.024058

fc3.weight f4 [20, 64]
00000000: f993 b93e c27a dbbd 476d 573b 0ece 1dbd
00000010: 93d9 1cbb f654 153f a080 fcbd d2f6 b1bd
00000020: f05e cc3e 07b6 6fbd cd32 e43e b171 333f
00000030: 0695 2c3e 4802 8ebc d076 873c 30f3 84bd
00000040: 4dde a33e b612 cfbd 05b1 f03b 26eb 0a3f
00000050: 4ce4 08bd cb06 d23d 2bbf e33e c4b9 063d
00000060: 5c9f 8c3d 7218 a7bd 40f6 1dbe 8b88 363e
00000070: 84e2 c13d cf40 1bbf 5225 183f adab cb3d
00000080: de2f d83e 3178 653e 7366 163d 191f eabe
00000090: 5d9a c8bd 407a 173b 3b88 8a3e d772 1a3f
000000a0: 7869 93bd 98b6 793d bc2c 77bf fa9d 143f
000000b0: 2c58 283e 4658 efbd a77f 92bf 079c 213d
000000c0: 72cb 85bd 508f ed3d f6cc 863e 5f39 c7be
000000d0: 0c35 e43e 4ca7 7dbc 8bd1 afbf fac9 e639
000000e0: e644 b63e 9fab f1bd c9a0 433e 6c5b 813e
000000f0: e1c8 ec3e 20fc 563c a7b9 42bd 9d92 653d
00000100: 86af 94bd d070 fdbd 66ca fe3d 0681 40be
00000110: e4c8 bb3c 0ac3 b03e 504e d43d 4dc2 e03d
00000120: 9dc9 903e 5283 bdbd 4b44 c13e 3cd4 173f
00000130: d966 76bd b402 3c3d 6071 1f3d a434 f13d
00000140: ba13 8f3e 0c0e 123e 67b7 22bd 97f0 db3e
00000150: 1025 543d be77 ab3d 70dc e83e b0dc fc3d
00000160: 8658 d8bd 1bc2 efbc 46fb 1d3d 6180 023e
00000170: d29d 28bd 7286 f2bd fde3 ba3e f0dd 3bbc
00000180: 774e 753e b534 923e afb6 5cbd 8a84 69be
00000190: 3c33 b13c 489b b93d 9b2d 333e ad8f 19be
000001a0: 8f93 48be bfb5 c3bc d214 80bf 846d df3e
000001b0: b374 91bc f441 92bd e96c 04bf 7c28 dbbd
000001c0: 3a36 df3d 1f67 4abd 7e3e 1d3e 07f0 23be
000001d0: fbf9 343e bb4a 8b3c 9b95 46bf cc71 9bbd
000001e0: 8898 803e 55ae 00be 09c0 7b3e a098 183e
000001f0: 5a5d 59be acfd 96bd 481d 153e 0fb9 863e
00000200: a99a 6abe 1e2c fd3d 98ac d6bd af5c d4ba
00000210: 8304 91bd f8c7 c23e f834 f73c 8fce 27bd
00000220: 5215 303e f847 bc3c cbf5 de3e 2030 e83e
00000230: 45a7 723e 4645 813d 1cc8 16bd 03f8 b3bc
00000240: 1df8 3d3e 5b3d fd3d b784 b7bd 96b2 b63e
00000250: e299 b5bd 07a4 b53d c70b 003f 122d 4e3e
00000260: 22cb f23d 488f c23c 8692 9b3e c2b1 be3d
00000270: d3d2 c9bd 1a22 9c3d 643a c73e a8cf 78bd
00000280: 2873 9a3e b111 0f3e e450 aabd 8214 19be
00000290: 6f04 0a3b 08dc c43c 48cf f73d 1d12 00be
000002a0: 64d5 25be 1d9b c5bd 084e 62bf bfff 0d3f
000002b0: 2631 173e 4c9b 0abd 0b0e f3be 408f 603e
000002c0: 9405 f4bd 200d dfbb 18aa 473e b096 20bd
000002d0: f6bb 073e eda5 1a3d 1641 73bf d498 893b
000002e0: 35bc ae3e 873a ca3b 0535 3e3c daf4 773d
000002f0: 26b9 87be 6872 ddbc 0941 4a3d 202a 843d
00000300: 3e5f a9bd b0cd 9ebc 9cf7 8fbd 091c 90be
00000310: 2399 65bd 6d95 bc3e 4302 0cbb d3fe f73c
00000320: e23b a03e 0997 a6bd 400a 053f 80a5 ce3e
00000330: 7d61 ae3e 32ec ddbd 40c3 043c a35a ecbd
00000340: 5e41 943e cf36 813d ca3c 743d 77cf dd3e
00000350: 540f d6bc f3f6 d3bc 2594 da3e ed7a 823e
00000360: c74b 4a3d 9d2a debd f5af 193e 8536 54bd
00000370: 7168 99bc 9972 38be a862 ed3e 448a 9a3d
00000380: 5e5e ce3e d917 b23d 388a de3c 5ce7 2cbe
00000390: 8428 d9bd ef63 d3bc 2fa4 98bc 036e 83bd
000003a0: 000b 19bd 8e8f fbbd b2e6 74bf 10d4 e53e
000003b0: 3431 e33c 8ad2 e8bd 3410 15bf d551 f53d
000003c0: 7841 29bd 609d 173c 3f22 0d3e 004d d3bd
000003d0: 91c7 593e 6f81 adbd 1d6f 66bf 15be c1bd
000003e0: 47c5 ae3d e73a 14be 0eb2 873e 79ac 973c
000003f0: 68b7 1abe 460f e9bd 8ee0 f33d ddec 9e3e
0.36245707 -0.107167736 0.003287153 -0.038526587 -0.0023933395 0.58332765 -0.12329221 -0.08689655
0.39916182 -0.058523204 0.44570008 0.70095354 0.16853723 -0.017335072 0.016536146 -0.06491697
0.3200554 -0.10110991 0.007345321 0.5426506 -0.033420846 0.10255202 0.44481787 0.032892004
0.06866333 -0.081589594 -0.15425968 0.17825525 0.094670326 -0.60645765 0.59431946 0.09944854
0.4222402 0.2240913 0.036718797 -0.4572685 -0.097950675 0.0023113638 0.2705706 0.6033148
-0.07197851 0.06096515 -0.96552634 0.58053553 0.16439885 -0.11686759 -1.1445206 0.03945544
-0.06532945 0.115996 0.26328248 -0.38910958 0.44571722 -0.015481781 -1.3735822 0.00044019503
0.3559944 -0.11800312 0.19104303 0.25265062 0.46247008 0.013121635 -0.047540333 0.056048024
-0.07260041 -0.12375033 0.12440948 -0.18799219 0.02292294 0.34523803 0.103664994 0.1097456
0.2827882 -0.09253563 0.37747416 0.5930822 -0.060156677 0.045901015 0.038926482 0.117776185
0.27944738 0.14263171 -0.039725687 0.42956993 0.051793158 0.083724484 0.4548068 0.1234678
-0.105637595 -0.029267361 0.03856971 0.12744285 -0.041166134 -0.1184205 0.36502066 -0.011466488
0.23955713 0.28555837 -0.05388516 -0.22804466 0.021630876 0.09062821 0.17497866 -0.14996214
-0.19587539 -0.023890374 -1.0006354 0.4363824 -0.017755842 -0.07141486 -0.51728684 -0.10701081
0.10899015 -0.04941475 0.1535587 -0.16009532 0.17673485 0.017003408 -0.7757203 -0.075900644
0.25116372 -0.12566502 0.24584974 0.14901972 -0.21227017 -0.07372603 0.14561951 0.26313064
-0.2291056 0.1236193 -0.104821384 -0.0016201938 -0.07080939 0.3804319 0.030176625 -0.040968474
0.17195633 0.022983536 0.435469 0.45349216 0.23696621 0.06312041 -0.036811933 -0.021968847
0.18551679 0.12365218 -0.0896086 0.35683125 -0.088672414 0.08869176 0.5001797 0.2013438
0.11855151 0.023749962 0.30385226 0.09311248 -0.09854665 0.07623692 0.38911736 -0.06074491
0.30165982 0.13971592 -0.0831621 -0.1494923 0.0021059772 0.0240307 0.12100083 -0.1250691
-0.16194683 -0.09648726 -0.88400316 0.5546836 0.14764842 -0.03383951 -0.4747165 0.21929646
-0.119151264 -0.0068069845 0.1949848 -0.039206207 0.13255295 0.037755895 -0.9502119 0.0041991267
0.34127966 0.006171528 0.0116093205 0.060536243 -0.26508445 -0.027032092 0.04937843 0.06453347
-0.08270119 -0.019385189 -0.070296496 -0.2814639 -0.056054246 0.36832753 -0.0021363653 0.030272877
0.31295687 -0.081342764 0.51968765 0.4036064 0.34058753 -0.10836066 0.008103192 -0.11540725
0.2895612 0.06309282 0.059628285 0.43322346 -0.026130356 -0.02587459 0.4269115 0.2548441
0.049388673 -0.108479716 0.15008529 -0.051809806 -0.01872656 -0.18012466 0.4636433 0.07545903
0.4030637 0.08695955 0.027165517 -0.16885132 -0.10603431 -0.025804488 -0.018632976 -0.064174674
-0.037364006 -0.1228324 -0.95664513 0.44888353 0.027733423 -0.11368282 -0.5822785 0.11978499
-0.0413222 0.00925383 0.13782595 -0.10317421 0.21267535 -0.08471953 -0.90013295 -0.094600834
0.085337214 -0.14475594 0.26503032 0.018514859 -0.15109026 -0.11379866 0.11908065 0.31040087

fc3.bias f4 [20]
00000000: 3dde cc3f 6e0c 1b3f 27f9 133f 7909 103f
00000010: b9c0 d03e 7492 e53e f3cf eb3e 70ed 093f
00000020: ebd1 ad3e 00fb 823e ba65 3f3e 3bca 443d
00000030: 6087 eb3d d68f 91bd bf67 90bd ae44 27be
00000040: 9713 e8bd 3781 6ebe 76d2 4fbe 0851 86be
1.6005322 0.6056584 0.5780205 0.56264454 0.40772036 0.44838297 0.4605709 0.53877926
0.33949217 0.25582123 0.1869115 0.048044425 0.1150043 -0.07107513 -0.07051038 -0.16334793
-0.113318615 -0.23291479 -0.20295128 -0.26233697

exp_avg f4 [64, 3]
00000000: d886 97bf eab5 80c0 170b d2c1 ef3f 14bf
00000010: 8c03 c840 8a63 3f42 0000 0000 0000 0000
00000020: 0000 0000 8abe bfbf 8d87 c940 82ab 0942
00000030: 0000 0000 0000 0000 0000 0000 dbce 833e
00000040: aaea 283f 3438 47c1 6e21 ec3e e40f 3f3d
00000050: 044b 183f e3c2 2840 eacf ea3f 7284 3b41
00000060: 9bdd 18bf fca4 8ec0 0fe5 0ec2 0000 0000
00000070: 0000 0000 0000 0000 fe8d 70c0 1af0 b4c1
00000080: 950f 28c3 d7ba 8640 cd55 b63f c850 6940
00000090: 0000 0000 0000 0000 0000 0000 3116 e63f
000000a0: ce71 7341 c717 f642 339b 883f 680b 213f
000000b0: 6b05 5040 4eca d53e f172 3a41 6d2f b942
000000c0: 4552 0740 c2a1 3d41 8cd9 c942 6a97 aec0
000000d0: 8dd7 13c2 213f 96c3 5931 d0c0 7578 5ac1
000000e0: de47 abc2 4655 aabd 8c5a 6bc0 a5a6 cdc1
000000f0: 2a52 a4be 8347 34c0 5c91 26c1 1421 c53f
00000100: f41e 0b41 a347 35c1 3c94 8fc0 eeb6 8bc0
00000110: 1d20 a4c0 6e3a ae3f 1b14 9e40 aca1 3142
00000120: 0000 0000 0000 0000 0000 0000 8146 31c0
00000130: 8483 80c1 8ea1 e4c2 573d 2e40 5b60 0f40
00000140: 3d6d 6e40 0000 0000 0000 0000 0000 0000
00000150: 0000 0000 0000 0000 0000 0000 0000 0000
00000160: 0000 0000 0000 0000 2b46 b3bf 6c3b 13c1
00000170: d770 87c2 daec be3f a242 6541 9d25 ea42
00000180: 6628 3b3f a3fd bdbf efde 0fc1 f84c 6dc0
00000190: be83 acc1 326a 31c3 6888 06c0 ff73 b4c1
000001a0: 7e5c 8dc3 0000 0000 0000 0000 0000 0000
000001b0: 0000 0000 0000 0000 0000 0000 0558 1cbf
000001c0: 4252 d1c1 13a4 4dc3 145e e240 2da8 d341
000001d0: 7193 5043 3ada b1bf 1b7c 93c0 be0a 08c2
000001e0: baec 6fc0 d7da f0c1 2daa 65c3 b372 a6bf
000001f0: 02e2 d1bf 9459 09c0 0000 0000 0000 0000
00000200: 0000 0000 3338 9f3f a92a 9e40 e6b7 1a42
00000210: c0eb 83c1 4b86 2641 016a 35c2 3e17 eabf
00000220: b496 0841 d494 4e42 8679 ed3f 1481 0b40
00000230: 107a d441 c165 4fc0 60f6 b1c1 d3b8 25c3
00000240: 0400 0000 0400 0000 0400 0000 a4be b13f
00000250: 4892 603f 96a5 9d41 5d35 293e c6f8 43c0
00000260: abcc d8c1 764d 1540 0467 0e3f 9b84 9241
00000270: 0a5b b13f 70cb a23e 6192 1e41 24eb 17bf
00000280: a5ea 9bbe a76a 1340 0000 0000 0000 0000
00000290: 0000 0000 df78 943e 4326 d53f 9d23 d941
000002a0: ce6f 85c0 841c 1cc1 96cf a1c2 83fd 89c0
000002b0: 7479 46c2 60fc c8c3 0bd6 f33d 801a 84bf
000002c0: f26f 363e 0000 0000 0000 0000 0000 0000
000002d0: 5f03 a8bf 48de 6ac0 27f7 b5c1 1244 b4c0
000002e0: d1dd 75c1 f712 e6c2 0000 0000 0000 0000
000002f0: 0000 0000 4e50 91c0 734d 11c2 2565 8cc3
-1.1838026 -4.0222063 -26.255415 -0.57910055 6.250433 47.847206 0.0 0.0
0.0 -1.4980023 6.2977967 34.41749 0.0 0.0 0.0 0.25743756
0.6598307 -12.451221 0.46119255 0.046646014 0.59489465 2.636895 1.83447 11.719835
-0.59713143 -4.4576397 -35.72369 0.0 0.0 0.0 -3.7586665 -22.617237
-168.06087 4.2103076 1.4244934 3.6455555 0.0 0.0 0.0 1.7975522
15.215284 123.04644 1.0672363 0.6290803 3.2503307 0.4175591 11.653062 92.59263
2.1143963 11.851992 100.9249 -5.455983 -36.9605 -300.4932 -6.506024 -13.654408
-85.640366 -0.08317046 -3.6774015 -25.70637 -0.32093936 -2.8168647 -10.410488 1.540072
8.695057 -11.329989 -4.486845 -4.3660803 -5.12892 1.3611581 4.9399543 44.407883
0.0 0.0 0.0 -2.7699282 -16.064217 -114.31554 2.722494 2.240256
3.7254174 0.0 0.0 0.0 0.0 0.0 0.0 0.0
0.0 0.0 -1.4005789 -9.202007 -67.72039 1.4916031 14.328768 117.07346
0.7310852 -1.4843029 -8.991927 -3.7078228 -21.564327 -177.41483 -2.1020756 -22.556639
-282.7226 0.0 0.0 0.0 0.0 0.0 0.0 -0.6107181
-26.165165 -205.64091 7.073984 26.457117 208.57594 -1.3894722 -4.6088996 -34.01049
-3.7488236 -30.106855 -229.66475 -1.3003753 -1.6397097 -2.1460924 0.0 0.0
0.0 1.2439026 4.9427075 38.67959 -16.490112 10.407786 -45.35352 -1.8288343
8.536793 51.64534 1.8552711 2.1797533 26.5596 -3.2405856 -22.2453 -165.72197
6e-45 6e-45 6e-45 1.3886304 0.8772321 19.705853 0.16524263 -3.062059
-27.099936 2.3328528 0.5562594 18.314749 1.3855908 0.31795835 9.910737 -0.5934317
-0.30452457 2.3033845 0.0 0.0 0.0 0.28998467 1.6652302 27.14239
-4.169898 -9.756962 -80.90544 -4.3121963 -49.618607 -401.97168 0.1190606 -1.0320587
0.17816141 0.0 0.0 0.0 -1.3126029 -3.669817 -22.74568 -5.6333094
-15.366654 -115.03704 0.0 0.0 0.0 -4.541053 -36.325634 -280.7902

exp_avg_sq f4 [64, 3]
00000000: 196a 6842 eb93 2e44 3218 2647 37d3 4843
00000010: a999 fc44 05d5 1748 0000 0000 0000 0000
00000020: 0000 0000 b09b 6e44 d906 8744 571d 5f47
00000030: 0000 0000 0000 0000 0000 0000 4f78 9340
00000040: abab 8243 7402 2046 38c2 d141 38c7 e73f
00000050: 2630 bd44 4f8d bb44 bee8 3145 a66c 0746
00000060: e9a3 7e42 927e cc44 d304 c847 0000 0000
00000070: 0000 0000 0000 0000 f29f 1c45 f191 0247
00000080: 2962 054a 162d 7945 d166 2844 3d16 b245
00000090: 0000 0000 0000 0000 0000 0000 03dc 7543
000000a0: 7e70 7646 c79f 8a49 de6f 9443 b621 b441
000000b0: e0e4 c944 be95 0843 ed07 0746 b8dc 1a49
000000c0: 0d3c 7f44 eec1 2d46 8352 2349 0ba7 b944
000000d0: 3f48 b847 f8b9 c34a 478f 8644 525a c245
000000e0: d939 b648 15f4 0f44 fffc c144 f131 7a47
000000f0: a501 3c44 a3d6 9944 1dba 5446 5c51 3a47
00000100: 8fcd 9947 d426 b747 b9ec a944 efa1 8044
00000110: ccab 2145 5305 1643 22ae ef44 173b cc47
00000120: 0000 0000 0000 0000 0000 0000 a15d f944
00000130: 6285 8446 d547 8149 58aa 6744 bd57 a343
00000140: 5a1d 6f46 0000 0000 0000 0000 0000 0000
00000150: 0000 0000 0000 0000 0000 0000 0000 0000
00000160: 0000 0000 0000 0000 614a a643 04df a145
00000170: e6b2 a248 118d 5643 e7a2 5f46 e20b 7d49
00000180: 51dc 8d44 a8b2 c444 6eee a746 bc63 6f44
00000190: b571 f646 8661 014a 6481 c544 1ce9 b447
000001a0: 22ae f04a 0000 0000 0000 0000 0000 0000
000001b0: 0000 0000 0000 0000 0000 0000 0549 de44
000001c0: 7a96 4147 d44e 4b4a 1659 5d45 9e49 2747
000001d0: 73b7 394a 17ae 8642 600a 7b44 e525 7e47
000001e0: 557a 5b45 3310 7647 d204 7f4a 32f8 6041
000001f0: 1449 6241 dd02 1d42 0000 0000 0000 0000
00000200: 0000 0000 f7bf e044 8809 7e45 bb65 9847
00000210: 32bc db47 c6f5 f947 dbb5 5348 4705 2944
00000220: f01a 0d45 64ae 1048 fd46 6645 a29f 8345
00000230: 072d f646 bb17 0e45 9c73 0147 78f2 034a
00000240: 5b70 a225 cb60 b729 5b70 a225 214b 7a45
00000250: f6ab 8a45 39c9 9a46 75ec 2144 3bf1 cf44
00000260: 8feb 7d47 b38b b345 9861 c645 1ecc a946
00000270: c85c 1a45 413c 2e45 e7c4 f545 610b 8343
00000280: 243d 0242 f702 e745 0000 0000 0000 0000
00000290: 0000 0000 f621 d744 748d 0f45 08ca 6546
000002a0: 5e88 1245 9a3d bf45 85a6 a348 96d9 2d46
000002b0: cb54 4148 9352 484b bf54 b143 7111 d643
000002c0: 2a8b 5544 0000 0000 0000 0000 0000 0000
000002d0: eb72 2e43 cd27 3544 ee35 1547 4bde c045
000002e0: 2976 5246 ab61 0249 0000 0000 0000 0000
000002f0: 0000 0000 f4a5 9c45 c216 b347 6ce3 ba4a
58.10361 698.3112 42520.195 200.82506 2020.8019 155476.08 0.0 0.0
0.0 954.4326 1080.214 57117.34 0.0 0.0 0.0 4.608436
261.34116 10240.613 26.219833 1.8107672 1513.5046 1500.4159 2846.5464 8667.162
63.66007 1635.9553 102409.65 0.0 0.0 0.0 2505.9966 33425.94
2.1853542e+06 3986.8179 673.6065 5698.78 0.0 0.0 0.0 245.85942
15772.123 1.1356089e+06 296.87396 22.51646 1615.1523 136.58493 8641.981 634315.5
1020.9383 11120.482 668968.2 1485.2201 94352.49 6.413564e+06 1076.4774 6219.29
373198.78 575.8138 1551.9061 64049.94 752.0257 1230.7074 13614.528 47697.36
78747.12 93773.66 1359.3976 1029.0604 2586.7373 150.0208 1917.4417 104566.18
0.0 0.0 0.0 1994.9259 16962.691 1.0590666e+06 926.6616 326.68546
15303.338 0.0 0.0 0.0 0.0 0.0 0.0 0.0
0.0 0.0 332.5811 5179.877 333207.2 214.55104 14312.726 1.0364781e+06
1134.8849 1573.583 21495.215 957.55835 31544.854 2.1197775e+06 1580.0435 92626.22
7.886609e+06 0.0 0.0 0.0 0.0 0.0 0.0 1778.2819
49558.477 3.330997e+06 3541.5679 42825.617 3.0427808e+06 67.34002 1004.1621 65061.895
3511.6458 62992.2 4.1782285e+06 14.060595 14.142841 39.252796 0.0 0.0
0.0 1797.9989 4064.5957 78027.46 112504.39 127979.55 216791.42 676.08246
2257.6836 148153.56 3684.4368 4211.954 31510.514 2273.4832 33139.61 2.161822e+06
2.8178655e-16 8.1436234e-14 2.8178655e-16 4004.6956 4437.495 19812.611 647.69464 1663.5385
65003.56 5745.4624 6348.199 21734.059 2469.7988 2787.7659 7864.613 262.0889
32.559708 7392.3706 0.0 0.0 0.0 1721.0613 2296.8408 14706.508
2344.523 6119.7 335156.16 11126.396 197971.17 1.3128339e+07 354.66208 428.13626
854.17444 0.0 0.0 0.0 174.4489 724.6219 38197.93 6171.7866
13469.54 534042.7 0.0 0.0 0.0 5012.744 91693.516 6.123958e+06
