models/dqn_agent_firm_1_episode_500.pth (torch, 101190 bytes, 24 tensors)

fc1.weight f4 [64, 3]
000000 c3 53 30 3f 9d 47 8d 3e 40 f3 bb bd c5 c0 1b 3f
       0.6887781 0.275937 -0.09177256 0.6084102
000010 48 b7 bb 3d 68 3e 96 bc 91 ad 17 be c3 6c 42 be
       0.091658175 -0.018340304 -0.14812304 -0.18986802
000020 a4 cc e9 3c 4c 90 25 bd 49 c9 12 be 30 79 0f 3c
       0.028539963 -0.040420815 -0.14334597 0.008756921
000030 fe a1 db be 1d 22 bc 3e f4 79 a6 3e a9 96 f2 bc
       -0.42897028 0.36744776 0.32514918 -0.029612856
000040 d8 21 28 3e 6e 4f c9 be 13 85 53 be ea da c1 3d
       0.1641916 -0.39318413 -0.20656233 0.09465583
000050 52 5f 2e 3c 53 9f c8 3d 7b 7c 94 bd db a4 7e be
       0.010642843 0.09796014 -0.07250305 -0.24867575
000060 21 18 a0 3d 0f c0 bb 3e 0c 99 72 3e 62 42 58 3f
       0.07817102 0.36669967 0.23691195 0.8447629
000070 85 19 d4 be ca b6 40 bd d8 fc f0 be 70 38 0e 3f
       -0.4142572 -0.04704932 -0.47067904 0.55554867
000080 dc 6c 8a be 0b e6 6b 3d 61 34 08 3e f0 5c a7 be
       -0.27036178 0.057592433 0.13301231 -0.32688093
000090 82 f1 80 be 7d dc 28 3d f4 88 7c 3d 07 92 e1 be
       -0.25184256 0.0412259 0.061654046 -0.44056723
0000a0 17 57 8e 3e d2 85 8a 3d cf 9a 07 be 2e f4 84 3e
       0.2780082 0.067638054 -0.13242649 0.25967544
0000b0 89 00 8e bb 48 1a 18 be 73 d0 cd 3e a0 4c df ba
       -0.00433356 -0.14853776 0.40198097 -0.0017036386
0000c0 96 35 c5 3d 34 8d 82 3e 6b a7 20 be 2f f5 93 3d
       0.09629361 0.25498354 -0.15688865 0.072244994
0000d0 fd eb 62 bf fb 86 21 3e 8d cf bf 3e 9b 49 10 bf
       -0.8864134 0.15774147 0.37463036 -0.56362313
0000e0 25 ce 03 bf 40 31 e4 3c 1b 6c 89 3e 78 77 b3 3e
       -0.51486427 0.027855515 0.2684029 0.35052085
0000f0 fc 01 1b 3f 65 7a 45 3f 0a 20 0c 3f 18 8d 82 be
       0.605499 0.77139884 0.5473639 -0.2549827
000100 38 cd 59 3d c1 4c a7 3d 5e e0 12 3e e7 64 69 3e
       0.053174227 0.081689365 0.14343402 0.22792397
000110 0b ee 00 bd fa be 65 3e c0 a1 f4 be 0e 9d 05 bf
       -0.031477015 0.22436133 -0.47779655 -0.5219277
000120 43 c2 df be 73 d1 2f 3f 97 68 94 bb 88 85 8d 3e
       -0.43702897 0.6867897 -0.0045290696 0.2764094
000130 0d 41 20 3f c9 b0 c7 bd b9 8a b8 be 0d 48 09 be
       0.6259926 -0.09750516 -0.36043337 -0.13406391
000140 8a 5c 8c be 83 d3 9c 3e 99 e1 0a bf 4c 8e c4 3e
       -0.27414352 0.3063012 -0.54250485 0.38389814
000150 14 b5 d6 be 49 b4 d4 be 94 29 22 be 94 50 f6 bd
       -0.41935027 -0.41543797 -0.15836173 -0.12027088
000160 57 89 c4 be 9c 68 90 3e 54 a1 5a be 05 77 e7 be
       -0.38386032 0.2820481 -0.21350604 -0.45207992
000170 1b 9e 0c bf 92 ca 19 bf bc 5a 06 3d 92 a1 08 be
       -0.5492875 -0.6007472 0.032801375 -0.13342884
000180 64 e1 b8 3e f3 3a c8 3e 90 e1 5f 3e e4 7a 8e 3e
       0.3610946 0.39107475 0.21863389 0.27828133
000190 67 9b ae 3e c1 e3 44 3e 61 18 b6 be c2 b8 79 bd
       0.34102938 0.19227506 -0.35565475 -0.060967214
0001a0 e2 d1 47 3e e1 49 5d be de 44 4b 3c 87 58 0e bf
       0.19513658 -0.21610214 0.012406556 -0.5560383
0001b0 bf 07 02 3f eb 97 3b 3d a1 20 df bc 9b b6 87 3e
       0.5079307 0.045799177 -0.027237238 0.26506504
0001c0 b5 cf 6c 3e 0e 70 a5 3d c9 ca cd be e1 d2 78 bd
       0.23126109 0.08078013 -0.40193775 -0.060747985
0001d0 c5 79 66 3e 4d d9 f0 be 6e 59 27 be 58 34 81 be
       0.22507389 -0.47040787 -0.16342708 -0.25235248
0001e0 b4 ef da be 6e f8 88 3d e2 c8 13 bf f2 54 d5 bd
       -0.42761004 0.06688009 -0.577284 -0.10416593
0001f0 0e b2 44 be e3 fe 8d 3d 3d 75 27 bf 48 76 0c 3e
       -0.19208547 0.069333814 -0.65413266 0.13716996
000200 c9 b8 a5 3d 7f 39 64 3e 70 45 8d be e8 13 e7 3d
       0.080918856 0.22287558 -0.2759204 0.11283094
000210 45 14 bb bd 54 12 10 3f ed 37 8d 3e 74 66 08 3e
       -0.091347255 0.56277966 0.2758173 0.13320333
000220 5e 94 bf 3d 94 a4 f9 3c e1 28 f8 3c 84 5a e0 bd
       0.09354471 0.030473985 0.03029293 -0.109547645
000230 93 81 b6 be 94 d5 93 be c5 5b f5 bd ff 7b c6 3d
       -0.35645732 -0.28873885 -0.11980394 0.09691619
000240 78 31 0f bf 07 5a c8 bd a4 e3 8a 3e e9 07 29 be
       -0.5593486 -0.09782796 0.271268 -0.16506924
000250 4b c8 72 3f 11 4f 8a 3d d0 ec 7d be 9f 8f cc 3e
       0.9483687 0.06753362 -0.24797368 0.39953324
000260 d2 70 a9 bd 72 e6 0f 3f 10 54 00 3f 23 77 93 bd
       -0.08273472 0.56211007 0.5012827 -0.07200458
000270 05 27 30 3f c7 00 05 bf ed b0 66 3d 16 f0 54 3e
       0.6880954 -0.5195431 0.056321073 0.2079471
000280 93 3d 5c be c0 3e 94 3d 3d b5 c5 be f6 6e 0f bf
       -0.21507864 0.07238531 -0.38614836 -0.5602869
000290 bf 9c 12 be 42 c3 27 3f 14 e5 88 3e 9a e4 9a bc
       -0.14317606 0.65532315 0.26737273 -0.018907834
0002a0 26 66 e1 3e ac 2e da be 6d e3 48 3e b3 2c 98 3e
       0.44023246 -0.42613733 0.19618006 0.29721603
0002b0 22 60 68 3e 71 03 8b be 2e e9 cd 3e 92 b1 a9 3e
       0.22692922 -0.27151063 0.40216964 0.33143288
0002c0 9f b5 79 3e d9 d9 38 3e 97 e3 bb be 92 0e 58 be
       0.24385689 0.18051852 -0.36697075 -0.21099308
0002d0 10 8b 09 3f ce 3f e5 3c 85 e9 fd bc 11 07 c4 3e
       0.5372782 0.027984526 -0.03099514 0.3828664
0002e0 33 58 a1 3d c7 20 df bc 82 2e f6 bd 0f 89 da be
       0.07878151 -0.02723731 -0.120205894 -0.42682692
0002f0 73 0a b5 be 5c 10 ba 3e 22 c5 c5 be a8 e2 a9 3e
       -0.35359535 0.36340606 -0.38626963 0.33180737

fc1.bias f4 [64]
000000 3c 6e 26 3f 0c 5d 1c 40 45 1d 6f 40 0a fa 60 40
       0.65011954 2.4431791 3.7361615 3.5152612
000010 aa c9 a7 3d bd 93 2d 40 75 48 53 40 8a 99 26 40
       0.08192761 2.7121422 3.3012974 2.6031213
000020 ea b0 f4 3f 60 2f 56 3f f0 64 27 40 67 40 6f 40
       1.911649 0.8366604 2.6155357 3.7383058
000030 b3 92 2a 40 b5 e3 48 40 02 14 4c 40 c2 19 24 40
       2.6652038 3.1388981 3.1887212 2.5640721
000040 ed 16 2e 40 4f ac 81 be 48 f2 26 bd 04 59 4a be
       2.7201493 -0.25326774 -0.0407584 -0.1976052
000050 90 66 0e c0 2a dc 07 40 11 e6 24 40 7e 47 0b bf
       -2.22501 2.1228127 2.5765421 -0.54405963
000060 c9 9a e1 3d 2d 26 d8 3f ad 96 87 be 99 37 f2 bf
       0.11015851 1.688665 -0.26482144 -1.8923217
000070 5f d4 5e 3d 32 55 2e c0 f7 55 ff be 09 b2 ea be
       0.05440175 -2.72395 -0.49870273 -0.45838955
000080 2c e6 1f bf 73 ce 1f 3f ac 5f 20 c0 e7 6b ff be
       -0.6246059 0.6242439 -2.5058393 -0.4988701
000090 1b 93 d1 3f 61 08 ec 3f a8 2a 26 c0 a4 3d 88 be
       1.6373018 1.8440057 -2.5963535 -0.26609528
0000a0 5c 3c fd be 58 09 55 40 c9 c0 20 40 d6 70 ae bf
       -0.49460113 3.3286953 2.5117667 -1.3628185
0000b0 de 85 80 bf 5c 6e 1a 40 4d 48 ad be 68 4c 35 40
       -1.0040853 2.4129858 -0.33844224 2.8327885
0000c0 76 4e c2 bf 2d b6 d0 bf c3 5a 7d 3f cc 41 23 40
       -1.5180194 -1.6305596 0.98966616 2.550891
0000d0 2a dc e5 3f 85 9d bd 3f 82 dd f3 be 65 7f 15 40
       1.7957814 1.4813696 -0.47629935 2.3359005
0000e0 5c 65 c2 3f 27 66 66 40 fc 4e ae 3f d3 d3 bf bd
       1.5187182 3.599985 1.3617854 -0.09366574
0000f0 89 ca 0c 40 25 cc 06 40 9b a2 8e be 3d b7 b7 bf
       2.1998618 2.10621 -0.27858433 -1.4352795

fc2.weight f4 [64, 64]
000000 f0 87 00 bd aa fb 80 bc 24 fb a7 3a 6f b1 00 be
       -0.03137964 -0.015745003 0.0012815935 -0.12567686
000010 89 7f 20 bd 3e 96 ad bd e8 a3 a6 3c dc 43 32 be
       -0.039184127 -0.08475922 0.020341828 -0.17408699
000020 6b f0 b2 3c e5 1f 5b bd 30 a5 30 bd 57 62 6f 3d
       0.021843156 -0.053497214 -0.043126285 0.058443394
000030 60 68 d1 3c b2 a2 7c 3d 4c 05 10 be 00 30 09 be
       0.025562465 0.061678596 -0.1406452 -0.13397217
000040 f2 d8 8a bd af 33 88 bd e8 1f 7a 3d ee f9 be 3d
       -0.0677966 -0.06650483 0.061065584 0.09325014
000050 48 ea 4c 3d 7a 2d 61 3d a5 99 91 3c 28 ea 21 bd
       0.050028116 0.05497501 0.017773459 -0.03952995
000060 cd ce 9b bd 97 19 85 3d 0c ef 07 bd 1d 8b f7 bd
       -0.076078035 0.064990215 -0.033186957 -0.12087081
000070 a4 d6 ac 3d d2 c8 78 3d 6c e3 34 3d c8 5f e4 3c
       0.08439377 0.060738392 0.0441622 0.027877703
000080 92 63 e4 3d 1e b8 98 bd 2e 4a 9c bb 80 84 f4 bc
       0.11151804 -0.074569926 -0.004769585 -0.029848337
000090 ab d9 07 be 6a 2d 82 3c 4b 61 c6 3d e8 86 c5 3c
       -0.13266627 0.015890796 0.09686526 0.02411218
0000a0 e0 f5 ff 3c a5 b9 f2 bd 6a 7d 64 3d a6 86 37 bc
       0.031245172 -0.11851815 0.055783667 -0.011201536
0000b0 ac 86 77 bd 95 29 ac bd cc 23 0a 3d 52 85 ec bd
       -0.060431167 -0.08406369 0.033725545 -0.11548866
0000c0 18 f0 c7 bd c7 17 b8 3d 2e 49 f0 3c 63 6e 05 bd
       -0.09762591 0.0898891 0.02933177 -0.032575976
0000d0 a0 cd bd bd d5 5e bb bd 40 35 89 bd bb 5a 1f 3d
       -0.092677355 -0.09148947 -0.0669961 0.038904887
0000e0 0c 1d bd bc 14 e5 a1 3c e9 6d 9f bd 7a 9e b1 bd
       -0.02308514 0.019762553 -0.077846356 -0.08672805
0000f0 bf 35 a1 bd 53 6b d1 bd 4c 83 84 bd 8b cc 4e bd
       -0.078715794 -0.102255486 -0.064703554 -0.050488036
000100 af b5 87 3d eb cf dc 3d ff 2b 36 bd 4a e9 cf bd
       0.0662645 0.10781845 -0.04447555 -0.10151918
000110 94 8b 0a bd 60 ea e1 3b e3 d8 99 bd f1 65 12 bd
       -0.03382452 0.0068943948 -0.07512071 -0.03574175
000120 df bb ba 3d 80 00 d5 3a 92 dc 67 3c 60 5e 09 bd
       0.09117865 0.0016250759 0.014151709 -0.03353727
000130 d9 18 20 3d 23 41 e3 bc de 37 6c bc 0d 66 98 3d
       0.039086197 -0.02774102 -0.014417617 0.0744134
000140 e5 ba 41 3d f6 61 a4 bd 04 0f dc 3d 59 a9 8b bd
       0.047297377 -0.08026497 0.107450515 -0.0681941
000150 73 39 66 bd fd 20 87 bc 7b 44 d2 bc 14 d5 b0 bd
       -0.05620713 -0.016495222 -0.02566742 -0.086343914
000160 c9 01 ba bd 33 c1 b4 3d 00 d3 a7 bc 38 0d f1 3c
       -0.09082372 0.08825912 -0.020486355 0.029425249
000170 e4 e3 31 3d f0 9f 9b 3c b2 52 b8 bd 46 97 f9 3d
       0.043430224 0.018997163 -0.09000148 0.12187056
000180 91 95 a9 3d e9 84 56 3d 40 90 54 3c 0c 7d e8 bd
       0.08280481 0.052372847 0.012973845 -0.11351976
000190 57 fc aa bd dd d1 fa bd 00 d9 d8 ba ec 5f 00 3d
       -0.08348911 -0.122470595 -0.0016544163 0.03134148
0001a0 46 91 ed 3d a0 ff b7 bc c1 bb 2c 3c 32 65 e7 3d
       0.11599974 -0.022460759 0.010542811 0.11298598
0001b0 49 a6 f5 bd db c0 49 bd 78 80 13 bd 84 5c 5b 3d
       -0.11994607 -0.049256187 -0.03601119 0.053555027
0001c0 f3 6c ea bd 13 5c 78 bd 7b 9d a5 bd b3 ab af bc
       -0.11446562 -0.060634684 -0.08086678 -0.021444177
0001d0 c0 d0 a7 3b c9 54 6d 3d bc 7c 68 bd c5 4a a9 bd
       0.0051213205 0.057942186 -0.05675958 -0.08266214
0001e0 88 e1 c0 3c 8e 2f f5 bd 57 ac 63 bd f0 75 68 3c
       0.023545042 -0.11971961 -0.055584278 0.014188275
0001f0 5a bf b3 bd 50 e0 dd bd 40 68 e5 bd 8a 16 99 bd
       -0.08776732 -0.108338 -0.11201525 -0.07475002
000200 e6 16 06 be b8 6f bb bd cd 5a 2f 3d cc b5 86 bd
       -0.13094673 -0.09152168 0.042811204 -0.06577644
000210 77 bf a1 bd 26 e9 c4 3d ec 58 ec bd 64 f0 7c 3d
       -0.07897847 0.09614782 -0.11540398 0.061752692
000220 73 99 79 bd ec ed 83 bd e2 55 ec 3d 68 d7 6e 3b
       -0.060937356 -0.06441864 0.11539818 0.003644431
000230 22 fa aa bd d9 3a d1 bd 68 7a e1 3d 2b 7c 1f 3d
       -0.0834849 -0.102163024 0.11009675 0.038936775
000240 51 21 64 bd 88 71 e3 bd 08 28 e2 bd 63 b9 15 bc
       -0.055695836 -0.11105639 -0.110427916 -0.009138438
000250 21 d1 16 3d 1f ef 83 bc 90 f6 71 3d 50 19 d0 3d
       0.036820535 -0.016105233 0.05907303 0.10161078
000260 2c 23 5c bb b4 6c 84 3d e0 12 a7 3c 20 41 23 bd
       -0.00335903 0.06466046 0.020394742 -0.03985703
000270 ac 6d f5 bd 3d 6c 15 be c4 27 d4 bd 7c 39 bc 3d
       -0.11983809 -0.14592071 -0.10359147 0.09190652
000280 c2 57 53 3c 41 e3 7d 3c 63 19 d8 bd 9a 56 c8 bd
       0.012899341 0.015496076 -0.10551717 -0.09782143
000290 1f c3 b3 bd 6a de 89 3c 63 81 34 3c fa 27 be bd
       -0.08777451 0.016829688 0.011017176 -0.09284969
0002a0 c0 11 82 3b 79 34 c2 3c d5 ce e3 bd 25 0a 22 bd
       0.003969401 0.023706662 -0.111234345 -0.039560456
0002b0 ef 88 20 be 55 d7 d2 3b 66 5c a5 bd 6a 5e 08 be
       -0.15677236 0.006434361 -0.08074264 -0.13317266
0002c0 e6 fc f7 bc 43 ec 82 bd 7a 43 9a bd 5f ac 64 bd
       -0.030271959 -0.063927196 -0.075324014 -0.05582845
0002d0 4e 91 fb 3d e2 b5 06 be b4 ad b4 bd d0 70 ac 3d
       0.12283574 -0.1315532 -0.08822194 0.08419955
0002e0 2a 31 08 3d 23 ea 85 3d d3 3d 3d bd d0 ec 33 3d
       0.03325001 0.06538799 -0.04620154 0.043927014
0002f0 01 cd 0a bd b5 3e 33 bd 90 62 e6 bd ee 05 a3 bd
       -0.033886913 -0.043760974 -0.11249268 -0.079601154
000300 18 cb 1c be 1e fc 85 be ec 72 d5 3d 67 99 2f 3f
       -0.15311849 -0.26168913 0.1042231 0.6859345
000310 db bd 3d be b4 bd ac 3f 56 a4 1e 3e 98 06 bf 3f
       -0.18529455 1.3495393 0.15492377 1.4923887
000320 e1 c4 98 bd 12 39 0e be fc 63 44 3f b1 61 d1 3f
       -0.07459427 -0.13888958 0.76715064 1.6357938
000330 4e 96 4d be c8 ee 71 be 2f 4a 00 3e c5 80 59 be
       -0.20076868 -0.23626244 0.12528299 -0.21240528
000340 b1 79 10 3f 68 65 67 bd b8 b4 c2 3c 79 88 e4 bd
       0.56435686 -0.056493193 0.023767814 -0.111588426
000350 f5 71 f2 bd 2e f7 1b be b1 5b 87 bc 1a 5a b7 3d
       -0.11838142 -0.1523101 -0.016523214 0.089527324
000360 18 11 d1 be 3e 90 13 3e 18 b6 0b 3d 8e 2c 93 3b
       -0.40833354 0.14410493 0.034109205 0.0044913953
000370 00 c4 31 bd 8f a2 07 3d 60 db 40 bd 22 1e 70 3d
       -0.04339981 0.033114012 -0.047084212 0.058622487
000380 e8 05 3c bd be f1 cc bd f8 ed 15 3e 7e c7 e4 3d
       -0.04590407 -0.10007046 0.14641559 0.111708626
000390 37 52 61 be 25 2e 8d bb 7d 50 3e 3d 90 32 e0 bc
       -0.22004019 -0.0043084794 0.04646348 -0.02736786
0003a0 00 0a ba 3c 15 4c 14 be be ea 8c be 99 b4 92 bc
       0.022709846 -0.14482148 -0.27522844 -0.017908381
0003b0 3e 99 d0 bd 3c 65 cc bd 24 b2 33 3d 18 8d 1e 3b
       -0.10185479 -0.099802464 0.04387106 0.0024192985
0003c0 d4 2d af bc bf 37 81 bc bf 9a c0 bd 5d ca 4a be
       -0.021384157 -0.015773652 -0.094045155 -0.19803758
0003d0 16 f1 23 be 00 b8 3d be ea 6a df 3d 33 50 08 be
       -0.16009936 -0.18527222 0.10909064 -0.13311844
0003e0 25 b8 db bd 6b eb ad 3f cc da 26 be 72 eb 8c 3d
       -0.10728482 1.3587469 -0.16294402 0.06880845
0003f0 55 89 b9 3e ed fa 78 be d8 4d 6e 3d 32 75 76 3c
       0.3623759 -0.2431447 0.058179706 0.01504259

fc2.bias f4 [64]
000000 ee 6e c2 bd 0d 8c ba 3d 07 c6 83 3d 7e 62 b9 3e
       -0.094938144 0.09108744 0.06434255 0.36207956
000010 b2 ea 99 bd 32 46 24 3d 5e 83 ec bd 84 d7 fb 3d
       -0.07515468 0.040106006 -0.11548494 0.12296966
000020 cb dd 96 3e 2d 42 a4 be ff 33 ba 3f e2 9d 09 40
       0.2946609 -0.32081738 1.4547118 2.1502614
000030 77 84 a3 3f c8 6e 90 bd f1 cb 6d 3f a3 c1 8d 3f
       1.27748 -0.0705238 0.92889315 1.1074718
000040 da ca 48 3f c6 80 b0 bd 68 0d 8f 3e e6 1b e6 3f
       0.78434527 -0.086183116 0.27939916 1.7977264
000050 c0 4f a7 bc d7 7c 60 3f 8e bf db 3f d0 61 bf 3f
       -0.02042377 0.8769049 1.7167833 1.4951725
000060 40 a0 41 3f 68 19 33 bb 5d 98 e8 bd 4f 40 ab 3f
       0.7563515 -0.0027328376 -0.11357186 1.3379
000070 e4 ef 04 3d ce 68 f3 bd 63 14 ac 3f 00 42 82 3a
       0.03245534 -0.11885224 1.3443722 0.0009937882
000080 84 a5 c0 3f 89 ac 04 40 68 f7 11 bf b6 65 d2 3f
       1.5050511 2.0730307 -0.57018137 1.643729
000090 ad 0e f1 bd 3e a4 ff 3e d6 f2 cb 3f e0 ef c3 3e
       -0.11770377 0.49929994 1.5933483 0.38268948
0000a0 c9 a7 9b 3f 82 ba d5 3e ac 63 6e 3d b0 6b 8f bd
       1.2160579 0.41743857 0.058200523 -0.07002962
0000b0 d0 6f 85 3f 94 5d 8b be 22 aa 57 3f 2d 6a f7 bd
       1.0424747 -0.27219832 0.8424398 -0.12080798
0000c0 49 e9 41 3d 43 42 0c 3d db aa 66 3c 0c 01 9c 3f
       0.04734162 0.03424288 0.014078821 1.218782
0000d0 ad 87 30 3f 7c dd c5 3f 0c fe cc bd 81 4c bb 3f
       0.68957025 1.5458217 -0.10009393 1.4632722
0000e0 84 67 29 3d 42 a3 af 3e 4c 6c 7a 3f 53 65 ba 3d
       0.041358486 0.34304243 0.978215 0.09101357
0000f0 47 51 e2 3f bc 8d ec 3d fd ef c1 3f 08 7c 2d 3d
       1.7681054 0.11550471 1.5151364 0.042354614

fc3.weight f4 [20, 64]
000000 29 58 13 3d 70 f5 27 3c 5f 58 65 bc 9f bf 76 3e
       0.035972748 0.010251388 -0.01399812 0.24096535
000010 04 3c 91 3d 71 c3 cc 3d 08 d2 cf bd 88 d9 4c 3d
       0.07091525 0.09998215 -0.10147482 0.05001214
000020 f4 27 3f 3d 92 16 98 bd 63 3d d0 3e 2d 3e a5 bf
       0.04666896 -0.0742618 0.40671834 -1.29096
000030 b9 28 ba 3e 80 bf 10 bd 23 3b 4e 3e 81 36 8d bf
       0.36359194 -0.03533888 0.20139746 -1.1032258
000040 65 a7 07 3e 86 6e 3a 3d 7a 72 18 3d 07 94 30 3f
       0.1324745 0.04551556 0.03721855 0.6897587
000050 9a c9 ef 3d 95 12 9f 3e b1 1f c7 3e 6d 30 7c 3e
       0.11708374 0.31068864 0.38891366 0.24627848
000060 4b b8 98 3d 7f 6d 10 3e 7a 91 04 be 62 79 3a 3e
       0.07457026 0.1410427 -0.1294612 0.18210366
000070 46 72 cd 3d 69 89 3f 3d 11 ba ab 3e 00 73 b0 3b
       0.100315616 0.046761904 0.33540395 0.005384803
000080 04 57 85 3e 90 d2 07 3f d7 c3 3f be 6f 11 c0 3e
       0.2604295 0.5305567 -0.1872705 0.375133
000090 af 0c 50 bd cb 04 cf 3d 88 69 fb 3e 59 59 43 3d
       -0.050793346 0.10108336 0.4910395 0.04769263
0000a0 71 a3 af be 6e 46 61 39 80 3e 03 be 6c e0 36 bd
       -0.34304383 0.00021483909 -0.1281681 -0.04464762
0000b0 51 92 df 3d 2d 74 c6 bd 03 08 a0 3e 72 2e dc bb
       0.109165795 -0.096901275 0.31256112 -0.006719404
0000c0 e8 c8 f7 3d a4 61 5e 3d e7 e9 b4 3d c1 00 bd 3e
       0.12098867 0.054292336 0.08833676 0.36914638
0000d0 04 38 c3 3d dc 82 f8 3e 1c 2c 21 3d 91 ea 68 3e
       0.095321685 0.48537338 0.039348707 0.2274573
0000e0 d2 07 aa 3d 00 0f f3 3d 5f 43 d4 3d c2 b3 0d be
       0.08302273 0.118680954 0.103644125 -0.13838103
0000f0 4c 35 c2 3e 20 4a bc 3b a4 d6 b4 3e a6 35 5d bd
       0.37931287 0.005746141 0.35320008 -0.05400624
000100 35 6e 73 bd 20 fd 2c 3c 8f 70 d1 bd 92 29 50 be
       -0.059431273 0.010558397 -0.10226547 -0.20328358
000110 8e d3 94 bd b3 12 18 bd 52 a7 ad 3d fc 2f 89 3d
       -0.07266913 -0.037127208 0.084791794 0.066986054
000120 56 4c 9a 3d ee 55 8f bd e5 d5 69 3e 14 cc 65 bf
       0.07534091 -0.06998812 0.228355 -0.89764524
000130 2c 53 95 3e a0 07 96 3c 34 65 cf 3d 59 53 14 bf
       0.29165018 0.018314183 0.10126725 -0.5793968
000140 c0 02 ff 3b 44 0b 8e bd b8 3c 03 be d1 2c 07 3f
       0.0077823102 -0.069357425 -0.12816131 0.5280276
000150 7e 52 bd bd 1b 22 69 3e 79 49 20 3e 74 dc 75 3e
       -0.0924425 0.22766916 0.15653028 0.24009877
000160 f8 c8 b6 3d c5 b1 0f 3d b0 58 53 bd ff 2f 84 3e
       0.089250505 0.035081644 -0.05159825 0.25817868
000170 38 1f 6a bd 25 0b e5 3c a3 5f 8f 3e b8 02 32 bd
       -0.05715868 0.027959416 0.28002653 -0.043459624
000180 8b 1a b7 3d 51 54 ae 3e 0b a9 1e 3d 2a 0b 90 3e
       0.089406095 0.34048703 0.03873543 0.28133518
000190 e2 31 b8 bc 8a 92 10 bd 4f ac c3 3e 2f e2 71 3d
       -0.022484723 -0.035296 0.382174 0.059053596
0001a0 cb 5f b9 be 8c 3c 1a bd 3a a2 83 bd 10 ab 21 3c
       -0.36205897 -0.0376554 -0.06427427 0.009867445
0001b0 9f 37 59 3e 11 87 89 bd 22 7a 8b 3e 33 33 bf bd
       0.21212624 -0.06715215 0.27241617 -0.09335937
0001c0 6e 92 e8 3d c2 15 eb 3d fe 86 b6 bc e9 34 df 3e
       0.11356054 0.11478759 -0.022281166 0.43595055
0001d0 a0 f3 c8 3c 3a dc d5 3d 84 86 1e 3d 6b 0f c4 3e
       0.024530232 0.104423955 0.038702503 0.38293013
0001e0 78 ff ed bc 1a 10 68 3d 14 e5 5f 3e eb 5e 5f 3d
       -0.029052481 0.05665598 0.2186473 0.05453388
0001f0 af a8 d5 3d f7 87 49 bc a7 03 76 3e 75 68 67 3c
       0.104325645 -0.012300483 0.24024831 0.014124026
000200 69 a3 49 3d 60 56 5f bc fc 6e 1c 3c 1c d4 b7 bd
       0.049228106 -0.013631433 0.009547945 -0.089760035
000210 35 9f 81 3d b3 43 26 3c 04 8a f4 3d 40 d9 cd bc
       0.063291945 0.010147977 0.11940387 -0.025128007
000220 b0 b6 91 3d 97 a9 35 be 84 dd f6 3d b6 0f 63 bf
       0.07114923 -0.17740475 0.120539695 -0.8869585
000230 29 d9 f5 3e 20 5c 91 3d dc e2 71 bd cf ad 34 bf
       0.48017243 0.070976496 -0.05905424 -0.7057771
000240 1c 39 c9 3d f4 f3 00 3d 56 7e 40 bc ff 4f be 3e
       0.09825346 0.03148265 -0.011748871 0.37170407
000250 8a cd b4 bd e4 f0 92 3e 67 5d 1c 3e 64 27 63 3e
       -0.08828266 0.2869941 0.15270005 0.22182995
000260 6c c3 35 bd 71 7e 0f bd 1d 6b b5 3d c7 79 e4 3d
       -0.044375822 -0.035032693 0.08858321 0.1115604
000270 3b e0 7f bd 7b 82 2c bd 82 c3 7d 3e 24 d4 b5 bd
       -0.062469702 -0.042116623 0.24781612 -0.08878353
000280 19 7d 88 3e b0 74 c4 3e 10 9c 3f be ce b7 36 3e
       0.26657942 0.38370275 -0.18711877 0.17843553
000290 c3 3e 32 bd 22 c9 23 3e 3b a3 ae 3e 37 a0 42 bd
       -0.043516885 0.15994695 0.3410891 -0.047516074
0002a0 df 9f 1d be 04 55 80 bc a5 ca 7c bd 94 bb 4c bd
       -0.15393017 -0.015665539 -0.061716694 -0.049983576
0002b0 ca 68 8f 3e 06 0a 49 be 85 65 a2 3e 12 03 eb 3c
       0.28009635 -0.1963273 0.31718078 0.028687987
0002c0 e0 fa 6b bd 50 7a 2b bc 0b a4 10 3d f6 93 b1 3e
       -0.0576123 -0.010466173 0.035312694 0.34683198
0002d0 38 9b d6 3d e1 2a 2d 3e 50 7f 64 bc 46 d2 6b 3e
       0.104788244 0.16910888 -0.013946369 0.23029432
0002e0 fc 4a 9d bd fe fe 07 3e d1 de ea 3d 4b 9a e2 3d
       -0.07680318 0.13280866 0.1146828 0.11064585
0002f0 7e 2f 3c 3e 43 a2 0c bd b5 98 82 3e e1 28 0e be
       0.18377492 -0.034334432 0.2550713 -0.13882782
000300 03 6e 16 be c2 4b cf 3d a0 3d 12 bc 87 7e 3d be
       -0.14690404 0.101218715 -0.008925825 -0.18505298
000310 e0 73 e5 3c df 34 f6 3d 04 fd 2d 3d cc cf c6 bd
       0.028009355 0.12021803 0.042477623 -0.09707603
000320 93 07 06 be 3a d7 26 3d ac 01 44 3e 6e 45 51 bf
       -0.13088827 0.0407326 0.19141263 -0.81746566
000330 8a f7 ab 3e d2 af eb bd 88 1f 8c bd 23 63 27 bf
       0.33587295 -0.115081444 -0.068419516 -0.65385646
000340 77 75 4f 3d d2 14 f9 bd 57 92 6b be 62 78 d1 3e
       0.050649133 -0.12162174 -0.23005043 0.40912157
000350 84 3a b6 bd 61 f2 4a 3e 60 67 48 3e bd fb 87 3e
       -0.0889788 0.19819023 0.19570684 0.2655925
000360 36 39 93 3d 0a af 6e 3d 2b 95 f4 3d de 15 42 3e
       0.071886465 0.0582724 0.11942514 0.18953654
000370 a9 93 b1 bd a3 52 96 3d 51 50 52 3e 0e 44 c9 bd
       -0.08670742 0.073399805 0.20538451 -0.098274335
000380 ba 6c ff 3d 55 c6 03 3f 7a 24 af 3d 94 82 59 3e
       0.1247191 0.51474506 0.08551879 0.21241218
000390 04 58 05 3c de e5 82 3c 41 e7 ec 3e 4b 92 53 bd
       0.00813866 0.01597875 0.46270183 -0.051653188
0003a0 df 8b 1e be 46 82 12 3e 53 71 bf bd 6c c3 4e 3d
       -0.15483044 0.14307508 -0.09347787 0.050479338
0003b0 f9 26 92 3e 2a 64 04 bd 10 65 56 3e 14 74 91 3d
       0.2854536 -0.032322086 0.2093699 0.07102218
0003c0 b8 8f 40 3d 78 d6 50 bd 3d 3d 90 3d 30 4c 96 3e
       0.04701206 -0.050985783 0.0704293 0.29355
0003d0 6c b9 c8 bc 53 37 30 3e 3a f7 d8 bd bd 52 9b 3e
       -0.024502479 0.17208605 -0.1059403 0.30336562
0003e0 90 99 d6 3c f3 84 04 bb 08 b9 e0 3d d8 03 b5 3d
       0.026196271 -0.0020220845 0.10972792 0.08838624
0003f0 5b 7c 3f 3e 39 0b 72 3d 4a df 2d 3d 6f 11 b7 3d
       0.18699782 0.059092734 0.042449273 0.08938872

fc3.bias f4 [20]
000000 07 6d a9 3f 5e e0 22 3f 7d b7 e7 3e 95 a0 e9 3e
       1.3236398 0.6362361 0.45257178 0.45630327
000010 b3 19 b4 3e f4 c1 94 3e c7 7c f1 3e f4 a9 89 3e
       0.35175857 0.29054224 0.4716551 0.26887476
000020 9e 11 47 3e ed 50 6c 3e 76 d2 e9 3d 67 05 2c 3e
       0.19440314 0.23077746 0.11417095 0.16798936
000030 2f 40 bc bd 82 cd ca bd 48 10 6f be 4e 0f 52 be
       -0.091919295 -0.09902479 -0.23346055 -0.20513651
000040 d6 98 5e be 5c eb a3 be 14 63 60 be ff 67 0e bf
       -0.2173799 -0.32015502 -0.21912795 -0.55627435

fc1.weight f4 [64, 3]
000000 a3 cf 1f 3f 08 c5 8b 3e 13 40 01 be a3 1b 1e 3f
       0.62426203 0.2729876 -0.12622099 0.6176092
000010 e2 9c e6 3d 2d 5b 15 bd 23 1c f2 bd b9 54 23 be
       0.11260392 -0.036463905 -0.11821773 -0.15950288
000020 12 4f f9 3c 80 ea be bc 31 9c 1c be cf 17 80 ba
       0.030433211 -0.023305178 -0.15293957 -0.000977272
000030 0c cb e7 be 3a b1 b3 3e c4 77 c4 3e bf c3 8a bd
       -0.452721 0.3509615 0.38372624 -0.06775617
000040 7c 91 5f 3e 42 b5 f7 be ce 09 3f be 5b ef e8 3d
       0.21832842 -0.48380476 -0.18656084 0.113737784
000050 f9 c2 aa bb 4e 6d e4 3d 22 01 a8 bc ce 18 b8 be
       -0.005211231 0.11153661 -0.020508353 -0.35956424
000060 f4 30 b6 3d 3a 66 ca 3e 49 8a 84 3e e4 3e 45 3f
       0.08896056 0.39531118 0.25886753 0.7704909
000070 c3 37 e1 be da 19 d1 bd 92 d8 f5 be e9 a5 18 3f
       -0.43987855 -0.10210009 -0.48016793 0.5962816
000080 15 d1 98 be 60 73 da 3d f4 a4 1a 3e d5 3e d5 be
       -0.29847017 0.10666537 0.15101987 -0.416495
000090 ff 42 84 be dd 8e ae 3d a3 3f 94 3d 59 d4 f3 be
       -0.25832364 0.08523343 0.072387 -0.47622946
0000a0 15 50 9b 3e 35 06 41 3d 76 2b 03 be 53 f5 8f 3e
       0.30334535 0.04712506 -0.12809548 0.28116855
0000b0 57 54 a6 bc be 35 11 be 74 f0 de 3e 6e 2b 2c b9
       -0.020303888 -0.14180657 0.43542826 -0.00016419377
0000c0 1f d7 e4 3d 83 fa 87 3e c0 b2 49 be f0 25 9a 3d
       0.111738436 0.26558313 -0.19697094 0.07526767
0000d0 e6 65 3c bf 53 75 8b 3e 26 d0 bf 3e 9b 49 10 bf
       -0.73592985 0.2723795 0.37463492 -0.56362313
0000e0 25 ce 03 bf eb 48 7d 3c d5 e0 87 3e c5 2b db 3e
       -0.51486427 0.0154592795 0.2653872 0.4280683
0000f0 dc 46 10 3f 15 95 37 3f ff d5 11 3f 91 40 6b be
       0.5635812 0.71711856 0.5696716 -0.22973849
000100 24 a8 c6 3d 24 71 d3 3d 1c 75 16 3e 61 a1 80 3e
       0.09700039 0.10324314 0.14693111 0.25123122
000110 64 f0 01 bd 36 bf 65 3e c0 a1 f4 be 0e 9d 05 bf
       -0.031723395 0.22436222 -0.47779655 -0.5219277
000120 c2 44 d2 be e1 ef 27 3f e7 14 60 bd 70 05 8d 3e
       -0.41068083 0.656004 -0.054707434 0.2754321
000130 88 c8 1a 3f c4 a4 18 be b9 8a b8 be 0d 48 09 be
       0.60462236 -0.14906603 -0.36043337 -0.13406391
000140 8a 5c 8c be 22 58 ba 3e c1 57 0b bf 5d 25 d8 3e
       -0.27414352 0.36395365 -0.54430777 0.42216006
000150 14 b5 d6 be 49 b4 d4 be 94 29 22 be f5 1f 44 be
       -0.41935027 -0.41543797 -0.15836173 -0.19152816
000160 77 d2 cb be 24 a4 8f 3e 54 a1 5a be 05 77 e7 be
       -0.3980901 0.28054917 -0.21350604 -0.45207992
000170 83 9e 0c bf 0e 6b 19 bf d7 62 0c 3d 52 1f 07 be
       -0.5492937 -0.5992898 0.03427395 -0.13195542
000180 8d 5f b0 3e 46 72 bd 3e 60 37 8d 3e 82 64 93 3e
       0.344479 0.37001246 0.2758131 0.2878762
000190 db ef c0 3e 58 a7 8a 3e 8b 02 b8 be 92 de b5 bd
       0.37682995 0.27080798 -0.3593944 -0.088803425
0001a0 0b 44 43 3e e1 49 5d be de 44 4b 3c 87 58 0e bf
       0.19068925 -0.21610214 0.012406556 -0.5560383
0001b0 c1 f6 ff 3e 07 53 40 3d 6d c4 59 bd 21 14 8e 3e
       0.49992946 0.04695418 -0.05316584 0.27749732
0001c0 3f bf 83 3e aa 1c c4 3d 6a 4d cd be 5f c9 c6 bd
       0.25731847 0.0957578 -0.40098125 -0.09706377
0001d0 1b ed 63 3e 4d d9 f0 be 6e 59 27 be 9a 34 81 be
       0.22258417 -0.47040787 -0.16342708 -0.25235444
0001e0 b4 ef da be 6e f8 88 3d e2 c8 13 bf b8 b7 85 bd
       -0.42761004 0.06688009 -0.577284 -0.06529182
0001f0 14 88 3a be 7d a2 9e 3d 2a e7 28 bf a6 de 37 3e
       -0.18215972 0.07745836 -0.6597773 0.17956027
000200 c4 8c 92 3d ef 75 3e 3e e0 08 8f be a8 5e f6 3d
       0.07155755 0.18599676 -0.2793646 0.12029773
000210 3e 21 00 be aa fc 05 3f db be 9f 3e b3 dc 23 3e
       -0.12512681 0.5233866 0.312003 0.16002159
000220 09 77 09 3e e2 b1 2f 3d e1 28 f8 3c 84 5a e0 bd
       0.13424315 0.04289425 0.03029293 -0.109547645
000230 93 81 b6 be bb 89 6d be 01 20 92 bd a1 50 ec 3d
       -0.35645732 -0.23197071 -0.071350105 0.11538816
000240 86 70 10 bf 26 9f e0 bd 9f e4 90 3e f7 23 5b be
       -0.564217 -0.10967855 0.28299424 -0.21400438
000250 35 70 67 3f 23 7d 96 3d f4 fb a4 be 68 9d dd 3e
       0.9040559 0.07348087 -0.32223475 0.43284154
000260 9c bd a1 bd de db 10 3f 2e 51 fd 3e 81 bd da bd
       -0.07897493 0.5658549 0.49475998 -0.10680676
000270 2f d5 2f 3f de 28 f8 be 4e 98 1a 3d 15 70 8f 3e
       0.6868467 -0.4846868 0.037742905 0.280152
000280 77 08 2f be 98 f2 f2 3d 3d b5 c5 be f6 6e 0f bf
       -0.17093073 0.11862677 -0.38614836 -0.5602869
000290 bf 9c 12 be 44 62 29 3f 93 b8 93 3e 1d 77 42 bd
       -0.14317606 0.66165566 0.28851756 -0.047476877
0002a0 47 b3 eb 3e 15 0c e4 be 4c 18 56 3e 92 ae 8f 3e
       0.46035215 -0.44540468 0.20907706 0.28062874
0002b0 bb cd 61 3e 0d 6f b4 be d3 99 d6 3e c6 bb b9 3e
       0.22051136 -0.35240975 0.41914234 0.36276072
0002c0 0d 90 8f 3e d9 d9 38 3e 97 e3 bb be 43 0f 58 be
       0.2803959 0.18051852 -0.36697075 -0.21099572
0002d0 ff 9f 0f 3f 41 19 43 3d 97 5f bc bd fa 32 c8 3e
       0.5610351 0.047631506 -0.0919792 0.39101392
0002e0 58 c5 d4 3d c5 e6 1d bd 82 2e f6 bd 0f 89 da be
       0.10389203 -0.038550157 -0.120205894 -0.42682692
0002f0 73 0a b5 be 4f 5a c3 3e e3 1e ce be c4 03 be 3e
       -0.35359535 0.38154837 -0.4025794 0.37112248

fc1.bias f4 [64]
000000 17 09 03 3f a9 3a 09 40 54 c6 52 40 0e fe 4a 40
       0.51185745 2.1442053 3.293355 3.1717563
000010 44 2e 69 3e 65 f6 18 40 df 70 3d 40 a7 b9 11 40
       0.22771555 2.3900387 2.960014 2.2769563
000020 07 6c e5 3f 1b 1e 1d 3f cd e6 13 40 19 a2 58 40
       1.7923592 0.6137406 2.310962 3.3848937
000030 33 23 11 40 ba bf 32 40 07 a4 36 40 80 7e 0f 40
       2.2677734 2.792952 2.8537614 2.242096
000040 a7 72 1a 40 14 52 6e 3d 48 f2 26 bd 5c e2 d2 bc
       2.4132478 0.058183745 -0.0407584 -0.025742702
000050 4b 68 f2 bf 01 2a e7 3f e9 96 11 40 7e 47 0b bf
       -1.8938078 1.8059694 2.2748358 -0.54405963
000060 21 87 0a 3e ed cd b6 3f ad 96 87 be 2d c2 b0 bf
       0.1352811 1.4281594 -0.26482144 -1.3809258
000070 5f d4 5e 3d 50 f4 16 c0 14 56 ff be cd f1 e9 be
       0.05440175 -2.3586617 -0.4987036 -0.45692292
000080 37 ec ce be 32 93 2a 3f 46 74 06 c0 e7 6b ff be
       -0.40414593 0.6663085 -2.1008468 -0.4988701
000090 2c f3 a2 3f 63 26 d8 3f a4 e1 0c c0 a4 3d 88 be
       1.273046 1.6886715 -2.201272 -0.26609528
0000a0 5c 3c fd be 88 e6 39 40 93 12 0a 40 40 90 88 bf
       -0.49460113 2.9046955 2.1573837 -1.0669022
0000b0 49 2c 36 bf af f6 07 40 4d 48 ad be 4a 2f 1e 40
       -0.71161324 2.1244314 -0.33844224 2.4716363
0000c0 8c 17 94 bf 77 3d ae bf b4 eb 49 3f 6f 99 10 40
       -1.1569686 -1.3612508 0.7887528 2.2593648
0000d0 0f 1b c8 3f 31 c6 a3 3f 82 dd f3 be 6c 57 00 40
       1.5633258 1.2794858 -0.47629935 2.0053358
0000e0 a1 c2 b3 3f eb 3f 50 40 82 33 aa 3f 0e d4 bf bd
       1.4043771 3.2539012 1.3296969 -0.09366618
0000f0 8c 27 f0 3f 37 1d e2 3f 9b a2 8e be af 5a 83 bf
       1.8762069 1.7665166 -0.27858433 -1.026205

fc2.weight f4 [64, 64]
000000 b0 94 e3 bc 74 b5 50 bc ec fb d3 3b 9a 36 f1 bd
       -0.02778086 -0.012738574 0.0064692404 -0.117779925
000010 5c fb 24 bd 21 0d a6 bd 1d 7f af 3c 89 06 2a be
       -0.040278777 -0.08107973 0.021422917 -0.16604055
000020 b0 d4 b5 3c 3d 35 41 bd b2 70 1b bd 96 34 83 3d
       0.022196144 -0.047169913 -0.03794927 0.06406514
000030 dc de cd 3c 3e 4a 7b 3d f7 a8 0d be 4f f7 07 be
       0.025130682 0.0613501 -0.13833986 -0.13277934
000040 6f 18 78 bd 3f 6d 86 bd e8 1f 7a 3d af 30 be 3d
       -0.060570177 -0.06563806 0.061065584 0.092866294
000050 d2 68 4d 3d 76 70 5e 3d 88 c4 a8 3c 28 ea 21 bd
       0.050148793 0.05430647 0.020601526 -0.03952995
000060 78 d2 a1 bd c1 1a 8c 3d 47 ef 07 bd 5c 59 f7 bd
       -0.07901472 0.068410404 -0.033187177 -0.12077591
000070 a4 d6 ac 3d 9b c3 7b 3d 6c e3 34 3d c8 5f e4 3c
       0.08439377 0.06146584 0.0441622 0.027877703
000080 c3 f4 e4 3d ff 09 98 bd f8 5c 7c bb 83 84 f4 bc
       0.11179497 -0.074237816 -0.0038507562 -0.029848343
000090 27 8b 04 be 38 6c 8e 3c ff 28 c8 3d e8 86 c5 3c
       -0.12943707 0.017385587 0.097734444 0.02411218
0000a0 3c f6 ff 3c 4d e8 f0 bd d8 d0 67 3d a3 67 25 bc
       0.031245343 -0.11763058 0.056595653 -0.01009551
0000b0 6e be 79 bd 3b 58 a8 bd cc 23 0a 3d f9 4c ec bd
       -0.060972624 -0.082199536 0.033725545 -0.11538119
0000c0 18 b8 c6 bd 16 0c b7 3d 05 68 de 3c 08 23 f5 bc
       -0.09703082 0.08937852 0.02714921 -0.02992393
0000d0 1e 4f b3 bd 3a c3 b8 bd 40 35 89 bd cd db 2c 3d
       -0.08755325 -0.090216115 -0.0669961 0.042201806
0000e0 dc 03 b0 bc a7 59 cf 3c af e6 9d bd 7a 9e b1 bd
       -0.021486215 0.025311304 -0.07710015 -0.08672805
0000f0 08 26 95 bd da 2b cb bd 4c 83 84 bd 29 5e 4e bd
       -0.072826445 -0.099204734 -0.064703554 -0.050382767
000100 7d a7 88 3d f2 c0 dd 3d 81 4b 34 bd 4c e9 cf bd
       0.06672571 0.10827817 -0.04401732 -0.1015192
000110 1e ab 08 bd bb ea e1 3b 3d ea 98 bd 72 83 10 bd
       -0.033366315 0.006894437 -0.074665524 -0.035281606
000120 1e ae bb 3d 80 00 d5 3a 42 64 6f 3c 78 5e 09 bd
       0.091640696 0.0016250759 0.014611306 -0.033537358
000130 a9 fa 21 3d 0b 7d df bc 59 b2 64 bc e6 58 99 3d
       0.03954569 -0.027281305 -0.013958537 0.07487659
000140 2b 9c 43 3d f6 61 a4 bd 04 0f dc 3d 73 b9 8a bd
       0.047756355 -0.08026497 0.107450515 -0.06773653
000150 76 58 64 bd 9f 5e 83 bc 4a 81 ce bc 14 d5 b0 bd
       -0.055748425 -0.01603633 -0.025208134 -0.086343914
000160 ed 10 b9 bd e3 b2 b5 3d 72 d3 a7 bc c8 0d f1 3c
       -0.090364315 0.088720106 -0.020486567 0.029425517
000170 e4 e3 31 3d f0 9f 9b 3c b2 52 b8 bd 46 97 f9 3d
       0.043430224 0.018997163 -0.09000148 0.12187056
000180 76 87 aa 3d 58 68 58 3d b8 90 54 3c 0c 7d e8 bd
       0.083266184 0.052833885 0.012973957 -0.11351976
000190 0f 0d aa bd d1 e2 f9 bd 00 d9 d8 ba ec 5f 00 3d
       -0.08303272 -0.12201465 -0.0016544163 0.03134148
0001a0 46 91 ed 3d 20 00 b8 bc 57 42 34 3c 32 65 e7 3d
       0.11599974 -0.022460997 0.011002145 0.11298598
0001b0 9a b6 f4 bd 54 df 47 bd 78 80 13 bd b6 3e 5d 3d
       -0.11948891 -0.048796967 -0.03601119 0.054014884
0001c0 a0 7b e9 bd 1e 7b 76 bd 0b ae a4 bd a6 e9 ab bc
       -0.11400533 -0.060176007 -0.080410086 -0.020985436
0001d0 c0 d0 a7 3b 43 38 6f 3d bc 7c 68 bd 76 5b a8 bd
       0.0051213205 0.058403265 -0.05675958 -0.0822057
0001e0 97 e1 c0 3c 8e 2f f5 bd 14 cc 61 bd 89 76 68 3c
       0.02354507 -0.11971961 -0.055126265 0.014188417
0001f0 5a bf b3 bd 96 f0 dc bd 40 68 e5 bd 8a 16 99 bd
       -0.08776732 -0.107880756 -0.11201525 -0.07475002
000200 c3 a4 05 be fa 68 ba bd aa 2f 39 3d e2 0f 8b bd
       -0.13051133 -0.09102054 0.04521147 -0.06790139
000210 a2 7c 9c bd b7 dc c2 3d 27 64 ed bd 6b f3 77 3d
       -0.07640959 0.09514754 -0.11591368 0.060534876
000220 60 ce 70 bd 93 49 88 bd 0f e9 e8 3d 36 12 41 3b
       -0.058790565 -0.06654658 0.113725774 0.0029460317
000230 bb 55 a6 bd 55 7f cf bd 4e 12 e2 3d e1 4d 24 3d
       -0.081218205 -0.101317085 0.110386476 0.040113334
000240 0f a9 66 bd 35 d4 dd bd 08 28 e2 bd 28 03 d9 bb
       -0.05631357 -0.10831491 -0.110427916 -0.0066226907
000250 88 8b 20 3d 9c ee 62 bc e0 13 76 3d 50 19 d0 3d
       0.039195567 -0.013850834 0.060077548 0.10161078
000260 40 8c 1e bb b6 00 84 3d e0 12 a7 3c f4 55 18 bd
       -0.0024192482 0.06445448 0.020394742 -0.037191346
000270 ac 6d f5 bd f7 b1 12 be c4 27 d4 bd 7c 39 bc 3d
       -0.11983809 -0.143257 -0.10359147 0.09190652
000280 1d 29 79 3c 79 3f 91 3c 78 88 d3 bd 9a 56 c8 bd
       0.015207556 0.017730461 -0.10328764 -0.09782143
000290 e3 ed b1 bd 17 52 99 3c f0 43 5f 3c fa 27 be bd
       -0.086879514 0.018715901 0.013627037 -0.09284969
0002a0 c0 11 82 3b 19 ad d8 3c c8 8e e2 bd be 34 17 bd
       0.003969401 0.026449727 -0.110623896 -0.036915533
0002b0 66 10 1e be 6b 74 07 3c 66 5c a5 bd a7 cf 05 be
       -0.15435943 0.008267502 -0.08074264 -0.13067494
0002c0 f9 14 e1 bc e3 af 7e bd ab 5e 9b bd 4d 8a 61 bd
       -0.02747582 -0.062179457 -0.07586416 -0.055063535
0002d0 b0 93 f7 3d ee 5e 04 be b4 ad b4 bd 0a 0a ad 3d
       0.12088716 -0.12926838 -0.08822194 0.084491804
0002e0 ed 5b 11 3d f3 f1 84 3d db 71 34 bd 24 ed 33 3d
       0.035488058 0.06491461 -0.044053894 0.043927327
0002f0 f9 47 0e bd c6 4d 31 bd 47 63 e6 bd 14 c0 9d bd
       -0.034736607 -0.04328706 -0.112494044 -0.077026516
000300 ef 26 48 be c5 1a 7e be 71 a6 0d 3e d2 d2 2b 3f
       -0.19546102 -0.248149 0.13833024 0.6711856
000310 7d 2b c0 bd d5 23 8b 3f b6 ec 23 3e 60 eb 9c 3f
       -0.09383295 1.087031 0.16008267 1.2259331
000320 3a 6e f4 bc 34 43 58 be 4d 86 24 3f 9d 27 b6 3f
       -0.029837716 -0.21119386 0.64267427 1.4230839
000330 a9 de 21 be eb 97 4c be 19 0d 0a 3e 7c 2b 51 be
       -0.15807594 -0.19979827 0.13481559 -0.20426744
000340 04 ea fa 3e 98 cb 27 bd b8 b4 c2 3c 98 c4 9f bc
       0.49006665 -0.040965647 0.023767814 -0.019502923
000350 5d 97 52 bd fd 85 d5 bd 20 90 43 bc 1a 5a b7 3d
       -0.051413883 -0.10425947 -0.011936218 0.089527324
000360 3c 14 e6 be f8 51 e4 3d 18 b6 0b 3d 59 fc d9 3b
       -0.44937313 0.11148447 0.034109205 0.0066523966
000370 00 c4 31 bd c0 51 1c 3d 60 db 40 bd c0 15 6a 3d
       -0.04339981 0.0381639 -0.047084212 0.05714965
000380 f2 25 01 3b ee be 71 bd 6f 68 17 3e 7e c7 e4 3d
       0.0019706455 -0.059019975 0.14785932 0.111708626
000390 02 9c 6d be 96 a5 94 3c 96 c2 4d 3d 90 32 e0 bc
       -0.23204044 0.018145364 0.0502344 -0.02736786
0003a0 00 0a ba 3c 72 6a c5 bd 09 42 6d be 70 59 b8 bc
       0.022709846 -0.096394435 -0.23169722 -0.022503585
0003b0 fb 27 3a bd 83 68 a9 bd 8c b2 33 3d e8 ac 84 3d
       -0.045448285 -0.08271887 0.043871447 0.06478292
0003c0 2b 64 1f bc 8b b8 29 bd d0 80 0f be 2d cf 59 be
       -0.009728472 -0.04143576 -0.14013982 -0.21270438
0003d0 7c 05 24 be 16 1c 18 be ea 6a df 3d f0 ad fa bd
       -0.16017717 -0.14854464 0.10909064 -0.12240207
0003e0 d5 07 90 bd a0 d3 98 3f 30 ec f4 bd 72 eb 8c 3d
       -0.07032744 1.1939583 -0.11959112 0.06880845
0003f0 15 d9 ac 3e 97 91 6c be d8 4d 6e 3d 0a 2e de bb
       0.3375937 -0.23102413 0.058179706 -0.0067803906

fc2.bias f4 [64]
000000 38 3d ba bd 2f 7f bb 3d 01 96 84 3d 8c a8 b8 3e
       -0.09093708 0.09155118 0.064739235 0.3606609
000010 7b 47 97 bd b0 a4 27 3d 5e 83 ec bd 89 d7 fb 3d
       -0.07386681 0.040928543 -0.11548494 0.122969694
000020 34 1f af 3e bc d4 08 be c5 0b a0 3f 50 bb f2 3f
       0.34203494 -0.13362402 1.2503592 1.8963413
000030 0e 26 89 3f 16 6f 90 bd 54 e0 52 3f a1 7d 71 3f
       1.0714738 -0.07052438 0.8237355 0.9433232
000040 f7 9c 3d 3f d2 de ac bd 77 43 60 3e af a3 c9 3f
       0.74067634 -0.08440937 0.21900736 1.5753077
000050 c0 4f a7 bc df a7 2d 3f c9 33 c2 3f a0 a0 a9 3f
       -0.02042377 0.67834276 1.5172054 1.3252144
000060 4e 43 36 3f 4f 96 1b bb fc e3 e7 bd 3a e6 97 3f
       0.7119645 -0.0023740714 -0.113227814 1.1867135
000070 ff e6 72 3d fb c4 f8 bd c6 2c 92 3f 22 42 82 3a
       0.059302326 -0.12146946 1.1419914 0.0009937922
000080 fb 94 aa 3f d8 44 ec 3f b9 2c b6 be 27 f9 b8 3f
       1.3326715 1.845851 -0.35580996 1.4451035
000090 4b 5f ef bd a4 17 fc 3e 0e 60 af 3f b6 fb dc 3e
       -0.116880976 0.49236786 1.3701189 0.4316079
0000a0 02 64 89 3f ca 18 fb 3e 30 a6 78 3d b0 6b 8f bd
       1.0733645 0.4904235 0.060705364 -0.07002962
0000b0 34 e2 6c 3f 9a c8 1c be 9a 60 23 3f 43 52 f5 bd
       0.9253266 -0.15310898 0.6381928 -0.11978581
0000c0 b5 19 44 3d 68 0d 0f 3d 43 4d 6e 3c 2a 41 81 3f
       0.04787608 0.034924895 0.014544788 1.0098011
0000d0 e6 a9 19 3f 23 49 ad 3f 0c fe cc bd 60 96 a0 3f
       0.6002487 1.3537945 -0.10009393 1.2545891
0000e0 84 67 29 3d 1d 33 9c 3e 3c 71 6f 3f a4 5e 71 3d
       0.041358486 0.30507746 0.93532157 0.058928147
0000f0 a2 94 c9 3f c4 70 44 3e 9c e5 a9 3f f9 72 0a 3e
       1.5748484 0.19183642 1.3273196 0.13520421

fc3.weight f4 [20, 64]
000000 dc 31 27 3d 70 f5 27 3c 11 9e 65 bc c1 1f 31 3e
       0.040819034 0.010251388 -0.014014737 0.1729727
000010 7c 3b 8d 3d c1 92 cb 3d 08 d2 cf bd 88 d9 4c 3d
       0.06896111 0.099401005 -0.10147482 0.05001214
000020 37 46 ee bb ac 4d 6a bd 85 63 9c 3e b5 59 8a bf
       -0.007271554 -0.05720298 0.30544677 -1.0808626
000030 43 1d 91 3e 80 bf 10 bd 6b d2 32 3e 4d 83 5b bf
       0.28342637 -0.03533888 0.1746308 -0.85747224
000040 10 84 db 3d a3 18 30 3d 63 1a c4 3c 7d 8b 14 3f
       0.10718548 0.042992245 0.023938363 0.5802534
000050 9a c9 ef 3d 41 7e 80 3e 48 ad a5 3e 11 66 5a 3e
       0.11708374 0.25096324 0.32358766 0.21327998
000060 b1 2c 8d 3d b7 f2 0e 3e 71 4c 04 be 95 bc 19 3e
       0.0689329 0.13959776 -0.12919785 0.15013345
000070 09 1b f4 3d 50 c3 2a 3d 57 64 92 3e 00 73 b0 3b
       0.11919219 0.04169017 0.28592178 0.005384803
000080 08 c9 58 3e 1b 81 ec 3e 2d cb dd bd ab 58 a0 3e
       0.21170437 0.4619225 -0.10829768 0.31317648
000090 77 b2 52 bd f3 46 81 3d a9 2e dc 3e b7 04 0e 3d
       -0.05143973 0.063123606 0.4300435 0.034672465
0000a0 ad 34 6e be 5b b7 00 bb 75 8a 00 be 6c e0 36 bd
       -0.23262282 -0.0019640538 -0.12552817 -0.04464762
0000b0 b0 50 b0 3d d0 af 98 bd 24 15 83 3e 13 d4 f2 bb
       0.0860914 -0.074554086 0.25602067 -0.007410535
0000c0 e8 c8 f7 3d a4 61 5e 3d 8a 17 b4 3d 12 1e 9b 3e
       0.12098867 0.054292336 0.08793552 0.3029638
0000d0 ff 94 91 3d 8a 5a cc 3e 4c 2c 21 3d ee 2d 31 3e
       0.07108497 0.39912826 0.039348885 0.17302677
0000e0 d2 07 aa 3d 80 be d4 3d f5 43 b7 3d 75 0c 06 be
       0.08302273 0.103878975 0.08948509 -0.1309069
0000f0 35 77 a2 3e 36 93 02 3c 57 18 96 3e 5a 3d 2a bd
       0.31731573 0.007969668 0.29315445 -0.041562416
000100 90 2c 7a bd 20 fd 2c 3c 21 b3 cd bd c3 97 41 be
       -0.061077654 0.010558397 -0.10043932 -0.18905549
000110 8e d3 94 bd a7 0d 1b bd a7 a7 ad 3d fc 2f 89 3d
       -0.07266913 -0.037854817 0.08479243 0.066986054
000120 41 a5 87 3d 21 3d ab bd 2f 68 69 3e 5d 31 47 bf
       0.066233166 -0.08361269 0.22793649 -0.778097
000130 14 e0 6c 3e a0 07 96 3c a5 31 b9 3d 5b e3 f5 be
       0.23132354 0.018314183 0.09042672 -0.4802502
000140 5f 90 61 bc eb 2c 89 bd 29 25 db bd 81 76 f9 3e
       -0.013767331 -0.066980205 -0.10700447 0.48723224
000150 7e 52 bd bd ee e1 22 3e 29 10 14 3e 17 c5 52 3e
       -0.0924425 0.15906498 0.1445929 0.20582996
000160 17 ec a8 3d 32 bd 0b 3d 5e 5b 54 bd d2 69 6a 3e
       0.082481556 0.034115978 -0.051844947 0.2289193
000170 be 15 aa bd fe 40 a2 bb f7 84 78 3e b8 02 32 bd
       -0.08304928 -0.0049515953 0.24269472 -0.043459624
000180 de 93 6f 3d ac ad 95 3e 45 82 2f 3d 16 3b 8a 3e
       0.058490627 0.29234064 0.042848844 0.26998204
000190 f8 f3 bd bc 8c 42 19 bd 44 c1 a4 3e 16 b9 f9 3c
       -0.023187622 -0.03741698 0.321787 0.030483764
0001a0 d5 ef 97 be 37 1e 4e bd 16 f0 8a bd 10 ab 21 3c
       -0.29675165 -0.050321784 -0.06784074 0.009867445
0001b0 c5 2c 43 3e 8b ac c8 bd 9f 7d 5f 3e 0b f9 c0 bd
       0.19060047 -0.09798535 0.21825264 -0.09422501
0001c0 6e 92 e8 3d 6b 16 eb 3d a6 12 b9 bc e5 74 b9 3e
       0.11356054 0.11478885 -0.0225919 0.36221996
0001d0 b7 e6 61 3c f6 b8 dd 3d 84 86 1e 3d 8e c2 a0 3e
       0.013787917 0.10826294 0.038702503 0.31398433
0001e0 78 ff ed bc fc 4c d5 3a 01 48 48 3e a2 fa 33 3d
       -0.029052481 0.0016273553 0.19558717 0.043940194
0001f0 c7 85 af 3d 49 1a 1d bd 61 a2 61 3e d5 d8 34 3c
       0.08570438 -0.038355146 0.22034599 0.011038025
000200 a7 1e 50 3d 91 56 5f bc 14 e4 3d 3c 86 48 df bd
       0.050810482 -0.013631479 0.011590023 -0.109025046
000210 ad a0 85 3d 1a 04 1c 3c 04 8a f4 3d 40 d9 cd bc
       0.06524787 0.009522462 0.11940387 -0.025128007
000220 64 11 70 3c 0a 89 11 be 7e c5 ab 3d 71 3a 4c bf
       0.014652584 -0.14212433 0.08387278 -0.79776675
000230 72 3a d6 3e 20 5c 91 3d 90 a6 61 bd b1 a1 0e bf
       0.41841465 0.070976496 -0.055090487 -0.5571547
000240 c0 62 9c 3d f4 f3 00 3d bf 38 82 3c e9 ec 9a 3e
       0.076360226 0.03148265 0.0158962 0.30258873
000250 8a cd b4 bd de fa 5d 3e 81 e5 f4 3d f4 da 4a 3e
       -0.08828266 0.2167773 0.11957837 0.19810086
000260 97 4c 48 bd b6 96 0f bd 26 df b4 3d 9a 0b b9 3d
       -0.048901167 -0.03505584 0.08831625 0.09035416
000270 0b 26 10 bd 49 8d 3d bd 16 48 65 3e 24 d4 b5 bd
       -0.03519253 -0.04627732 0.2239078 -0.08878353
000280 b5 a6 7d 3e f2 06 a9 3e d8 95 24 be c5 74 20 3e
       0.24770625 0.3301311 -0.16072786 0.15669544
000290 1b cf 34 bd 14 2c b9 3d 12 73 90 3e 26 f3 da bc
       -0.044142824 0.0904161 0.28212792 -0.02672727
0002a0 27 1f 1c be 45 bc c5 bc f4 e3 81 bd 94 bb 4c bd
       -0.15246259 -0.024137625 -0.06342307 -0.049983576
0002b0 1a ea 88 3e 41 28 14 be 3f 48 87 3e 2e a5 e4 3c
       0.26741105 -0.1446848 0.26422307 0.027910795
0002c0 e0 fa 6b bd 50 7a 2b bc 8b a2 0f 3d 58 5f 85 3e
       -0.0576123 -0.010466173 0.035067122 0.26049304
0002d0 c6 ab e9 3d e7 31 16 3e 50 7f 64 bc 98 7e 2e 3e
       0.11409716 0.14667474 -0.013946369 0.17040479
0002e0 fc 4a 9d bd 91 f0 d6 3d cb c4 bb 3d 8e df c1 3d
       -0.07680318 0.10495103 0.09168395 0.09466468
0002f0 0f f8 1c 3e 9c 8c 0d bd c2 2b 66 3e fa 6e 08 be
       0.15329002 -0.034557924 0.2247763 -0.13323584
000300 66 95 0f be c2 4b cf 3d 3c f3 0d bc 7e 44 a9 bd
       -0.14021835 0.101218715 -0.008663949 -0.08265017
000310 e0 73 e5 3c 72 ba f4 3d 97 fd 2d 3d cc cf c6 bd
       0.028009355 0.11949624 0.04247817 -0.09707603
000320 f4 04 ee bd c4 1d a9 3c ef 0f 37 3e c4 ea 36 bf
       -0.116220385 0.020644076 0.17877172 -0.71451974
000330 7f 13 94 3e d2 af eb bd 43 12 af bd c1 e9 06 bf
       0.28921124 -0.115081444 -0.08548405 -0.5270043
000340 8f 66 2b 3d 9f 37 f4 bd 87 9d cb bd 7a 64 b4 3e
       0.041845854 -0.119246714 -0.09942155 0.35232908
000350 fe 3a b6 bd a5 f7 27 3e 77 d9 21 3e f0 fe 5a 3e
       -0.088979706 0.16403063 0.15805613 0.21386313
000360 f9 4c b3 3c 45 75 6a 3d d6 e5 f3 3d 27 e6 1b 3e
       0.02188729 0.057240743 0.11909072 0.15224515
000370 fa 1b d2 bd 66 a1 ab 3d 43 4e 0f 3e 0e 44 c9 bd
       -0.10259242 0.08380394 0.13994698 -0.098274335
000380 c6 b8 c3 3d ff 21 e4 3e 56 1b ef 3c 6f de 23 3e
       0.09556727 0.44557187 0.02918784 0.1600282
000390 fb 06 f4 3b 22 ea 98 3d 19 5d c0 3e 34 4a 8b bd
       0.007447121 0.07466532 0.37571028 -0.068012625
0003a0 4b 35 8e bd 8e 28 05 3e 51 1c c0 bd 6c c3 4e 3d
       -0.069437586 0.13003752 -0.09380401 0.050479338
0003b0 3e d8 67 3e f2 90 9f bd 88 cf 3f 3e d6 d9 8f 3d
       0.22641084 -0.07791318 0.1873151 0.07023971
0003c0 b8 8f 40 3d 78 d6 50 bd 1c 9d 8f 3d 91 03 73 3e
       0.04701206 -0.050985783 0.07012388 0.23731829
0003d0 d5 ab 4d bd cd f5 fe 3d 3a f7 d8 bd 83 18 76 3e
       -0.0502127 0.124492265 -0.1059403 0.24032788
0003e0 90 99 d6 3c ec 8e 6d 3d c6 ef 9d 3d 98 e3 85 3d
       0.026196271 0.05799763 0.07711749 0.06537551
0003f0 4b 7b 22 3e 08 0c 1a 3d e1 4b 24 3b 61 2d 02 3b
       0.15867345 0.03760913 0.0025069641 0.0019863474

fc3.bias f4 [20]
000000 c7 11 94 3f f7 8b 14 3f f1 ba cf 3e 20 af c6 3e
       1.1567925 0.5802607 0.40572312 0.38805485
000010 b1 48 9a 3e 1a 95 7a 3e 26 88 d7 3e 24 8b 6a 3e
       0.30133584 0.2447094 0.4209606 0.2290464
000020 4c a2 22 3e 7b 2a 4c 3e 20 f1 59 3d 69 f4 14 3e
       0.15882224 0.1993808 0.05320847 0.1454636
000030 06 c7 f7 bd 22 8f e4 bd 33 c2 7f be 0b 41 6f be
       -0.120985076 -0.11160113 -0.24976425 -0.23364656
000040 70 77 85 be 12 79 c4 be 4e b5 89 be 8c a3 11 bf
       -0.26067686 -0.3837362 -0.26896137 -0.5689018
