models/dqn_agent_firm_1_episode_500.pth (torch, 438010 bytes, 32 tensors)

fc1.weight f4 [128, 3]
00000000: 7b2b 4d3d c1f9 933e 9ba7 91bc f1ef 2c3e
00000010: e309 06bf 578c edbe ee79 843e 76a1 0e3e
00000020: 3307 243e 753e 073e e98b 3f3e a20b 6ebe
00000030: 6099 4cbe 3763 fe3e b895 25be b57e 933c
00000040: 5330 01bf b6a8 fabe 04e7 8ebe 3504 a33e
00000050: f2c3 b73d 1dbc 0cbf ffbb e1be ad4b efbd
00000060: 6ef3 b7be 5082 10be 34f9 6b3e 152d 993e
00000070: 72f1 81be 07da 623d 5f71 80be 4cdc 83bd
00000080: c3f3 c1be e768 4c3e dff9 d93e a577 a23d
00000090: 6834 cebe 7b87 a5be a0db 02bf 6094 8d3e
000000a0: c910 b13d b635 b63d 4087 d33e eee8 0cbf
000000b0: 3a42 f6be e738 d4be 304f 89be f009 61be
000000c0: eeb1 acbe 47a9 03bf 0fe7 803e 4d5f acbe
000000d0: 5051 27bf 4d2b 133b 66a2 a7be 4f7b b0be
000000e0: 60dd 49be 7e1c f5bd deec b63d 36e5 bd3c
000000f0: 9942 94bc a0fa 6f3e 6112 4abc e9de f0be
00000100: e727 073f 739f a2be c7e8 173f 9b4b 033e
00000110: a2ba a03d ccb3 fdbe 3eb6 323e 4a4a 5f3d
00000120: 208e 9d3e 04ad 75be 327f 1c3d ddce b3be
00000130: 4a65 b4be 6e2e 0abf e5ea a23d a0e3 7b3e
00000140: fa4a 9d3d c3db 42be ee8d bc3e f7d4 2abe
00000150: f09a 193e 974e dabc 5ea1 aebe ca82 54be
00000160: ce23 d83e a2ae 26bf ca1c 763e adb4 ccbe
00000170: 3e3f 5d3e a566 483e 9787 07bc 714c 5ebe
00000180: e909 f9be 3964 d3be 351a 0dbe 5fb5 00be
00000190: 3dd4 b43d 7ff5 743b 4361 ca3d 3ed2 ccbe
000001a0: e1f6 6b3e e78a 5dbe dd91 1bbf 4550 bc3d
000001b0: a7ce f8be a644 1abd 6121 233e d2ba 2d3c
000001c0: 8a37 d8be d317 0a3e e571 1a3e 06b1 39be
000001d0: 9f1e 41bf fdcc 18bf 9d3a 90bd ae16 6c3e
000001e0: 9279 b43e ffa7 b7bc 1bb6 d9bd f58c 5dbe
000001f0: 5a85 8bbe 7677 e6be 5518 133e 1745 383e
00000200: 6a17 373e c65b 8d3e 923b ddbc 4c13 36bf
00000210: 0b18 13bf 29a7 3f3e 3d73 3d3e 8fb0 393e
00000220: 0d20 91be c985 4c3c e73d 13bf 12cc 84be
00000230: c248 59be 12a6 51be 7aa7 1cbe d4e6 1f3e
00000240: 79ec 143f 91c3 e43d 74f2 c23d a09b 61bd
00000250: 6064 5dbf 0943 563d dcea 673e 1fe6 853e
00000260: d611 8d3c 1942 883d db08 833e 840c dcbe
00000270: be04 07bf 38d6 08bf 4920 89be 66b4 27be
00000280: 05ca 31be 4631 4abe a5d7 16bf 2d3d 5f3e
00000290: 552f 8a3d fe76 c63d 68e6 3cbe b7b7 633c
000002a0: 9a42 533e 84d4 44be 4cef 413d 420f 46be
000002b0: 2fcd 1abe b7d9 853e e30d 0cbf ba69 89be
000002c0: 2883 bbbe 7807 ddbd 195c b6bd 93e6 143e
000002d0: 4fa5 b83e b396 ff3e 9f9c 8abe 47aa 173c
000002e0: 79aa d53e 19cc a1bc 858d 76be a81b a53e
000002f0: abb2 453e 601e 063f 5d7a 943c 95f3 4bbe
00000300: 5be6 01bf aabc f7bd a297 a2be 5644 633e
00000310: 000e 4b3e de8c 6dbd 66d8 d33e 7919 9cbe
00000320: 8e95 c2be 681e 9d3e 8c70 e23d b144 ccbe
00000330: 82a3 053e e371 9abe 62a3 7d3d f61f f6be
00000340: 8b94 49be f5b2 bc3e 55b0 eb3c ab71 8cbe
00000350: a4d3 723e 1221 79bd d544 18be 79bd 813e
00000360: 8610 16be 82c0 87be 5a27 f0be 9398 0a3d
00000370: dcd2 193d cffb 44be abaa ecbe e1f9 29be
00000380: 0090 69be 9ff8 713e 6131 87bd f24a 383d
00000390: 6ec4 efbd dcd8 f73e 87d4 e7be 9bde 613e
000003a0: 7d56 e2bd 84ac cd3a 5c68 f0bd 2c6d 30bc
000003b0: 591e e03d f828 9e3e 7e3c 6ebd f716 e3be
000003c0: 38fe b5bd f297 d33e bfdb 9cbc 1308 2c3f
000003d0: 34cc cc3e 5f25 b2be e701 5ebd 6e94 7e3e
000003e0: 9b6f 003e 6e8e d63e 565c 2ebe c16b 18bf
000003f0: 63d4 b6be 1495 04bf 97c7 edbe d209 a33e
0.050090294 0.28901485 -0.017780116 0.16888405 -0.52358836 -0.46396133 0.25874275 0.1392878
0.16018371 0.13207419 0.18705715 -0.23246625 -0.19980383 0.4968507 -0.16170394 0.018004755
-0.5046436 -0.4895684 -0.27910626 0.31839147 0.089729205 -0.5497454 -0.44088742 -0.11684356
-0.3592791 -0.1411221 0.23044282 0.29917207 -0.2537952 0.05538371 -0.25086495 -0.06438503
-0.37881288 0.19961892 0.4257345 0.07932977 -0.40274358 -0.32329926 -0.5111637 0.27652264
0.0864578 0.08896963 0.41314125 -0.5504292 -0.48097402 -0.41449663 -0.26818228 -0.21976447
-0.337295 -0.5143017 0.25176284 -0.3366646 -0.6535845 0.002245623 -0.32741088 -0.34469077
-0.19713354 -0.11968325 0.089318976 0.023180585 -0.018098162 0.2343545 -0.012333483 -0.47045067
0.5279526 -0.31762275 0.59339565 0.1282181 0.078480974 -0.49551237 0.17452332 0.054514207
0.30772495 -0.23991781 0.03820724 -0.35118762 -0.35233527 -0.53977096 0.07954959 0.24598551
0.07680316 -0.19029145 0.36827034 -0.16682802 0.1500051 -0.026648803 -0.34107488 -0.20753017
0.42214817 -0.6511022 0.2403442 -0.39981595 0.21606156 0.19570406 -0.008272073 -0.21708848
-0.48640373 -0.412874 -0.13779528 -0.12569188 0.08829544 0.0037377772 0.098818325 -0.40004152
0.23043396 -0.21635018 -0.60769445 0.09194998 -0.48595163 -0.037663125 0.15930702 0.010603623
-0.42229873 0.1348565 0.1508251 -0.18133935 -0.7543735 -0.5968779 -0.070424296 0.23055527
0.35249 -0.022418974 -0.10630437 -0.21635802 -0.27250177 -0.45013016 0.1436475 0.17995106
0.17880026 0.2760908 -0.027005944 -0.71123195 -0.5745856 0.1871611 0.18500991 0.18133758
-0.28344765 0.012483069 -0.5751633 -0.25936943 -0.21219161 -0.20473507 -0.15298262 0.15615398
0.5817333 0.11170114 0.095189005 -0.055080056 -0.86481285 0.052310023 0.22648185 0.2615213
0.017220419 0.06653232 0.25592694 -0.429783 -0.5274161 -0.5345187 -0.26782444 -0.1637741
-0.1736222 -0.19745359 -0.589228 0.2180068 0.06747309 0.09690665 -0.18447268 0.0138987815
0.20630875 -0.19221693 0.047347352 -0.19341758 -0.15117334 0.26142666 -0.5470869 -0.26838475
-0.36623502 -0.1079244 -0.08904285 0.14541082 0.3606362 0.49919662 -0.27072617 0.009256906
0.41731623 -0.019750642 -0.24077423 0.32247663 0.19306438 0.523901 0.018124754 -0.19917138
-0.5074212 -0.12096532 -0.31756312 0.22194037 0.1982956 -0.05799567 0.41376036 -0.30488184
-0.38004726 0.3068726 0.11056623 -0.39896157 0.13050655 -0.30165014 0.061923392 -0.4807126
-0.19685571 0.36855283 0.028770605 -0.27430472 0.23713547 -0.060822554 -0.14870007 0.2533987
-0.1465474 -0.2651406 -0.46905023 0.033836912 0.037554607 -0.19236682 -0.4622396 -0.16599227
-0.22808838 0.23629998 -0.06601215 0.04499335 -0.11707388 0.48407638 -0.45279333 0.22057573
-0.110516526 0.0015691672 -0.11738655 -0.010768216 0.10943288 0.30890632 -0.05816316 -0.44353458
-0.08886379 0.41326863 -0.019147752 0.6719982 0.39999545 -0.34794137 -0.054201033 0.24861309
0.12542574 0.4190554 -0.17027411 -0.5953942 -0.35708913 -0.51789975 -0.46441337 0.3184343

fc1.bias f4 [128]
00000000: 14ed ff3f d6e6 d13e b709 46bf d41c e43f
00000010: e6d8 143f 7715 28be 8b72 f8bf 2b0f 5dbe
00000020: 4942 02c0 a62d 943f 8554 dabe 5234 d13f
00000030: b2a4 3a3e 1236 db3e e76c 173e df2b c2be
00000040: c33e 3c3f 181b 1fbf bbe2 e6be fa28 92bf
00000050: 6f57 d63f ed78 653f 3f0c 16c0 3e3c 0040
00000060: b466 f93f 44e3 d43d a144 8a3f 2c23 28ba
00000070: 4778 bc3f 30aa 603f c4a2 37bf 201e e73f
00000080: 6485 ddbe 207a f63f d2eb f9bf b162 abbe
00000090: b5ba 6dbf f4f4 d2bf fe40 cb3f 6deb d7bf
000000a0: cad4 c03d c918 84be 68bf f7bf e16a c03f
000000b0: 0f7e 353e 00f9 15bf d441 bfbe 4b93 b5bf
000000c0: 71a8 d2bf d729 b6bf 6d97 87bf de68 f43f
000000d0: cf28 0ebf bdec d33d 9cbb d23f 40c1 2240
000000e0: a844 0240 475b d0bf 7ae7 c6be 793a e4bf
000000f0: 37eb 8cbe 5629 ed3f 711b be3f a7d3 a43f
00000100: 401d 8ebe 11cf fe3f 502f c43f 0296 ec3e
00000110: 7034 fe3f 0122 903f a8af a8bf 9488 cf3f
00000120: e559 883e a3bc d33f defc d13e f5de 79bf
00000130: 3145 f83f ce64 1240 72c3 e6be 7d28 d03e
00000140: 4862 0c40 8fe0 56bf 8794 bebf 1789 2b3f
00000150: 7e3a 7c3e 9b8d c23f 7ba0 133f 90e2 e93f
00000160: b420 bf3c d18c c93f 7cf7 e13f 4466 a8bd
00000170: 4a43 da3f 20ec 31be 75da 8f3e cc59 80be
00000180: 9bef 3abe 0998 9ebf ef01 30bf 1b39 efbf
00000190: 75c4 89bf 3a40 86be d772 b83f 4d28 8a3f
000001a0: e6d5 fa3e 3400 c4bf b771 0fbd c1b0 f53e
000001b0: 7d30 9e3f 5f6a 2bbd 0e70 aebf 1fa7 193f
000001c0: 7b0e 513e e286 0440 ae75 d7be 5e48 d2bf
000001d0: 2716 4d3f 95de f53d 5cb5 0e3f 6345 1c40
000001e0: 3346 e63f 7bc6 c5bf bad0 dcbf 64b1 b1bd
000001f0: 168c 103f 68d5 d8be 948d c03f d71d db3f
1.9994226 0.40996426 -0.77358574 1.7821298 0.5814346 -0.16414438 -1.9409956 -0.21587817
-2.0352957 1.1576431 -0.42642608 1.6344092 0.18226889 0.4281469 0.14787637 -0.37924096
0.73533267 -0.62150717 -0.45094857 -1.1418755 1.6745433 0.89637643 -2.3444974 2.003677
1.9484468 0.1039491 1.0802194 -0.00064139324 1.4724206 0.87759686 -0.71732736 1.8056068
-0.4326583 1.925602 -1.9525092 -0.33473733 -0.9286302 -1.6481004 1.5879209 -1.6868721
0.09415586 -0.2580016 -1.9355288 1.5032617 0.17723869 -0.5858307 -0.3735491 -1.4185575
-1.6457654 -1.4231519 -1.0593086 1.9094503 -0.5553102 0.103478886 1.6463504 2.543045
2.0354404 -1.6277856 -0.38848478 -1.7830344 -0.27523205 1.852824 1.4852124 1.2877091
-0.2775669 1.9906942 1.5326939 0.46208197 1.9859753 1.1260377 -1.3178606 1.6213555
0.26631084 1.6541942 0.41013235 -0.9760583 1.9396116 2.2874026 -0.45070988 0.4065589
2.1934986 -0.839364 -1.4889077 0.6700606 0.24631688 1.5199465 0.5766675 1.8272266
0.023331024 1.5746099 1.7653651 -0.082226306 1.7051785 -0.17375231 0.28096357 -0.2506851
-0.18255465 -1.2390147 -0.6875295 -1.8689302 -1.0763079 -0.26220876 1.4410046 1.0793549
0.48991317 -1.5312562 -0.035020556 0.47986415 1.2358547 -0.04184949 -1.3627946 0.6002063
0.2041568 2.0707326 -0.4208197 -1.6428335 0.80111927 0.12005345 0.5574548 2.441735
1.7990173 -1.5451196 -1.7251198 -0.08676413 0.56463754 -0.42350316 1.5043206 1.7118481

fc2.weight f4 [128, 128]
00000000: 0f0f 2c3e c1a5 833d ecdb ca3d 107d f93e
00000010: 839d a3be debd 01bc 36d9 6ebd cc72 cebc
00000020: 4625 6bbb 571b 723d eeef 723d 64f0 f23c
00000030: 7c76 653d 9c3d 6b3b 2a67 193c c74a 11bd
00000040: 609f 0c3d 186f 8cbe cb22 50bb 9de8 55bd
00000050: 9eff d13d 3aa7 9fbd e714 18be 085f da3c
00000060: f0bf d83c 078c 03bd dec3 85bb 836d 1a3d
00000070: 6d16 8c3d af83 2a3e 4c10 e13d 2fbe 1e3f
00000080: 8ce2 ae3d edbe 9b3e 951f c8bd 6862 a83d
00000090: 6ce9 4f3d 68fd 0fbe dfea d43d 7db8 2a3d
000000a0: 706c 29be 1ebf 8cbd ba9e 973d a895 2d3e
000000b0: c90b 933d 821c 243d 224d 9a3d 5ef2 6d3d
000000c0: 618f b43c 69ab 74be 7ff3 3dbe 5bed 5a3e
000000d0: b3f9 06bc 8248 663d 9df1 b0bd 6a7e a53e
000000e0: 127c b43d 6282 ca3d 56c3 2d3c 5c80 eebd
000000f0: e9a0 3dbe f3d1 c13d 8da5 573d edfd 68be
00000100: 17d4 3dbc 8fe9 dbbd 55dd 13bd 2157 c6bd
00000110: da34 893d 4552 703d e8fc 683c 6ee1 19bd
00000120: 7dcc a4bc 3259 c93e a350 563c 802c a6bd
00000130: 28b3 073e ccd5 d93e b351 b53d 106c b13d
00000140: 3de1 ba3d 2edd 2abe 8a31 f0bc 7b01 0bbd
00000150: d2eb a03c 5a59 903c 3470 f93c ef98 50bd
00000160: fc14 5c3d 59a3 81ba 54a8 a9bc cf0b a63c
00000170: 2557 4cbe 9f31 9abb d954 ae3e ca22 443d
00000180: 70b5 07bc 043f 8ebc 908b ec3c 2a47 2fbe
00000190: 641c d9bc a938 453b ba90 14be 4cd8 97bd
000001a0: aa15 8abe 3d22 863d 2ad5 04bd 74bf 383c
000001b0: 9761 733d 811f 9dbc be3a 3bbd ddfc d8bb
000001c0: 53a3 febd 1c8f 913d d87a 12bc 7089 ad3c
000001d0: bec2 0b3e 8b0c 1dbc 952a aabe 4d4a de3d
000001e0: b68f b63d b900 cd3b bb26 883d aae6 49bd
000001f0: 4abc b13c af09 113d fbe8 ca3d 9967 91bc
00000200: ede3 96bd 2c99 533d ee36 44bd ef4e 473d
00000210: 5319 93bd ccfd f6bc 2db8 0abd c91d 86bd
00000220: 62e1 dc3c 6e4b 52bd d9b1 09bc bb33 113d
00000230: 5c5a 0ebd fd7e aebd e376 0c3d 3d5a 103c
00000240: 93cd fd3c efd1 a8bd 325b cebc 67cc 1abd
00000250: bbcd 273d b10b 673d 6650 88bc 1528 ad3d
00000260: 196e 313d e85a b13d d69d 17bc a3ac 96bd
00000270: 731f 6bbd 5ee2 efbb 97e4 92bc 53dd 37bd
00000280: daec 43bd 3446 8e3d e21b adbd 2019 c6bd
00000290: 21cd 42bd 3f0b 0fbd c649 adbd 4362 373d
000002a0: d17d e53b 0fa0 8ebd fd18 913d 9efe 99bb
000002b0: 74f2 843b f69b 353d 212b 843d c1ef 10bd
000002c0: 19e7 8d3d c4b5 a1bd 5362 3ebd 16ae 47bd
000002d0: eac8 d53c 3284 6ebd 9470 6fbc 9c11 7bbc
000002e0: dd1f abbd 8236 81bc febb 2a3d a4b6 25bd
000002f0: aabb ca3c c262 6c3d b5f0 5cbc ec6c ef3b
00000300: ec2a 093b 5b91 f9bc 0986 3b3d 449f da3c
00000310: 9328 6ebd 48a4 0c3d 30b6 9dbd 9360 593d
00000320: 8b04 17bd a9a9 093d 4aaa eabb 6b93 9b3d
00000330: 69ba 2d3d 2449 823d bab7 63bd d473 023d
00000340: d00d 3f3d 66b1 89bb 838e 723c 8128 2a3d
00000350: e72a 4abd d8e5 7a3d 208d 393d 901b dfbc
00000360: 1982 97bd 34c3 99bd 4456 5c3d 46da 4b3d
00000370: c449 d2bc e03a cdbc 2792 633d 19e5 163d
00000380: f471 533d 87db f13c 3c95 80bc 2be9 62bd
00000390: 3be4 b93a fb5e aa3d 5e88 95bd 58ab 8c3c
000003a0: f033 4cbc 66ad cf3c e4c4 a33c e2da 723d
000003b0: fe5d 583d fa26 a9bd 9700 653d ed22 88bc
000003c0: 383f c8bc f2c6 cabc 1457 87bd 2b7a 2d3c
000003d0: a33a 24bd 3075 64bd 2805 94bd 0b81 cabd
000003e0: 16cf 8f3c 7a44 85bc 4bca 053b 235c 933d
000003f0: 7811 7e3d 3a90 95bd b318 b4bc 8a67 2abc
0.1680262 0.064280994 0.09905228 0.48728228 -0.3195611 -0.007918803 -0.058312617 -0.025201224
-0.003588037 0.059108105 0.059310846 0.029655643 0.0560212 0.0035894876 0.009362975 -0.035471704
0.03433168 -0.27428508 -0.003175902 -0.05222379 0.10253833 -0.07795568 -0.14851724 0.026656643
0.02645871 -0.032115962 -0.004082187 0.037702095 0.06840215 0.16651796 0.109894365 0.6200895
0.08539304 0.30419102 -0.09771649 0.082218945 0.050759718 -0.1406151 0.103963606 0.041679848
-0.16545272 -0.0687239 0.074033216 0.1695162 0.07179982 0.04006625 0.07534243 0.058092467
0.022041025 -0.23893513 -0.18549918 0.21379606 -0.008238244 0.056221493 -0.08639834 0.3232301
0.08812727 0.0988815 0.010605654 -0.11645576 -0.18518414 0.09463873 0.052648116 -0.22753115
-0.011586211 -0.10737907 -0.03609975 -0.09684587 0.06699534 0.05867221 0.014220454 -0.037568502
-0.020117039 0.39325863 0.013080749 -0.081139565 0.13251936 0.42545927 0.088534735 0.086631894
0.09124992 -0.16685936 -0.029320497 -0.03393696 0.019643698 0.017620731 0.03044901 -0.0509271
0.05373095 -0.00098906 -0.020710148 0.020269303 -0.19955118 -0.0047056223 0.3404911 0.04788474
-0.008283004 -0.017364033 0.028875142 -0.1711699 -0.026502796 0.0030093587 -0.14508334 -0.07414302
-0.26969653 0.06549499 -0.03242985 0.011276115 0.05941924 -0.019180061 -0.045710318 -0.0066219405
-0.124334954 0.07107374 -0.008940421 0.0211837 0.13648507 -0.00958551 -0.33235613 0.108540155
0.089141294 0.0062561897 0.06648012 -0.049292244 0.021696229 0.035409626 0.09907719 -0.017749595
-0.07367692 0.051659748 -0.047903948 0.04865926 -0.071825646 -0.030150317 -0.03386705 -0.0654865
0.02696294 -0.051341467 -0.008404219 0.035449725 -0.034754142 -0.08520315 0.034293067 0.008810577
0.030981814 -0.08243167 -0.02518997 -0.03779259 0.040967684 0.056407634 -0.0166399 0.08454911
0.043317888 0.08659917 -0.00925394 -0.073571466 -0.05740304 -0.0073206862 -0.017931266 -0.044888806
-0.0478333 0.06946984 -0.08452584 -0.09672761 -0.047558907 -0.034922834 -0.08461337 0.044771444
0.007003524 -0.069641225 0.07084844 -0.004699542 0.004057223 0.04433819 0.06453539 -0.035384897
0.06928844 -0.07895997 -0.046480488 -0.048750006 0.02609678 -0.05823154 -0.014614243 -0.015324023
-0.08355687 -0.015773062 0.04168319 -0.040457383 0.024747688 0.05771137 -0.013485123 0.0073066857
0.0020930124 -0.030464819 0.045782123 0.026687272 -0.058144163 0.03433636 -0.07700765 0.053070616
-0.036869567 0.033609066 -0.0071614133 0.07596477 0.042414103 0.06361607 -0.055595137 0.031848744
0.046644032 -0.0042020557 0.014804485 0.041542534 -0.04935732 0.061254352 0.045300603 -0.027234823
-0.07397861 -0.07507935 0.053793207 0.04976871 -0.02566994 -0.025052488 0.055559304 0.03683958
0.051622346 0.029523624 -0.01569616 -0.055398148 0.0014182398 0.08318897 -0.073014006 0.017171547
-0.012463555 0.025351238 0.019991346 0.059290774 0.052824013 -0.08259387 0.055908766 -0.016618216
-0.024444208 -0.024753068 -0.06608406 0.010588209 -0.040094983 -0.05577582 -0.07227546 -0.09887894
0.017554801 -0.016268004 0.0020414765 0.07195308 0.06202838 -0.073029 -0.021984434 -0.010400662

fc2.bias f4 [128]
00000000: 5073 573f 3dc4 0ebc 08da 8abf 97e7 923f
00000010: 3b62 8e3f f24e 853f ba41 c03e e0cb a93f
00000020: 0492 363f e12a 673f 1f84 453f 7418 a63d
00000030: d87f a33f ad22 d53e 20aa 05be ed2f a93f
00000040: c7fc 783a 3bfe 9e3f c730 923f ee64 3f3d
00000050: 0ec3 b73f c265 7cbd 1769 e6bc 7d06 783d
00000060: 3cd5 6d3d 4b76 22bd a4d6 63bd edb8 4d3e
00000070: f8ee 32bd a1cc 973f 56d9 a73f b331 843f
00000080: 0990 6dbe 04e7 2b3c d29e b13f 80a5 b33f
00000090: 1fe9 64bf 4c26 02bc 0f78 b13f cb79 7d3d
000000a0: 99ee 8e3d b47e a0bc 0f18 a4bd ede4 dfbd
000000b0: 4649 ad3f 711c bcbd 4f91 a73e 254a 89bd
000000c0: 4c77 8e3f bfd3 813a 6992 9f3f 024d ac3f
000000d0: 8025 683f b6d0 b03e 15f0 d33c 0c50 5c3f
000000e0: 201f 5ebe 1814 4b3d 7b42 b13f 6c47 073f
000000f0: 7f68 863f e56c 723f 41c1 8fbd 6a6d c83e
00000100: 80db 9abb 7f06 153c 6eec 763e da48 983f
00000110: 6a3e 2dbd 5b3c 50bd bae4 a53f 5483 a7bf
00000120: eb9c 183c 3aec 5d3f ee91 3fbd 8342 ae3e
00000130: c0a3 033f 03f2 d53d 2ebb 90bd d584 4fbf
00000140: 81c2 443f da92 97bd 99ef fd3e 61df 3bbd
00000150: 2fb3 a83f 263b b53f 61f8 9e3f 0459 9d3d
00000160: c10a 873f dda6 d9bd 8866 8a3f ff47 a3bd
00000170: 7567 643f 92c6 443f 6ea3 9e3f ee69 ecbd
00000180: 3036 9c3f e406 8bbd e8cb a03c 4f02 043f
00000190: 1d15 84bd 2f5f 913f 1291 6e3d d733 4a3e
000001a0: beaf 7abd 6539 b9bd 985d a5bf 9a03 fe3c
000001b0: f9b4 0e3f 396a d13e f4f9 ae3f b515 90bd
000001c0: 601a af3f 7260 0b3d 0d8c 833f 0801 653c
000001d0: fda9 2e3f b2d5 463f d0bc a23f 6f00 243f
000001e0: 3891 a13f 93ae 97bd 5f56 36bd d60b 003d
000001f0: 083a 9ebd c43a 7c3b 1e37 2d3f d375 133c
0.8416033 -0.008713779 -1.0847788 1.1476926 1.1123728 1.0414717 0.37550145 1.3265343
0.7131655 0.90299803 0.77154726 0.08110133 1.277339 0.41628018 -0.13053179 1.3217751
0.0009498116 1.2421335 1.1421136 0.046727113 1.4356401 -0.06162048 -0.028126283 0.060553063
0.058064684 -0.039663594 -0.05562462 0.20090075 -0.04368493 1.1859323 1.3113201 1.0327667
-0.23199476 0.01049209 1.3876593 1.4034882 -0.89418215 -0.007943701 1.3864764 0.06188373
0.06979103 -0.019591667 -0.08012401 -0.10932336 1.3537986 -0.09185112 0.3272805 -0.06703595
1.1130157 0.0009905024 1.2466556 1.3461001 0.9068222 0.34534234 0.025871316 0.8605964
-0.21691561 0.04957971 1.3848413 0.52843356 1.050064 0.9469741 -0.07019282 0.39145976
-0.0047258735 0.009095787 0.24113628 1.1897233 -0.04229585 -0.05083881 1.2960427 -1.3086953
0.009314756 0.8668858 -0.04677003 0.3403512 0.5142174 0.10446551 -0.07066952 -0.8106206
0.7685929 -0.074010566 0.4959686 -0.045867328 1.3179682 1.4158676 1.2419549 0.07682994
1.0550157 -0.1062753 1.081254 -0.079727165 0.8922036 0.76865494 1.2393625 -0.11543642
1.2204037 -0.06788424 0.01962848 0.5156602 -0.064493395 1.1357173 0.05824382 0.19746338
-0.061202757 -0.0904415 -1.2919188 0.031007577 0.5574489 0.40901354 1.367003 -0.0703539
1.3679924 0.034027524 1.0277115 0.013977297 0.6822813 0.77669823 1.2713871 0.6406316
1.2622442 -0.07406344 -0.044515964 0.031261288 -0.07725912 0.0038487175 0.6766223 0.009000259

fc3.weight f4 [64, 128]
00000000: 78ea e3bc e598 ab3d ed84 adbd a3dd e8bc
00000010: 7aad 5d3d 6ed0 d2bc 6f55 37bd f038 123d
00000020: 1304 5dbd 86ff 0dbd 59e6 acbd d99a a5bd
00000030: 4641 0bbd fb01 283b 3141 afbd b2a5 54bd
00000040: 89f7 41bd 8a58 833d 7a22 98bd 6df3 a2bd
00000050: 8282 1bbd 3285 26bd 5844 273d 7ecf 4ebd
00000060: c580 373c f5aa 82bd 89f3 abbd f240 acbd
00000070: afd2 d3bb 4381 d7bc 47ae c63c a47c 323c
00000080: 6510 1d3d 548e 833d b21b 33bd 2fde 543c
00000090: 8b16 9dbd 3d9d 003c 63ae 69bd 5b69 9fbc
000000a0: a829 893c 4314 03bd 8bf2 f73c ca8a 9439
000000b0: c064 a2bb 5dab df3c 7880 eb3c 6533 9b3d
000000c0: f359 083d ed4e 16bd 35dc b33b 04b9 c2bd
000000d0: 0b8e 43bd 240c b23c dcfd 27bd 8fb0 2cbd
000000e0: 8359 493c 4eb9 563c 0e9c b5bc 9ce8 c33c
000000f0: 48b9 23bd 2eba c53c b94b 6a3d 4bf1 d4bc
00000100: 08a1 ff3c d9a3 db3c f7e0 a4bd 6cb4 c1bd
00000110: e4b9 1abd 9760 15bd 398a 78bc 6518 cfbd
00000120: 8691 7c3d f9c2 113d 4a43 b13d d4d4 e4bd
00000130: 8f2f 733d a6e7 aabd 5f19 ebbc 5ae7 8e3c
00000140: 0e1a 8f3c ff9f 84bd 532c 80bd 4e05 7ebd
00000150: f6b6 5fbd 2e58 0abd 9614 20bd 8b92 833c
00000160: 7dac 40bc b53f 83bd 1398 453c f38e 953d
00000170: 4583 11bd 07b0 3f3d 78fd a1bd 95d3 5e3c
00000180: b0cf 3c3d 6ae1 b1bd ddcf d73c a547 8cbd
00000190: 9a7b 7c3d d0a2 3fbb 3925 85bd 0eb9 c7bd
000001a0: b26a 9e3d 04ae 0abd 6250 f43c 81a2 83bc
000001b0: 0601 4e3d 3450 65bd 5dbf 5e3c 401d 21bd
000001c0: 0802 0fbd bf1b 9abc b90d adbd b515 8abd
000001d0: ffad 55bd fa55 e43c c407 6fbd 3b22 bcbd
000001e0: 971d c3bd de1b 7cbd 7938 0abd fd96 41bc
000001f0: 3694 c9bb b47d 6fbd c6fa 6a3d 5145 aabd
00000200: c0e3 eebc 7277 c63b 20ce b6bd 5850 a6bc
00000210: ebfb d4bd 10c7 4cba f2e0 443d dce2 623d
00000220: a040 26bd c1bb a03c 069f 4f3d 5507 4fbc
00000230: 6665 bdbc 483d 84bd 9c4d 90bd 9baa 333d
00000240: 2c08 a1bd 0290 323d 50e7 c9bd 8267 a73c
00000250: f773 073d 9848 823d 2f76 ab3b 2e3a 2f3d
00000260: d944 b43d bd71 84bd 8719 6fbd 5b10 babd
00000270: 0fba cf3c 12e1 6b3d d05b 59bd f25a 77bd
00000280: 3ae2 82bd 10f4 67bd 15d8 ea3c 5852 d2bd
00000290: bc6c 7abd ec29 e8bc dae7 90bd d933 203d
000002a0: c89b c03c 94a3 043d c732 57bc 05c5 78bd
000002b0: fe30 8cbc 5498 d03c 803d 0d3d dc33 c6bc
000002c0: 1886 7abc 6dc5 013c 0227 b2bd e5f6 cb3c
000002d0: 21ff e1bd 9418 dfbd 7c93 92bc 7791 453c
000002e0: af11 b3bc ab7b 59bd 12e1 1abd 6854 dfbd
000002f0: 9f19 86bd 0571 82bb 3f06 83bd 8d75 c4bd
00000300: 0e55 86bd b40c adbd 27d8 093d 00d0 6fbb
00000310: 56bd 0c3d 662e 5abd f431 803d 75cf 97bd
00000320: fc36 b83b 0d31 06be 8254 81bb 617f e4bd
00000330: 4384 ecbc 9b68 d1bc f648 fe3c 16d6 c9ba
00000340: 4240 173d 46ea 0a3d 51ab 163d 0223 8abc
00000350: c71f 2b3b 5510 653d 4850 f6bb 110e 783d
00000360: 3fa8 c2bc 02e4 8c3d 5b8c 2f3c d485 33bd
00000370: 5931 323c c051 3cbd 2a69 52bd c699 943d
00000380: b804 90bd 7a22 843d 5445 5abd 142f 20bd
00000390: cb10 99bd 8910 5bbd c15a 2e3d cf15 8bbd
000003a0: 7bca 6bbc 9c94 99bd 9b5c afbd b3e0 1b3d
000003b0: 2173 c33c 4eda 98bd 385a 053d 2b1f 2a3d
000003c0: 7d6d 0b3d 1d40 6c3d 14bd 4ebd 9ef1 d63a
000003d0: 33b3 4f3d 7b98 1d3d fe9d 9bbd 790d af3d
000003e0: 4f79 983d 91ee 383d a18b aa3d ff25 203d
000003f0: 413c 933d d4f1 afbd 700c 893b e4d2 983d
-0.027821764 0.08378772 -0.08472619 -0.028425997 0.05412052 -0.025734153 -0.04475921 0.03569883
-0.053958964 -0.034667514 -0.08442373 -0.080861755 -0.033997796 0.0025635946 -0.08557356 -0.051915832
-0.04735521 0.06413372 -0.07428451 -0.07956586 -0.03796626 -0.04065437 0.040836662 -0.05049085
0.011200135 -0.06380264 -0.0839606 -0.08410825 -0.0064643244 -0.026306754 0.024253024 0.010893974
0.038345713 0.06423631 -0.043727584 0.012992426 -0.07670315 0.0078499885 -0.057051074 -0.019459417
0.016743496 -0.032001745 0.03026702 0.00028332166 -0.004955858 0.027303392 0.028747782 0.07578162
0.033288907 -0.036696363 0.005488897 -0.09507945 -0.047742885 0.021734305 -0.041013584 -0.042160567
0.012289408 0.0131057035 -0.02216914 0.023914628 -0.03997162 0.024136629 0.05720112 -0.025993964
0.031204715 0.026811527 -0.08050721 -0.09458241 -0.037774935 -0.03646907 -0.015169674 -0.10112075
0.06166222 0.03558633 0.086554125 -0.11173406 0.059371527 -0.08344965 -0.028698621 0.017444301
0.017468479 -0.06475829 -0.06258454 -0.062016778 -0.054617845 -0.0337755 -0.039082132 0.016061088
-0.011759874 -0.064086355 0.012060183 0.07302656 -0.03552558 0.046798732 -0.079096735 0.01360025
0.046096504 -0.086855724 0.026344234 -0.068496026 0.061641313 -0.002924133 -0.0650124 -0.09752093
0.07735194 -0.03385736 0.029823486 -0.016068699 0.050293945 -0.05598469 0.013595429 -0.039334536
-0.034914047 -0.018812058 -0.08449883 -0.067424215 -0.05216789 0.027873028 -0.058357015 -0.091862164
-0.09527128 -0.061550014 -0.033745263 -0.011815784 -0.0061517013 -0.05846949 0.057368062 -0.08314002
-0.029161334 0.0060567195 -0.08926034 -0.020301983 -0.10399612 -0.0007811645 0.048066087 0.05539213
-0.040588975 0.019620778 0.050688766 -0.012636025 -0.02311964 -0.06457001 -0.07046053 0.043863874
-0.07862887 0.043594368 -0.098585725 0.020435099 0.033069577 0.063615024 0.0052325944 0.042780094
0.08802194 -0.06467006 -0.058373954 -0.09085151 0.025357274 0.05758769 -0.053066075 -0.060389467
-0.063908055 -0.05662924 0.028667489 -0.10269612 -0.061138853 -0.028340302 -0.07075472 0.039111946
0.023511782 0.032382563 -0.013134665 -0.060734767 -0.017113205 0.02546326 0.03448248 -0.02419465
-0.0152907595 0.007920605 -0.086988464 0.024898002 -0.1103499 -0.1089336 -0.017892592 0.012058607
-0.021859018 -0.053096455 -0.0378123 -0.10904771 -0.065478556 -0.003980758 -0.06397676 -0.095927335
-0.06559192 -0.084496886 0.033653405 -0.0036592484 0.034360252 -0.053266905 0.06259528 -0.07412616
0.005621789 -0.13104649 -0.0039468417 -0.11157108 -0.028871661 -0.025562575 0.03104065 -0.0015398886
0.036926515 0.033914827 0.036784474 -0.016862396 0.002611147 0.05592378 -0.0075168945 0.06056029
-0.023761867 0.068794265 0.010714616 -0.0438288 0.010876023 -0.0459764 -0.051369824 0.072558925
-0.0703215 0.064518884 -0.053288773 -0.039107397 -0.07473906 -0.053482566 0.04256702 -0.06791269
-0.014391537 -0.07499048 -0.08562585 0.038056087 0.023858609 -0.07463513 0.032556742 0.04153363
0.034039963 0.05767833 -0.050473288 0.0016398912 0.050708007 0.038475495 -0.07598494 0.085474916
0.07445013 0.04514939 0.08327413 0.039098736 0.07189227 -0.08591047 0.004182391 0.07462099

fc3.bias f4 [64]
00000000: ab89 503d cd81 d3bd 7414 e8bd e0dc f13e
00000010: b872 d13e 8793 38bd ad34 6abd 74f2 373e
00000020: da0e b83d f202 973d 30c2 763f fc76 8bbd
00000030: ea7c 7abb 9075 ecbc baca 353b a532 e0bd
00000040: d48e 4f3c 600d dabd 3f71 8c3d 8c8e 083f
00000050: 0750 c33d 1cd6 9b3f 1bae 673e 93af 263f
00000060: 5bd9 4dbd 6cba a8bd 3883 d6bc 6118 823b
00000070: bca3 1b3f eb0d 7e3f 76fb a83e 0c90 6a3e
00000080: 78d1 1ebd 859e 56bd 1ccc 2ebe 854b a53f
00000090: 5210 c33c 7466 73bd 53a2 353f 9b1f 543c
000000a0: 9a65 a23e b4dc 8f3f 0cae 673c 507b afbd
000000b0: b447 1b3a 8c2b 7f3f 8ad7 573f d9f7 123f
000000c0: b78c 503f 1113 8a3d 2096 7dbd f2c5 f1bc
000000d0: 0065 323f 0bc9 013e 6de2 0f3f 9bd5 ec3c
000000e0: 0cd1 debd c9fa 523d 6248 8c3d bcda a93f
000000f0: 0097 503d 58ab 103f 5844 bd3c cf47 d4bd
0.05091254 -0.10327492 -0.11332026 0.47238827 0.40907836 -0.045062568 -0.05717914 0.17963582
0.08987208 0.07373609 0.96390057 -0.06809804 -0.0038221427 -0.028864652 0.0027739243 -0.1094716
0.01266833 -0.10647082 0.068575375 0.5334251 0.095367484 1.2174716 0.2262501 0.65111655
-0.050256114 -0.08238682 -0.026185617 0.0039701913 0.60796714 0.9923999 0.3300435 0.22906512
-0.038773984 -0.05239727 -0.17070049 1.2913672 0.023811493 -0.05942388 0.7095081 0.012946988
0.3171814 1.1239228 0.014140617 -0.08568442 0.00059234654 0.9967582 0.8431326 0.57409436
0.81464714 0.06741918 -0.06191075 -0.029513333 0.69685364 0.12674348 0.56204873 0.028910449
-0.10879716 0.0515087 0.068497434 1.3269877 0.050925255 0.5651145 0.023103878 -0.10365259

fc4.weight f4 [20, 64]
00000000: 7d14 e8bc 45f7 86bd ea7f 333d f656 d13c
00000010: 947e bbba 1fae aabd 9e3b 52bd b9f4 56bd
00000020: fd42 8b3d 4a12 923d a3b5 c33e 786e 8d3d
00000030: d420 2e3d 33f3 163e d984 9abc 023b d3bd
00000040: 1841 653d f2c3 e0bd 9992 9a3d f8af ac3d
00000050: 9fab ccbd b7b8 963e 0bfa d13c 23f1 673d
00000060: 7eac 123d 47b7 6d3d 603c b3bd d2fb cf3c
00000070: bfc1 e83d fec2 603e f1df 283e 3532 85bc
00000080: 20bb c73d 190a 14bd 84a9 2dbe aa00 6c3e
00000090: 8c2f bcbd 8048 4b3c 493b 793d 295d 9dbd
000000a0: e822 0a3e f65f 503e dd67 85bd f45a 9c3c
000000b0: e034 bf3d ffe6 153e afbb 863e e5b2 033d
000000c0: 86df 683e b593 21bd 11da d8bd f14b e03c
000000d0: 758f 513d 323b fbbc 1456 b53c a5a4 2f3c
000000e0: 26b3 213d 022b f53d c303 783d d7b6 483e
000000f0: 67fe a23d 63d9 463e 2452 663d bfa3 a3bd
00000100: be74 0bbc dbad 073e fbe4 01bd ca86 753d
00000110: ff7b 293e b5cb e5bd 94dc 383d 350e 5abd
00000120: 1ef3 443b 268b ae3d f34c 293e 635a 0d3d
00000130: b198 80bd e2aa 92bd 0ac0 183d a43a 2d3d
00000140: 20ef bf3b 1e1f 83bd c68d 373c 1236 28bd
00000150: c0db 93bd 2987 3e3e d9d7 8c3c f7ce d0bd
00000160: f8e7 b13d 9420 f33d 993b 95bc 5db6 41bd
00000170: 70c1 7c3d 5da6 163e 8042 d13d e012 473d
00000180: 6011 1abd cf65 a1bd f6f1 40be 6730 7a3e
00000190: c826 903d c40f 7dbd 349f 29bc f3c2 dfbd
000001a0: c1a4 913d 63f0 503e c7d4 dd3d d68a 88bd
000001b0: 1ac8 9b3d 78c4 bc3d f696 683e a986 3c3d
000001c0: 9f36 1a3e 1136 15bd 5a1f 5f3d 89fe 253e
000001d0: 0b61 473e 0d83 873e 5708 173d 1320 443d
000001e0: 0ceb fa3d 2c3f 59bc dc61 b43c a487 5e3e
000001f0: 7e5a 57bd 23db 4f3e 00eb ae3b 40c0 0ebe
00000200: 4937 3e3d bb3a 74bd 7b30 92bc d555 77bc
00000210: b12f fd3d 002d 7c3d 3b8d 2ebd 1333 513d
00000220: b261 8b3d 60a5 9a3c 0395 e23d adbf b8bb
00000230: e505 233d f6f2 903d a896 013c a010 65bc
00000240: 645b c7bd 375c 1bbe 1e86 0cbc dea9 b1bd
00000250: 83c8 24be 566e 8b3e 25a7 d9bc f2a6 493d
00000260: b8ff 373d 10c6 573c ecd0 883d e105 793d
00000270: 1790 63bd d282 ea3d cb86 023e 2372 dfbc
00000280: 0065 10ba 3b34 993d 293f 47be 7cbd 883e
00000290: 88fc dabd 2614 fc3d 8f8c 363d 105b 753c
000002a0: 3223 0c3e ac47 193e d338 913c 745d 3cbd
000002b0: 4837 c93d 7185 463e e302 3c3e acb7 cfbd
000002c0: a3a7 903e 0006 b43c af00 b83d 1b2f 1abe
000002d0: fd9d 6f3d 5c25 493e 4213 43bd 7a56 ddbd
000002e0: 601e a6bc e511 da3c ba92 953d 669d 1c3e
000002f0: aaaa dabd faaa 453e 7810 0f3d 44c9 87bc
00000300: 51e3 873d 6f28 0ebd 9efd 5bbc 28eb f4bb
00000310: 2f0a 2cbe 8698 45bd 5ca5 e0bd 59e9 6abd
00000320: 93a0 c63c 00ce 1eba 3f5e 1c3e 4ffd 0e3d
00000330: c4eb 353d 2435 56bd 10cb cbbd 94d9 ed3d
00000340: 22bb b43d e64d 39be af63 dcbc 2bf4 883d
00000350: 9196 58bd 7f16 443e a664 cd3c ad17 113e
00000360: 33b6 c43d 0cb5 103d 08be 343c 29fa c73a
00000370: 1f70 d13d cc17 cb3c ddab 48be 0167 a43d
00000380: 3ca5 443d c901 2b3d dee3 d9bd 928a 3f3e
00000390: 5cdf 76bd 84f7 163d 36df cbbd a0c1 42bd
000003a0: 093e 3b3e 72f8 273e 2df8 d5bd 0cb9 a53d
000003b0: 30f4 253d 019a ca3d 8c59 493e 7144 88bd
000003c0: b842 173e d9c4 253c 92c8 f73d 2748 9b3d
000003d0: b730 293e 6cf1 df3d 1071 173d eff4 47bd
000003e0: d2c6 b5bd 9061 dfbd a347 9f3d adbc 243e
000003f0: d690 9bbd f299 bd3e 38bb 2fbd c4b8 c1bd
-0.028330082 -0.06590132 0.04382316 0.025554162 -0.0014304691 -0.08333992 -0.051326387 -0.05247948
0.067998864 0.071323946 0.38224515 0.06905836 0.042511776 0.1474121 -0.018862175 -0.10313989
0.05597028 -0.109748736 0.075474925 0.08432001 -0.099936716 0.294378 0.025631925 0.05662645
0.035809033 0.058036115 -0.0875175 0.025388632 0.11365079 0.21949384 0.16491677 -0.016259292
0.09752488 -0.036142442 -0.16959196 0.23047128 -0.09188756 0.012407422 0.060847554 -0.076837845
0.13489878 0.20349106 -0.06513951 0.019086339 0.09336257 0.146389 0.26315066 0.03215303
0.22741517 -0.039447505 -0.10588468 0.027379962 0.051162202 -0.030667875 0.022135772 0.010720407
0.03947749 0.11971094 0.060550462 0.19600998 0.0795868 0.19418864 0.05623068 -0.079902165
-0.00851172 0.13249914 -0.031712513 0.059942998 0.16551207 -0.11220495 0.045132235 -0.053236205
0.0030052136 0.08522634 0.1653326 0.034510028 -0.062791236 -0.071614996 0.037292518 0.042292252
0.0058573633 -0.064024195 0.011203235 -0.04106719 -0.07219648 0.18606247 0.017192768 -0.101957254
0.08686823 0.11871448 -0.018216895 -0.047293056 0.061707914 0.147119 0.10217762 0.048601985
-0.037614226 -0.078807466 -0.18842301 0.24432527 0.07038647 -0.061782613 -0.010352898 -0.109258555
0.071115024 0.204042 0.108316 -0.06667106 0.07606526 0.09217161 0.22713837 0.04602686
0.15059899 -0.036428515 0.05447326 0.16210379 0.19470613 0.2646717 0.036873188 0.04788215
0.12251863 -0.01325969 0.02201932 0.2173143 -0.052576534 0.20298438 0.005338073 -0.13940525
0.046439443 -0.059626322 -0.017845383 -0.015096148 0.12362612 0.061566353 -0.042615157 0.0510741
0.06805743 0.018877685 0.11063578 -0.005638084 0.039800543 0.07077591 0.007909454 -0.0139810145
-0.09734228 -0.15171896 -0.008576898 -0.08674978 -0.16092114 0.27232617 -0.026568959 0.049231477
0.044921607 0.01316978 0.06680474 0.060796622 -0.055557337 0.11450733 0.12746732 -0.027276104
-0.0005508214 0.07480665 -0.19457687 0.26707065 -0.10692698 0.123085305 0.04456764 0.014975324
0.13685301 0.14968747 0.017727291 -0.04598756 0.09824997 0.19386841 0.18360476 -0.101424545
0.28252897 0.021975517 0.089845054 -0.15057032 0.05850028 0.19643158 -0.047625788 -0.1080751
-0.020278156 0.02661986 0.073033765 0.15294418 -0.10677083 0.19303504 0.034927815 -0.016575463
0.06635154 -0.03470653 -0.013427166 -0.007474322 -0.1680076 -0.04824116 -0.1096904 -0.057351444
0.02424649 -0.0006057918 0.15270327 0.034909543 0.044414297 -0.052296773 -0.099508405 0.11613765
0.08824755 -0.18096122 -0.026903002 0.06687196 -0.052877966 0.19149207 0.025072407 0.14169188
0.09605064 0.03532891 0.011031635 0.0015257049 0.102264635 0.02479162 -0.1959681 0.08027459
0.048009142 0.04174975 -0.10639165 0.18705204 -0.060271606 0.036857143 -0.099546835 -0.047547936
0.18285383 0.16403368 -0.104477264 0.080919355 0.04051608 0.09892655 0.19663066 -0.06653679
0.14771545 0.010117733 0.120988026 0.07582121 0.1652249 0.109347194 0.03697306 -0.04881757
-0.088758126 -0.109072804 0.077773355 0.16087599 -0.07595985 0.37031513 -0.042903155 -0.09459069

fc4.bias f4 [20]
00000000: d5c4 463f cab8 d83e 79cd c73e ef5b d23e
00000010: 5db4 b93e 26da e93e eb69 723e d1ba 5e3e
00000020: 50cd 413e a724 ea3d 4f3f 9ebb 466a a6bc
00000030: 29ef a2bd e8ee 31be 6b32 81be 7472 31bd
00000040: c1e6 20be f4d5 00bf 1213 8bbe b976 cabe
0.7764409 0.42328483 0.3902395 0.41085765 0.3627042 0.45674247 0.23673217 0.21750952
0.18925977 0.11432772 -0.0048293243 -0.020314347 -0.079557724 -0.17376292 -0.25233778 -0.04332204
-0.15713026 -0.50326467 -0.27162987 -0.39543703

fc1.weight f4 [128, 3]
00000000: 0c86 743d 7a67 9c3e 6834 a1bc 0ef0 2c3e
00000010: e309 06bf 578c edbe 11f7 983e 689a 433e
00000020: f26f 7e3e 2e73 163e 5bf9 393e a38c 86be
00000030: 2125 72be ae65 f23e b78f 0fbe b57e 933c
00000040: b230 01bf b6a8 fabe 8717 86be 2aaf a13e
00000050: d594 b23d 1dbc 0cbf ffbb e1be ad4b efbd
00000060: 8703 b9be 4019 23be 3635 813e 6ae5 ad3e
00000070: e665 55be e7d9 af3d 5f71 80be 4cdc 83bd
00000080: c3f3 c1be a944 6a3e 2d85 ed3e 0dcc dc3d
00000090: 6834 cebe 7b87 a5be a0db 02bf 2bd4 9c3e
000000a0: 35ce 033e dee1 313e 4087 d33e eee8 0cbf
000000b0: 3a42 f6be e738 d4be 304f 89be f009 61be
000000c0: 6431 a7be 1c75 ebbe 3324 a23e d492 9cbe
000000d0: 85a2 12bf 417c 8d3c 66a2 a7be 4f7b b0be
000000e0: 60dd 49be b6ed 5abd c513 033e 3c7e 4d3d
000000f0: 1948 82bc 21f1 7b3e fe39 86bc e3a0 f9be
00000100: b9a8 103f 74d7 97be b351 183f d4f0 eb3d
00000110: bdbf ae3d 2cd9 f6be 399e 473e e8d1 623d
00000120: 6a9b 9c3e 897a 6bbe 4129 c73c ddce b3be
00000130: 4a65 b4be 6e2e 0abf b94d ce3d 1d0b 913e
00000140: c59e e43d 33bc a2bd 8de9 d03e deff 1bbe
00000150: 86a6 383e 4767 41bd 530c b6be 3ec7 73be
00000160: 1ca0 e83e eada 22bf f527 8d3e f895 c9be
00000170: acb8 9f3e 7090 463e 2b83 b8bc 4548 8dbe
00000180: e909 f9be 3964 d3be 351a 0dbe 1ea9 18be
00000190: 9e94 c53d c79e 3a3b fc59 af3d 7a3b d9be
000001a0: d9ec 7c3e 227f 31be 310b 15bf 09dc 333e
000001b0: 4445 eabe 812b 0bbd fb9b 4f3e afea 63bd
000001c0: 0871 f4be 57cc 023e 8e42 4a3e b584 1bbe
000001d0: 50db 38bf 457d 09bf a792 b5bd 34a1 823e
000001e0: d4ed 9a3e 190a a63c c334 d5bd 878d 5dbe
000001f0: 5a85 8bbe 7677 e6be 4e40 163e fef7 2a3e
00000200: 1dd1 413e a665 a33e 67f2 8c3c 2732 2abf
00000210: a6df 15bf b7d4 913e 0fda 8e3e b77c 413e
00000220: 3d20 aabe 54e0 d23d e73d 13bf 12cc 84be
00000230: c248 59be 27ea 6dbe 0978 32be b760 393e
00000240: 9374 193f 5446 db3d 7222 df3d 9cbe f2bc
00000250: d1df 2bbf 6982 993d e9a7 5f3e c6cb 753e
00000260: 6ae2 da3b fd15 5f3d 8363 903e 1c19 d9be
00000270: e604 07bf 38d6 08bf 4920 89be 66b4 27be
00000280: 43ca 31be 4631 4abe f189 0fbf ebf6 863e
00000290: fe97 d13d ee6d bf3d 67bb 30be d940 253c
000002a0: ae82 6b3e cb5e 34be 8372 8c3d 05e5 2bbe
000002b0: 71d0 20be 3ed5 903e fb0d 0cbf ba69 89be
000002c0: 2883 bbbe d956 17be d703 edbd 4b28 173e
000002d0: e584 bd3e 7eaf 083f bf60 6bbe b42d 2d3c
000002e0: a42c dc3e 0323 b6bc 5879 65be 8a6f b63e
000002f0: 8678 653e a4a1 093f 846a eb3c cb43 37be
00000300: 5be6 01bf bebc f7bd a297 a2be cecb 543e
00000310: 9a1e 473e 5a1d 8ebd 01b8 e13e a40d 65be
00000320: e61d bcbe 5288 9c3e 1288 e33d fa2e cebe
00000330: ce3b 193e ce6b a1be 6a70 583d 59bd f4be
00000340: be24 22be 8e26 d73e 0bb6 2b3d 06b5 98be
00000350: f934 893e 46d3 9fbb 7430 a8bd c578 a23e
00000360: 8610 16be 82c0 87be 5a27 f0be 6c04 4f3d
00000370: d1bd 163d 56a8 43be abaa ecbe 3cfa 29be
00000380: 0090 69be 180c 713e e33d b3bd 39ab 1a3d
00000390: eb9a 05be 74dc fa3e 89fe f9be 65e6 5f3e
000003a0: bd25 e7bd d548 f5bb 9482 e1bd 73b2 f23c
000003b0: 640e 633e 5fc5 a23e 19b5 94bd ed61 ddbe
000003c0: d96a dabd 25f6 d03e 9ebb 4bbd e412 2f3f
000003d0: ce5e e93e 01a2 8fbe 2ed6 16bd c51a 8a3e
000003e0: 0538 243e 96e4 d83e 4d71 19be 48de 16bf
000003f0: 63d4 b6be 1495 04bf 97c7 edbe 957f ab3e
0.05969815 0.30547696 -0.01967831 0.16888449 -0.52358836 -0.46396133 0.29875997 0.1910187
0.24847391 0.14692375 0.18161528 -0.26279172 -0.23646976 0.473432 -0.14019667 0.018004755
-0.5046493 -0.4895684 -0.26189825 0.31578952 0.08719794 -0.5497454 -0.44088742 -0.11684356
-0.36135504 -0.15927601 0.2523591 0.33964092 -0.20839652 0.085864834 -0.25086495 -0.06438503
-0.37881288 0.22877754 0.46390668 0.10781107 -0.40274358 -0.32329926 -0.5111637 0.3063062
0.1287163 0.17371318 0.41314125 -0.5504292 -0.48097402 -0.41449663 -0.26818228 -0.21976447
-0.3265487 -0.45987785 0.31668243 -0.3058077 -0.57279235 0.017271163 -0.32741088 -0.34469077
-0.19713354 -0.053449355 0.1280051 0.050169215 -0.01590352 0.24603702 -0.016385075 -0.4875556
0.5650745 -0.29656565 0.59499663 0.11520544 0.08532665 -0.48212564 0.19493951 0.055375963
0.30587322 -0.22995962 0.024311664 -0.35118762 -0.35233527 -0.53977096 0.10073418 0.2832879
0.111630954 -0.079460524 0.40803185 -0.15234324 0.18032274 -0.047217634 -0.35556278 -0.23806474
0.45434654 -0.63615286 0.27569547 -0.3937223 0.3119558 0.19391036 -0.022523483 -0.275942
-0.48640373 -0.412874 -0.13779528 -0.14908263 0.09647487 0.0028475986 0.08562085 -0.4242819
0.24699725 -0.17333654 -0.582202 0.17564406 -0.4575597 -0.033977035 0.20274346 -0.055643734
-0.47742486 0.12773262 0.19751951 -0.15187342 -0.72209644 -0.5370677 -0.08865862 0.25513613
0.30259573 0.020268487 -0.10410454 -0.2163602 -0.27250177 -0.45013016 0.14672968 0.16696164
0.18927427 0.3191349 0.01720543 -0.66482776 -0.58544385 0.284826 0.2790074 0.18895231
-0.3322772 0.102966934 -0.5751633 -0.25936943 -0.21219161 -0.23233853 -0.17428602 0.181033
0.59943503 0.107067734 0.10895242 -0.029631905 -0.6713839 0.07495577 0.21841396 0.24003515
0.0066798227 0.05446433 0.2820092 -0.4240197 -0.5274185 -0.5345187 -0.26782444 -0.1637741
-0.17362313 -0.19745359 -0.56069857 0.26360258 0.10234068 0.09347139 -0.17258988 0.010086262
0.22999069 -0.17614286 0.06857779 -0.16786583 -0.15704514 0.2828769 -0.5470883 -0.26838475
-0.36623502 -0.14779224 -0.11572998 0.14761464 0.37015453 0.5339278 -0.22986124 0.0105699785
0.43002808 -0.022233492 -0.2240957 0.35631973 0.22409257 0.5376227 0.028737314 -0.17896955
-0.5074212 -0.120965466 -0.31756312 0.2078087 0.19445267 -0.06939192 0.44085696 -0.22368485
-0.3674156 0.30572754 0.11109938 -0.40270215 0.1496422 -0.3152756 0.05284158 -0.4780071
-0.15834329 0.42021602 0.041921657 -0.2982561 0.26798227 -0.0048774807 -0.08212367 0.31732765
-0.1465474 -0.2651406 -0.46905023 0.050541326 0.036802117 -0.19107184 -0.4622396 -0.16599363
-0.22808838 0.2353977 -0.08752038 0.037760947 -0.13047378 0.48996317 -0.48827007 0.21865232
-0.11286495 -0.007485489 -0.11011234 0.029626107 0.22173458 0.31791207 -0.07261104 -0.43238774
-0.10664911 0.40812793 -0.049739473 0.683882 0.45580143 -0.28053287 -0.03682535 0.2697355
0.16036995 0.42361897 -0.14984627 -0.58932924 -0.35708913 -0.51789975 -0.46441337 0.33495775

fc1.bias f4 [128]
00000000: 5b6f e73f d6e6 d13e a667 1bbf edbd d23f
00000010: ee9f fe3e da15 28be 658b dabf 2b0f 5dbe
00000020: fb0c e7bf fe03 883f 8554 dabe ded2 c33f
00000030: b2a4 3a3e 090a f33e e76c 173e df2b c2be
00000040: c7df 313f b227 09bf bbe2 e6be d189 71bf
00000050: b7ff bd3f ca53 4a3f feb9 06c0 2925 e43f
00000060: 597b e03f 44e3 d43d bd24 833f 1e31 603d
00000070: 4d03 af3f 6b85 4a3f a82d 09bf c648 d33f
00000080: b785 ddbe b061 d93f aeba dcbf c829 99be
00000090: a953 41bf 5367 babf 5da0 c13f 6a3f bdbf
000000a0: dc25 fb3d c918 84be a512 dfbf da2a ba3f
000000b0: 20aa 6d3e 012c dcbe d441 bfbe 2333 9bbf
000000c0: 2971 b8bf 86fd 9dbf 78da 6fbf c8d7 e43f
000000d0: 0c29 0ebf bdec d33d af4a bc3f 20e6 1440
000000e0: 056c ec3f df14 b8bf 7ae7 c6be ad12 c9bf
000000f0: 9fbc 63be 6e0e d63f bdb0 ae3f ea33 993f
00000100: 541d 8ebe 4dad e73f d2c4 ba3f 6cda c43e
00000110: 8566 e23f 3ee9 853f 4332 93bf 1525 c43f
00000120: e559 883e 7941 c33f defc d13e c38c 4fbf
00000130: c2bf e63f d0c9 0440 566e afbe 2dc0 b33e
00000140: e5f4 fc3f c40e 3ebf 7007 a9bf 88a2 1d3f
00000150: 7e3a 7c3e f1a6 ad3f 7ba0 133f f970 ce3f
00000160: b420 bf3c 6841 b83f bdce c63f c65b 41bd
00000170: ab5a bf3f d4fc 0abd 0eef 623e d959 80be
00000180: 9bef 3abe b82a 8abf 02ae 1cbf f372 d7bf
00000190: 04d6 66bf 3a40 86be 12a3 aa3f a840 863f
000001a0: bc2e d13e a97b a9bf b771 0fbd 4cb1 f53e
000001b0: be79 8f3f 5f6a 2bbd 900c 90bf 80f7 193f
000001c0: ac85 233e 7d77 ee3f ae75 d7be 2584 b6bf
000001d0: 7c91 3a3f 95de f53d 803f 0c3f 4e67 0c40
000001e0: f424 cd3f 07c6 a9bf f843 c8bf 64b1 b1bd
000001f0: 168c 103f ca85 a7be d858 a63f 5986 cf3f
1.8080858 0.40996426 -0.6070503 1.6464211 0.49731392 -0.16414586 -1.707379 -0.21587817
-1.8050836 1.0626218 -0.42642608 1.5298727 0.18226889 0.47468594 0.14787637 -0.37924096
0.6948208 -0.53576195 -0.45094857 -0.94350916 1.4843663 0.790341 -2.105102 1.782384
1.7537643 0.1039491 1.0245587 0.05473434 1.3672882 0.7910983 -0.5358529 1.6506584
-0.4326608 1.6982937 -1.724447 -0.2991469 -0.7551828 -1.4562782 1.5127064 -1.4784977
0.122630805 -0.2580016 -1.7427565 1.4544327 0.23209429 -0.43002322 -0.3735491 -1.2124981
-1.4409534 -1.2342994 -0.9369273 1.7878351 -0.5553138 0.103478886 1.4710292 2.3265457
1.8470465 -1.4381369 -0.38848478 -1.5708824 -0.22239922 1.6723154 1.3647686 1.1968968
-0.2775675 1.8099762 1.4591315 0.38447893 1.7687536 1.0461805 -1.1499714 1.5323817
0.26631084 1.5254356 0.41013235 -0.8107416 1.802727 2.0748177 -0.34263867 0.35107556
1.9762236 -0.7424128 -1.3205395 0.6157613 0.24631688 1.3566571 0.5766675 1.6128227
0.023331024 1.439496 1.5531842 -0.047206663 1.4949545 -0.033932522 0.22161505 -0.25068548
-0.18255465 -1.0794287 -0.61203015 -1.6831955 -0.9017031 -0.26220876 1.3331015 1.0488482
0.40855968 -1.3240863 -0.035020556 0.4798683 1.1209028 -0.04184949 -1.1253834 0.6014328
0.1596896 1.8630215 -0.4208197 -1.4259077 0.7287824 0.12005345 0.54784393 2.1938052
1.6026902 -1.3263558 -1.5645742 -0.08676413 0.56463754 -0.3271926 1.2995863 1.6212875

fc2.weight f4 [128, 128]
00000000: 41dc 363e c1a5 833d 3165 bd3d d3e8 fd3e
00000010: 1ab4 65be debd 01bc 2b70 5abd cc72 cebc
00000020: 31c6 11bc 6030 443d eeef 723d 0914 023d
00000030: 7c76 653d 6a66 283b 2a67 193c c74a 11bd
00000040: 5ad4 ce3c 64a0 61be cb22 50bb 8eb2 74bd
00000050: 39a4 ef3d b860 a8bd a7ba 17be e50c 293d
00000060: e3d2 f63b 078c 03bd 1f7f eeba 8d48 213d
00000070: cd94 eb3d 0c55 d73d dabb c73d 57ff 183f
00000080: 8ce2 ae3d f67b 9d3e f125 d2bd b533 9e3d
00000090: 7b54 313d 0e83 06be cf67 003e f989 193d
000000a0: 6245 f6bd 1ebf 8cbd 59d6 883d 6c35 253e
000000b0: 36af 8d3d 42e8 453d 224d 9a3d 4fa0 4d3d
000000c0: 2b6a 7d3c 6cf6 10be 8975 34be d4ee 6b3e
000000d0: b3f9 06bc 8248 663d f7c5 a0bd 3e22 963e
000000e0: 6487 a23d 878b b13d 56c3 2d3c 059b f4bd
000000f0: 0f5e 12be f7c7 d63d be08 4b3d fa3a 36be
00000100: 55d4 3dbc 1d35 84bd c1a8 c0bd cb58 a5bd
00000110: b8d7 4d3d 11c3 4b3d c3af 103b 930a 3cbd
00000120: 7dcc a4bc a5be cb3e a350 563c 6977 b9bd
00000130: 7bda 1a3e a124 cd3e 0e2a ab3d 4d7c 873d
00000140: 8bd8 d83d 0b4e 09be b750 1bbd bc90 78bd
00000150: d2eb a03c f39a f63c 3470 f93c 3e44 58bd
00000160: fc14 5c3d 9972 28bc 6f53 a7bc cdf9 263d
00000170: d0c9 53be 9809 d2ba 8c7c 223e ca22 443d
00000180: 70b5 07bc f0cd eebc addb a43c 71de 23be
00000190: 9df8 20bd a938 453b 409d 04be 8edc d5bd
000001a0: 0aa9 7ebe 41a0 613d 2ad5 04bd 88bf 383c
000001b0: fc3c 3d3d 811f 9dbc 75ac 67bd d821 34bc
000001c0: 49ea 7fbd da93 a43d d87a 12bc db7a 3a3c
000001d0: abc4 9e3d 8b0c 1dbc 2c01 a8be 4fd7 c53d
000001e0: 65ac c03d 5e13 a9bb e6b3 643d aae6 49bd
000001f0: 4abc b13c a156 a03d 2e4b 003e da21 333c
00000200: 4a5e 96bd 2c99 533d 07a3 42bd ef4e 473d
00000210: 0859 93bd ccfd f6bc d26d 09bd c91d 86bd
00000220: 6c1e e03c 6138 50bd d9b1 09bc 15a6 123d
00000230: 5c5a 0ebd f5b5 adbd e376 0c3d 3d5a 103c
00000240: 188d 003d 463c a8bd 325b cebc ce4d 19bd
00000250: 10a0 263d b10b 673d 7f0f 84bc 1528 ad3d
00000260: d74b 333d e85a b13d 81cb 11bc 9f94 96bd
00000270: 0c42 69bd 5ee2 efbb 0d8b 8fbc 53dd 37bd
00000280: daec 43bd ebfa 8e3d fe04 acbd 7b0c c5bd
00000290: 4554 41bd d4c2 0dbd 595c acbd b002 393d
000002a0: a38a f53b 0fa0 8ebd 04eb 913d 9efe 99bb
000002b0: 9950 8f3b 94c6 373d 212b 843d be40 0fbd
000002c0: a2f3 8e3d 1c95 a0bd 6682 3cbd 16ae 47bd
000002d0: 39c9 d53c 3284 6ebd 2070 6bbc e91d 73bc
000002e0: 7417 aabd 5ee7 7bbc febb 2a3d c485 23bd
000002f0: fbb8 cc3c 7b14 6c3d 5b73 57bc 4444 003c
00000300: ec2a 093b d9b8 f6bc 4d66 3d3d ec45 de3c
00000310: acf4 6bbd 542d 0e3d ffa9 9cbd 3df1 5a3d
00000320: 8b04 17bd a9a9 093d 4aaa eabb 6b93 9b3d
00000330: 69ba 2d3d 9e37 833d 842f 62bd 5051 043d
00000340: d00d 3f3d 26ba 71bb 759f 783c 5204 2c3d
00000350: e72a 4abd 4ed5 7c3d 208d 393d 1362 dcbc
00000360: 1982 97bd d602 99bd 45cb 5d3d 3242 4d3d
00000370: 8953 cebc f2fa c9bc 2792 633d 19e5 163d
00000380: f471 533d d2fe f53c 2ab5 7abc af94 60bd
00000390: 7842 003b fb5e aa3d f79e 94bd a865 903c
000003a0: 68b6 44bc a8f7 d33c e4c4 a33c e2da 723d
000003b0: 9b16 5a3d 4b27 a9bd b2a2 663d df12 85bc
000003c0: 05fb c7bc a254 c9bc 1457 87bd 0f81 333c
000003d0: 355e 22bd 3075 64bd 6d18 93bd c05f c9bd
000003e0: 122a 943c 1800 82bc 3002 1f3b 235c 933d
000003f0: db11 7e3d 9fee 94bd e93c b5bc 9c67 2abc
0.17857458 0.064280994 0.09247816 0.49591693 -0.22431985 -0.007918803 -0.053329628 -0.025201224
-0.00889735 0.047897696 0.059310846 0.03175739 0.0560212 0.002569581 0.009362975 -0.035471704
0.025247741 -0.2203384 -0.003175902 -0.059740596 0.11701245 -0.08221573 -0.14817296 0.041272063
0.007532464 -0.032115962 -0.0018195844 0.03937583 0.11502991 0.10514268 0.09752627 0.5976462
0.08539304 0.30758637 -0.10261143 0.07724706 0.043293457 -0.13135931 0.125396 0.037485097
-0.120249525 -0.0687239 0.066815086 0.1613366 0.069181845 0.0483172 0.07534243 0.05020171
0.015467207 -0.14156502 -0.17622961 0.23040324 -0.008238244 0.056221493 -0.07850259 0.29323
0.0793598 0.08669191 0.010605654 -0.1194363 -0.14293693 0.10487359 0.049568884 -0.17795935
-0.011586268 -0.06455443 -0.09407187 -0.080735765 0.050254554 0.049746577 0.0022077418 -0.04590852
-0.020117039 0.39793888 0.013080749 -0.09055979 0.15122406 0.40067008 0.08357631 0.06615505
0.10588177 -0.13408677 -0.037918773 -0.060684904 0.019643698 0.030103182 0.03044901 -0.052799456
0.05373095 -0.010281228 -0.020425526 0.040765572 -0.20682454 -0.0016024588 0.15867823 0.04788474
-0.008283004 -0.029150933 0.02012428 -0.16002823 -0.039299596 0.0030093587 -0.12950611 -0.10442458
-0.24869171 0.05508447 -0.03242985 0.011276133 0.046200737 -0.019180061 -0.056560952 -0.010994397
-0.06247929 0.08036013 -0.008940421 0.01138183 0.07752355 -0.00958551 -0.32813394 0.096602075
0.09407882 -0.0051597795 0.055835627 -0.049292244 0.021696229 0.07829023 0.12528679 0.010933364
-0.07342203 0.051659748 -0.047518756 0.04865926 -0.07194716 -0.030150317 -0.033552 -0.0654865
0.027358256 -0.050835017 -0.008404219 0.03580292 -0.034754142 -0.08481971 0.034293067 0.008810577
0.031384557 -0.08214621 -0.02518997 -0.037427716 0.04067999 0.056407634 -0.01612067 0.08454911
0.0437735 0.08659917 -0.008898617 -0.07352566 -0.056947753 -0.0073206862 -0.01752236 -0.044888806
-0.0478333 0.069814526 -0.0839939 -0.09621521 -0.047199506 -0.03460963 -0.084160514 0.04516858
0.0074933334 -0.069641225 0.07124904 -0.004699542 0.0043736217 0.044867113 0.06453539 -0.034973852
0.06980063 -0.0784094 -0.046022795 -0.048750006 0.026096927 -0.05823154 -0.014369994 -0.014838674
-0.083052546 -0.015374986 0.04168319 -0.03992249 0.02499055 0.05763672 -0.0131500615 0.007828776
0.0020930124 -0.03011744 0.04624014 0.02713295 -0.057606384 0.034711197 -0.07649612 0.05345272
-0.036869567 0.033609066 -0.0071614133 0.07596477 0.042414103 0.064070925 -0.055221096 0.03230411
0.046644032 -0.0036884635 0.015174736 0.041996308 -0.04935732 0.06172686 0.045300603 -0.026902234
-0.07397861 -0.07471244 0.05414893 0.050111957 -0.025186317 -0.024655793 0.055559304 0.03683958
0.051622346 0.030028734 -0.015301982 -0.054829296 0.0019570868 0.08318897 -0.07256883 0.017626598
-0.01200638 0.025874928 0.019991346 0.059290774 0.053244215 -0.08259448 0.056307502 -0.01624435
-0.024411688 -0.024576489 -0.06608406 0.010956063 -0.039640624 -0.05577582 -0.07182393 -0.09832716
0.018086467 -0.015869185 0.0024262778 0.07195308 0.062028747 -0.07272076 -0.02212377 -0.010400679
