models/dqn_agent_firm_1_episode_1500.pth (torch, 101224 bytes, 24 tensors)

fc1.weight f4 [64, 3]
0	0xbeaf3deb	-0.34226927
1	0x3de8ee59	0.11373586
2	0x3e1c908f	0.1528952
3	0xbf01597e	-0.5052718
4	0xbeb4773f	-0.35247228
5	0x3e28d8ee	0.16489002
6	0xbd8339eb	-0.06407531
7	0xbde321d0	-0.110904336
8	0xbed81ec1	-0.42210963
9	0xbf14bba3	-0.5809881
10	0xbeb83f8a	-0.35985976
11	0x3ebe9141	0.37220195
12	0x3f06bb1a	0.52629244
13	0xbeed81b6	-0.46388024
14	0xbf0f5fb5	-0.5600541
15	0xbf27c501	-0.6553498
16	0x3e6629ed	0.22476931
17	0xbcce6115	-0.025192777
18	0x3ddbdbff	0.1073532
19	0xbf176007	-0.591309
20	0xbcf980dd	-0.030456955
21	0xbea0f549	-0.31437138
22	0x3e7d9771	0.24764802
23	0x3e2638da	0.16232625
24	0xbde2a1c0	-0.110660076
25	0xbf293683	-0.66098803
26	0x3ea6d3c6	0.32583445
27	0xbdc50d79	-0.0962171
28	0xbf03c898	-0.51477957
29	0xbe04b546	-0.12959775
30	0x3e73c6ac	0.23806256
31	0x3e174ed8	0.1477617
32	0x3a11ee23	0.0005566796
33	0x3f02e51d	0.5113085
34	0xbee68e6d	-0.45030537
35	0xbe9a55c1	-0.3014355
36	0xbef39a6d	-0.47578755
37	0x3d2668df	0.040627357
38	0xbe9de91a	-0.30841905
39	0xbea1dcfe	-0.31613916
40	0xbe695912	-0.22787884
41	0x3e11b82c	0.14230412
42	0x3da17570	0.078837276
43	0xbedc8ae9	-0.4307473
44	0xbd10c95d	-0.035348285
45	0xbef43c9e	-0.47702497
46	0xbe9b23b4	-0.30300677
47	0x3e2e9e23	0.17052512
48	0x3de25c8c	0.11052808
49	0x3f5c61aa	0.86086524
50	0x3e273482	0.16328624
51	0xbe878d62	-0.26475054
52	0xbce3d80b	-0.027812978
53	0x3da1557d	0.07877634
54	0xbed4f34b	-0.41591868
55	0xbd7c00b2	-0.0615241
56	0x3db899b4	0.090136915
57	0x3ebf0075	0.37305036
58	0x3e443be9	0.19163479
59	0x3ea6950a	0.32535583
60	0xbe9bd8a9	-0.30438736
61	0x3e81f4af	0.2538199
62	0x3e8002bc	0.25002086
63	0xbd2a994c	-0.0416501
64	0x3ec685a3	0.38773832
65	0xbe69c4ab	-0.22828929
66	0x3f505550	0.81380177
67	0xbeaf8574	-0.34281504
68	0xbe509f9b	-0.20373385
69	0xbeff4dd7	-0.49864075
70	0x3ee7d946	0.45282954
71	0x3d77ee1b	0.06052981
72	0x3c3e0f9e	0.011600403
73	0xbea058aa	-0.31317645
74	0xbecbf482	-0.39834982
75	0x3f1cc95a	0.6124474
76	0x3ee561cb	0.44801173
77	0xbaf07c36	-0.0018347565
78	0xbd9b49e0	-0.0758245
79	0xbf499260	-0.78738976
80	0x3e55b1e1	0.20868637
81	0xbed41610	-0.41423082
82	0xbf0a24e6	-0.5396255
83	0xbeeebf8b	-0.4663051
84	0xbc249b10	-0.010046735
85	0xbd273acf	-0.04082757
86	0xbe9eccd9	-0.3101566
87	0x3ea5299d	0.3225831
88	0xbbafda4f	-0.0053666006
89	0xbece98ab	-0.4035085
90	0x3e776055	0.24157842
91	0xbe76be76	-0.24096093
92	0x3e2b0d9c	0.1670441
93	0xbe984ffa	-0.29748517
94	0xbe1ff7a4	-0.15621811
95	0x3df96dc6	0.12179141
96	0x3e19209d	0.14953847
97	0xbd33c50d	-0.043889094
98	0x3e3dfd5a	0.18553677
99	0xbd8ae03a	-0.06781049
100	0xbe8cf630	-0.27531576
101	0x3da63527	0.08115607
102	0xbd230277	-0.039797273
103	0xbe77853a	-0.24171916
104	0x3ccb157b	0.024790516
105	0xbd98daf6	-0.074636385
106	0xbe6921b0	-0.22766757
107	0xbf02bc76	-0.5106882
108	0xbf12adb8	-0.57296324
109	0xbd2f7082	-0.042831905
110	0xbebf089e	-0.37311262
111	0xbebb2f56	-0.36559552
112	0x3eb67ae4	0.35640633
113	0x3d5d6bba	0.054057814
114	0xbe102ce3	-0.14079623
115	0xbdf0c5d1	-0.117564805
116	0x3dcc6976	0.099810526
117	0xbedc87f2	-0.43072468
118	0xbd7b9c53	-0.06142838
119	0x3e88f547	0.26749632
120	0x3c3105c8	0.010804601
121	0x3de21823	0.1103976
122	0x3a1985e7	0.000585644
123	0x3d1b21c4	0.037874
124	0x3bba55ad	0.005686483
125	0xbdcb8169	-0.099367924
126	0x3e8efe55	0.27928415
127	0x3c460b70	0.012087688
128	0xbef0d25f	-0.470355
129	0xbe7c02bb	-0.24610417
130	0x3ebc82c7	0.36818525
131	0x3e15a305	0.14612968
132	0x3ee15468	0.4400971
133	0x3e49706f	0.19671796
134	0xbeb5ee41	-0.35533336
135	0xbf13c623	-0.5772421
136	0xbe9e5293	-0.30922374
137	0x3ec5e8cc	0.38654172
138	0x3e244061	0.16040184
139	0x3ef497a7	0.47771952
140	0x3e99b675	0.30022016
141	0x3f1d5b29	0.61467224
142	0xbe425535	-0.18977816
143	0x3c84adf1	0.016196223
144	0xbf1751da	-0.5910927
145	0x3ccbbb3c	0.024869554
146	0xbd6e18d7	-0.058129158
147	0x3f44b9b4	0.7684586
148	0x3df2ef60	0.118620634
149	0x3eb72c20	0.35775852
150	0x3e978ec4	0.2960111
151	0xbe1eae0a	-0.15496078
152	0x3e5e0e08	0.2168504
153	0xbc8e8dac	-0.017401539
154	0x3e668367	0.22511064
155	0x3ed62a10	0.41828966
156	0x3e6b376b	0.22970359
157	0x3c8af13c	0.016960733
158	0xbcc277cc	-0.023738764
159	0x3eaa3648	0.33244538
160	0xbf8c72da	-1.097255
161	0x3d038a69	0.03211442
162	0xbe175336	-0.14777836
163	0xbd6c0df4	-0.057630494
164	0xbeef3fe8	-0.46728444
165	0x3ebb23dc	0.36550796
166	0x3e8c70da	0.2742985
167	0x3be06142	0.0068475315
168	0xbe04aba8	-0.12956107
169	0xbe51d1ff	-0.20490263
170	0x3e0b106d	0.13580485
171	0xbd7d185b	-0.061790805
172	0xbdec60f4	-0.1154193
173	0x3cf21092	0.029548917
174	0x3d98c91d	0.07460234
175	0x3acd121d	0.0015645657
176	0xbd5b693e	-0.053567164
177	0x3d8f9ada	0.070119575
178	0xbdac1610	-0.084026456
179	0xbdb85b76	-0.0900182
180	0x3e6885e5	0.22707327
181	0x3cfbb04b	0.030723711
182	0x39056916	0.00012723016
183	0xbe54bd29	-0.20775284
184	0x3e960010	0.29296923
185	0xbd3c872a	-0.04602734
186	0xbd8e4783	-0.069472335
187	0xbea69566	-0.32535857
188	0xbe150d91	-0.14555956
189	0xbddb49f7	-0.10707467
190	0x3e1daaf2	0.15397242
191	0x3c87ed29	0.016592579

fc1.bias f4 [64]
0	0x40065d0c	2.0994291
1	0xc01fdebd	-2.4979699
2	0x3e416708	0.1888696
3	0xc01c8c44	-2.4460611
4	0x3dc496a6	0.095990464
5	0x3ff7683a	1.9328682
6	0xbf3834d1	-0.7195559
7	0xbea903f4	-0.33010828
8	0x402a887b	2.66458
9	0x3ef1ca86	0.47224826
10	0x404d94fa	3.2122178
11	0x3ffec05b	1.9902452
12	0xbf107cc3	-0.5644037
13	0xc0645eb0	-3.5682793
14	0xbea1bf33	-0.31591186
15	0xc04ef9b1	-3.23399
16	0xc04be9c9	-3.186144
17	0x407705f0	3.8597374
18	0x406dd091	3.715855
19	0x40186358	2.3810635
20	0x3f206658	0.62656164
21	0x40600ba0	3.5007095
22	0x3f4738f1	0.7782126
23	0xbfe899ff	-1.8171996
24	0x3f0321f3	0.5122368
25	0x4065f171	3.5928614
26	0x3bef1334	0.0072959904
27	0xbeeaf94d	-0.45893326
28	0x3ccf9a3f	0.025342105
29	0x3ca2e38e	0.019883897
30	0x4054ab3e	3.3229518
31	0xc05aebdf	-3.4206464
32	0x3ef4027a	0.4765814
33	0x40893630	4.2878647
34	0x4073c728	3.8090305
35	0x3e4a2d32	0.19743803
36	0x3f056084	0.52100396
37	0x4069ed4d	3.6551087
38	0xc06ee451	-3.7326853
39	0x40209fc1	2.5097506
40	0x40787050	3.881855
41	0xbda49156	-0.08035533
42	0xbf12422f	-0.5713224
43	0xbfd0a95f	-1.6301688
44	0x4077573f	3.8647
45	0xc04735e7	-3.112665
46	0xbfe5c702	-1.7951357
47	0x406b6db5	3.678571
48	0xbd94dbc4	-0.072684795
49	0xbff79367	-1.9341859
50	0x3ffafa4c	1.9607635
51	0xbf9f0174	-1.2422318
52	0xbf778b70	-0.9669714
53	0xbf6cde4a	-0.92526686
54	0x3e14879f	0.1450486
55	0xbfa8700e	-1.3159196
56	0x40556c9d	3.3347542
57	0x407555d4	3.8333635
58	0xbee7aac2	-0.45247465
59	0xbe4c259e	-0.19936225
60	0x4000bde7	2.0115907
61	0x40728dd0	3.7899055
62	0x3e9c4751	0.3052316
63	0x4078f6cc	3.8900633

fc2.weight f4 [64, 64]
0	0xbe776c49	-0.24162401
1	0x3e0c5a7b	0.1370639
2	0xbd66cc50	-0.05634719
3	0xbf12af10	-0.57298374
4	0xbd86095a	-0.065447524
5	0x3e62e8ce	0.2215912
6	0x3d99127d	0.074742295
7	0xbeb290ef	-0.348762
8	0x3dc1f473	0.09470453
9	0xbdd55f04	-0.104185134
10	0x3d905421	0.07047296
11	0x3e968b28	0.29403043
12	0x3d9ab682	0.07554342
13	0x3ddc71b7	0.10763877
14	0x3e28bcd9	0.1647829
15	0x3d6c0e14	0.057630613
16	0xbeebccfd	-0.4605483
17	0x3ef9820a	0.48732024
18	0x3e0f5936	0.13998875
19	0xbe197ff1	-0.14990212
20	0xbef2f77f	-0.4745445
21	0x3fcc0185	1.5937964
22	0xbde30ac8	-0.11086041
23	0xbe9e68f3	-0.30939445
24	0x3bc7ff80	0.006103456
25	0xbd7f9c8a	-0.062405147
26	0xbe9a94bf	-0.3019161
27	0xbdac560a	-0.08414848
28	0xbdf9f468	-0.1220482
29	0xbddff054	-0.10934511
30	0xbe23ec49	-0.16008104
31	0xbd25f6b7	-0.04051849
32	0xbe6072d6	-0.21918806
33	0x3dfa4019	0.12219257
34	0x3f2118f6	0.6292871
35	0x3cf03b98	0.029325292
36	0xbde3fda8	-0.111323655
37	0x3e420434	0.18946916
38	0x3e252e5c	0.16130966
39	0xbf14bb29	-0.58098084
40	0x3e4bec7e	0.19914433
41	0xbd16b90f	-0.03679758
42	0x3dec112a	0.11526711
43	0xbe963932	-0.29340512
44	0x3fe5e7ec	1.7961402
45	0xbe911218	-0.28334117
46	0xbeaf87c9	-0.34283283
47	0xbca007c0	-0.019534945
48	0xbd345bea	-0.04403297
49	0xbe62ba1b	-0.22141306
50	0xbdf00fac	-0.11721739
51	0xbee1574e	-0.4401192
52	0xbea3bb95	-0.3197905
53	0xbd9b4f74	-0.07583514
54	0x3d8e116e	0.06936918
55	0xbe716f3b	-0.23577587
56	0x3ce02575	0.02736161
57	0x3e9b9153	0.3038431
58	0xbe96951f	-0.29410645
59	0xbdd418ec	-0.10356316
60	0xbd7920b1	-0.060822193
61	0x3ecc39ad	0.39887753
62	0x3db15e8e	0.08660613
63	0x3eb167bd	0.3464946
64	0xbe0e30b1	-0.13885762
65	0x3ddd44a6	0.10804109
66	0x3d2a6880	0.041603565
67	0xbd419a80	-0.047266483
68	0x3d9076e8	0.070539296
69	0xbdf412bf	-0.11917638
70	0xbd0ca2b4	-0.034334853
71	0xbda2b418	-0.079445064
72	0xbdf0cdf4	-0.117580324
73	0x3d25881c	0.040413007
74	0x3d89e1e8	0.06732541
75	0xbcac1659	-0.02100675
76	0xbc2a3740	-0.010389149
77	0xbdceb780	-0.100935936
78	0xbdfd8c63	-0.12380292
79	0x3d97296e	0.07380949
80	0x3d2d8c2c	0.042370006
81	0x3d8695c6	0.06571536
82	0xbc8b1943	-0.01697982
83	0x3d5364ce	0.051609807
84	0xbd2c776d	-0.04210608
85	0xbd2f114c	-0.042741105
86	0xbd3e08b2	-0.04639501
87	0x3ca19430	0.019723982
88	0x3dd63b58	0.10460538
89	0xbda983d3	-0.082770966
90	0xbe01ae43	-0.12664132
91	0xbc7ee6f0	-0.0155579895
92	0xbb429fc0	-0.002969727
93	0xbda62668	-0.08112794
94	0x3c61b4fb	0.013776059
95	0xbd135416	-0.035968862
96	0x3dc526d7	0.09626549
97	0xbc14925f	-0.009068101
98	0x3cfccac1	0.0308584
99	0xbca6db48	-0.020368233
100	0x3ccc8138	0.02496396
101	0xbda4e35e	-0.08051179
102	0x3de478ec	0.111558765
103	0x3d71717f	0.05894613
104	0xbb9292c1	-0.004473061
105	0xbe0f1fd2	-0.13976982
106	0xbd97fdb8	-0.0742144
107	0xbde6da92	-0.11272158
108	0x3dc28d4d	0.09499607
109	0x3c4b4a00	0.01240778
110	0xbdda50c2	-0.106599346
111	0xbdf05163	-0.11734273
112	0xbc239bd0	-0.009985879
113	0xbd31ca1a	-0.04340563
114	0x3dc458ed	0.09587274
115	0xbd929f21	-0.07159258
116	0x3d4dee33	0.050275993
117	0xbd78c82d	-0.060737778
118	0xbdb791ca	-0.08963354
119	0xbd8af2a8	-0.06784564
120	0xbda76141	-0.081728466
121	0xbca799c3	-0.020459061
122	0x3d7bc6ab	0.06146876
123	0x3dc6d93a	0.097094014
124	0x3b1de0fd	0.0024090402
125	0xbe186038	-0.14880455
126	0x3c26b750	0.010175541
127	0x3cbf060f	0.023318319
128	0xbb224a68	-0.0024763588
129	0xbdc3d54a	-0.09562166
130	0x3dc578d6	0.09642188
131	0x3d0055cf	0.031331833
132	0xbc62a7b0	-0.013833925
133	0xbe105f50	-0.14098859
134	0x3dabea8d	0.083943464
135	0xbd689070	-0.05677837
136	0x3b044885	0.0020184827
137	0x3d847c02	0.06468965
138	0xbd811b3d	-0.063040234
139	0x3d8f709a	0.07003899
140	0xbceedd28	-0.02915819
141	0x3dbebaec	0.09312996
142	0xbb756c64	-0.003744864
143	0x3be6701d	0.007032408
144	0x3dabdf52	0.08392204
145	0x3dce5e9b	0.10076638
146	0xbd68d5b0	-0.056844413
147	0xbd34acff	-0.044110294
148	0xbd87f8af	-0.066392295
149	0x3d87a1f8	0.0662269
150	0x3dcddbef	0.10051715
151	0x3c4d0ea9	0.012515702
152	0xbddfac8a	-0.10921581
153	0xbe0c962d	-0.13729163
154	0x3cd54140	0.02603209
155	0xbc58f740	-0.013242543
156	0xbd8e1c9a	-0.06939049
157	0x3dd91422	0.10599543
158	0x3d60d173	0.054887246
159	0xbd328e44	-0.043592706
160	0x3dc36b04	0.09541896
161	0xbdf3ffc0	-0.11914015
162	0xbe16d92e	-0.14731285
163	0xbdd8a1cc	-0.10577735
164	0xbdb99096	-0.09060781
165	0x3d88ef0e	0.06686221
166	0x3c035510	0.008015886
167	0x3d374160	0.04474008
168	0xbdb62adf	-0.08894896
169	0xbe122cf1	-0.14274956
170	0xbd501e98	-0.050810426
171	0xbdd7d6e4	-0.10539034
172	0x3cff5d12	0.03117231
173	0xbd0c4419	-0.03424463
174	0x3d87a85d	0.066239096
175	0xbd7cf9aa	-0.061761536
176	0x3dd7850e	0.10523425
177	0xbdc7181b	-0.09721395
178	0xbe0706e5	-0.13186224
179	0x3b5d93f6	0.0033810115
180	0x3dabf83e	0.08396958
181	0x3da22537	0.079172544
182	0x3c2107a0	0.009828478
183	0xbcd19ee6	-0.025588464
184	0x3dabe22e	0.0839275
185	0x3d93d096	0.07217519
186	0xbc0bac1b	-0.00852492
187	0x3d24e8ac	0.040260956
188	0x3d8c8a5f	0.0686233
189	0xbbebde20	-0.00719811
190	0x3da0558c	0.07828817
191	0xbc432b88	-0.011912234
192	0xbc348113	-0.011017102
193	0x3ea8eb8c	0.32992208
194	0xbc977378	-0.018487677
195	0x3e59af8d	0.21258374
196	0x3db05b1e	0.08611129
197	0x3c351e5a	0.0110546
198	0x3dc84484	0.09778693
199	0xbdb3585c	-0.087570876
200	0x3df7fdc1	0.121089466
201	0xbddda276	-0.108220026
202	0xbe80707a	-0.25085813
203	0x3ea08782	0.31353384
204	0x3db496a2	0.088177934
205	0x3eb045b9	0.34428194
206	0x3e675fbf	0.22595118
207	0x3e21b95f	0.1579337
208	0xbf07a493	-0.52985495
209	0x3e840781	0.25786975
210	0x3dca1c75	0.09868709
211	0xbda2179e	-0.07914661
212	0xbe8827b5	-0.26592794
213	0x3fe027c9	1.7512141
214	0xbe00c627	-0.12575589
215	0xbe400293	-0.18750982
216	0xbde7bcca	-0.113153055
217	0xbef1afa0	-0.47204304
218	0x3e8fad35	0.28061834
219	0x3daf6bd2	0.08565487
220	0xbd993a88	-0.07481867
221	0xbde58110	-0.11206257
222	0x3d3838fc	0.04497622
223	0x3e5ed66f	0.21761487
224	0xbd85b9a4	-0.06529549
225	0x3e91c9aa	0.2847417
226	0x3efff3e3	0.49990758
227	0x3dd050ce	0.10171662
228	0x3da914e8	0.08255941
229	0xbcd574af	-0.026056616
230	0x3e04eaf0	0.12980247
231	0x3d380d58	0.0449346
232	0xbda8bdc6	-0.082393214
233	0x3ddc78b5	0.107652105
234	0xbda3588a	-0.07975872
235	0xbdb2bddb	-0.08727618
236	0x3ff71880	1.9304352
237	0x3e1c1343	0.15241723
238	0xbe8612ce	-0.26186222
239	0x3d9c3080	0.07626438
240	0x3d06d701	0.032919887
241	0xbe424854	-0.18972903
242	0xbb88d422	-0.004175679
243	0xbe173c93	-0.14769201
244	0xbe788046	-0.24267682
245	0x3e9dc62d	0.3081526
246	0x3de8d9e8	0.11369687
247	0xbe9b6818	-0.30352855
248	0x3e0bf558	0.1366781
249	0xbaa43550	-0.0012528095
250	0xbe0e4973	-0.13895206
251	0xbdec5be6	-0.11540966
252	0xbda8a512	-0.0823461
253	0x3d1b7b43	0.03795935
254	0xbda2e852	-0.07954468
255	0xbe208d24	-0.15678841

fc2.bias f4 [64]
0	0x3f5791fe	0.8420714
1	0xbc8042ab	-0.01565679
2	0xbd928f4a	-0.071562365
3	0x3eed1c33	0.46310577
4	0x3f2213f9	0.63311726
5	0x40114609	2.2698996
6	0xbd6ad14f	-0.05732852
7	0x3db7eb89	0.08980472
8	0x400aaa9f	2.166664
9	0xbcd70268	-0.026246265
10	0x40137e49	2.3045828
11	0x40191529	2.3919165
12	0x3fb024ad	1.3761193
13	0xbddda94e	-0.10823308
14	0xbdbadf7b	-0.09124657
15	0x3a4f3298	0.00079039624
16	0x4003a7c9	2.0571158
17	0xbe02864d	-0.12746544
18	0xbdb54190	-0.08850396
19	0x40174864	2.3637934
20	0x3da64598	0.08118743
21	0xbd9bea78	-0.07613081
22	0x4012ba28	2.292612
23	0x3f0a1dba	0.5395161
24	0xbd8faa50	-0.070149064
25	0xbd384055	-0.044983227
26	0x3f06944e	0.52570045
27	0x3fb39cc9	1.4032222
28	0xbd243ede	-0.040099017
29	0x3f88487b	1.0647119
30	0x4015a724	2.3383265
31	0x3d5bf4a5	0.053700108
32	0x40085bb4	2.130597
33	0x3fb616ac	1.4225669
34	0x3cf54d3d	0.029944057
35	0xc00f44b9	-2.2385695
36	0xbe03515b	-0.12824003
37	0xbda09a68	-0.07841951
38	0x3fc7debb	1.5614847
39	0x3f2cffad	0.6757763
40	0x3fb82856	1.438731
41	0xbcdb5607	-0.02677442
42	0x40178dac	2.368022
43	0x400ab5d7	2.1673486
44	0x3f850b1b	1.0394014
45	0x3d4c0583	0.049809944
46	0x3ffef19b	1.9917482
47	0x3f583443	0.84454745
48	0x3d8da2b0	0.06915796
49	0xbddc7537	-0.107645445
50	0x3fd7062d	1.679876
51	0xbfb59507	-1.4186105
52	0x3fff8f9d	1.9965702
53	0xbbe18080	-0.0068817735
54	0x40131488	2.2981281
55	0x3f33e3ec	0.70269656
56	0x3fca1959	1.5788985
57	0xbf01aa02	-0.50650036
58	0x3fcf920e	1.6216447
59	0x3fc3132b	1.5240225
60	0x3f349ed8	0.70554876
61	0x3d91c73a	0.071180776
62	0xbd55bba3	-0.052180897
63	0x3f84314f	1.0327548

fc3.weight f4 [20, 64]
0	0x3d48a86a	0.048988737
1	0xbddb7ac2	-0.107167736
2	0x3b599c11	0.0033204595
3	0xbe027d6c	-0.12743157
4	0xbe6c5e53	-0.23082857
5	0x3f1c872d	0.6114376
6	0xbdfc80a0	-0.12329221
7	0xbdb1e473	-0.08686151
8	0x3ed91490	0.423985
9	0xbd6fb5f8	-0.05852315
10	0x3ef1958b	0.47184405
11	0x3f3bd0e5	0.7336562
12	0x3df22fa5	0.11825494
13	0xbc8e0248	-0.017335072
14	0x3c8776d0	0.016536146
15	0xbd84bc21	-0.06481195
16	0x3eaf5987	0.3424799
17	0xbdf1043e	-0.11768387
18	0x3bf57073	0.0074902116
19	0x3f12eb13	0.57389945
20	0xbd094cf1	-0.033520643
21	0x3dd21e05	0.10259632
22	0x3eef7781	0.46770862
23	0xbb4dada4	-0.0031384015
24	0x3d8c9f5c	0.06866333
25	0xbda70598	-0.08155364
26	0xbdf9bc23	-0.12194087
27	0x3e19d275	0.15021689
28	0x3dc1f60b	0.09470757
29	0xbf1fd6de	-0.62437236
30	0x3f1f2c4a	0.62176955
31	0x3dcad71e	0.099043116
32	0x3ee5a400	0.44851685
33	0x3e6db284	0.2321263
34	0x3d166630	0.036718547
35	0xbf1bc195	-0.6084226
36	0xbdbea016	-0.09307878
37	0x3b177a40	0.0023113638
38	0x3e8b3dae	0.27195495
39	0x3f309df7	0.68991035
40	0xbebf07b5	-0.37310567
41	0x3d79b698	0.06096515
42	0xbf6096b8	-0.8772998
43	0x3f1b9fee	0.6079091
44	0x3e264ceb	0.1624028
45	0xbdef579c	-0.11686632
46	0xbf9bce93	-1.2172416
47	0xbd3f9bdb	-0.046779495
48	0xbd85cb72	-0.06532945
49	0x3ded8f50	0.115996
50	0x3e86e39d	0.2634553
51	0xbf05f1b2	-0.5232192
52	0x3eef5ab7	0.46748897
53	0xbc796814	-0.015222568
54	0xbfb9ee0c	-1.4525771
55	0xbe409fdf	-0.18810986
56	0x3eada5a4	0.33915436
57	0xbe1a169a	-0.15047684
58	0x3e4885d9	0.19582309
59	0x3e5baf57	0.21453606
60	0x3edb6c02	0.4285584
61	0xbd0b56c4	-0.034018293
62	0xbc94351e	-0.018091734
63	0x3d3bfc2e	0.045894794
64	0x3b0b612c	0.0021267636
65	0xbdfd70d0	-0.12375033
66	0x3dfed8a6	0.12443666
67	0x3bc9fedb	0.0061644143
68	0x3e5f2d73	0.21794681
69	0x3ec882ed	0.39162388
70	0x3dd44dda	0.103664115
71	0x3de0d326	0.10977773
72	0x3ea8c435	0.32962194
73	0xbdbd8352	-0.09253563
74	0x3eda101d	0.42590418
75	0x3f27e977	0.65590614
76	0xbe34d1ac	-0.17658108
77	0x3d3c02b4	0.045901015
78	0x3d1f7160	0.038926482
79	0x3df145fe	0.11780928
80	0x3ea3f05a	0.3201931
81	0x3e58d396	0.21174464
82	0xbd232f7e	-0.039840214
83	0x3ef43375	0.4769551
84	0x3d542510	0.051793158
85	0x3dab919e	0.08377384
86	0x3f02d471	0.5110541
87	0x3dc73a06	0.09727864
88	0xbdd85886	-0.105637595
89	0xbcef90f6	-0.029243927
90	0x3d9fe12a	0.078066185
91	0x3e5268d3	0.205478
92	0xbd287b5d	-0.041133273
93	0xbe108811	-0.14114405
94	0x3eda8c9b	0.42685398
95	0xbc3bddf0	-0.011466488
96	0x3e966e73	0.2938114
97	0x3eaddb83	0.33956537
98	0xbd5cb698	-0.053885072
99	0xbe792e81	-0.24334146
100	0x3d7234c8	0.059132367
101	0x3db99b48	0.09062821
102	0x3e69083b	0.22757046
103	0xbecef241	-0.404192
104	0xbea116c9	-0.31462696
105	0xbcc38fe9	-0.023872333
106	0xbf95bf0e	-1.169893
107	0x3eff0bca	0.49813682
108	0x3d8d79bc	0.069079846
109	0xbd9241f4	-0.07141486
110	0xbf1390e6	-0.5764297
111	0xbeaac82a	-0.33355838
112	0x3ddf363a	0.10899015
113	0xbd4a66c4	-0.04941441
114	0x3e38471f	0.1799588
115	0xbe339c9c	-0.1754021
116	0x3e5b86bd	0.21438117
117	0x3c8cbf69	0.017181115
118	0xbf55bee5	-0.83494407
119	0x3df46a4c	0.11934337
120	0x3e5b64f8	0.21425235
121	0xbe5c9ecb	-0.2154495
122	0x3e969d9c	0.2941712
123	0x3de20f59	0.110380836
124	0xbeb2ab46	-0.34896296
125	0xbe0cfc29	-0.13768066
126	0x3c8f01f5	0.017456988
127	0x3e6a840d	0.22901936
128	0xbe74fd35	-0.23924716
129	0x3dfd2c1e	0.1236193
130	0xbdd69a75	-0.10478679
131	0x3e06c865	0.13162382
132	0x3dbd3c51	0.0924002
133	0x3ee5d983	0.4489251
134	0x3cf734f8	0.030176625
135	0xbd27a608	-0.040929824
136	0x3e6c94d0	0.23103642
137	0x3cbc47f8	0.022983536
138	0x3f00cbaa	0.50310767
139	0x3f04d6b9	0.5189014
140	0x3e88d159	0.2672222
141	0x3d814546	0.06312041
142	0xbd16c7ec	-0.036811754
143	0xbcb39bfe	-0.021924969
144	0x3e785e60	0.24254751
145	0x3ec2c428	0.3804028
146	0xbdb8b401	-0.09018708
147	0x3edb88bc	0.42877758
148	0xbdb599e2	-0.088672414
149	0x3db5baa8	0.088734925
150	0x3f112d7a	0.56710017
151	0x3eb3dcb6	0.35129327
152	0x3df2cb22	0.11855151
153	0x3cc2c496	0.02377538
154	0x3e821506	0.25406665
155	0x3e00c39e	0.12574622
156	0xbdc9c103	-0.09851267
157	0xbc070429	-0.008240738
158	0x3ee8e5d2	0.4548784
159	0xbd78cfa8	-0.06074491
160	0x3eba78d7	0.36420318
161	0x3e50d3fb	0.20393364
162	0xbdaa50e4	-0.0831621
163	0xbe0f2e0a	-0.13982406
164	0x3d21862a	0.03943459
165	0x3cc4dc08	0.0240307
166	0x3e0b0a72	0.13578203
167	0x3ccd0882	0.02502847
168	0xbef01a5c	-0.4689511
169	0xbdc5a18a	-0.09649952
170	0xbf85b2ad	-1.0445153
171	0x3f20894f	0.62709516
172	0x3e44ffee	0.19238254
173	0xbd0a9b4c	-0.03383951
174	0xbf196d4d	-0.59932405
175	0x3edb7ff5	0.4287106
176	0xbdf40594	-0.119151264
177	0xbbdf0d20	-0.0068069845
178	0x3e83b100	0.25720978
179	0xbcb4dbc4	-0.022077449
180	0x3e3bc924	0.18338448
181	0x3d19fa68	0.03759232
182	0xbf86b6ef	-1.0524577
183	0x3eaea064	0.34106743
184	0x3ec1b972	0.37836796
185	0x3e6f537e	0.23371693
186	0x3d712018	0.058868498
187	0x3e0245d7	0.12721954
188	0xbeb2b25c	-0.34901702
189	0xbc91163e	-0.017710801
190	0x3e3ffff9	0.1874999
191	0x3e536e08	0.20647442
192	0x3ca9b715	0.020717183
193	0xbc9ecdb0	-0.019385189
194	0xbd8ff995	-0.07030026
195	0xbe8431bc	-0.25819194
196	0xbeae71ea	-0.34071285
197	0x3ed2344f	0.41055533
198	0xbb0c0200	-0.0021363497
199	0x3cf7f7f1	0.030269595
200	0x3eae99d9	0.3410175
201	0xbda696a2	-0.081342
202	0x3f0e0200	0.554718
203	0x3ee1ab90	0.44076204
204	0x3ec9a226	0.39381522
205	0xbdddec32	-0.10836066
206	0x3c04c340	0.008103192
207	0xbdec5679	-0.11539931
208	0x3ea0d08e	0.31409115
209	0x3e62e3db	0.22157232
210	0x3d7511ba	0.05983136
211	0x3ef61075	0.4805943
212	0xbcd6de85	-0.026229152
213	0xbcd38f9a	-0.02582531
214	0x3ef52024	0.47876084
215	0x3eb48ee6	0.35265273
216	0x3d4a4ba8	0.049388558
217	0xbdde35ce	-0.10850106
218	0x3de015d3	0.10941663
219	0x3d4a43ff	0.049381252
220	0xbc997db9	-0.018736707
221	0xbe526c2a	-0.20549074
222	0x3efec734	0.49761355
223	0x3d9a7bb8	0.07543129
224	0x3eddddd3	0.433333
225	0x3de0a42f	0.109688155
226	0x3cde8a38	0.027165517
227	0xbea20847	-0.3164694
228	0xbe22f4e9	-0.15913738
229	0xbcd36378	-0.025804266
230	0x3bc2d5d4	0.0059459005
231	0xbdb9980c	-0.09062204
232	0xbc9ba76f	-0.019000737
233	0xbdfb8f8e	-0.1228324
234	0xbf782481	-0.969307
235	0x3efd9c1a	0.4953316
236	0x3c9bb57b	0.019007435
237	0xbde8d28a	-0.11368282
238	0xbf233db1	-0.6376601
239	0xbe24dc44	-0.1609965
240	0xbd294178	-0.0413222
241	0x3c179d60	0.00925383
242	0x3e2ac9ce	0.16678545
243	0xbe87b184	-0.2650262
244	0x3e6c0c3d	0.23051544
245	0xbdad5db5	-0.08465139
246	0xbf6edea3	-0.93308467
247	0x3d96b8eb	0.07359489
248	0x3e1c8281	0.15284158
249	0xbed79e45	-0.42112938
250	0x3e8d54a2	0.27603632
251	0x3d0eb332	0.034838863
252	0xbe29b221	-0.16571857
253	0xbde90f46	-0.11379866
254	0xbf004493	-0.50104636
255	0x3eb05415	0.3443915

fc3.bias f4 [20]
0	0x3fecf902	1.8513491
1	0x3f21b520	0.63167
2	0x3f1b5a95	0.6068509
3	0x3f142fc4	0.57885385
4	0x3ed2ab74	0.41146433
5	0x3efe28e7	0.4964058
6	0x3ef76c72	0.48324925
7	0x3f152fd7	0.5827612
8	0x3eb4feba	0.3535059
9	0x3e9fd21c	0.31214988
10	0x3e5f1d63	0.21788554
11	0x3d9ccc5d	0.07656167
12	0x3e0878de	0.13327357
13	0xbd18dc95	-0.03731974
14	0xbd4e9fdd	-0.050445426
15	0xbe0c3512	-0.1369212
16	0xbe010962	-0.12601236
17	0xbe5e3393	-0.21699362
18	0xbe48a726	-0.19595012
19	0xbe428f4c	-0.18999976

fc1.weight f4 [64, 3]
0	0xbeb0ea72	-0.34553868
1	0x3e0b174a	0.13583103
2	0x3e2b606d	0.16736002
3	0xbece3fac	-0.40282953
4	0xbeb30e45	-0.34971824
5	0x3e34230b	0.17591493
6	0xbd8339eb	-0.06407531
7	0xbde321d0	-0.110904336
8	0xbed81ee3	-0.42211065
9	0xbf12108d	-0.57056504
10	0xbebad2a9	-0.36488846
11	0x3ec3037c	0.38088596
12	0x3f06bb1a	0.52629244
13	0xbeed81b6	-0.46388024
14	0xbf0f5fb5	-0.5600541
15	0xbf36d64b	-0.71420735
16	0x3e5814c6	0.21101674
17	0xba2f7171	-0.00066926243
18	0x3de17a7d	0.11009691
19	0xbf0da5c0	-0.5533104
20	0xbc9a5375	-0.018838624
21	0xbeac6935	-0.33674017
22	0x3e8178b9	0.25287417
23	0x3e283a29	0.16428436
24	0xbe00cbf3	-0.125778
25	0xbf2997fc	-0.66247535
26	0x3eaa6490	0.33279848
27	0xbdc50d79	-0.0962171
28	0xbf03c8c4	-0.5147822
29	0xbe04b546	-0.12959775
30	0x3e6243d5	0.22096188
31	0x3e1f2195	0.15540154
32	0xbb46dd44	-0.0030344287
33	0x3f025ea3	0.50925654
34	0xbee791ae	-0.45228332
35	0xbea588ec	-0.32331026
36	0xbef39a6d	-0.47578755
37	0x3d2668df	0.040627357
38	0xbe9de91a	-0.30841905
39	0xbe7579f9	-0.2397231
40	0xbe661440	-0.22468662
41	0x3e13a700	0.14419174
42	0x3da2d892	0.07951464
43	0xbed8f049	-0.42370823
44	0xbc834e16	-0.016028445
45	0xbec95543	-0.39322862
46	0xbe965a55	-0.29365793
47	0x3e35abb7	0.17741285
48	0x3e007f4e	0.12548563
49	0x3f5bca49	0.8585554
50	0x3e2d1c96	0.16905436
51	0xbe905a6d	-0.2819399
52	0xbca215f9	-0.019785868
53	0x3d9e19df	0.07719778
54	0xbeca96c2	-0.39568144
55	0xbd32dc92	-0.043667383
56	0x3dc7e2fd	0.097600915
57	0x3ebf6974	0.37385142
58	0x3e50c6e7	0.20388375
59	0x3eaa444e	0.33255237
60	0xbe9bb66f	-0.30412623
61	0x3e858dd8	0.2608478
62	0x3e8a3363	0.2699233
63	0xbd0f8ad4	-0.035044506
64	0x3ec93890	0.39300966
65	0xbe7af888	-0.2450887
66	0x3f59d579	0.8509136
67	0xbe8798dc	-0.2648381
68	0xbe51a4b3	-0.20472984
69	0xbee2cd20	-0.44297123
70	0x3eed1166	0.46302336
71	0x3d8bdddf	0.06829428
72	0x3c3e0f9e	0.011600403
73	0xbea058aa	-0.31317645
74	0xbecbf482	-0.39834982
75	0x3f1a0bf9	0.6017452
76	0x3ee9f797	0.4569671
77	0xbbb7c65d	-0.0056083635
78	0xbdbc32a9	-0.0918935
79	0xbf408468	-0.75202036
80	0x3e64585f	0.22299336
81	0xbed41610	-0.41423082
82	0xbf0a24e6	-0.5396255
83	0xbeeebfee	-0.46630806
84	0xbc249b37	-0.010046772
85	0xbd273b1a	-0.040827848
86	0xbe9eccd9	-0.3101566
87	0x3ea5299d	0.3225831
88	0xbbafda4f	-0.0053666006
89	0xbece98ac	-0.40350854
90	0x3e76f9bb	0.24118702
91	0xbe752c57	-0.23942696
92	0x3e2d3544	0.1691485
93	0xbe6d7679	-0.23189725
94	0xbe1c12af	-0.15241502
95	0x3dfc1832	0.123093024
96	0x3e1cbdda	0.15306798
97	0xbd188a95	-0.037241537
98	0x3e4b3228	0.19843352
99	0xbda4b7fe	-0.08042906
100	0xbe877f70	-0.26464415
101	0x3da65de9	0.08123381
102	0xbd9a3abc	-0.07530734
103	0xbe7301c7	-0.23731147
104	0x3cb602d9	0.022218155
105	0xbd98db5d	-0.07463715
106	0xbe692269	-0.22767033
107	0xbf02bc76	-0.5106882
108	0xbf12adb8	-0.57296324
109	0xbd2f70b1	-0.04283208
110	0xbebf08ee	-0.373115
111	0xbec3d4d6	-0.38248318
112	0x3eba69aa	0.3640874
113	0x3d56fb7a	0.05248592
114	0xbd0db482	-0.034595974
115	0xbe0211e6	-0.1270214
116	0x3dcb931d	0.09940169
117	0xbf022d91	-0.5085078
118	0xbda4edd2	-0.08053173
119	0x3e8cb731	0.27483514
120	0xbc081734	-0.008306313
121	0x3df21ea0	0.118222475
122	0xbb1e99d9	-0.0024200587
123	0x3d5f817b	0.05456684
124	0x3c9fd181	0.019509079
125	0xbdb9ce76	-0.090725824
126	0x3e8efe55	0.27928415
127	0x3c460b70	0.012087688
128	0xbef0d25f	-0.470355
129	0xbe86c59d	-0.26322642
130	0x3ebb6d0c	0.36606634
131	0x3e1c14df	0.15242337
132	0x3ee2d2c1	0.44301417
133	0x3e42a55b	0.1900839
134	0xbeb9274e	-0.361628
135	0xbf149807	-0.58044475
136	0xbe9bf8c3	-0.30463228
137	0x3ec8fd15	0.39255586
138	0x3e2691b3	0.16266517
139	0x3ef5af21	0.47985175
140	0x3ea1d9ad	0.31611386
141	0x3f190218	0.5976882
142	0xbe3a0b04	-0.18168265
143	0x3c58386d	0.013197047
144	0xbf1750d4	-0.5910771
145	0x3ccbc191	0.024872573
146	0xbd6e17f5	-0.058128316
147	0x3f44f5f2	0.7693778
148	0x3df38a60	0.11891627
149	0x3ebe0b00	0.37117767
150	0x3e9bcbba	0.3042887
151	0xbe1def1f	-0.15423249
152	0x3e66e98a	0.22550026
153	0xbc9de906	-0.019276153
154	0x3e652f7f	0.223814
155	0x3edca058	0.43091083
156	0x3e78ae96	0.24285349
157	0x3c934725	0.01797826
158	0x3c16f477	0.009213558
159	0x3e91d784	0.28484738
160	0xbf8182a7	-1.0117997
161	0x3d506735	0.050879676
162	0xbe175336	-0.14777836
163	0xbd6c0df4	-0.057630494
164	0xbeef3fe8	-0.46728444
165	0x3ebe09b2	0.37116772
166	0x3e883573	0.2660328
167	0xbbb9a1f1	-0.005665057
168	0xbe10f1a1	-0.14154674
169	0xbe4df884	-0.20114332
170	0x3e0edb53	0.13950853
171	0xbda6f837	-0.08152812
172	0xbdde1556	-0.10843913
173	0x3cdb6f48	0.026786461
174	0x3d9f33ec	0.07773575
175	0x3b87a2bc	0.0041392725
176	0xbd39b5f0	-0.045339525
177	0x3d8f9ada	0.070119575
178	0xbdac1610	-0.084026456
179	0xbdb85b76	-0.0900182
180	0x3e86126c	0.2618593
181	0x3d8da384	0.06915954
182	0x3b931b00	0.0044893026
183	0xbe60ddab	-0.2195956
184	0x3ea19a05	0.3156282
185	0xbd250f13	-0.04029758
186	0xbd8e4783	-0.069472335
187	0xbea69566	-0.32535857
188	0xbe150d91	-0.14555956
189	0xbdff64b5	-0.1247038
190	0x3e24930a	0.16071716
191	0x3c612e54	0.013743956

fc1.bias f4 [64]
0	0x40050ebb	2.079024
1	0xc01b336f	-2.4250143
2	0x3e416708	0.1888696
3	0xc01ab872	-2.4175076
4	0x3dc496d2	0.09599079
5	0x3ff0a0f0	1.8799114
6	0xbf33da82	-0.7025529
7	0xbea5b205	-0.3236238
8	0x4027543f	2.614517
9	0x3ef1ca86	0.47224826
10	0x404a8cfa	3.1648545
11	0x3ff6ec71	1.9290906
12	0xbf107cc3	-0.5644037
13	0xc05ff174	-3.4991121
14	0xbe9cfbf8	-0.30660987
15	0xc049f9b1	-3.155865
16	0xc047e9cc	-3.1236448
17	0x4073b624	3.807992
18	0x406b6700	3.6781616
19	0x4017b84b	2.3706234
20	0x3f251122	0.6447927
21	0x405e498c	3.473239
22	0x3f595295	0.84891635
23	0xbfe0e7f5	-1.7570788
24	0x3f0321f3	0.5122368
25	0x40632d5f	3.5496442
26	0x3cfd56cf	0.030925183
27	0xbeeaf94d	-0.45893326
28	0x3ccf9a3f	0.025342105
29	0x3ca2e38e	0.019883897
30	0x40520186	3.281343
31	0xc05696e7	-3.3529603
32	0x3efa35d6	0.488692
33	0x40878a5a	4.2356386
34	0x40703fbf	3.7538908
35	0x3e4a2d32	0.19743803
36	0x3f056084	0.52100396
37	0x4066e4ad	3.6077073
38	0xc06a8fb9	-3.6650221
39	0x401d42ea	2.457209
40	0x407558ce	3.8335452
41	0xbd7c7232	-0.061632343
42	0xbf12422f	-0.5713224
43	0xbfcded5a	-1.6088059
44	0x40755481	3.8332827
45	0xc0442865	-3.0649655
46	0xbfe16a00	-1.7610474
47	0x40685b9a	3.630591
48	0xbd94dbea	-0.07268508
49	0xbff40fe4	-1.906735
50	0x3ff97dbd	1.9491497
51	0xbf9bdeef	-1.2177409
52	0xbf6dc446	-0.92877614
53	0xbf657eec	-0.8964679
54	0x3e14879f	0.1450486
55	0xbfa3e059	-1.280284
56	0x4052498f	3.2857397
57	0x4072319f	3.7842786
58	0xbee2e718	-0.44316936
59	0xbe4c259e	-0.19936225
60	0x3fffe68d	1.9992234
61	0x406f7d44	3.7420206
62	0x3e9c4751	0.3052316
63	0x4075e7b0	3.842266

fc2.weight f4 [64, 64]
0	0xbe64f98a	-0.22360817
1	0x3e0c6857	0.13711677
2	0xbd66ccbf	-0.056347605
3	0xbf08452f	-0.53230566
4	0xbd86095a	-0.065447524
5	0x3e7ff89c	0.2499718
6	0x3d964a9b	0.073384486
7	0xbea5ee2e	-0.3240828
8	0x3d6acd96	0.05732497
9	0xbdd55f04	-0.104185134
10	0x3d85546a	0.06510241
11	0x3ebebd94	0.37254012
12	0x3d9ab682	0.07554342
13	0x3ddc4644	0.107555896
14	0x3e25a9f9	0.1617812
15	0x3d6c08a3	0.057625424
16	0xbee605f4	-0.44926417
17	0x3efc8a1e	0.49324125
18	0x3e3203fe	0.17384335
19	0xbe0dd6d7	-0.13851486
20	0xbee806e8	-0.4531777
21	0x3fca1242	1.5786822
22	0xbe076874	-0.1322344
23	0xbe9024aa	-0.28152972
24	0x3bc7ff80	0.006103456
25	0xbd84df7c	-0.06487939
26	0xbed81b0a	-0.4220813
27	0xbdac560a	-0.08414848
28	0xbdf9f468	-0.1220482
29	0xbddff054	-0.10934511
30	0xbe1d8e22	-0.1538625
31	0xbd25769e	-0.040396325
32	0xbe4df851	-0.20114256
33	0x3df3f8ab	0.11912664
34	0x3f0ed747	0.5579724
35	0x3cf03b98	0.029325292
36	0xbde3fdfd	-0.11132429
37	0x3e40f555	0.18843587
38	0x3e24476f	0.16042875
39	0xbefc9df5	-0.49339262
40	0x3e433b49	0.19065584
41	0xbd187acb	-0.03722648
42	0x3dec112a	0.11526711
43	0xbe8cd779	-0.27508143
44	0x3fe2758a	1.769212
45	0xbe862031	-0.26196435
46	0xbea6e817	-0.32598945
47	0xbcd97f75	-0.026550034
48	0xbd345e6c	-0.04403536
49	0xbe5096a0	-0.20369959
50	0xbdd4cf8f	-0.10391151
51	0xbed09859	-0.40741232
52	0xbeb194dc	-0.34683883
53	0x38faa07b	0.00011950821
54	0x3d8e119c	0.069369525
55	0xbe74a6d9	-0.23891772
56	0x3da5bf2a	0.08093102
57	0x3e925fe2	0.28588778
58	0xbe94dc47	-0.29074308
59	0xbdd418ec	-0.10356316
60	0xbd87f15e	-0.06637834
61	0x3ecacbbd	0.39608565
62	0x3db15e8e	0.08660613
63	0x3eadf214	0.33973753
64	0xbe0e30dc	-0.13885826
65	0x3ddd44a6	0.10804109
66	0x3d2a6880	0.041603565
67	0xbd419a80	-0.047266483
68	0x3d9076e8	0.070539296
69	0xbdf4133a	-0.1191773
70	0xbd0ca2b4	-0.034334853
71	0xbda2b2ee	-0.079442844
72	0xbdf0cb60	-0.11757541
73	0x3d25881c	0.040413007
74	0x3d89e348	0.067328036
75	0xbcac0dda	-0.021002699
76	0xbc2a3740	-0.010389149
77	0xbdceb780	-0.100935936
78	0xbdfd8d0a	-0.12380417
79	0x3d9729c4	0.07381013
80	0x3d2d8c4f	0.042370137
81	0x3d8695c6	0.06571536
82	0xbc8b157e	-0.016978022
83	0x3d53684f	0.05161315
84	0xbd2c766a	-0.042105116
85	0xbd2f0cde	-0.04273688
86	0xbd3e0485	-0.04639103
87	0x3ca19430	0.019723982
88	0x3dd63b58	0.10460538
89	0xbda98124	-0.08276585
90	0xbe01adb2	-0.12663916
91	0xbc7ee6f0	-0.0155579895
92	0xbb429fc0	-0.002969727
93	0xbda62668	-0.08112794
94	0x3c61c01d	0.0137787135
95	0xbd135161	-0.03596628
96	0x3dc52b42	0.096273914
97	0xbc148a06	-0.0090661105
98	0x3cfcd1ad	0.0308617
99	0xbca6db48	-0.020368233
100	0x3ccc8138	0.02496396
101	0xbda4e188	-0.08050829
102	0x3de478ec	0.111558765
103	0x3d7173b0	0.05894822
104	0xbb92780c	-0.004469877
105	0xbe0f1f25	-0.13976724
106	0xbd97fdb8	-0.0742144
107	0xbde6da92	-0.11272158
108	0x3dc28f48	0.09499985
109	0x3c4b4a00	0.01240778
110	0xbdda5165	-0.10660056
111	0xbdf04e5f	-0.11733698
112	0xbc239bd0	-0.009985879
113	0xbd31ca14	-0.043405607
114	0x3dc45c39	0.095879026
115	0xbd929db0	-0.07158983
116	0x3d4df161	0.050279025
117	0xbd78c65e	-0.060736053
118	0xbdb791ca	-0.08963354
119	0xbd8af0d2	-0.06784214
120	0xbda75e42	-0.08172275
121	0xbca79304	-0.020455845
122	0x3d7bc86d	0.061470438
123	0x3dc6d93a	0.097094014
124	0x3b1e088f	0.0024113988
125	0xbe185e5d	-0.14879747
126	0x3c26b750	0.010175541
127	0x3cbf0ec2	0.023322467
128	0xbb2229da	-0.0024744184
129	0xbdc3d382	-0.09561826
130	0x3dc57963	0.09642293
131	0x3d0059d8	0.03133568
132	0xbc62a7b0	-0.013833925
133	0xbe105f76	-0.14098915
134	0x3dabee3d	0.0839505
135	0xbd688df9	-0.05677602
136	0x3b046b62	0.0020205607
137	0x3d847c02	0.06468965
138	0xbd811941	-0.06303645
139	0x3d8f73de	0.07004522
140	0xbceedd28	-0.02915819
141	0x3dbebeb4	0.093137175
142	0xbb7547d9	-0.0037426858
143	0x3be6834d	0.0070346952
144	0x3dabe285	0.083928145
145	0x3dce62aa	0.100774124
146	0xbd68d449	-0.056843076
147	0xbd34ac8d	-0.04410987
148	0xbd87f717	-0.066389255
149	0x3d87a1f8	0.0662269
150	0x3dcdddd9	0.1005208
151	0x3c4d1923	0.0125182
152	0xbddfac8a	-0.10921581
153	0xbe0c92cb	-0.13727872
154	0x3cd5470c	0.026034854
155	0xbc58f740	-0.013242543
156	0xbd8e1c9a	-0.06939049
157	0x3dd91422	0.10599543
158	0x3d60d573	0.05489106
159	0xbd328d92	-0.043592043
160	0x3dc36df0	0.09542453
161	0xbdf3ffb2	-0.119140044
162	0xbe16d7bc	-0.14730734
163	0xbdd8a1cc	-0.10577735
164	0xbdb99096	-0.09060781
165	0x3d88f117	0.06686609
166	0x3c03657b	0.0080198
167	0x3d37449e	0.044743173
168	0xbdb62b5e	-0.088949904
169	0xbe122c68	-0.14274752
170	0xbd501e98	-0.050810426
171	0xbdd7d4ab	-0.1053861
172	0x3cff66fe	0.03117704
173	0xbd0c40c3	-0.03424145
174	0x3d87a8f6	0.066240236
175	0xbd7cf807	-0.061759975
176	0x3dd7850e	0.10523425
177	0xbdc71774	-0.0972127
178	0xbe0704e6	-0.13185462
179	0x3b5db5d3	0.00338303
180	0x3dabf9f5	0.08397285
181	0x3da2264c	0.07917461
182	0x3c2107a0	0.009828478
183	0xbcd19bf7	-0.025587065
184	0x3dabe66d	0.083935596
185	0x3d93d297	0.07217901
186	0xbc0ba575	-0.008523335
187	0x3d24e8ac	0.040260956
188	0x3d8c8afa	0.06862445
189	0xbbebde20	-0.00719811
190	0x3da0558c	0.07828817
191	0xbc42fcb6	-0.011901071
192	0x3b99d7f8	0.004694935
193	0x3ea00918	0.31256938
194	0xbc977378	-0.018487677
195	0x3e54edcb	0.20793836
196	0x3db05b1e	0.08611129
197	0x3ccccad8	0.024999067
198	0x3dc4bcd0	0.096063256
199	0xbd87cc05	-0.066307105
200	0x3df2df81	0.11859036
201	0xbddda276	-0.108220026
202	0xbe73a032	-0.23791578
203	0x3eaca62c	0.3372053
204	0x3db496a2	0.088177934
205	0x3ea5395c	0.32270324
206	0x3e648a24	0.22318321
207	0x3e0e218b	0.13879983
208	0xbeffb0e0	-0.49939632
209	0x3e89ba4a	0.2689994
210	0x3de24a2f	0.11049306
211	0xbd6d1129	-0.057877693
212	0xbe7db386	-0.24775514
213	0x3fdd2302	1.7276309
214	0xbe29351d	-0.16524167
215	0xbe2673de	-0.16255137
216	0xbde7bcca	-0.113153055
217	0xbee94deb	-0.4556726
218	0x3e8819ec	0.26582277
219	0x3daf6bd2	0.08565487
220	0xbd993a88	-0.07481867
221	0xbde58110	-0.11206257
222	0x3d66dba8	0.056361824
223	0x3e48095d	0.19534822
224	0xbd4be4cd	-0.04977875
225	0x3e916550	0.28397608
226	0x3ef47dc3	0.477522
227	0x3dd050ce	0.10171662
228	0x3da914e8	0.08255941
229	0xbbe88b31	-0.007096671
230	0x3dd851e9	0.10562498
231	0x3d655ebb	0.055998545
232	0xbd91153e	-0.0708413
233	0x3dd6ae4e	0.10482465
234	0xbda3588a	-0.07975872
235	0xbd79d408	-0.060993224
236	0x3ff1d8d4	1.8894296
237	0x3e177ccf	0.14793704
238	0xbe720958	-0.23636377
239	0x3dae50a1	0.085114725
240	0x3d06d606	0.032918952
241	0xbe2a7e89	-0.16649832
242	0x3c33af1e	0.010967044
243	0xbe023e42	-0.12719062
244	0xbe835b08	-0.2565539
245	0x3e7eb33e	0.24873063
246	0x3de8d9e8	0.11369687
247	0xbe9b5320	-0.30336857
248	0x3e153d39	0.14574136
249	0x3af4e083	0.0018682632
250	0xbe0cb7ed	-0.13742037
251	0xbdec5be6	-0.11540966
252	0xbd9684e3	-0.07349565
253	0x3d52c04d	0.051452924
254	0xbda2e852	-0.07954468
255	0xbe1213de	-0.14265391

fc2.bias f4 [64]
0	0x3f549b32	0.8304931
1	0xbc803f60	-0.01565522
2	0xbd928e10	-0.071560025
3	0x3ef5657e	0.47928995
4	0x3f20eddd	0.6286295
5	0x400ec58f	2.230808
6	0xbd6ad01b	-0.05732737
7	0x3db7ec97	0.08980673
8	0x40087f8a	2.1327844
9	0xbcd70268	-0.026246265
10	0x4011596c	2.2710829
11	0x40167126	2.350656
12	0x3fb0ad8a	1.380296
13	0xbddda94e	-0.10823308
14	0xbdbade82	-0.09124471
15	0x3a572bce	0.00082081265
16	0x4001d284	2.0284739
17	0xbde60590	-0.1123153
18	0xbdb54727	-0.08851462
19	0x4014d3cd	2.3254273
20	0x3da64913	0.081194066
21	0xbd9bec87	-0.076134734
22	0x401093dd	2.2590249
23	0x3f13f8d9	0.57801586
24	0xbd8faa50	-0.070149064
25	0xbd383e0a	-0.04498104
26	0x3f10e9e1	0.5660687
27	0x3fb0659b	1.3781008
28	0xbd243d77	-0.04009768
29	0x3f8960aa	1.0732625
30	0x40131b09	2.298525
31	0x3d5c334d	0.05375986
32	0x40062e89	2.0965903
33	0x3fb3270b	1.399629
34	0x3cf54fa5	0.029945204
35	0xc00b7da7	-2.1795442
36	0xbdfc3b32	-0.12315978
37	0xbda097dc	-0.07841465
38	0x3fc58937	1.54325
39	0x3f2950b1	0.6613875
40	0x3fb5ed1e	1.4212987
41	0xbcdb5336	-0.026773077
42	0x4016502d	2.3486435
43	0x40085062	2.1299062
44	0x3f83712d	1.0268914
45	0x3d4c0a47	0.04981449
46	0x3fffbc01	1.9979249
47	0x3f57c5cc	0.8428619
48	0x3d8da2b0	0.06915796
49	0xbddc7447	-0.10764366
50	0x3fd3d746	1.6550071
51	0xbfad240b	-1.3526624
52	0x3ffb0820	1.9611855
53	0xbbe1567d	-0.0068767653
54	0x40121ca7	2.2829988
55	0x3f3024b7	0.6880602
56	0x3fc6816e	1.5508249
57	0xbeea976a	-0.45818645
58	0x3fcdef95	1.608874
59	0x3fbff801	1.499756
60	0x3f2f0470	0.68366146
61	0x3d977565	0.07395438
62	0xbd9d56dc	-0.07682583
63	0x3f85ebde	1.0462606

fc3.weight f4 [20, 64]
0	0x3e228a44	0.15873057
1	0xbddb7ac2	-0.107167736
2	0x3b59833a	0.003318979
3	0xbdfc7eec	-0.12328896
4	0xbe227b84	-0.1586743
5	0x3f1bcdb3	0.6086075
6	0xbdfc80a0	-0.12329221
7	0xbdb1e59a	-0.08686371
8	0x3ed7dffd	0.42163077
9	0xbd6fb607	-0.058523204
10	0x3ef008a4	0.46881592
11	0x3f3a9b9f	0.7289371
12	0x3e0be2b6	0.13660702
13	0xbc8e0248	-0.017335072
14	0x3c8776d0	0.016536146
15	0xbd84bf2e	-0.06481777
16	0x3eaeac01	0.34115604
17	0xbdde2a4a	-0.1084791
18	0x3bf53b7f	0.007483899
19	0x3f120e0d	0.5705269
20	0xbd09480e	-0.033515982
21	0x3dd21bce	0.102592096
22	0x3eeddf79	0.4645956
23	0x3b6f88e1	0.0036550092
24	0x3d8c9f5c	0.06866333
25	0xbda70850	-0.08155882
26	0xbe1dc24b	-0.15406148
27	0x3e1adde8	0.15123713
28	0x3dc1f308	0.09470183
29	0xbf25e03c	-0.6479528
30	0x3f1e54b1	0.6184798
31	0x3dcadfd3	0.09905972
32	0x3ee421a6	0.44556922
33	0x3e6f644f	0.23378108
34	0x3d166673	0.036718797
35	0xbf146bb4	-0.5797684
36	0xbdc0062c	-0.09376177
37	0x3b177a40	0.0023113638
38	0x3e8f5694	0.2799574
39	0x3f3c8f3a	0.73656046
40	0xbea1849e	-0.3154649
41	0x3d79b698	0.06096515
42	0xbf6b5cef	-0.9193868
43	0x3f1abdfb	0.6044614
44	0x3e28f6c0	0.16500378
45	0xbdef5846	-0.11686759
46	0xbf9c2054	-1.2197366
47	0xbd57140c	-0.052509353
48	0xbd85cb72	-0.06532945
49	0x3ded8f50	0.115996
50	0x3e889b71	0.26681092
51	0xbefdb974	-0.49555552
52	0x3eef0e2c	0.466905
53	0xbc79982d	-0.015234035
54	0xbfba2b97	-1.4544553
55	0xbe14fd59	-0.1454977
56	0x3eb3c5d2	0.35111862
57	0xbe16962c	-0.14705724
58	0x3e4a8de8	0.19780695
59	0x3e6db3fe	0.23213193
60	0x3ef95fd9	0.48705938
61	0xbce74890	-0.028232843
62	0x3c8e3e88	0.017363802
63	0x3d471445	0.048603315
64	0xbad76577	-0.0016433437
65	0xbdfd70d0	-0.12375033
66	0x3dfed914	0.12443748
67	0xbd2b2aad	-0.041788746
68	0x3e349c08	0.17637646
69	0x3ec3c1d3	0.38233814
70	0x3dd44e50	0.103664994
71	0x3de0d17a	0.109774545
72	0x3ea4d34c	0.32192457
73	0xbdbd8352	-0.09253563
74	0x3ed5bf0b	0.41747317
75	0x3f2400f6	0.64063966
76	0xbe032009	-0.12805189
77	0x3d3c02b4	0.045901015
78	0x3d1f7160	0.038926482
79	0x3df14478	0.117806375
80	0x3ea18fb9	0.31554964
81	0x3e438ba2	0.19096234
82	0xbd232c6e	-0.039837293
83	0x3eee3476	0.465244
84	0x3d542510	0.051793158
85	0x3dab907d	0.08377168
86	0x3efed1f8	0.49769568
87	0x3e04a025	0.12951715
88	0xbdd85886	-0.105637595
89	0xbcef92de	-0.029244836
90	0x3d965b45	0.07341627
91	0x3e2e16aa	0.17000833
92	0xbd287f52	-0.041137047
93	0xbe1b0aba	-0.1514081
94	0x3ed3c726	0.41362876
95	0xbc3bddf0	-0.011466488
96	0x3e90e124	0.2829677
97	0x3ea7276f	0.32647273
98	0xbd5cb6af	-0.05388516
99	0xbe787dfa	-0.24266806
100	0x3d5d363f	0.05400681
101	0x3db99b48	0.09062821
102	0x3e586e19	0.21135749
103	0xbead580b	-0.33856234
104	0xbea6da28	-0.32588315
105	0xbcc39119	-0.023872899
106	0xbf933a1c	-1.1502109
107	0x3ef6f881	0.48236468
108	0x3d55da61	0.052210215
109	0xbd9241f4	-0.07141486
110	0xbf0e4b13	-0.55583304
111	0xbe7c3488	-0.24629414
112	0x3ddf363a	0.10899015
113	0xbd4a671f	-0.04941475
114	0x3e36ab8e	0.1783888
115	0xbe32ed03	-0.17473225
116	0x3e590946	0.21194944
117	0x3c8caf4a	0.017173428
118	0xbf5242d3	-0.82133216
119	0x3dec15dd	0.115276076
120	0x3e6be07a	0.2303485
121	0xbe4f747f	-0.20259283
122	0x3e947fa7	0.2900364
123	0x3e0a7289	0.13520254
124	0xbe901f5a	-0.2814892
125	0xbe04f37e	-0.1298351
126	0x3d8e1b21	0.06938768
127	0x3e86f23d	0.26356688
128	0xbe6728b9	-0.22574128
129	0x3dfd2c1e	0.1236193
130	0xbdd69c29	-0.10479004
131	0x3dc3ced7	0.09560936
132	0x3da157b5	0.07878057
133	0x3edf0037	0.4355485
134	0x3cf734f8	0.030176625
135	0xbd27a879	-0.040932152
136	0x3e5fe3b9	0.21864213
137	0x3cbc47f8	0.022983536
138	0x3efb98e6	0.4914009
139	0x3f01dc58	0.5072684
140	0x3e87e3d2	0.26541
141	0x3d814546	0.06312041
142	0xbd16c81c	-0.036811933
143	0xbcb3a159	-0.021927522
144	0x3e6d08fd	0.2314796
145	0x3eb1f9d3	0.34760913
146	0xbdb8a863	-0.09016492
147	0x3ed5425a	0.41652185
148	0xbdb599e2	-0.088672414
149	0x3db5ba16	0.08873384
150	0x3f0e62f0	0.55619717
151	0x3ea18a01	0.315506
152	0x3df2cb22	0.11855151
153	0x3cc2c1db	0.023774078
154	0x3e8ee475	0.27908674
155	0x3df5367d	0.119732834
156	0xbdc9c30e	-0.09851657
157	0x3c41e6c3	0.011834803
158	0x3ee2a804	0.4426881
159	0xbd78cfa8	-0.06074491
160	0x3eb51bf6	0.35372895
161	0x3e4749f8	0.1946181
162	0xbdaa50e4	-0.0831621
163	0xbe1dd8ef	-0.15414785
164	0x3d0c943c	0.034321055
165	0x3cc4dc08	0.0240307
166	0x3e0f20fc	0.13977426
167	0x3cd20d94	0.02564124
168	0xbed85b62	-0.4225722
169	0xbdc5a073	-0.09649744
170	0xbf826219	-1.0186187
171	0x3f1d60b8	0.61475706
172	0x3e3bd8ce	0.18344423
173	0xbd0a9b4c	-0.03383951
174	0xbf15acb1	-0.5846663
175	0x3ed00131	0.4062591
176	0xbdf40594	-0.119151264
177	0xbbdf0d20	-0.0068069845
178	0x3e7b1af6	0.24522004
179	0xbd1c17f5	-0.038108785
180	0x3e2e76d8	0.17037523
181	0x3d1a0226	0.037599705
182	0xbf847605	-1.0348517
183	0x3e567928	0.20944655
184	0x3ec02624	0.375291
185	0x3e4bccd6	0.19902357
186	0x3d5973aa	0.05308882
187	0x3deb3928	0.11485511
188	0xbec17614	-0.377854
189	0xbc9a712f	-0.018852798
190	0x3e0fadf6	0.14031205
191	0x3e3db111	0.18524577
192	0x3cd1a7ea	0.025592763
193	0xbc9ecdb0	-0.019385189
194	0xbd8ff9e6	-0.07030086
195	0xbeac7235	-0.33680883
196	0xbe9247f3	-0.28570518
197	0x3eceb291	0.4037061
198	0xbb0c0243	-0.0021363653
199	0x3cf7fb3d	0.030271167
200	0x3eacbb34	0.33736575
201	0xbda69709	-0.081342764
202	0x3f0d8a80	0.5528946
203	0x3edc2979	0.4300039
204	0x3ec656e1	0.38738158
205	0xbdddec32	-0.10836066
206	0x3c04c340	0.008103192
207	0xbdec5aa3	-0.11540725
208	0x3ea025e4	0.31278908
209	0x3e37c93b	0.17947857
210	0x3d7509ad	0.05982368
211	0x3ef1b4b2	0.47208172
212	0xbcd6d74c	-0.026225708
213	0xbcd39598	-0.025828168
214	0x3ef076de	0.46965688
215	0x3e9fe814	0.3123175
216	0x3d4a4bc7	0.049388673
217	0xbdde3580	-0.10850048
218	0x3de7f804	0.11326602
219	0xbce13f02	-0.027495865
220	0xbc997b86	-0.018735658
221	0xbe5b0230	-0.21387553
222	0x3efa5a44	0.48896992
223	0x3d9a7d56	0.07543437
224	0x3edb50f7	0.4283521
225	0x3dd225b2	0.10261096
226	0x3cde8a38	0.027165517
227	0xbe943040	-0.28943062
228	0xbe1b8729	-0.15188278
229	0xbcd363ef	-0.025804488
230	0xbc3564c8	-0.011071391
231	0xbd01bcb9	-0.03167412
232	0xbd1ed7c7	-0.03878
233	0xbdfb8f8e	-0.1228324
234	0xbf7755b8	-0.9661517
235	0x3ef86b79	0.48519495
236	0x3c402f3d	0.0117300125
237	0xbde8d28a	-0.11368282
238	0xbf21c8fb	-0.63197297
239	0xbdb32f8d	-0.08749304
240	0xbd294178	-0.0413222
241	0x3c179d60	0.00925383
242	0x3e26a8c3	0.16275315
243	0xbe6fb7ea	-0.23410001
244	0x3e68ae73	0.22722797
245	0xbdad6156	-0.08465831
246	0xbf6e49cb	-0.9308135
247	0xbb2a6d4d	-0.002600509
248	0x3e1fff90	0.15624833
249	0xbec0c1b7	-0.37647793
250	0x3e8febba	0.28109533
251	0x3d25ed0a	0.04050926
252	0xbe47f1c6	-0.19525823
253	0xbde90f46	-0.11379866
254	0xbe9095fb	-0.28239426
255	0x3eba021d	0.36329737

fc3.bias f4 [20]
0	0x3fe61e4a	1.7977993
1	0x3f22f470	0.6365423
2	0x3f187b7d	0.5956343
3	0x3f148023	0.5800802
4	0x3ed7a46f	0.4211764
5	0x3ef794ec	0.48355806
6	0x3ef65f95	0.48119798
7	0x3f1452d4	0.57938886
8	0x3eb69fc5	0.3566877
9	0x3e98f1de	0.2987203
10	0x3e57d34a	0.21076694
11	0x3d89dde0	0.067317724
12	0x3e0acbe0	0.13554335
13	0xbd2bb786	-0.04192307
14	0xbd40490d	-0.046944667
15	0xbe0f5222	-0.13996175
16	0xbdf71101	-0.1206379
17	0xbe5492ab	-0.20759074
18	0xbe4183be	-0.18897912
19	0xbe51f90e	-0.20505163

exp_avg f4 [64, 3]
0	0xbf996779	-1.1984702
1	0xc0c3ad5a	-6.114911
2	0x3fd8096c	1.6877875
3	0x3eb0a178	0.3449819
4	0x40b7e7f2	5.7470636
5	0xc1a6f726	-20.870678
6	0x00000000	0.0
7	0x00000000	0.0
8	0x00000000	0.0
9	0xc10bfc9a	-8.74917
10	0xc0d6c739	-6.711819
11	0xc29a6b93	-77.210106
12	0x00000000	0.0
13	0x00000000	0.0
14	0x00000000	0.0
15	0x3f607618	0.87680197
16	0x40a37e13	5.10914
17	0x4139a760	11.603363
18	0x00000004	6e-45
19	0x00000004	6e-45
20	0x00000004	6e-45
21	0xc1c4b93f	-24.590452
22	0xc1ee58ce	-29.793362
23	0xc2882095	-68.06364
24	0xc021696f	-2.5220602
25	0xc0eef2bb	-7.46713
26	0xc03e5246	-2.9737716
27	0x00000000	0.0
28	0x00000000	0.0
29	0x00000000	0.0
30	0xc1a905d3	-21.127844
31	0xc23b7585	-46.864765
32	0xc1a9d42f	-21.228605
33	0x40e2c332	7.0863276
34	0x405f0b50	3.4850655
35	0x411bb62b	9.731975
36	0x00000000	0.0
37	0x00000000	0.0
38	0x00000000	0.0
39	0x3fedfb4e	1.8592317
40	0x41b25fa6	22.296703
41	0xc0f3f9ab	-7.624227
42	0x00000004	6e-45
43	0x00000004	6e-45
44	0x00000004	6e-45
45	0x3fb1b6f7	1.3883961
46	0x417aadd9	15.667443
47	0xc13e8c96	-11.909323
48	0xc1782ebf	-15.511413
49	0xc0ba3f10	-5.820198
50	0xc2657419	-57.363377
51	0xc0915dd4	-4.5427036
52	0xc22d0111	-43.25104
53	0x4220b587	40.177273
54	0x40ec7187	7.3888583
55	0x3f4fc95b	0.8116662
56	0x423b596b	46.837322
57	0xc1674192	-14.453508
58	0xc1a4c6b5	-20.597025
59	0xc2019498	-32.39511
60	0xc1510845	-13.064519
61	0xc18ec610	-17.84671
62	0xc1eddac6	-29.731823
63	0x42acfdbe	86.49559
64	0x42e5ea3f	114.95751
65	0x42f4ea4d	122.45762
66	0x3fd4ffdf	1.6640586
67	0xbf00d7a1	-0.50329024
68	0x40a1efb9	5.060513
69	0xbff4f45d	-1.9137074
70	0xc0052127	-2.0801485
71	0xc1909fda	-18.078053
72	0x00000000	0.0
73	0x00000000	0.0
74	0x00000000	0.0
75	0xc1a7091e	-20.879452
76	0xc21f97df	-39.89831
77	0xc1eca203	-29.579107
78	0xc1243780	-10.26355
79	0xc0d8eb6e	-6.778739
80	0xc2408b0a	-48.13578
81	0x00000000	0.0
82	0x00000000	0.0
83	0x00000000	0.0
84	0x00000000	0.0
85	0x00000000	0.0
86	0x00000000	0.0
87	0x00000000	0.0
88	0x00000000	0.0
89	0x00000000	0.0
90	0xc114ce53	-9.300372
91	0xc1a0acb9	-20.084337
92	0xc121b938	-10.107719
93	0x40046f2b	2.0692852
94	0x41af267a	21.893787
95	0xc0c518f3	-6.1592956
96	0xc188163d	-17.010859
97	0xc1a89a69	-21.075396
98	0xc225719c	-41.360947
99	0x40da4710	6.8211746
100	0xc1844b00	-16.536621
101	0x42485d46	50.091087
102	0xc13234e5	-11.137914
103	0xc25f4dbe	-55.82592
104	0x42003cd1	32.05939
105	0x00000000	0.0
106	0x00000000	0.0
107	0x00000000	0.0
108	0x00000000	0.0
109	0x00000000	0.0
110	0x00000000	0.0
111	0xc1a7c509	-20.971209
112	0xc24ba591	-50.911686
113	0xc1793bc3	-15.57709
114	0x404ff183	3.2491157
115	0x42126fc4	36.609146
116	0xc15f99ad	-13.9750185
117	0x3de993ee	0.114051685
118	0xc0c36be8	-6.106922
119	0x40abcec8	5.368992
120	0xc1df5599	-27.916796
121	0xc27c612f	-63.094906
122	0xc1e0e4a0	-28.111633
123	0x00000004	6e-45
124	0x00000004	6e-45
125	0x00000004	6e-45
126	0x00000000	0.0
127	0x00000000	0.0
128	0x00000000	0.0
129	0xc1c194fa	-24.197742
130	0xc1e837af	-29.02719
131	0xc291c22d	-72.87925
132	0x430fb0be	143.6904
133	0x431f4045	159.25105
134	0x434b12de	203.0737
135	0xc1090b38	-8.565239
136	0xc074a1b8	-3.8223705
137	0xc29cc48c	-78.38388
138	0xc202d89d	-32.711536
139	0xc208ba88	-34.18216
140	0xc2aa8062	-85.25075
141	0xc1bf1eaa	-23.889973
142	0xc248ab65	-50.167377
143	0xc1d0d9bf	-26.106321
144	0x00000004	6e-45
145	0x00000004	6e-45
146	0x00000004	6e-45
147	0xc20ae9eb	-34.728436
148	0xc216c548	-37.692657
149	0xc2aedfe5	-87.437294
150	0xc165a9d3	-14.353961
151	0xc19c42fe	-19.532711
152	0xc1e34354	-28.407875
153	0xc225190a	-41.274452
154	0xc2344191	-45.06403
155	0xc2ce0357	-103.00652
156	0xc1880a53	-17.005041
157	0xc16c222f	-14.758346
158	0xc1c291f4	-24.321266
159	0x3e19ac68	0.15007174
160	0x3e8bf3a0	0.2733431
161	0xc17a2002	-15.632814
162	0x00000000	0.0
163	0x00000000	0.0
164	0x00000000	0.0
165	0xc15771c9	-13.46528
166	0xc13c1044	-11.753971
167	0xc15c4ea9	-13.769204
168	0x41b37aa2	22.43488
169	0x415405d8	13.251427
170	0x428c3703	70.107445
171	0xc2487965	-50.11855
172	0xc2d6d83b	-107.422325
173	0xc25222b2	-52.533882
174	0x00000004	6e-45
175	0x00000004	6e-45
176	0x00000004	6e-45
177	0x00000000	0.0
178	0x00000000	0.0
179	0x00000000	0.0
180	0xbf26a4a1	-0.65094954
181	0xc082cc6f	-4.0874553
182	0x401a35cf	2.4095342
183	0x42178a54	37.885086
184	0x41cf43f3	25.908178
185	0x428eeb24	71.45926
186	0x00000000	0.0
187	0x00000000	0.0
188	0x00000000	0.0
189	0xc201af08	-32.42093
190	0xc291a739	-72.82661
191	0xc1f6d344	-30.853157
