models/dqn_agent_firm_1_episode_2000.pth (torch, 101224 bytes, 24 tensors)

fc1.weight f4 [64, 3]
00000000: f044 3e3f ddc6 b53e 0a2f 69bd cf46 173f
00000010: 99a7 8b3d c051 ef3c e87e 53be 1382 51be
00000020: e0f8 493d 4bc3 5cbd c355 29be 5233 223d
00000030: 645a 19be 8a43 6a3e d890 8d3c ae23 143e
00000040: dc1c a53d 7ecd a3be 3c73 4abe 91b8 773d
00000050: cf1a 133d ef35 b53d a481 743b 37b9 9fbd
00000060: 88d0 353d 4d8c 683e 6818 543e 454e 1e3f
00000070: a34e bfbe 9577 8d3d 0fc2 f6be 5525 fb3e
00000080: d5c8 8bbe 8c7a d93d 024b a73d 36b2 59be
00000090: 2265 80be da57 6bbd eb7c 313c 4e19 98be
000000a0: 92db 653e 3b5d c33d a764 ffbd 60ae 683e
000000b0: d93e dc3c 187a 35be ed1f a53e 5ddb 3f3c
000000c0: f524 bb3d 8908 083e 7c36 9abd 0e83 7c3c
000000d0: 8a03 42bf 8532 70b8 8dcf bf3e 9b49 10bf
000000e0: 25ce 03bf fcd8 083d 39ed 183e 5a05 e33d
000000f0: 7231 1f3f 75ca 343f 66a7 fb3e 8b0c 8fbe
00000100: 1310 bfbd bd0a 8bbb 69ea 123e 061f 433e
00000110: 4fac 953c fabe 653e c0a1 f4be 0e9d 05bf
00000120: fcee bfbd 2ab1 2d3f c9e4 08be 3e28 023d
00000130: 1ba7 f73e 7f51 09be b98a b8be 0d48 09be
00000140: 8a5c 8cbe 4533 e33e 9921 e4be c29f 833e
00000150: 14b5 d6be 49b4 d4be 9429 22be 2b99 94be
00000160: 33b5 cfbe ef36 8a3e 54a1 5abe 0577 e7be
00000170: 1b9e 0cbf 92ca 19bf bc5a 063d 92a1 08be
00000180: e92b ab3e 8c23 823e 37d9 593d c02b 0d3e
00000190: fc73 ea3d d39f 76be b3fd 1bbf a6e7 3cbe
000001a0: 74ee 163e e149 5dbe de44 4b3c 8758 0ebf
000001b0: c161 b53e 5f9c 7cbd e85d 333d c936 2a3e
000001c0: 4da1 9f3d d4d7 243d daf7 2dbf b0af 6ebe
000001d0: 82d0 273e 4dd9 f0be 6e59 27be 5834 81be
000001e0: b4ef dabe 6ef8 883d e2c8 13bf 2db2 f8bd
000001f0: 16d1 56be 5826 843d fe89 03bf 3346 a53d
00000200: 2706 b23d 3ecc b13e b25f 3cbf 448c 633c
00000210: 65f4 77bd 2349 f33e acac 3f3e d138 5c3d
00000220: 292c ae3b 09db 163d e128 f83c 845a e0bd
00000230: 9381 b6be 9fcb b3be bb10 38be 17a8 733d
00000240: a7ee a8bf 51fa 0abf a96a b03d 845e 1ebe
00000250: b6b3 593f 94db 783c 1951 9bbe 7980 b13e
00000260: 6643 90be 21fb 073f 1c75 e43e fab0 c93c
00000270: c597 063f 5e9c 20bf cebb 8e3d 3788 a0bd
00000280: d775 bebe 7969 63bd 3db5 c5be f66e 0fbf
00000290: bf9c 12be d1f6 1d3f 2a8e 683e deb5 c43c
000002a0: 4934 083e 1b37 0bbf f61f 3e3d 50f9 823e
000002b0: ff22 063e 95b4 1dbe a788 a63e 4039 123e
000002c0: 332d 143e d9d9 383e 97e3 bbbe 920e 58be
000002d0: dc3f 883d 3223 e3bd 8f1f 15bc 96f9 b73e
000002e0: 1a08 383d 6e19 9f3c 822e f6bd 0f89 dabe
000002f0: 730a b5be f85d be3e d27f bdbe 195b 573e
0.7432394 0.35503283 -0.056929626 0.5909242 0.06819076 0.029213786 -0.2065388 -0.20459776
0.04930961 -0.053897183 -0.16536622 0.039599724 -0.14975888 0.22877327 0.017280981 0.14466736
0.08062145 -0.31992716 -0.19770521 0.06047875 0.03591424 0.08848178 0.0037308717 -0.07798999
0.044388324 0.2270977 0.20712435 0.6183818 -0.37364683 0.06907574 -0.4819493 0.4905192
-0.2730166 0.10619077 0.081686035 -0.21259388 -0.25077158 -0.05745683 0.010833005 -0.29706806
0.2244704 0.09539267 -0.1247037 0.22722769 0.026885437 -0.17722356 0.3225092 0.011710015
0.09137908 0.13284506 -0.07529923 0.015412105 -0.7578665 -5.726751e-05 0.37463036 -0.56362313
-0.51486427 0.033410057 0.14934243 0.11085005 0.6218482 0.70621425 0.49151152 -0.27939257
-0.09329238 -0.0042432235 0.14347233 0.19054803 0.01827064 0.22436133 -0.47779655 -0.5219277
-0.093717545 0.67848456 -0.13368525 0.03177666 0.4836968 -0.13409995 -0.36043337 -0.13406391
-0.27414352 0.44375053 -0.44556883 0.25707823 -0.41935027 -0.41543797 -0.15836173 -0.29023108
-0.40567932 0.26995036 -0.21350604 -0.45207992 -0.5492875 -0.6007472 0.032801375 -0.13342884
0.33431938 0.25417745 0.053185668 0.1378622 0.114479035 -0.24084406 -0.6093399 -0.18447742
0.147394 -0.21610214 0.012406556 -0.5560383 0.35426143 -0.061672565 0.043790728 0.16622461
0.077944376 0.040244892 -0.67956316 -0.23309207 0.16388133 -0.47040787 -0.16342708 -0.25235248
-0.42761004 0.06688009 -0.577284 -0.12143359 -0.20978197 0.06452626 -0.51382434 0.0807003
0.0869258 0.34726137 -0.7358352 0.013888422 -0.060535807 0.47516736 0.18718213 0.05376512
0.005315323 0.036829982 0.03029293 -0.109547645 -0.35645732 -0.35116288 -0.17975132 0.059486475
-1.3197831 -0.542882 0.08614094 -0.15465742 0.8503984 0.01518907 -0.3033531 0.3466833
-0.2817642 0.5311757 0.44620597 0.024620522 0.5257533 -0.627386 0.06969415 -0.07838481
-0.3719928 -0.05552051 -0.38614836 -0.5602869 -0.14317606 0.61704737 0.22710481 0.024012502
0.13301195 -0.5438096 0.0464172 0.25580835 0.13099287 -0.15400918 0.32526132 0.14279652
0.14470367 0.18051852 -0.36697075 -0.21099308 0.06652805 -0.11090697 -0.009101762 0.35932606
0.0449296 0.019421306 -0.120205894 -0.42682692 -0.35359535 0.37181067 -0.37011582 0.21030845

fc1.bias f4 [64]
00000000: d08e 363f d7c1 3a40 1297 8b40 f8eb 8140
00000010: da9b 98be 788c 4840 700a 7640 028e 4640
00000020: 1b75 0240 d60f 893f 60ee 3840 7e36 8440
00000030: 761b 5340 f48f 6c40 2c26 6d40 0d5b 4340
00000040: d9ad 4b40 b598 89be 48f2 26bd 17cb 1fbf
00000050: d885 39c0 3f7d 2f40 4d3d 4440 7e47 0bbf
00000060: e4ca 95be ceec d93f ad96 87be fcdf 22c0
00000070: 5fd4 5e3d e2a0 63c0 f755 ffbe 09b2 eabe
00000080: f7ef 8abf 5c08 a63e 9612 57c0 e76b ffbe
00000090: 2510 0540 a984 0540 91db 5ec0 a43d 88be
000000a0: 5c3c fdbe c123 7f40 f129 4540 b190 03c0
000000b0: 4c1a cabf 382b 3840 4d48 adbe 72c8 5e40
000000c0: 676b 24c0 8a28 18c0 3161 4c3f 24bf 4140
000000d0: 463b 0f40 b0d0 0840 82dd f3be 3ea6 3340
000000e0: 144f e43f f6e1 8040 aad5 9a3f d3d3 bfbd
000000f0: 86f3 3440 f571 2640 9ba2 8ebe b246 05c0
0.71311665 2.918081 4.362191 4.060055 -0.29806405 3.1335735 3.844387 3.1024175
2.0383976 1.0707958 2.8895493 4.131652 3.298551 3.6962862 3.7054548 3.0524323
3.1824858 -0.2687432 -0.0407584 -0.62419266 -2.8987942 2.7420194 3.0662415 -0.54405963
-0.29256356 1.7025392 -0.26482144 -2.544921 0.05440175 -3.5566945 -0.49870273 -0.45838955
-1.0854481 0.32428253 -3.3605094 -0.4988701 2.0791104 2.086222 -3.4821513 -0.26609528
-0.49460113 3.9865572 3.080685 -2.0557063 -1.5789275 2.8776379 -0.33844224 3.4809842
-2.5690553 -2.3774743 0.798358 3.0272913 2.2379928 2.1377373 -0.47629935 2.8070216
1.7836633 4.027583 1.2096455 -0.09366574 2.8273635 2.6007054 -0.27858433 -2.08244

fc2.weight f4 [64, 64]
00000000: 7238 2abc 9eba 963b 187f 95bc 3c9e 14be
00000010: 34e0 38bd 8dfa d9bd 6880 ff3b 0669 3cbe
00000020: bc55 6c3c f35d 48bd 8e64 76bd ebe6 453d
00000030: be1f 1e3c 1585 4f3d 4425 14be c5db 0abe
00000040: 5c96 90bd af33 88bd e81f 7a3d a1a1 b33d
00000050: a0ea 373d 2591 253d 9f7d dc3c 28ea 21bd
00000060: fbe4 aabd 01cf 993d 0cef 07bd 47b6 07be
00000070: a4d6 ac3d 6cf8 373d 6ce3 343d c85f e43c
00000080: 18a8 f83d 9735 56bd 0c3c 73bc 8084 f4bc
00000090: ba1a f4bd f3cf 713c 4a31 b03d e886 c53c
000000a0: e0f5 ff3c bc4f 09be b303 3a3d 612b 08bd
000000b0: 993d 85bd 6b7f b4bd cc23 0a3d 130d 05be
000000c0: 9c38 f8bd 3af2 bf3d c0f9 853c 9a0d 96bc
000000d0: 04da d4bd 848f dcbd 4035 89bd 404c 6a3d
000000e0: bbdf 13bd 7443 ab3c e6d3 a8bd 7a9e b1bd
000000f0: 69b5 5cbd 1a82 afbd 4c83 84bd f8d1 6bbd
00000100: afb5 873d ebcf dc3d ff2b 36bd 4ae9 cfbd
00000110: 948b 0abd 60ea e13b e3d8 99bd f165 12bd
00000120: dfbb ba3d 8000 d53a 92dc 673c 605e 09bd
00000130: d918 203d 2341 e3bc de37 6cbc 0d66 983d
00000140: e5ba 413d f661 a4bd 040f dc3d 59a9 8bbd
00000150: 7339 66bd fd20 87bc 7b44 d2bc 14d5 b0bd
00000160: c901 babd 33c1 b43d 00d3 a7bc 380d f13c
00000170: e4e3 313d f09f 9b3c b252 b8bd 4697 f93d
00000180: 9195 a93d e984 563d 4090 543c 0c7d e8bd
00000190: 57fc aabd ddd1 fabd 00d9 d8ba ec5f 003d
000001a0: 4691 ed3d a0ff b7bc c1bb 2c3c 3265 e73d
000001b0: 49a6 f5bd dbc0 49bd 7880 13bd 845c 5b3d
000001c0: f36c eabd 135c 78bd 7b9d a5bd b3ab afbc
000001d0: c0d0 a73b c954 6d3d bc7c 68bd c54a a9bd
000001e0: 88e1 c03c 8e2f f5bd 57ac 63bd f075 683c
000001f0: 5abf b3bd 50e0 ddbd 4068 e5bd 8a16 99bd
00000200: e616 06be b86f bbbd cd5a 2f3d ccb5 86bd
00000210: 77bf a1bd 26e9 c43d ec58 ecbd 64f0 7c3d
00000220: 7399 79bd eced 83bd e255 ec3d 68d7 6e3b
00000230: 22fa aabd d93a d1bd 687a e13d 2b7c 1f3d
00000240: 5121 64bd 8871 e3bd 0828 e2bd 63b9 15bc
00000250: 21d1 163d 1fef 83bc 90f6 713d 5019 d03d
00000260: 2c23 5cbb b46c 843d e012 a73c 2041 23bd
00000270: ac6d f5bd 3d6c 15be c427 d4bd 7c39 bc3d
00000280: c257 533c 41e3 7d3c 6319 d8bd 9a56 c8bd
00000290: 1fc3 b3bd 6ade 893c 6381 343c fa27 bebd
000002a0: c011 823b 7934 c23c d5ce e3bd 250a 22bd
000002b0: ef88 20be 55d7 d23b 665c a5bd 6a5e 08be
000002c0: e6fc f7bc 43ec 82bd 7a43 9abd 5fac 64bd
000002d0: 4e91 fb3d e2b5 06be b4ad b4bd d070 ac3d
000002e0: 2a31 083d 23ea 853d d33d 3dbd d0ec 333d
000002f0: 01cd 0abd b53e 33bd 9062 e6bd ee05 a3bd
00000300: c6ae 9abd 8fd9 40be cf5e 413f b675 893f
00000310: 56ab 9bbe a3e0 c43f ace4 eb3e 3d3f fa3f
00000320: 1d8c 82bd d6e9 683d 4d5e 4c3f 878b f53f
00000330: 15cc e23e dea6 4c3d cbef 9b3e 48e6 79bd
00000340: 27a8 363f a244 49be b8b4 c23c 1da0 74be
00000350: 3c76 7abe 72e8 2d3f 898a d23d 1a5a b73d
00000360: a4cb 7bbe e645 8a3e 18b6 0b3d d891 b7be
00000370: 00c4 31bd e956 dfbe 60db 40bd 221e 703d
00000380: 1126 13be 8c6f 6d3d 50c3 643d 7ec7 e43d
00000390: 9712 c8bd 3310 413d 8d65 20be 9032 e0bc
000003a0: 000a ba3c 2e00 973e 95af 0e3f f6e4 923e
000003b0: b190 7abe 9964 4e3d 24b2 333d 5d3e de3e
000003c0: 3fe7 a0bf 662b 38bc 643e 2e3e 9bcb 0fbe
000003d0: dda3 db3d aab5 853e ea6a df3d d4a1 96bd
000003e0: 05a8 ea3d 531d c03f 1682 32be 72eb 8c3d
000003f0: 3bfe 003f 28fd 0fbe d84d 6e3d e716 10be
-0.010389434 0.004599883 -0.01824908 -0.14513487 -0.04513569 -0.10643492 0.0077972896 -0.18399438
0.014424738 -0.048917722 -0.06015449 0.048315924 0.009651123 0.050664026 -0.1446734 -0.13560398
-0.07059929 -0.06650483 0.061065584 0.08771063 0.04490149 0.040421624 0.02691537 -0.03952995
-0.08344456 0.07510186 -0.033186957 -0.13253127 0.08439377 0.044914648 0.0441622 0.027877703
0.12141436 -0.0522972 -0.014845859 -0.029848337 -0.1191916 0.014759052 0.08603151 0.02411218
0.031245172 -0.13409323 0.045413684 -0.033244494 -0.065058894 -0.088133655 0.033725545 -0.12993269
-0.121201724 0.09372373 0.016354442 -0.018317033 -0.10393146 -0.10769561 -0.0669961 0.057201624
-0.036102038 0.020906188 -0.082435414 -0.08672805 -0.053883944 -0.08569737 -0.064703554 -0.05757329
0.0662645 0.10781845 -0.04447555 -0.10151918 -0.03382452 0.0068943948 -0.07512071 -0.03574175
0.09117865 0.0016250759 0.014151709 -0.03353727 0.039086197 -0.02774102 -0.014417617 0.0744134
0.047297377 -0.08026497 0.107450515 -0.0681941 -0.05620713 -0.016495222 -0.02566742 -0.086343914
-0.09082372 0.08825912 -0.020486355 0.029425249 0.043430224 0.018997163 -0.09000148 0.12187056
0.08280481 0.052372847 0.012973845 -0.11351976 -0.08348911 -0.122470595 -0.0016544163 0.03134148
0.11599974 -0.022460759 0.010542811 0.11298598 -0.11994607 -0.049256187 -0.03601119 0.053555027
-0.11446562 -0.060634684 -0.08086678 -0.021444177 0.0051213205 0.057942186 -0.05675958 -0.08266214
0.023545042 -0.11971961 -0.055584278 0.014188275 -0.08776732 -0.108338 -0.11201525 -0.07475002
-0.13094673 -0.09152168 0.042811204 -0.06577644 -0.07897847 0.09614782 -0.11540398 0.061752692
-0.060937356 -0.06441864 0.11539818 0.003644431 -0.0834849 -0.102163024 0.11009675 0.038936775
-0.055695836 -0.11105639 -0.110427916 -0.009138438 0.036820535 -0.016105233 0.05907303 0.10161078
-0.00335903 0.06466046 0.020394742 -0.03985703 -0.11983809 -0.14592071 -0.10359147 0.09190652
0.012899341 0.015496076 -0.10551717 -0.09782143 -0.08777451 0.016829688 0.011017176 -0.09284969
0.003969401 0.023706662 -0.111234345 -0.039560456 -0.15677236 0.006434361 -0.08074264 -0.13317266
-0.030271959 -0.063927196 -0.075324014 -0.05582845 0.12283574 -0.1315532 -0.08822194 0.08419955
0.03325001 0.06538799 -0.04620154 0.043927014 -0.033886913 -0.043760974 -0.11249268 -0.079601154
-0.07552867 -0.18832992 0.7553529 1.0739048 -0.30404156 1.5381054 0.460729 1.9550549
-0.06374381 0.05686363 0.7983139 1.9183205 0.44296327 0.049963824 0.30456385 -0.06101063
0.7135033 -0.19655088 0.023767814 -0.23889203 -0.24459165 0.6793281 0.1028033 0.089527324
-0.24589401 0.27006453 0.034109205 -0.35853457 -0.04339981 -0.43620995 -0.047084212 0.058622487
-0.1436999 0.057967708 0.055850327 0.111708626 -0.09769171 0.04713459 -0.15663739 -0.02736786
0.022709846 0.29492325 0.55736667 0.28690308 -0.24469258 0.050388906 0.04387106 0.43406954
-1.2570571 -0.011240816 0.17015988 -0.14042513 0.10724614 0.2611516 0.10909064 -0.07355085
0.114578284 1.5008949 -0.17432436 0.06880845 0.50387925 -0.14061415 0.058179706 -0.14071237

fc2.bias f4 [64]
00000000: 0c69 cabd 0d8c ba3d 07c6 833d efd8 173f
00000010: 44fa d5bd 3e02 783d 5e83 ecbd 84d7 fb3d
00000020: 0cb2 123e d4c3 65bf 1bc6 ef3f 32bf 1440
00000030: 2ab3 dc3f c86e 90bd b6ef a73f 7f0c a53f
00000040: cdb5 783f c680 b0bd 71e0 fa3e e20b 1440
00000050: c04f a7bc a0a6 a43f 42d3 0a40 c8b9 ee3f
00000060: 5420 853f 6819 33bb 5d98 e8bd ec22 d33f
00000070: e4ef 043d ce68 f3bd f417 e43f 0042 823a
00000080: 5788 f23f 170b 2340 fbdc 8dbf 17cf 0540
00000090: 6c0e 19be ca17 3e3f 869f 0340 2242 223f
000000a0: 4e5a b23f 5e1c 98bd ac63 6e3d b06b 8fbd
000000b0: ae0b 943f 86fa 23bf e384 a33f 2d6a f7bd
000000c0: 595c a53c f0bf c63c dbaa 663c 51d4 d23f
000000d0: aa63 7e3f cbc3 ff3f 0cfe ccbd 2bdd e93f
000000e0: c93b 1d3c 4b3c c33e 3445 803f 00a3 b1bd
000000f0: 1fc1 0d40 6356 a0bc 70f5 fa3f 212f 68bd
-0.09883317 0.09108744 0.06434255 0.5931539 -0.10448125 0.060549013 -0.11548494 0.12296966
0.14325732 -0.89751935 1.8732332 2.3241696 1.7242177 -0.0705238 1.3120029 1.2894439
0.97152406 -0.086183116 0.4899936 2.3132253 -0.02042377 1.286335 2.1691442 1.8650446
1.0400491 -0.0027328376 -0.11357186 1.6495032 0.03245534 -0.11885224 1.781981 0.0009937882
1.8947858 2.5475519 -1.1083063 2.0907648 -0.14946908 0.7425505 2.0566115 0.6338216
1.3933809 -0.074272856 0.058200523 -0.07002962 1.1566064 -0.64054143 1.2774929 -0.12080798
0.020185636 0.024261445 0.014078821 1.6471044 0.99370825 1.9981626 -0.10009393 1.827062
0.009596773 0.38131937 1.0021119 -0.08673668 2.2149122 -0.019572442 1.9606152 -0.05668557

fc3.weight f4 [20, 64]
00000000: c97a e03b 70f5 273c 5f58 65bc e439 573f
00000010: ea69 2d3d d257 e23b 08d2 cfbd 88d9 4c3d
00000020: 3932 313f a2b6 0ebe a561 533f cbac d2bf
00000030: a252 f83e 80bf 10bd ffc2 bfbc c7ed bcbf
00000040: 2b23 3f3d 866e 3a3d 2fde 8e3e 14b7 663f
00000050: 9ac9 ef3d 6bfc c83e 381b f53e 5d13 8e3e
00000060: c9e1 0abe 7f6d 103e 7a91 04be 9b5c 493e
00000070: 4672 cd3d 6989 3f3d 2e55 d53e 0073 b03b
00000080: ff8e a93e 111e 213f c202 c4be 0d69 f13e
00000090: af0c 50bd 8b40 87be 7430 133f 92c7 cf3e
000000a0: 17b8 22bf 3ad6 c8bc 803e 03be 6ce0 36bd
000000b0: 05fd b73d d6e7 72be a156 d43e 722e dcbb
000000c0: 78f5 933d 1fe5 1d3d e7e9 b43d 2512 df3e
000000d0: c8b6 eb3d 77ef 033f 1c2c 213d 4814 983e
000000e0: d207 aa3d bfbc 82bc 09f1 16bd 9210 a6be
000000f0: 3670 f83e 6035 a0bd c443 e83e ad67 78bd
00000100: 60e6 19bb 20fd 2c3c 8f70 d1bd 8b89 99be
00000110: 8ed3 94bd 6f37 2e3e 52a7 ad3d fc2f 893d
00000120: 5698 513e 62f1 37bd 69e9 4b3e bb81 8dbf
00000130: 9efc f03e a007 963c fe8d ad3d 12b7 3cbf
00000140: 5a39 91be 440b 8ebd 7d18 60be 04ed 2c3f
00000150: 7e52 bdbd 4f8e d03e b299 5b3e aa45 943e
00000160: e9a4 393d c5b1 0f3d b058 53bd 4cbb 953e
00000170: 381f 6abd 250b e53c 017b c33e b802 32bd
00000180: fcc6 1d3e 4664 f13e 06a7 99bd fd05 b03e
00000190: e231 b8bc 2a8c 84be 1e21 043f 31fd bb3c
000001a0: 8b69 b6be d1d1 c4bd 3aa2 83bd 10ab 213c
000001b0: 09cf 893e ca2a 22be 549c dd3e 3333 bfbd
000001c0: 8341 7a3d 4d16 f63d fe86 b6bc 4a4c 1a3f
000001d0: 61b5 693e 4154 0e3e 8486 1e3d ad1a 093f
000001e0: 8161 313b 1007 3f3f afd8 e03e f6d9 013e
000001f0: 8940 263e 8422 923e d298 9a3e 9a22 533e
00000200: df96 e43d 6056 5fbc fc6e 1c3c f76c 38be
00000210: 359f 813d 8f19 d93e 048a f43d 40d9 cdbc
00000220: 58f1 e13d c71b 38be 1bcc 0c3e c662 71bf
00000230: 0160 223f 205c 913d 6bcc 61be 9c08 45bf
00000240: 7290 87bd f4f3 003d 38ab 0ebe ddc2 0d3f
00000250: 8acd b4bd d243 d13e 8c0d 673e dc63 8d3e
00000260: f03d a1be 717e 0fbd 1d6b b53d cb79 533e
00000270: 3be0 7fbd 7b82 2cbd b644 a53e 24d4 b5bd
00000280: 88f9 9e3e 6370 f23e 3b9a cdbd 215b 6c3e
00000290: c33e 32bd 1988 a5be c741 e13e 1cc9 873d
000002a0: a9b2 81be cc2a 26bc a5ca 7cbd 94bb 4cbd
000002b0: 6fd5 873e 9e01 013e 3f8b d93e 1203 eb3c
000002c0: 3a16 f2bd 895d c7bb 0ba4 103d a0c8 ed3e
000002d0: f15a 013f 3f33 a93e 507f 64bc 6100 b43e
000002e0: fc4a 9dbd 7df5 113f cfcd 38ba 6c99 593e
000002f0: c66a 6d3e 9395 743c 792f 9e3e ac44 71bc
00000300: 530a 21be c24b cf3d a03d 12bc bd9f 63be
00000310: e073 e53c 3931 1e3f 04fd 2d3d cccf c6bd
00000320: 7569 8b3e 5de8 213d fe6e 653e a814 58bf
00000330: 2d27 083f d2af ebbd cf26 46be 4bd3 3fbf
00000340: 155f f0bc d214 f9bd cb45 a3be 5bbc 183f
00000350: 843a b6bd ae12 c23e 7d85 6a3e 4c3e 9d3e
00000360: e500 f5bd 0aaf 6e3d 2b95 f43d 105c 8a3e
00000370: a993 b1bd a352 963d 08a7 873e 0e44 c9bd
00000380: 807b 4e3e 49ba 1c3f 8e34 aa3d 96ae 733e
00000390: 0458 053c 7c7d 12be 0a31 0f3f 5ae2 00be
000003a0: 3b9a 37be 35d4 d2bd 5371 bfbd 6cc3 4e3d
000003b0: 7138 773e 52bb c03d 0fbc c63e 1474 913d
000003c0: 51f5 2a3b b9ff afbd 3d3d 903d 7cc8 df3e
000003d0: 687e 823e 1357 233e 3af7 d8bd 763c d53e
000003e0: 9099 d63c fb40 473e 60c8 803e f850 033e
000003f0: ce1c 863e 0ee6 a13e f3d1 113e e73b 3e3e
0.0068505746 0.010251388 -0.01399812 0.8407271 0.042337336 0.0069074417 -0.10147482 0.05001214
0.6921726 -0.13936856 0.8257087 -1.6458982 0.48500544 -0.03533888 -0.023408411 -1.4760064
0.0466644 0.04551556 0.27903888 0.90123105 0.11708374 0.3925508 0.4787233 0.27749148
-0.13562693 0.1410427 -0.1294612 0.19664232 0.100315616 0.046761904 0.4166655 0.005384803
0.3311691 0.629365 -0.38283354 0.4715046 -0.050793346 -0.2641643 0.5749581 0.40581948
-0.6356215 -0.024516214 -0.1281681 -0.04464762 0.089838065 -0.23721251 0.41472343 -0.006719404
0.07224554 0.038548585 0.08833676 0.4356853 0.11509472 0.5153727 0.039348707 0.29702973
0.08302273 -0.015959142 -0.036850963 -0.32434517 0.4852311 -0.078226805 0.453642 -0.060645748
-0.0023483261 0.010558397 -0.10226547 -0.2998775 -0.07266913 0.17013334 0.084791794 0.066986054
0.20468268 -0.044907935 0.19913258 -1.1055216 0.47067732 0.018314183 0.084743485 -0.73716843
-0.28364068 -0.069357425 -0.21884342 0.6754916 -0.0924425 0.40733573 0.21445349 0.289594
0.045323286 0.035081644 -0.05159825 0.2924446 -0.05715868 0.027959416 0.38179782 -0.043459624
0.15407938 0.47146815 -0.0750256 0.3437957 -0.022484723 -0.25888187 0.5161303 0.02294788
-0.35627398 -0.09610332 -0.06427427 0.009867445 0.26915768 -0.15836635 0.4328333 -0.09335937
0.061097633 0.12015972 -0.022281166 0.6027266 0.22823097 0.13899328 0.038702503 0.5355633
0.0027066173 0.7462015 0.43915316 0.12680802 0.16235556 0.28541958 0.30194718 0.20618668
0.11161589 -0.013631433 0.009547945 -0.18010317 0.063291945 0.42402312 0.11940387 -0.025128007
0.11032361 -0.17979346 0.13749735 -0.9429134 0.6342774 0.070976496 -0.22050636 -0.7696626
-0.06619348 0.03148265 -0.13932502 0.5537546 -0.08828266 0.40872055 0.22563761 0.2761525
-0.31492567 -0.035032693 0.08858321 0.20651929 -0.062469702 -0.042116623 0.32278985 -0.08878353
0.31049752 0.4735137 -0.10039183 0.23081638 -0.043516885 -0.32330397 0.43995497 0.066301554
-0.2533162 -0.0101420395 -0.061716694 -0.049983576 0.26530024 0.12598273 0.4248905 0.028687987
-0.11820646 -0.0060841483 0.035312694 0.46442127 0.5052939 0.3304691 -0.013946369 0.3515654
-0.07680318 0.5701521 -0.0007049711 0.21249932 0.23185262 0.014928239 0.30895594 -0.014725845
-0.15726595 0.101218715 -0.008925825 -0.22228904 0.028009355 0.6179386 0.042477623 -0.09707603
0.27228895 0.03952824 0.22405621 -0.8440652 0.5318478 -0.115081444 -0.19350742 -0.7493178
-0.029342214 -0.12162174 -0.31889185 0.5966241 -0.0889788 0.37904876 0.22902484 0.3071159
-0.11963061 0.0582724 0.11942514 0.27023363 -0.08670742 0.073399805 0.26494622 -0.098274335
0.20164299 0.6122175 0.08310805 0.23797068 0.00813866 -0.14305681 0.559342 -0.12586346
-0.17929928 -0.102943815 -0.09347787 0.050479338 0.24142624 0.094107285 0.38815352 0.07102218
0.0026086161 -0.08593697 0.0704293 0.43707645 0.25487065 0.15951185 -0.1059403 0.4164769
0.026196271 0.19458382 0.25152874 0.12823856 0.2619385 0.3162083 0.14240246 0.18577538

fc3.bias f4 [20]
00000000: 6f75 ef3f 17a8 373f 9dc9 023f 7f38 043f
00000010: d544 f53e 9899 be3e 408d 0b3f e935 a83e
00000020: 56be 8f3e 5d09 bb3e 2236 393e d9ca 833e
00000030: 24e5 f23c ce56 c1bc 8422 52be a074 0ebe
00000040: 83fd debd d8b7 92be 28d2 62be b10e 14bf
1.8707713 0.7174086 0.5108889 0.51648706 0.47904077 0.37226558 0.54512405 0.3285363
0.28074902 0.3653058 0.18087056 0.25740698 0.029650278 -0.023600962 -0.20520979 -0.13911676
-0.10888197 -0.28655887 -0.22150481 -0.5783492

fc1.weight f4 [64, 3]
00000000: 5b59 3e3f bbc0 af3e 850c 26bd ef96 173f
00000010: ae1c 8f3d 9064 b83c 91fd 48be 56e6 4bbe
00000020: bd9a 413d 1935 52bd fb60 27be 5bcf 0c3d
00000030: 374f 1abe d23a 803e 8445 113d e997 033e
00000040: b355 b13d e879 a0be a52a 4abe 8c48 833d
00000050: a8c0 033d baff b23d 5c31 cb3b 5cb9 a8bd
00000060: 5790 3f3d 46b4 6e3e ef86 503e cd15 263f
00000070: a8c1 bebe d165 473d 47d2 f9be 01a9 f73e
00000080: 5534 8cbe 41d2 e73d ad56 b43d ba11 5abe
00000090: fbdf 95be c13f 41bd 1692 8a3c 2751 9bbe
000000a0: d871 6a3e cd43 bc3d 3a4c 00be 0ab5 6b3e
000000b0: 4e2e b43c ffb7 35be e2bd aa3e 06e4 303c
000000c0: 1890 af3d 2fde 123e 3364 a6bd 2b62 7d3c
000000d0: a802 42bf 9701 9f37 26d0 bf3e 9b49 10bf
000000e0: 25ce 03bf 8b86 083d 048c 1a3e 5e21 e03d
000000f0: e046 1f3f d2bc 343f 7311 f83e 90fe 94be
00000100: 1705 82bd 9bf5 273c 0ba0 153e 94f4 453e
00000110: 3e28 483c 36bf 653e c0a1 f4be 0e9d 05bf
00000120: 691b d8bd b9a5 333f e734 d4bd 18e5 313d
00000130: 585d 033f a984 e0bd b98a b8be 0d48 09be
00000140: 8a5c 8cbe 8b5c e33e 4cf2 e3be d6c8 823e
00000150: 14b5 d6be 49b4 d4be 9429 22be 4455 8fbe
00000160: 015b d4be 0a73 883e 54a1 5abe 0577 e7be
00000170: 839e 0cbf a6c9 19bf ed5c 063d 109f 08be
00000180: 1fe0 af3e 0411 863e 2f03 463d 9900 093e
00000190: 1948 a53d 315f 56be b547 00bf 6c98 23be
000001a0: b9ac 1f3e e149 5dbe de44 4b3c 8758 0ebf
000001b0: 6b42 bc3e 67c0 48bd 6bf1 2d3d 0cf9 393e
000001c0: f138 c13d 8408 2f3d 7d52 17bf 3662 53be
000001d0: 6155 2f3e 4dd9 f0be 6e59 27be 9a34 81be
000001e0: b4ef dabe 6ef8 883d e2c8 13bf 0e70 eabd
000001f0: e250 50be 5c95 863d 193f febe 9835 bb3d
00000200: 40c9 b13d c700 963e 1ddc 29bf 6265 09b9
00000210: 5f51 81bd 5571 f23e 4089 363e e5ca 7e3d
00000220: d08a 7c3c fe84 0f3d e128 f83c 845a e0bd
00000230: 9381 b6be 7433 97be b13a 23be 0567 883d
00000240: b641 98bf 8b17 fbbe 538f cc3d 9550 14be
00000250: 9e0b 5c3f 9905 c53c 4e94 9abe 98f2 ae3e
00000260: b2d7 83be 63cf 083f 8252 e63e ef15 993c
00000270: d5cd 093f bf88 17bf 63ae a23d 1905 9fbd
00000280: 86aa b2be e385 12bd 3db5 c5be f66e 0fbf
00000290: bf9c 12be f139 1f3f a64e 6b3e eea4 963c
000002a0: c563 2f3e 8af8 04bf 33f9 843d 175b 833e
000002b0: 6f5e 0b3e f8f0 1cbe eeea a83e 98f0 163e
000002c0: 5c12 123e d9d9 383e 97e3 bbbe 430f 58be
000002d0: abd0 0d3e 6b65 a8bd 9d7e cabb 3f1b b93e
000002e0: 2f74 3c3d aea2 713c 822e f6bd 0f89 dabe
000002f0: 730a b5be d765 c13e 6a0d bebe 1a42 503e
0.74355096 0.3432673 -0.040539283 0.5921468 0.06987892 0.02250889 -0.19627978 -0.19912085
0.04726671 -0.05132017 -0.16345589 0.034377437 -0.1506928 0.25044876 0.035466686 0.12850918
0.08658924 -0.31343007 -0.1974283 0.064103216 0.032166153 0.08740182 0.0062009525 -0.082384795
0.046768513 0.23310956 0.20363973 0.64877015 -0.37257123 0.048681084 -0.4879324 0.48371127
-0.27383676 0.113193996 0.088055946 -0.21295825 -0.29272446 -0.04717994 0.016915362 -0.30335352
0.2289499 0.091926195 -0.12529078 0.2301828 0.021994736 -0.1774597 0.33347994 0.0107965525
0.085724056 0.14342569 -0.0812458 0.0154653 -0.75785303 1.8955017e-05 0.37463492 -0.56362313
-0.51486427 0.033331435 0.15092474 0.10943864 0.6221752 0.70600617 0.48450813 -0.29100466
-0.06348627 0.010251428 0.14611833 0.1933158 0.012216626 0.22436222 -0.47779655 -0.5219277
-0.10552103 0.7017475 -0.10361653 0.04343137 0.51314306 -0.10962803 -0.36043337 -0.13406391
-0.27414352 0.44406542 -0.44520795 0.2554385 -0.41935027 -0.41543797 -0.15836173 -0.2799474
-0.4147568 0.26650268 -0.21350604 -0.45207992 -0.5492937 -0.60073316 0.032803465 -0.13341928
0.34350678 0.26184857 0.04834288 0.13379134 0.08070392 -0.2093475 -0.50109416 -0.15976113
0.15593232 -0.21610214 0.012406556 -0.5560383 0.36769423 -0.049011614 0.042466562 0.1816141
0.09434689 0.04273273 -0.5911024 -0.20642933 0.17122413 -0.47040787 -0.16342708 -0.25235444
-0.42761004 0.06688009 -0.577284 -0.11447154 -0.20343354 0.06571457 -0.49657515 0.091410816
0.086809635 0.29297468 -0.6635149 -0.00013103106 -0.063143484 0.4735209 0.17825794 0.062205214
0.015413955 0.03503894 0.03029293 -0.109547645 -0.35645732 -0.29531443 -0.15940358 0.066602744
-1.1895053 -0.490414 0.099882744 -0.14483865 0.85955226 0.02405052 -0.30191272 0.3416946
-0.257505 0.53441447 0.44984823 0.018687217 0.538297 -0.5919303 0.07943418 -0.07764644
-0.34895724 -0.035772216 -0.38614836 -0.5602869 -0.14317606 0.62197787 0.22979221 0.018389191
0.17127903 -0.5194174 0.064928435 0.25655434 0.13610242 -0.15326297 0.32991737 0.14740217
0.14264816 0.18051852 -0.36697075 -0.21099572 0.13849132 -0.08222469 -0.0061796443 0.361536
0.04600924 0.0147482585 -0.120205894 -0.42682692 -0.35359535 0.3777301 -0.3711961 0.20337716

fc1.bias f4 [64]
00000000: 836d 383f 80b9 3a40 b7ab 8b40 7dd9 8140
00000010: c636 88be c678 4740 88ff 7540 da41 4540
00000020: 3c35 0340 86a8 8a3f f361 3840 5b17 8440
00000030: e1fa 5240 ffaf 6c40 d321 6d40 3fdf 4340
00000040: 3401 4a40 3690 89be 48f2 26bd 7cbb 1cbf
00000050: 89f9 38c0 7c0a 3040 375f 4440 7e47 0bbf
00000060: 2f3a 85be 4ab7 dd3f ad96 87be 2556 22c0
00000070: 5fd4 5e3d 7059 62c0 1456 ffbe dbb0 eabe
00000080: 1e55 89bf c5ac 983e eddb 54c0 e76b ffbe
00000090: 5262 0640 229a 0640 73ac 5cc0 a43d 88be
000000a0: 5c3c fdbe 5cae 7f40 06b0 4540 42fc 04c0
000000b0: 6662 c9bf 87bf 3840 4d48 adbe 9b02 6040
000000c0: e274 23c0 f565 16c0 638f 4b3f 3018 4240
000000d0: 7e97 1040 c97d 0740 82dd f3be 04e2 3340
000000e0: f25a e83f 3154 8040 d4ee 9c3f 0ed4 bfbd
000000f0: 8223 3640 a595 2640 9ba2 8ebe 85cd 04c0
0.720421 2.917572 4.3647113 4.057799 -0.2660429 3.1167464 3.8437214 3.0821443
2.0501242 1.0832679 2.8809783 4.127851 3.2965624 3.698242 3.7051895 3.0605009
3.1563234 -0.26867837 -0.0407584 -0.6122358 -2.8902304 2.75064 3.0683115 -0.54405963
-0.26020953 1.732156 -0.26482144 -2.5365078 0.05440175 -3.5367088 -0.4987036 -0.45838055
-1.0729101 0.29819313 -3.3259232 -0.4988701 2.099751 2.1031575 -3.4480255 -0.26609528
-0.49460113 3.995017 3.0888686 -2.0778966 -1.5733154 2.88669 -0.33844224 3.500159
-2.554009 -2.349973 0.79515666 3.0327263 2.2592463 2.1170523 -0.47629935 2.81067
1.8152754 4.0102773 1.2260385 -0.09366618 2.8459172 2.6028836 -0.27858433 -2.075044

fc2.weight f4 [64, 64]
00000000: 3001 2bbc 9c50 953b 360e 95bc c091 14be
00000010: 0bcc 38bd 65df d9bd 5855 003c 5d64 3cbe
00000020: 67b5 6c3c 1468 48bd 083b 76bd cb02 463d
00000030: 38da 1e3c 98a7 4f3d f921 14be e6d8 0abe
00000040: a693 90bd af31 88bd e81f 7a3d bcaa b33d
00000050: e8fc 373d d1be 253d 295c dc3c 28ea 21bd
00000060: 4fdf aabd 6cc5 993d 47ef 07bd 30ae 07be
00000070: a4d6 ac3d 2b25 383d 6ce3 343d c85f e43c
00000080: 669f f83d 0e68 56bd 40c6 72bc 8384 f4bc
00000090: 542b f4bd 18ef 713c f441 b03d e886 c53c
000000a0: 3cf6 ff3c 6c45 09be 2127 3a3d 34f5 07bd
000000b0: 0335 85bd bf77 b4bd cc23 0a3d 4204 05be
000000c0: 8219 f8bd 66ef bf3d 6c39 863c 3a4a 96bc
000000d0: 2fcb d4bd f07d dcbd 4035 89bd 3e25 6a3d
000000e0: c7be 13bd 3242 ab3c d2ca a8bd 7a9e b1bd
000000f0: 2fed 5cbd 2f94 afbd 4c83 84bd 9abd 6bbd
00000100: 96b8 873d 06d2 dc3d 5e2b 36bd 4ce9 cfbd
00000110: 418b 0abd bbea e13b 46d9 99bd 1863 12bd
00000120: 41bf ba3d 8000 d53a 2fde 673c 785e 09bd
00000130: db1a 203d 943e e3bc 7c37 6cbc 146a 983d
00000140: 57bc 413d f661 a4bd 040f dc3d 6aa8 8bbd
00000150: 4f38 66bd 3f20 87bc de42 d2bc 14d5 b0bd
00000160: d9ff b9bd fcc3 b43d 72d3 a7bc c80d f13c
00000170: e4e3 313d f09f 9b3c b252 b8bd 4697 f93d
00000180: 9398 a93d a188 563d b890 543c 0c7d e8bd
00000190: 0dfc aabd d0d1 fabd 00d9 d8ba ec5f 003d
000001a0: 4691 ed3d 2000 b8bc 45bd 2c3c 3265 e73d
000001b0: 94a5 f5bd 27bf 49bd 7880 13bd ed5e 5b3d
000001c0: 8a6a eabd fe58 78bd 089d a5bd 49ab afbc
000001d0: c0d0 a73b 8c58 6d3d bc7c 68bd 734a a9bd
000001e0: 97e1 c03c 8e2f f5bd f5ab 63bd 8976 683c
000001f0: 5abf b3bd 90df ddbd 4068 e5bd 8a16 99bd
00000200: 9e16 06be 0b6f bbbd 275d 2f3d c5b6 86bd
00000210: d5bc a1bd dbe8 c43d a35a ecbd caf0 7c3d
00000220: 4f99 79bd d3ef 83bd d452 ec3d 5ed7 6e3b
00000230: 25f8 aabd 3d39 d1bd 5a7d e13d 9a7e 1f3d
00000240: 0c25 64bd 5c71 e3bd 0828 e2bd abb6 15bc
00000250: d3d3 163d eceb 83bc 28f8 713d 5019 d03d
00000260: 3e22 5cbb d46c 843d e012 a73c 8e3f 23bd
00000270: ac6d f5bd 736c 15be c427 d4bd 7c39 bc3d
00000280: 1e5c 533c e2e6 7d3c 1317 d8bd 9a56 c8bd
00000290: 2cc2 b3bd 60df 893c 7c85 343c fa27 bebd
000002a0: c011 823b 6f35 c23c 1dcf e3bd 0d07 22bd
000002b0: 3c88 20be 35db d23b 665c a5bd a85c 08be
000002c0: 3efb f7bc 1bea 82bd a646 9abd dda9 64bd
000002d0: 3991 fb3d deb2 06be b4ad b4bd 0d73 ac3d
000002e0: ae31 083d bde7 853d fc3b 3dbd 24ed 333d
000002f0: a9cd 0abd 5c3d 33bd 4763 e6bd f604 a3bd
00000300: 34ab 2cbd ebba 28be f847 303f fae8 853f
00000310: ce2d adbe e7bf c33f b77c dd3e 861b ff3f
00000320: b8d9 85bd 9356 a23d 78b5 523f a2db fa3f
00000330: 61a2 b53e 0aa3 cc3c 9544 993e d36e 87bd
00000340: fcf1 3d3f 2642 49be b8b4 c23c 44a0 73be
00000350: f356 6dbe 068c 1c3f 0ee4 eb3d 1a5a b73d
00000360: 2b41 7fbe 001a 923e 18b6 0b3d f711 b3be
00000370: 00c4 31bd 700f fabe 60db 40bd 971b 703d
00000380: d24c e4bd 6063 fd3b 3b0c ce3c 7ec7 e43d
00000390: c262 abbd 2a33 743d e368 40be 9032 e0bc
000003a0: 000a ba3c ebd2 7f3e a78a fd3e 1c4b 603e
000003b0: 9a28 76be 5343 4c3d 8cb2 333d 2b95 b73e
000003c0: bd2a 9cbf a17c d1bb 6995 2c3e ed03 f1bd
000003d0: 3347 fd3d 0fa1 6f3e ea6a df3d 2b73 49bd
000003e0: 5cf2 903d d49f c53f 1167 26be 72eb 8c3d
000003f0: c9f3 023f 4107 f9bd d84d 6e3d c1a7 04be
-0.010437295 0.0045567285 -0.018195253 -0.14508724 -0.045116466 -0.10638312 0.007832848 -0.1839766
0.014447547 -0.04892738 -0.06011489 0.048342507 0.009695582 0.05069694 -0.14466085 -0.13559303
-0.07059412 -0.066501014 0.061065584 0.087727994 0.044918925 0.04046518 0.026899414 -0.03952995
-0.08343374 0.07508358 -0.033187177 -0.13250041 0.08439377 0.04495732 0.0441622 0.027877703
0.12139778 -0.052345328 -0.014817774 -0.029848343 -0.11922327 0.014766477 0.086063296 0.02411218
0.031245343 -0.13405389 0.045447472 -0.03319283 -0.06504252 -0.08811902 0.033725545 -0.12989905
-0.1211424 0.093718335 0.016384803 -0.01834594 -0.10390317 -0.10766208 -0.0669961 0.057164423
-0.03607061 0.020905588 -0.0824181 -0.08672805 -0.053937133 -0.08573186 -0.064703554 -0.057553865
0.06627004 0.10782246 -0.044474952 -0.1015192 -0.03382421 0.006894437 -0.07512145 -0.035739034
0.0911851 0.0016250759 0.014152094 -0.033537358 0.03908811 -0.0277398 -0.014417525 0.07442108
0.047298755 -0.08026497 0.107450515 -0.06819232 -0.056206044 -0.016494868 -0.02566665 -0.086343914
-0.09082002 0.088264436 -0.020486567 0.029425517 0.043430224 0.018997163 -0.09000148 0.12187056
0.08281054 0.052376393 0.012973957 -0.11351976 -0.08348856 -0.1224705 -0.0016544163 0.03134148
0.11599974 -0.022460997 0.010543172 0.11298598 -0.11994472 -0.049254563 -0.03601119 0.053557325
-0.11446102 -0.060631745 -0.08086592 -0.02144398 0.0051213205 0.057945773 -0.05675958 -0.08266153
0.02354507 -0.11971961 -0.055583913 0.014188417 -0.08776732 -0.10833657 -0.11201525 -0.07475002
-0.13094565 -0.09152039 0.042813446 -0.06577829 -0.07897345 0.09614726 -0.11540725 0.06175307
-0.060937222 -0.06442227 0.11539236 0.0036444287 -0.08348111 -0.102159955 0.11010237 0.038939096
-0.055699393 -0.11105606 -0.110427916 -0.00913779 0.036823105 -0.016103707 0.05907455 0.10161078
-0.0033589746 0.0646607 0.020394742 -0.039855532 -0.11983809 -0.14592151 -0.10359147 0.09190652
0.01290038 0.015496941 -0.10551276 -0.09782143 -0.0877727 0.016830146 0.011018153 -0.09284969
0.003969401 0.02370712 -0.11123488 -0.039557505 -0.1567697 0.006434823 -0.08074264 -0.13316596
-0.030271169 -0.06392308 -0.07533006 -0.055826057 0.122835584 -0.1315417 -0.08822194 0.08420382
0.033250503 0.06538341 -0.046199784 0.043927327 -0.03388754 -0.04375969 -0.112494044 -0.079599306
-0.04215546 -0.16477554 0.68859816 1.0461724 -0.3382401 1.5292939 0.43259212 1.9930274
-0.06535667 0.07926669 0.8230815 1.9598277 0.35475448 0.024980087 0.29935136 -0.06612935
0.74197364 -0.1965414 0.023767814 -0.23791605 -0.231777 0.6115116 0.11518107 0.089527324
-0.24927203 0.2853546 0.034109205 -0.34974644 -0.04339981 -0.48839903 -0.047084212 0.05862006
-0.11147465 0.0077327937 0.025152316 0.111708626 -0.08368446 0.059619106 -0.18790011 -0.02736786
0.022709846 0.24982803 0.49519846 0.21903652 -0.24038926 0.049868893 0.043871447 0.35855994
-1.2200543 -0.0063930308 0.1685387 -0.11768327 0.12367096 0.23401283 0.10909064 -0.0491821
0.070774764 1.5439401 -0.16250254 0.06880845 0.51153237 -0.12159587 0.058179706 -0.12954618

fc2.bias f4 [64]
00000000: 3061 cabd 6190 ba3d c3c8 833d ba71 163f
00000010: d7e8 d5bd c0da 963d 5e83 ecbd 89d7 fb3d
00000020: c347 163e b76c 60bf 2ff4 ef3f 1621 1540
00000030: 4806 dc3f 166f 90bd 5443 a73f f870 a63f
00000040: 4158 7a3f 397e b0bd e8f5 f43e 7935 1340
00000050: c04f a7bc 3649 a43f 8655 0a40 a784 ee3f
00000060: f5cc 7f3f 4c16 33bb c995 e8bd b990 d33f
00000070: f5f1 043d 416b f3bd 128c e33f 2242 823a
00000080: 759c f23f 165b 2240 e3a1 8cbf 4479 0540
00000090: 94dd 18be 8275 3f3f 3d02 0340 d77e 1f3f
000000a0: b10b b23f c49f 94bd 1566 6e3d b06b 8fbd
000000b0: 0977 9d3f 6d80 2bbf 961c a33f b56a f7bd
000000c0: 7c62 a53c 063d c73c 7ead 663c 841a d23f
000000d0: 73a6 813f 710a fc3f 0cfe ccbd df0b ea3f
000000e0: 3691 1d3c 39b5 dc3e f2b2 803f 5e15 6cbd
000000f0: 8a42 0d40 a1e9 e73c c720 fa3f 2920 7bbd
-0.09881818 0.09109569 0.06434777 0.5876728 -0.10444801 0.07365942 -0.11548494 0.122969694
0.14675812 -0.87665886 1.8746394 2.3301444 1.7189417 -0.07052438 1.3067422 1.3003225
0.97790915 -0.08617825 0.47843862 2.3001387 -0.02042377 1.2834842 2.16147 1.8634232
0.99922115 -0.0027326522 -0.11356694 1.6528541 0.03245731 -0.118856914 1.7777121 0.0009937922
1.8953997 2.5368094 -1.0986904 2.0855265 -0.14928275 0.7478868 2.0470116 0.6230292
1.3909818 -0.072570354 0.05820282 -0.07002962 1.2301952 -0.6699284 1.2743099 -0.120808996
0.020188563 0.02432109 0.01407945 1.6414342 1.0128921 1.9690686 -0.10009393 1.8284873
0.0096171405 0.43107012 1.005461 -0.057637565 2.2071862 0.028309645 1.9541253 -0.061309967

fc3.weight f4 [20, 64]
00000000: dfc1 e23b 70f5 273c a559 65bc 7301 643f
00000010: 588c 2d3d 69bc 413c 08d2 cfbd 88d9 4c3d
00000020: cd73 1f3f b918 25be febc 593f 6da8 d7bf
00000030: bedf f93e 80bf 10bd fd35 693d c747 c2bf
00000040: 0e96 c43d 3a6d 3a3d 05c3 a63e 2dff 673f
00000050: 9ac9 ef3d f172 ca3e e1d9 fa3e 3064 923e
00000060: e879 16be 2e6b 103e fc8f 04be 73f1 513e
00000070: 6174 cd3d d689 3f3d bf98 d83e 0073 b03b
00000080: b121 ae3e cb55 223f 4014 c8be 320d f73e
00000090: 5b10 50bd efbf 10be ab34 143f 0d61 f33e
000000a0: 7a2e 21bf e097 cebc 233c 03be 6ce0 36bd
000000b0: 5091 cd3d 5140 7cbe ade9 d53e dd31 dcbb
000000c0: 15fa 933d d045 1e3d 25e7 b43d 9296 e03e
000000d0: 98dd f63d 06a4 093f 4c2c 213d 3f8a 993e
000000e0: d207 aa3d 0cec efbb 03a2 ebbc b57f a1be
000000f0: d9c7 fd3e 442b adbd 197e ec3e 9a53 c1bc
00000100: 3a45 22bb 20fd 2c3c ed6f d1bd 6e59 99be
00000110: 8ed3 94bd c06c 153e a7a7 ad3d fc2f 893d
00000120: 9a15 893e c71a 8ebd c9b0 6a3e 7046 88bf
00000130: 5699 ec3e a007 963c 04c2 0abb f405 37bf
00000140: 0cd2 4abe cc09 8ebd ee00 73be e6c6 2b3f
00000150: 7e52 bdbd a217 ce3e 29b7 583e 4ecd 943e
00000160: 485f 413c aeaf 0f3d 1e5c 53bd bf22 9a3e
00000170: 7e20 6abd b507 e53c 5ce1 bd3e b802 32bd
00000180: fd70 1e3e 4e4f ec3e 990a a8bd 9fd9 ab3e
00000190: e732 b8bc 9a8b 8ebe d303 023f 6fd6 723d
000001a0: 03b6 c4be ecad c4bd 9ba5 83bd 10ab 213c
000001b0: 9e46 883e 5269 1abe fe7b d93e e533 bfbd
000001c0: e748 7a3d 9f08 f63d 1e89 b6bc fccf 193f
000001d0: eb67 583e 341b 113e 8486 1e3d 6739 073f
000001e0: 0108 303b 780b 373f cb09 fa3e 21dd e13d
000001f0: b9bf 273e ab24 893e bd29 9b3e 258f 603e
00000200: c54e e43d 9156 5fbc 5771 1c3c 722f 35be
00000210: f9a1 813d 3e29 b93e 048a f43d 40d9 cdbc
00000220: 81f8 c73d 1001 38be bac1 1a3e c98d 70bf
00000230: afc7 213f 205c 913d 69c3 48be 7039 41bf
00000240: d716 c53c f4f3 003d 7167 0abe c0a9 0d3f
00000250: 8acd b4bd 0a62 cf3e 00b4 623e b65c 8c3e
00000260: 6ae9 93be cd80 0fbd 0e68 b53d 959c 493e
00000270: 6bde 7fbd 9586 2cbd e45e a33e 24d4 b5bd
00000280: 4bb7 9f3e ec73 f03e 5b18 d2bd 8b65 693e
00000290: 723f 32bd 0cea 91be af92 df3e 57a2 703d
000002a0: 7a37 73be b0a9 58bc a1cd 7cbd 94bb 4cbd
000002b0: 74ef 8e3e 025a ab3d 086b d73e e302 eb3c
000002c0: eb11 f2bd aa37 c8bb dfa1 103d 50a8 eb3e
000002d0: a0a4 ee3e 16c8 9e3e 507f 64bc dcf2 b13e
000002e0: fc4a 9dbd efb1 f03e 3318 09bd 9373 2f3e
000002f0: 1b1e 6c3e cf83 a53c bfb6 9c3e 3653 21bd
00000300: d404 21be c24b cf3d 083c 12bc 882a 7abe
00000310: e073 e53c dc82 0d3f 97fd 2d3d cccf c6bd
00000320: 5fff 4d3e 5031 da3b 41d4 683e 4102 5abf
00000330: cf1a 093f d2af ebbd 6dcf 3bbe 0acd 40bf
00000340: 4314 dfbd 7f14 f9bd 4cbd adbe 8d78 193f
00000350: fe3a b6bd 6038 c23e 0aab 673e 6025 9a3e
00000360: 0531 17be 66ac 6e3d 2394 f43d a67a 853e
00000370: 7997 b1bd d256 963d 702c 893e 0e44 c9bd
00000380: 7476 4a3e 24b0 1d3f 33c9 903d a600 763e
00000390: 3557 053c 44d8 15be 47f7 0f3f a13b 13be
000003a0: 7f85 43be 3486 d2bd 6572 bfbd 6cc3 4e3d
000003b0: fa98 873e 881b bf3c f77b c83e e770 913d
000003c0: 6343 2b3b 1995 afbd 4e3c 903d c548 de3e
000003d0: faef 883e 78f3 1a3e 3af7 d8bd c87c d63e
000003e0: 9099 d63c dccf 323e e40f 343e d91e 193e
000003f0: 0ba8 843e e725 883e ada5 0e3e f159 2d3e
0.006920084 0.010251388 -0.013998424 0.8906471 0.04237017 0.011824706 -0.10147482 0.05001214
0.6228607 -0.16122712 0.85054004 -1.6848274 0.48803514 -0.03533888 0.056936253 -1.5178155
0.09598933 0.045514323 0.32570663 0.9062374 0.11708374 0.39540818 0.48994353 0.28592062
-0.14694941 0.14103386 -0.1294555 0.20502262 0.10031963 0.04676231 0.42304036 0.005384803
0.3401008 0.6341216 -0.3907795 0.48252255 -0.050796848 -0.14135717 0.57892865 0.4753498
-0.6296154 -0.025218904 -0.12815909 -0.04464762 0.10037482 -0.2463391 0.41779843 -0.0067198114
0.07225434 0.038640797 0.0883315 0.43864876 0.120539844 0.53765905 0.039348885 0.29988286
0.08302273 -0.00732184 -0.028763777 -0.31542745 0.49566534 -0.08455518 0.46189955 -0.023599435
-0.00247605 0.010558397 -0.10226426 -0.29951042 -0.07266913 0.14592266 0.08479243 0.066986054
0.26774293 -0.06938701 0.22919 -1.0646496 0.46210736 0.018314183 -0.0021172771 -0.7149346
-0.19806689 -0.06935462 -0.23730823 0.6710037 -0.0924425 0.40252405 0.2116362 0.29062885
0.011802502 0.03507965 -0.05160152 0.30104634 -0.057159893 0.027957777 0.37085998 -0.043459624
0.15472789 0.46154255 -0.08205146 0.3356447 -0.02248521 -0.27840883 0.50787085 0.05928653
-0.38420114 -0.096034855 -0.06428071 0.009867445 0.26616377 -0.15079239 0.4247741 -0.0933607
0.06110468 0.12013363 -0.02228218 0.60082984 0.21133392 0.14170533 0.038702503 0.52821964
0.002686024 0.71501875 0.48835596 0.11028505 0.1638173 0.26785788 0.3030528 0.21929605
0.111478366 -0.013631479 0.009548507 -0.1769388 0.06329722 0.36164278 0.11940387 -0.025128007
0.09764195 -0.17969155 0.15112963 -0.93966347 0.6319532 0.070976496 -0.19605793 -0.7547827
0.024058742 0.03148265 -0.13516022 0.5533714 -0.08828266 0.40504485 0.22138977 0.27414483
-0.28889018 -0.035034943 0.088577375 0.19688638 -0.062467974 -0.042120535 0.31908333 -0.08878353
0.3119453 0.4696344 -0.10258552 0.22792642 -0.043517537 -0.28498876 0.43666598 0.05874857
-0.23751631 -0.01322405 -0.06171954 -0.049983576 0.27917063 0.08366777 0.42073846 0.0286879
-0.11819824 -0.0061101513 0.035310622 0.4602685 0.46609974 0.31012028 -0.013946369 0.347556
-0.07680318 0.47010753 -0.033470344 0.17133932 0.2305836 0.020204453 0.30608174 -0.039385997
-0.15724498 0.101218715 -0.008925445 -0.24430287 0.028009355 0.552778 0.04247817 -0.09707603
0.20116948 0.0066587105 0.22737218 -0.8515969 0.5355653 -0.115081444 -0.18340845 -0.75312865
-0.108925365 -0.121621124 -0.33933485 0.5994957 -0.088979706 0.37933636 0.2262384 0.3010664
-0.14764793 0.05826988 0.11942317 0.26070136 -0.08671469 0.073407784 0.26791716 -0.098274335
0.19771749 0.61596894 0.07069626 0.24023685 0.008138468 -0.1463328 0.5623669 -0.14378215
-0.19093893 -0.102795035 -0.09347991 0.050479338 0.264839 0.023328558 0.39157078 0.071016125
0.0026132695 -0.0857336 0.07042752 0.43414894 0.26745588 0.15131938 -0.1059403 0.41892076
0.026196271 0.17462105 0.17584187 0.14953174 0.25909457 0.26591417 0.13930388 0.16928841

fc3.bias f4 [20]
00000000: b42a ec3f 97c6 353f 7f7e 003f 3c77 033f
00000010: 1091 f53e a952 ba3e f130 083f 7e89 a53e
00000020: 49ab 8f3e 6618 b83e 3eb9 3e3e 5de0 813e
00000030: eeba 083d eda0 0dbd 4709 51be e744 12be
00000040: 190f ebbd ac1e 93be e6b7 66be 187b 0abf
1.8450532 0.7100615 0.5019302 0.5135381 0.47962236 0.3639119 0.5319968 0.3233146
0.28060368 0.35956115 0.18625352 0.25366488 0.033381395 -0.0345773 -0.20413695 -0.14284097
-0.11477489 -0.28734338 -0.22531089 -0.54094076

exp_avg f4 [64, 3]
00000000: e98d cfbf 6779 cbc0 358c b8c1 3661 d1bf
00000010: 5ea7 7841 3406 b942 1fc2 6c40 c4ba 0c42
00000020: d781 4a43 a45f 3d40 58ee a042 2718 e243
00000030: aaa8 93be dad6 343e 494a 8940 3518 cb41
00000040: 521c ba41 0396 c141 8077 923f 3e6a 3342
00000050: d4de 7f43 132c 8d41 8fed b3c0 2a86 85c2
00000060: a860 96bf 8a2e c440 ef3a 1342 1c61 16c0
00000070: 1fae babf 60e1 51c0 fe8f 6840 071a 1a41
00000080: c46e ca40 b928 a841 e242 e940 d295 ab3d
00000090: eb87 10be 4668 bd40 c9e1 f141 083c 32bf
000000a0: 4b15 c441 a79b 0f43 34b3 aebf 0bd1 f641
000000b0: 3d36 3943 bf42 84bf d7be 1f41 ac3d 7042
000000c0: 2f64 5a40 a56f 6fc1 da09 acc2 0400 0000
000000d0: 0400 0000 0400 0000 0000 0000 0000 0000
000000e0: 0000 0000 5dd5 0ebf c1d7 4e40 51c6 9341
000000f0: 67bd cebf f585 3d40 b29e 9e41 0783 663d
00000100: 4965 2540 ad5e 8740 d0a0 80bf a784 8341
00000110: fe26 c942 0000 0000 0000 0000 0000 0000
00000120: d9f7 7ebf 5c47 a5c0 e098 82c1 ac48 3fc0
00000130: b2e8 69c0 3a2c c7c0 0000 0000 0000 0000
00000140: 0000 0000 d535 1ebf 1cd5 b440 5754 a241
00000150: 0000 0000 0000 0000 0000 0000 0271 193f
00000160: 3575 1bc0 7a80 6f40 0000 0000 0000 0000
00000170: 0000 0000 0400 0000 0400 0000 0400 0000
00000180: 3465 9abf f7c9 de3f 55b1 4841 0fa3 4640
00000190: 6ed0 9140 faa5 6d40 b85c 6bbf 57ef 42c1
000001a0: ee0c 75c2 0000 0000 0000 0000 0000 0000
000001b0: 967e 7abf abaf 7a3f 45d4 d940 2195 13bf
000001c0: 74bc 8940 b039 cf41 643f 4fbf 5711 34c1
000001d0: 6ef5 58c2 0000 0000 0000 0000 0000 0000
000001e0: 0000 0000 0000 0000 0000 0000 e4b5 4240
000001f0: 18c0 7841 bf80 a542 863d f63f eac7 7041
00000200: a3d4 b142 d423 e240 de47 853f 14d8 4841
00000210: aac3 10bf 52ed 8e40 e1bc d241 0f15 8ebe
00000220: 0e4f 0241 c160 3842 0000 0000 0000 0000
00000230: 0000 0000 d08a fd3f d10e 1941 52e5 2d42
00000240: b4db 39be 4880 a7bf c777 90c0 9099 18be
00000250: ce43 97c0 be31 5ac2 97c1 143e 54ca 3f3f
00000260: 8512 78be 9048 adbf 7159 0c41 cff6 5e42
00000270: f92a b53d db53 fb40 61de 1542 b212 053e
00000280: 8bcc c3bd 13aa d1bf 0000 0000 0000 0000
00000290: 0000 0000 2960 f7bf b96b 0941 4d80 6742
000002a0: d1ae 1bbf 6c31 58be ff07 bec0 5910 8241
000002b0: c84b b4c0 58da 5fc2 b61c 29bf 1842 6340
000002c0: 3ccc b041 0000 0000 0000 0000 0000 0000
000002d0: 4ea1 b0bf e6b0 d7be 0ad8 8140 d77f b5bf
000002e0: 97e7 0741 6278 6242 0000 0000 0000 0000
000002f0: 0000 0000 9d46 0ebf ad54 b840 917f ad41
-1.6215183 -6.3585696 -23.06846 -1.6357791 15.540861 92.512115 3.6993482 35.18239
202.50719 2.9589624 80.465515 452.1887 -0.28839618 0.17660084 4.290318 25.38682
23.263828 24.198248 1.1442719 44.853752 255.87042 17.64652 -5.622749 -66.76204
-1.1748247 6.130681 36.807552 -2.349677 -1.4584388 -3.2793808 3.6337886 9.631354
6.326021 21.019884 7.2894144 0.08378185 -0.14114349 5.9189787 30.235247 -0.6962285
24.510397 143.60802 -1.3648438 30.852072 185.21187 -1.0332869 9.984092 60.060226
3.4123647 -14.964757 -86.01924 6e-45 6e-45 6e-45 0.0 0.0
0.0 -0.55794317 3.2319186 18.471834 -1.6151551 2.961301 19.827488 0.0562773
2.584307 4.230307 -1.0049076 16.439772 100.57616 0.0 0.0 0.0
-0.99596936 -5.164961 -16.324646 -2.9888105 -3.6548276 -6.2241488 0.0 0.0
0.0 -0.6180089 5.6510143 20.291182 0.0 0.0 0.0 0.5993806
-2.4290287 3.7422166 0.0 0.0 0.0 6e-45 6e-45 6e-45
-1.2062135 1.7405385 12.543294 3.1037023 4.556693 3.7132554 -0.9193835 -12.183433
-61.262627 0.0 0.0 0.0 -0.97849405 0.979243 6.807162 -0.5764943
4.3042545 25.903168 -0.809561 -11.254233 -54.239677 0.0 0.0 0.0
0.0 0.0 0.0 3.0423517 15.546898 82.75146 1.9237525 15.048807
88.915306 7.0668736 1.0412557 12.552753 -0.5654856 4.46647 26.342226 -0.2775044
8.1443 46.094486 0.0 0.0 0.0 1.9807987 9.566117 43.473946
-0.18150216 -1.3086023 -4.5146213 -0.1490233 -4.727027 -54.548576 0.14526974 0.74918103
-0.24225815 -1.3537769 8.771836 55.741024 0.08846087 7.8539863 37.467167 0.12995413
-0.09560498 -1.6380028 0.0 0.0 0.0 -1.9326221 8.588799 57.875294
-0.60813624 -0.21112603 -5.938476 16.257982 -5.6342506 -55.963226 -0.66059434 3.550909
22.099724 0.0 0.0 0.0 -1.3799226 -0.4212715 4.057622 -1.4179639
8.4940405 56.61756 0.0 0.0 0.0 -0.555765 5.7603364 21.687288

exp_avg_sq f4 [64, 3]
00000000: f885 c242 9866 2144 6575 9346 6004 ae45
00000010: 3a57 0a46 064b ae48 467a 5345 dc95 8b46
00000020: 21f5 f249 4c83 3047 54a9 c847 6758 f14a
00000030: b686 7943 81e6 0744 fcdd 2245 335c a546
00000040: f070 0947 6570 e346 aee6 5046 2592 0047
00000050: 7978 1e4a f49b 0f48 924f 0c48 9a61 f148
00000060: 627e 0545 e8a6 1745 f650 6b47 3f69 bf42
00000070: fcf0 e742 eb6e 2045 38a2 f044 ab9a 0546
00000080: 4760 db45 be89 f447 1df1 0148 846c 9b48
00000090: dd8b f342 dea7 5944 0978 c047 7d18 b745
000000a0: 42f0 4b46 79a9 6a49 7ad0 2a46 fbac a946
000000b0: 9c1a a749 7e5e 9044 f992 1b45 d6a7 2648
000000c0: abc3 f646 d5ba f846 61ac 4548 731f ab2c
000000d0: cb8d a72a 58b7 2a30 0000 0000 0000 0000
000000e0: 0000 0000 ef58 da44 89a8 df44 ff7d 9b46
000000f0: fcce 6745 b83c 6e45 d2d4 0c47 144c 4642
00000100: 9df3 ef43 e38f a946 44b0 a945 6ea8 0746
00000110: ba19 bd48 0000 0000 0000 0000 0000 0000
00000120: e598 7f42 c48e 6644 d582 6e46 c6e8 b842
00000130: 6d19 9843 0b90 de43 0000 0000 0000 0000
00000140: 0000 0000 142e 3145 54bc ce44 b926 0d47
00000150: 0000 0000 0000 0000 0000 0000 2b99 dd43
00000160: 162c 0245 e9c7 f447 0000 0000 0000 0000
00000170: 0000 0000 f338 270f c5a4 8213 f338 270f
00000180: ad35 b544 32dc ba44 61c9 5646 b3af 7043
00000190: 9629 1444 4211 9043 6464 a642 2b90 0345
000001a0: f09f 7948 0000 0000 0000 0000 0000 0000
000001b0: 40df cc43 7265 1744 fdaf 1a46 bf07 1944
000001c0: a929 4644 487c d646 4278 8d42 e762 f044
000001d0: 3d7b 5f48 0000 0000 0000 0000 0000 0000
000001e0: 0000 0000 0000 0000 0000 0000 5e36 8943
000001f0: acb7 4445 dca9 d848 b6af 7b43 68a8 5245
00000200: 1b62 be48 d5ca e143 26ee 3341 e64e 8645
00000210: d006 5245 da85 4e45 34f5 fc46 73e7 5944
00000220: 4d40 d344 1177 d047 0000 0000 0000 0000
00000230: 0000 0000 d86e e242 36de 9d44 8f18 2948
00000240: d788 0340 90ec ff41 eb2f a446 33c0 fe42
00000250: 9eaf 1c44 d07c 1147 49f1 e441 e434 3c43
00000260: 267d a642 1356 2f45 5a82 7945 e5f1 f947
00000270: 24a9 9e44 3143 a844 3578 4148 0ed0 2041
00000280: a0e6 8d3f dd76 3643 0000 0000 0000 0000
00000290: 0000 0000 636f 2e45 e42c 8845 615b 0a48
000002a0: f3c5 1f41 5356 a440 80ce 1145 27e3 e447
000002b0: 17d1 d947 0c6f bc48 0e07 9444 770e a344
000002c0: b5e4 b346 0000 0000 0000 0000 0000 0000
000002d0: d81d b042 d615 3f43 e320 3346 c810 0b45
000002e0: 8767 6e45 dadd 0648 0000 0000 0000 0000
000002f0: 0000 0000 1c7d 0545 61a3 9c44 1354 fa46
97.26166 645.603 18874.697 5568.547 8853.807 356952.2 3383.642 17866.93
1.9903081e+06 45187.297 102738.66 7.9084035e+06 249.52621 543.6016 2605.874 21166.1
35184.938 29112.197 13369.67 32914.145 2.5963822e+06 147055.81 143678.28 494348.8
2135.899 2426.4316 60240.96 95.70556 115.97067 2566.9324 1925.0693 8550.667
7020.0347 125203.484 133060.45 318308.12 121.77317 870.6229 98544.07 5859.061
13052.064 961175.56 10932.119 21718.49 1.3689155e+06 1154.9529 2489.1858 170655.34
31585.834 31837.416 202417.52 4.863604e-12 2.9763548e-13 6.2106187e-10 0.0 0.0
0.0 1746.7792 1789.2667 19902.998 3708.9365 3811.795 36052.82 49.574295
479.90323 21703.943 5430.033 8682.107 387277.8 0.0 0.0 0.0
63.89931 922.2307 15264.708 92.454636 304.19864 445.12534 0.0 0.0
0.0 2834.88 1653.8853 36134.723 0.0 0.0 0.0 443.19662
2082.7554 125327.82 0.0 0.0 0.0 8.244704e-30 3.297909e-27 8.244704e-30
1449.6774 1494.8811 13746.345 240.68633 592.6498 288.13483 83.196075 2105.0105
255615.75 0.0 0.0 0.0 409.74414 605.5851 9899.997 612.12103
792.65094 27454.14 70.73488 1923.0907 228844.95 0.0 0.0 0.0
0.0 0.0 0.0 274.42474 3147.4795 443726.88 251.68637 3370.5254
389904.84 451.58463 11.245642 4297.8623 3360.4258 3304.3657 32378.602 871.6164
1690.0094 106734.13 0.0 0.0 0.0 113.21649 1262.9441 173154.23
2.055227 31.990509 21015.959 127.37539 626.744 37244.812 28.617815 188.2066
83.24443 2805.3796 3992.147 127971.79 1269.2856 1346.0997 198112.83 10.050795
1.1086006 182.46431 0.0 0.0 0.0 2790.9617 4357.6113 141677.52
9.985827 5.1355376 2332.9062 117190.305 111522.18 385912.38 1184.2205 1304.452
23026.354 0.0 0.0 0.0 88.05829 191.0853 11464.222 2225.0488
3814.4705 138103.4 0.0 0.0 0.0 2135.8193 1253.1056 32042.037
